savedmodels/checkpoint_1545158393_actor_episode117_score31.098.pth (torch_old, 169478 bytes, 6 tensors)

fc1.weight f4 [256, 33]
0	0xbc33c4e2	-0.0109722335
1	0xbcaafb91	-0.02087191
2	0xbd98dfdf	-0.07464575
3	0x3c3010b4	0.01074617
4	0xbca51bd0	-0.020154864
5	0x3e1bece3	0.15227084
6	0xbdb24c09	-0.08705909
7	0xbc8716dc	-0.016490392
8	0xbb37b872	-0.0028033522
9	0xbd8b4d9a	-0.06801911
10	0xbe071986	-0.1319333
11	0xbcda5862	-0.026653472
12	0xbd76cfa4	-0.060256615
13	0x3dbcb4c5	0.092141666
14	0x3e2b0eea	0.16704908
15	0x3e28b99b	0.16477053
16	0x3c582f70	0.013194904
17	0xbb8a5b41	-0.004222304
18	0xbcee09d2	-0.029057417
19	0xbd5a465e	-0.053289764
20	0xbcfe2338	-0.031022653
21	0x3d7c802a	0.061645664
22	0x3e13bb3c	0.14426893
23	0xbd87a25b	-0.06622764
24	0x3d6e1560	0.058125854
25	0xbd864f87	-0.065581374
26	0xbd8ccc9e	-0.06874965
27	0x3d9de8d4	0.07710424
28	0xbde90236	-0.11377375
29	0x3d012a70	0.031534612
30	0xbd340cbf	-0.043957468
31	0x3ce90074	0.028442599
32	0xbed5359d	-0.41642466
33	0xbdf59a83	-0.119923614
34	0xbdf0613e	-0.117372975
35	0xbd387235	-0.04503079
36	0x3dc5866d	0.0964478
37	0x3ddbc60c	0.10731134
38	0x3d7213b3	0.059100818
39	0x3c770114	0.015075941
40	0x3c8d8e44	0.017279752
41	0x3d97f1f2	0.07419194
42	0xbbaa9cf7	-0.0052067
43	0xbda781cb	-0.08179053
44	0x3e199119	0.14996757
45	0x3dc8d07b	0.098053895
46	0x3b74f52c	0.003737758
47	0x3dceb958	0.10093945
48	0xbdaa5305	-0.08316616
49	0x3db7e845	0.08979849
50	0x3d457452	0.048206635
51	0xbc6ee66d	-0.014581305
52	0xbc413540	-0.011792481
53	0xbc45bf83	-0.012069586
54	0xbca3e777	-0.020007832
55	0xbb21dcc5	-0.002469824
56	0x3c710f30	0.014713094
57	0xbc7bff80	-0.01538074
58	0x3cc4f1c8	0.024041072
59	0xbd99e19c	-0.07513735
60	0xbc82d4b5	-0.015970567
61	0x3e4b89b7	0.19876753
62	0xbd715bca	-0.058925427
63	0x3ce23a3e	0.027615663
64	0x3d544e1a	0.051832296
65	0xbe4f8053	-0.20263796
66	0xbe0fbd67	-0.14037095
67	0xbc29ab78	-0.010355823
68	0xbc214263	-0.009842488
69	0x3d9b3ac0	0.07579565
70	0x3d6faa9e	0.058512323
71	0xbd84af10	-0.06478703
72	0x3d760f59	0.06007323
73	0xbd8e1e37	-0.06939357
74	0x3d48515b	0.04890571
75	0xbd857214	-0.06515899
76	0xbd97e97a	-0.07417579
77	0x3bbf4d39	0.005838063
78	0x3d269fa6	0.040679596
79	0xbd98ce86	-0.07461266
80	0x3d576bf5	0.05259319
81	0x3ce4d13f	0.027931808
82	0x3debb92c	0.11509928
83	0x3ce5d317	0.028054757
84	0x3b89b2f4	0.004202241
85	0x3d04dc37	0.032436576
86	0xbd1cb294	-0.038256243
87	0x3d493241	0.04912019
88	0x3d9f1b9a	0.077689365
89	0xbe0429f3	-0.12906627
90	0x3bcb6529	0.0062071276
91	0xbbaad916	-0.005213867
92	0xbe130a64	-0.14359432
93	0xbcf1727b	-0.029473534
94	0xbd079b4b	-0.033107083
95	0x3d064128	0.03277698
96	0xbd066377	-0.0328097
97	0xbd12a17c	-0.035798535
98	0xbe08d21c	-0.133614
99	0x3c2fe0d4	0.010734756
100	0xbcb77be4	-0.022397943
101	0x3cac9105	0.021065244
102	0xbd80c7e7	-0.06288128
103	0x3c89c721	0.016818585
104	0x3d49d2b5	0.04927321
105	0x3dc957a7	0.098311715
106	0xbdcd490a	-0.10023697
107	0xbdcc44e5	-0.09974078
108	0xbc913240	-0.017724156
109	0xbce0918e	-0.027413156
110	0xbdd9167a	-0.1059999
111	0x3d458866	0.048225783
112	0xbd70cc3d	-0.058788527
113	0xbe3c38e2	-0.18381074
114	0x3caa7eb8	0.020812377
115	0x3d5c5530	0.05379218
116	0x3da498ad	0.08036933
117	0x3d1dc2a2	0.038515694
118	0xbc24682f	-0.010034605
119	0xbe329d84	-0.174429
120	0x3d93d6fa	0.07218738
121	0xbd0af26d	-0.0339226
122	0xbd2bbe82	-0.04192973
123	0xbd1223eb	-0.035678785
124	0xbd65f5cd	-0.056142617
125	0x3e18d83b	0.14926235
126	0x3cd2ba9e	0.025723752
127	0xbd7b7271	-0.061388437
128	0xbd63518c	-0.05549769
129	0x3b7d6e30	0.0038670413
130	0xbd34cd38	-0.044141024
131	0x3e0a03bd	0.13477989
132	0x3b2d5363	0.0026447407
133	0xbd7b9a0c	-0.061426207
134	0x3d902ce9	0.07039816
135	0xbb4a3ea8	-0.00308601
136	0x3d48533a	0.048907496
137	0xbd4f9530	-0.050679386
138	0x3e13e2dd	0.1444201
139	0xbd021a17	-0.031763162
140	0xbda306b6	-0.079602644
141	0x3d8cfb99	0.06883926
142	0xbc8c7304	-0.017144687
143	0xbd79ca82	-0.060984142
144	0xb97d8f33	-0.00024181306
145	0xbcdc8dc5	-0.02692307
146	0x3e055ec2	0.13024428
147	0xbca1e97f	-0.01976466
148	0x3b8b04b1	0.0042425026
149	0xbc3d42b8	-0.0115515515
150	0x3e21c049	0.15796007
151	0x3ccfe9eb	0.025380095
152	0xbccde203	-0.025132185
153	0x3c83c65c	0.016085796
154	0xbcd38c28	-0.025823668
155	0x3cd9cdc3	0.026587373
156	0x3dcff236	0.1015362
157	0xbe0157c2	-0.12631133
158	0x3deb5a4f	0.11491834
159	0xbe45adc9	-0.19304575
160	0x3c689dab	0.014197747
161	0x3c374fb8	0.01118844
162	0x3e5199f9	0.20468892
163	0x3d74a828	0.05973068
164	0xbedfbae8	-0.43697286
165	0x3d1d9769	0.038474474
166	0x3e04c76f	0.12966703
167	0xbe5a76df	-0.21334408
168	0xbcc6e0ab	-0.024277052
169	0x3dcf66b6	0.101270124
170	0x3b83e0d6	0.0040246053
171	0xbda68452	-0.08130707
172	0x3dcf18cf	0.10112154
173	0x392f7a48	0.00016734854
174	0x3c7db395	0.01548471
175	0x3c0bcf0c	0.008533251
176	0xbcd10579	-0.025515305
177	0xbdaa803f	-0.08325242
178	0xbce6166b	-0.028086862
179	0xbde6cad5	-0.11269156
180	0x3d5a2090	0.05325371
181	0xbd7c0247	-0.06152561
182	0xbd33d060	-0.043899894
183	0xbdba7e94	-0.09106174
184	0xbba6c20e	-0.005089051
185	0xbe1e7dcb	-0.15477674
186	0xbda8533a	-0.08218999
187	0xb9e84880	-0.00044304505
188	0x3cc57c0c	0.024107002
189	0xbcbf4736	-0.023349386
190	0x3da04fb6	0.07827704
191	0xbdce688d	-0.10078535
192	0x3d0f6c33	0.035015296
193	0x3e0a3823	0.13497977
194	0x3cbf8ce8	0.023382619
195	0xbd34ffdf	-0.04418933
196	0x3c824cb4	0.015905716
197	0x3de3ba1b	0.11119481
198	0xbdbd44b2	-0.09241618
199	0x3c2681b2	0.010162758
200	0x3bb49b26	0.005511659
201	0x3d809ff8	0.062805116
202	0x3d0d08da	0.03443227
203	0x3d26b61d	0.04070102
204	0x3e0c0ea8	0.13677466
205	0xbc12ee68	-0.008967973
206	0x3c8cb0ab	0.017174086
207	0x3d6d892b	0.05799214
208	0x3d67d34d	0.056597997
209	0xbba67553	-0.005079904
210	0xbd448f88	-0.047988445
211	0xbd9c7453	-0.076393746
212	0x3dbd2e2c	0.09237322
213	0xbddeeb5e	-0.108847365
214	0x3dd100fb	0.10205265
215	0x3dc9abca	0.09847219
216	0x3d8787a1	0.06617666
217	0x3d4818f2	0.048851915
218	0x3dff58c2	0.12468101
219	0xbd4365d1	-0.04770452
220	0xbdd3e977	-0.10347264
221	0x3d0d72da	0.03453336
222	0x3d234e36	0.03986951
223	0xbe39d5c9	-0.18147959
224	0x3da09432	0.07840766
225	0x3a9a0d08	0.0011753151
226	0xbcd66b2f	-0.026174156
227	0x3d22ba90	0.0397287
228	0xbd6d1d1e	-0.057889096
229	0x3c468038	0.012115531
230	0xbe7180bb	-0.23584263
231	0x3cd0b479	0.025476681
232	0x3dbfce3f	0.0936551
233	0x3bef5bb3	0.0073046326
234	0x3d08dc96	0.033413492
235	0xbb43a627	-0.0029853673
236	0xbd6e2ee4	-0.058150187
237	0xbc3075a0	-0.0107702315
238	0x3d9da268	0.07696992
239	0xbdd83dc3	-0.10558655
240	0xbc7aeb77	-0.015314928
241	0x3d814589	0.06312091
242	0x3cc28f54	0.023749985
243	0x3a1a5087	0.00058866333
244	0x3e5e1cc6	0.21690664
245	0x3b77a4be	0.0037787403
246	0xbdc34271	-0.09534157
247	0x3c4c6167	0.012474394
248	0x3b2b1117	0.0026102716
249	0x3c80873e	0.015689489
250	0x3d65d756	0.056113563
251	0xbb801f17	-0.003909956
252	0xbd891064	-0.066925794
253	0xbd41e063	-0.047333132
254	0x3e19ee09	0.1503221
255	0x3b44e50e	0.0030043754

fc1.bias f4 [256]
0	0x3d2cb907	0.042168643
1	0x3e4f145e	0.20222613
2	0xbcc5b159	-0.024132418
3	0x3de6951f	0.11258911
4	0x3e19e12a	0.150273
5	0xbe527b35	-0.20554812
6	0xbe2824b3	-0.1642025
7	0xbded452c	-0.11585459
8	0x3d5ce4c2	0.053929098
9	0x3da129f9	0.07869334
10	0xbddd29b6	-0.10798971
11	0x3d43030b	0.047610324
12	0x3cbb5be1	0.02287096
13	0x3d37889c	0.044808015
14	0x3e2b9fc0	0.16760159
15	0x3d23ce3e	0.03999161
16	0xbdd53de9	-0.10412199
17	0xbcccd4c7	-0.025003804
18	0x3e446bdd	0.19181772
19	0xbd7394a6	-0.059467934
20	0x3c5d13bf	0.013493477
21	0x3e142624	0.14467674
22	0xbd618228	-0.055055767
23	0xbd4cd9f3	-0.05001254
24	0x3dc5b429	0.096535034
25	0xbdaae6a4	-0.083447725
26	0x3c18090d	0.009279502
27	0x3d530397	0.051517095
28	0x3cd41d22	0.025892798
29	0x3e0ec990	0.13944077
30	0x3dd5eedc	0.104459494
31	0xbdfdd331	-0.12393797
32	0xbe45d5a3	-0.19319777
33	0x3d5b6c8c	0.053570315
34	0xbd097cfd	-0.033566464
35	0xbd5be92b	-0.053689163
36	0x3e3fa18c	0.18713969
37	0x3dd3e429	0.103462525
38	0xbd439df2	-0.04775805
39	0x3e2f85a6	0.17140827
40	0xbcbccb56	-0.023046177
41	0xbdadaeb0	-0.084805846
42	0x3bdfcab6	0.006829585
43	0xbd501e21	-0.050809983
44	0xbdd6844c	-0.104744524
45	0xbd71f730	-0.059073627
46	0x3e362317	0.17786823
47	0x3dc4956f	0.09598815
48	0x3e2ebf44	0.1706515
49	0xbdc4a870	-0.096024394
50	0xbd99cc05	-0.07509617
51	0x3e355c8a	0.17711082
52	0xbd944b2a	-0.07240899
53	0xbc9681a2	-0.01837236
54	0xbde4fe39	-0.111813016
55	0x3e185e17	0.14879642
56	0xbd7b2011	-0.061309878
57	0x3d572b9e	0.05253183
58	0x3d251071	0.040298883
59	0x3b9bcb7d	0.0047544823
60	0xbdcc0968	-0.099627316
61	0x3e1c855e	0.1528525
62	0xbd8b538d	-0.068030454
63	0x3c876366	0.016526889
64	0xbdd7b72c	-0.10532984
65	0x3bc2f2e4	0.005949365
66	0x3e0d5772	0.13802889
67	0x3e34a8a6	0.1764246
68	0x3d1eb05e	0.038742416
69	0xbb8c2207	-0.0042765173
70	0x3df1bcd9	0.11803598
71	0x3de3a339	0.111151166
72	0xbd708286	-0.058718227
73	0xbd2170b4	-0.039414123
74	0x3d7146d8	0.058905452
75	0x3e4361e2	0.19080308
76	0x3cdea1e4	0.027176805
77	0x3d29f108	0.04148963
78	0x3e716978	0.2357539
79	0xbdd5b098	-0.10434073
80	0x3bfd6cfd	0.0077339397
81	0x3de809d6	0.11330001
82	0x3c87f1dd	0.016594822
83	0xbb62e25f	-0.003461979
84	0x3e00a40f	0.12562583
85	0xbdfac7ae	-0.12245117
86	0x3dd5bce7	0.10436421
87	0x3d8b6f41	0.068083294
88	0x3e33262f	0.17495035
89	0x3d98964b	0.07450541
90	0x3e14e138	0.14539039
91	0xbc82461f	-0.015902577
92	0x3d0b3a43	0.03399111
93	0xbd8355f9	-0.06412882
94	0xbe3791f8	-0.17926776
95	0x3db89313	0.09012427
96	0x3e1e8d74	0.15483648
97	0xbd1c89e3	-0.038217437
98	0x3dc6d10d	0.09707842
99	0x3c00ef87	0.007869608
100	0x3dd64ede	0.104642615
101	0xbe1b4ab1	-0.15165211
102	0x3dc9cb0e	0.09853183
103	0xbd8e4047	-0.06945854
104	0xbe0f7a50	-0.14011502
105	0x3e69040e	0.22755453
106	0xbd319263	-0.043352496
107	0x3cc94549	0.02456917
108	0xbbb587d6	-0.0055398745
109	0xbe116f6b	-0.14202659
110	0x3e500d02	0.20317462
111	0x3deed2a5	0.11661271
112	0xbd3b2bcb	-0.04569606
113	0xbcc1352f	-0.02358493
114	0x3ccf3fd6	0.025298994
115	0xbd1c0151	-0.038087193
116	0x3d839a7b	0.06425949
117	0xbe133df4	-0.14379102
118	0xbd32a7aa	-0.04361693
119	0xbd2a38b3	-0.04155798
120	0x3e20d517	0.15706287
121	0x3bb98475	0.005661542
122	0x3e23fe44	0.16014963
123	0xbd80a7d9	-0.062820144
124	0xbdfe16ac	-0.12406668
125	0x3e149da0	0.14513254
126	0x3e04882c	0.1294257
127	0x3d3ab6ba	0.045584418
128	0x3bc5be6d	0.0060346634
129	0x3e32834f	0.17432903
130	0xbdab53db	-0.083656035
131	0xbe2bc937	-0.16775976
132	0x3dee36d9	0.11631555
133	0x3e21c525	0.15797861
134	0x3da71ac5	0.08159403
135	0xbcd0c494	-0.02548436
136	0xbe1f5920	-0.15561342
137	0x3d63f0d4	0.055649593
138	0xbe5449e0	-0.20731306
139	0xbe2c8968	-0.16849291
140	0x3e2bab14	0.1676448
141	0xbe1a4ff4	-0.15069562
142	0xbe23eaf3	-0.16007595
143	0xbd46a310	-0.048495352
144	0x3df4a134	0.119448096
145	0xbde88216	-0.11352937
146	0x3d743e5a	0.059629776
147	0x3bab41ce	0.0052263504
148	0x3daf87ca	0.085708216
149	0x3e23fe09	0.16014875
150	0x3da7b445	0.081886806
151	0x3bb08e64	0.005388068
152	0x3bf3b9e2	0.0074379304
153	0x3e0a8bd1	0.13529898
154	0x3e309408	0.1724397
155	0xbd05157e	-0.0324912
156	0x3db5c4f3	0.08875456
157	0x3bc6e602	0.0060698995
158	0x3dabd13d	0.083895184
159	0xbe52023f	-0.2050867
160	0x3c0b8451	0.008515433
161	0xbdfa0ef0	-0.1220988
162	0xbd8687c2	-0.065688625
163	0xbe855217	-0.26039192
164	0x3d4e7884	0.0504079
165	0xbde5144b	-0.11185511
166	0x3cca5f9f	0.024703799
167	0xbce6cc2e	-0.028173532
168	0x3d6549a9	0.05597845
169	0x3df1fbaa	0.11815579
170	0xbd925fbf	-0.07147168
171	0x3e05a5ab	0.13051479
172	0x3e8f8971	0.28034547
173	0x3e06b098	0.13153303
174	0x3d973772	0.07383622
175	0x3e091321	0.13386203
176	0x3e576e27	0.21038114
177	0xbd4f123f	-0.05055451
178	0x3e154bf1	0.1457975
179	0xbdd58577	-0.10425847
180	0xbc482385	-0.0122155
181	0x3e252001	0.1612549
182	0xbd5235a9	-0.051320706
183	0x3cb3eb33	0.021962738
184	0x3d3e3e7f	0.04644632
185	0x3e340b7e	0.17582509
186	0xbcb13ccb	-0.021635434
187	0xbd4d53b6	-0.05012866
188	0x3de69935	0.11259691
189	0x3d90af8f	0.07064735
190	0xbd3ba6ba	-0.0458133
191	0x3defdc05	0.11711887
192	0x3dfbde8d	0.122983076
193	0x3e3187b4	0.17336923
194	0x3e5c6eaf	0.21526597
195	0x3cf8e5ef	0.030383078
196	0xbd8df13d	-0.06930778
197	0xbcda5270	-0.026650637
198	0x3d691d27	0.056912567
199	0xbc595c69	-0.013266661
200	0xbc8f21c5	-0.017472157
201	0x3dc0cad6	0.09413688
202	0x3c90278c	0.017596982
203	0xbce22452	-0.02760521
204	0xbcd3885e	-0.02582186
205	0xbb92c056	-0.0044784946
206	0x3e0d3e1e	0.13793227
207	0x3c3e4bb2	0.011614727
208	0xbd8c56ab	-0.06852468
209	0xbcdc9611	-0.026927026
210	0x3e581f7b	0.21105759
211	0x3db8c037	0.09021037
212	0x3e158442	0.14601234
213	0x3d89f723	0.06736591
214	0x3c96d279	0.018410908
215	0x3d599b82	0.05312682
216	0x3da9fbde	0.08299993
217	0x3d94fca6	0.07274751
218	0x3df90372	0.1215886
219	0x3e0e80fc	0.13916391
220	0x3dde2986	0.10847764
221	0xbd9ad900	-0.07560921
222	0xbcb5fa5f	-0.022214113
223	0xbe6ed7c3	-0.23324494
224	0x3e35f67d	0.17769809
225	0xbdc98b0d	-0.09840975
226	0xbdab67db	-0.08369418
227	0xbd4a7234	-0.04942532
228	0x3cfc0b57	0.030767126
229	0x3c3890b3	0.011264968
230	0xbdd7fdef	-0.10546481
231	0x3d911519	0.07084102
232	0xbe347cef	-0.17625783
233	0xbe4f948e	-0.20271513
234	0x3e11d56e	0.14241573
235	0xbba6613f	-0.0050775106
236	0x3d81673d	0.06318519
237	0xbc9770c3	-0.018486386
238	0x3d69de31	0.057096664
239	0xbdc44028	-0.09582549
240	0xbd6752b7	-0.056475367
241	0xbe141f2d	-0.14465018
242	0x3dda48aa	0.10658391
243	0x3c22ce79	0.009936922
244	0x3df88a53	0.12135758
245	0x3dda7000	0.106658936
246	0x3c4a9242	0.012363972
247	0x3d7a5002	0.061111458
248	0x3e1b2e99	0.15154494
249	0xbd7c7c6f	-0.061642107
250	0x3e6d7838	0.23190391
251	0xbd993ff9	-0.07482905
252	0x3d969862	0.073532835
253	0xbd39a372	-0.04532189
254	0x3d94f645	0.07273535
255	0x3dce4458	0.10071629

fc2.weight f4 [128, 256]
0	0xbdc72b35	-0.09725038
1	0x3df9c44d	0.121956445
2	0xbcc00021	-0.023437561
3	0xbc0c0ae8	-0.008547522
4	0xbe2bb451	-0.16768004
5	0xbda2e13a	-0.07953115
6	0x3df7aece	0.12093888
7	0x3c744bb0	0.014910623
8	0x3d25836c	0.040408537
9	0x3e38d64b	0.18050496
10	0x3dfec788	0.12440401
11	0x3e02e0f1	0.12781121
12	0x3e091f61	0.13390876
13	0x3b761f40	0.0037555248
14	0xbe6dae47	-0.23211013
15	0x3b4b83fd	0.0031054013
16	0x3d9fb62e	0.0779842
17	0xbce941b8	-0.02847372
18	0xbd9a5e73	-0.07537546
19	0x3cd42de3	0.025900787
20	0x3e113293	0.14179449
21	0x3dbffd43	0.09374478
22	0x3d923ea6	0.071408555
23	0x3e4fc04c	0.20288199
24	0xbe57d376	-0.2107676
25	0xbddd7bc9	-0.10814626
26	0xbc2aeae9	-0.0104319835
27	0xbe4aa72f	-0.19790338
28	0xbd906483	-0.07050421
29	0x3dedb5d3	0.11606946
30	0xbd133468	-0.03593865
31	0x3e611163	0.21979289
32	0x3e03a0ba	0.12854281
33	0xbc67ce76	-0.014148345
34	0xbdd7f7f1	-0.10545338
35	0xbc937740	-0.018001199
36	0x3d59a4d1	0.053135697
37	0xbdff9614	-0.12479797
38	0xbad4fed1	-0.0016250258
39	0x3db250d6	0.087068245
40	0xbe32ab7e	-0.17448232
41	0xbec93bae	-0.39303344
42	0x3d326518	0.04355344
43	0x3d29abae	0.041423492
44	0xbda1e78e	-0.07905494
45	0x3da63451	0.08115447
46	0x3c666440	0.014061987
47	0x3d77721b	0.060411554
48	0x3c29fb5d	0.010374871
49	0x3d81546d	0.06314931
50	0x3d540b77	0.051768746
51	0x3c265614	0.010152359
52	0xbe2910fa	-0.16510382
53	0xbdb181ce	-0.086673364
54	0x3d06d89c	0.03292142
55	0x3e3ce90d	0.18448277
56	0xbde70e33	-0.11282005
57	0xbdd726eb	-0.1050547
58	0x3d870259	0.06592245
59	0xbbbf3aed	-0.005835882
60	0xbda1539e	-0.07877277
61	0x3d95eafb	0.073202096
62	0x3d1164b9	0.035496447
63	0x3d9a385a	0.075302795
64	0x3e2c0fdd	0.16802926
65	0xbdf69081	-0.12039281
66	0x3df5c9a6	0.12001352
67	0x3dacff79	0.08447165
68	0x3d0c3855	0.03423341
69	0xbd1abb0f	-0.03777605
70	0x3da749bb	0.0816836
71	0x3d412032	0.047149844
72	0x3d2aa745	0.041663427
73	0x3e4c54ab	0.19954173
74	0xbd9776b2	-0.07395686
75	0x3de98e66	0.114041135
76	0xbd990079	-0.07470793
77	0x3dcf167c	0.101117104
78	0x3d9bc076	0.076050684
79	0x3de4f033	0.11178627
80	0xbe2b2cfd	-0.1671638
81	0x3b710a27	0.0036779733
82	0x3dfa3d60	0.122187376
83	0x3db0bbb4	0.086295515
84	0x3c2a7526	0.010403907
85	0x3c30ded0	0.01079531
86	0xbcbcd441	-0.02305043
87	0x3e2ed453	0.17073183
88	0x3c505170	0.012714729
89	0xbde76c56	-0.1129996
90	0x3d0e0a41	0.034677748
91	0x3d7eacdb	0.062176567
92	0x3d29e692	0.041479655
93	0x3c938ae4	0.018010564
94	0xbded6b89	-0.11592776
95	0xbd891f14	-0.06695381
96	0x39681d98	0.00022136269
97	0x3d976caf	0.073937766
98	0x3d162928	0.036660343
99	0x3d39b240	0.045336008
100	0xbd0ebb57	-0.03484663
101	0x3dabdbfb	0.08391567
102	0x3c9101ae	0.017700996
103	0x3d5127e5	0.051063437
104	0x3df0b3b3	0.11753025
105	0x3dc19894	0.0945293
106	0x3dafd886	0.085862204
107	0x3e337177	0.17523752
108	0x3cd2c6ee	0.025729623
109	0x3dc6924b	0.09695872
110	0x3ce8f15d	0.028435403
111	0x3dc6bae8	0.09703618
112	0xbcd9d403	-0.026590353
113	0x3df4ed71	0.11959351
114	0x3c8c6fde	0.017143186
115	0x3cf3c745	0.029758105
116	0x3deab98a	0.1146117
117	0x3d448419	0.04797754
118	0xbd528841	-0.051399473
119	0xbc076db5	-0.008265902
120	0x3d32f774	0.04369302
121	0x3dc2c460	0.09510112
122	0xbdbed262	-0.09317471
123	0x3a4551cd	0.0007527143
124	0xbd44b057	-0.048019733
125	0x3cb4396c	0.022000037
126	0x3d061b54	0.032740906
127	0x3e4c260f	0.19936393
128	0xbdcbf883	-0.09959509
129	0xbd364e4c	-0.044508263
130	0xbbb67fca	-0.005569433
131	0x3d8b3c81	0.067986496
132	0x3d3de91b	0.046364885
133	0xbda3132d	-0.07962642
134	0xbdcdbac8	-0.10045391
135	0x3e298652	0.16555145
136	0x3e337db4	0.1752842
137	0x3e873584	0.26408017
138	0x3d98a294	0.07452884
139	0x3d979d42	0.074030414
140	0xbce8dc89	-0.028425472
141	0x3daca7b0	0.08430421
142	0x3d9348ce	0.07191621
143	0x3cb9c7c9	0.022678273
144	0x3dcee9e3	0.10103204
145	0xbe33aed3	-0.17547159
146	0xbdcb88b5	-0.09938184
147	0xbde3fdc6	-0.11132388
148	0xbd3fa158	-0.04678473
149	0x3dc1b3c0	0.09458113
150	0xbdc672cc	-0.096898645
151	0xbccea73a	-0.025226224
152	0xbe24eab9	-0.16105165
153	0x3e65aefe	0.22430035
154	0x3cad2a7e	0.021138426
155	0x3d50962a	0.050924458
156	0xbd4fa776	-0.050696813
157	0x3e264ac2	0.16239455
158	0xbc94fe80	-0.018187761
159	0x3e15ff01	0.14648058
160	0xbdf05cc1	-0.117364414
161	0xbd04418b	-0.03228907
162	0xbcebbb02	-0.028775696
163	0x3e8864e1	0.26639464
164	0xbdbe2435	-0.0928425
165	0x3e51cd18	0.20488393
166	0xbb8099bf	-0.003924578
167	0x3d82b1d3	0.063815735
168	0xbdd951be	-0.10611294
169	0xbd7a1edb	-0.061064582
170	0xbe03c58d	-0.12868328
171	0x3c8f497e	0.017491098
172	0x3dabae3e	0.083828434
173	0xbe09398e	-0.13400862
174	0x3d4f3324	0.05058588
175	0x3d86e363	0.06586339
176	0x3e076609	0.13222517
177	0x3e18fd97	0.14940487
178	0x3e425bd1	0.18980338
179	0x3dece545	0.11567167
180	0xbd203a84	-0.039118305
181	0x3dbb0269	0.09131319
182	0xbbc2a566	-0.005940127
183	0xbe21dd62	-0.15807107
184	0xbbc06d1e	-0.005872383
185	0xbcae630f	-0.02128747
186	0x3d711683	0.05885936
187	0x3d3f100c	0.046646163
188	0xbd1cde88	-0.03829816
189	0x3b52ef63	0.0032186143
190	0x3e2c95d8	0.16854036
191	0x3d3ba695	0.045813162
192	0x3e36714b	0.17816655
193	0xbcc460f0	-0.023972005
194	0xbd823c64	-0.06359175
195	0x3bd12c58	0.00638346
196	0xbd53a562	-0.051671393
197	0xbddc2871	-0.10749901
198	0x3e06528e	0.1311743
199	0xbe56f2a9	-0.20991005
200	0xbd48b5fc	-0.04900168
201	0x3b9f88e4	0.0048686136
202	0x3d917d1c	0.07103941
203	0x3d90133e	0.0703492
204	0x3e4fdf2d	0.20299979
205	0x3dd7e51d	0.10541747
206	0xbd4564ae	-0.04819172
207	0xbe45abd6	-0.19303831
208	0xbdf9903a	-0.12185712
209	0xbc5d5779	-0.013509625
210	0xbd7cd723	-0.061728608
211	0x3e5c0d9a	0.21489564
212	0x3d8b4d87	0.068018965
213	0xbd3558d3	-0.044274163
214	0xbe89f36d	-0.26943532
215	0x3db3ca96	0.087788746
216	0x3c3a404d	0.01136787
217	0x3d1716d1	0.036886994
218	0x3bfbbf2b	0.007682701
219	0xbcfe2e8c	-0.031028055
220	0x3d756b16	0.05991658
221	0x3e1d2aba	0.1534833
222	0xbdff8124	-0.124758035
223	0xbb103443	-0.0022003807
224	0x3db3389b	0.08751031
225	0xbdecf234	-0.11569634
226	0xbcdba414	-0.026811637
227	0x3e072b3c	0.13200086
228	0x3cded410	0.027200729
229	0xbd88fc30	-0.06688726
230	0x3dd522c8	0.104070246
231	0x3e12ad38	0.1432389
232	0x3dcaee44	0.09908727
233	0x3e3275de	0.17427775
234	0xbe0cae5e	-0.13738391
235	0x3e14358c	0.14473552
236	0x3d9da550	0.076975465
237	0xbd362be4	-0.04447545
238	0xbdc6a092	-0.09698595
239	0x3d8ea901	0.06965829
240	0x3ddab696	0.10679357
241	0xbe036602	-0.12831882
242	0x3b254803	0.0025219924
243	0xbc2e1f61	-0.0106275985
244	0x3b61c454	0.0034449296
245	0xbdc71e8e	-0.09722625
246	0xbda9a099	-0.08282585
247	0xbdae5b6f	-0.08513533
248	0xbc914c82	-0.017736677
249	0xbc93f8c9	-0.018062966
250	0x3cc6be90	0.02426079
251	0x3d352cf6	0.04423233
252	0x3d5987ba	0.053107955
253	0x3d6dc3e1	0.058048133
254	0x3e3f95d5	0.187095
255	0x3de92b8c	0.11385259

fc2.bias f4 [128]
0	0x3d3982d9	0.0452908
1	0x3d0a4f73	0.033767175
2	0xbd3e1659	-0.04640803
3	0x3d05e5b6	0.032689773
4	0xbd556ebe	-0.052107565
5	0x3d194fa3	0.037429463
6	0xbc836a01	-0.016041758
7	0x3bb8bed0	0.005637981
8	0xbbc2f1cc	-0.0059492346
9	0xbb0b699a	-0.002127266
10	0x3d1470a0	0.03624022
11	0xbd8ed1f5	-0.0697364
12	0xbcb1b332	-0.021691892
13	0x3ca3e484	0.020006426
14	0xbd1b01e9	-0.03784362
15	0x3d58c274	0.05291982
16	0x3d039d36	0.03213235
17	0x3d9e7ec1	0.0773902
18	0xbd15ef2f	-0.036605056
19	0xbca35d93	-0.01994208
20	0xbcfb9fcc	-0.030715846
21	0xbcc41fc0	-0.02394092
22	0xbd463bdf	-0.04839694
23	0xbb66e1e8	-0.0035229865
24	0xbd03289c	-0.03202115
25	0xbbae6fb0	-0.005323373
26	0xbd3d47f5	-0.0462112
27	0x3d247774	0.040152982
28	0x3ca48a1e	0.02008539
29	0xbba5db43	-0.0050615384
30	0x3b2e3e12	0.002658729
31	0xbc97a3d3	-0.018510735
32	0xbd5d3b6c	-0.054011747
33	0xbd15a532	-0.036534496
34	0xbd82b305	-0.063818015
35	0xbbe0528f	-0.0068457793
36	0xbd0020f6	-0.031281434
37	0xbd3c8946	-0.04602935
38	0xbcd7dde7	-0.026350928
39	0xbc1baaf1	-0.009501205
40	0x3d3738a7	0.044731762
41	0xbcca5dfb	-0.024703017
42	0x3d2a83be	0.041629545
43	0xbcef704c	-0.029228352
44	0xbca72df9	-0.020407664
45	0x3d6d9b3c	0.05800937
46	0x3d00adf8	0.03141591
47	0xbc12e646	-0.008966034
48	0x3d55f8e3	0.05223931
49	0x3daa28ba	0.08308549
50	0x3ba03e35	0.004890228
51	0xbd43a923	-0.047768723
52	0x3bd2bfbc	0.006431548
53	0xbd188bfc	-0.037242875
54	0xbc67574a	-0.014119932
55	0x3db80805	0.089859046
56	0xbc8d485c	-0.017246418
57	0x3b8b8071	0.004257255
58	0x3d942c6e	0.07235037
59	0x39ca0eeb	0.00038539557
60	0x3caaf99c	0.020870976
61	0x3d35249a	0.04422436
62	0x3cb24a83	0.021764046
63	0x3d96a65e	0.07355951
64	0xbdb3b120	-0.08774018
65	0x3cc5d8f5	0.024151305
66	0x3bfc287a	0.007695255
67	0x3bb9ba69	0.005667974
68	0x3baff7b2	0.0053701038
69	0x3d63645d	0.055515636
70	0x3cb3431c	0.021882586
71	0x3d8bd500	0.06827736
72	0x3d12e5ec	0.0358638
73	0x3d74ff3a	0.059813716
74	0xbb9472ed	-0.004530302
75	0x3d52619c	0.05136262
76	0xbd548a26	-0.05188956
77	0x3ce0ebbf	0.027456162
78	0x3d4b9f0d	0.04971223
79	0x3cbfc20f	0.023407964
80	0xbd0b0d4d	-0.03394823
81	0x3b6c7623	0.0036081157
82	0x3d4ebbdc	0.050472125
83	0x3af7ad6e	0.001889629
84	0xbcd18750	-0.025577217
85	0xbd0cc548	-0.03436783
86	0x3c264cf3	0.010150182
87	0x3d06f4a1	0.03294814
88	0x3cea1425	0.028574059
89	0x3d14efb1	0.0363614
90	0x3d9adbf6	0.075614855
91	0x3c4c11ac	0.012455385
92	0xbc1862d4	-0.009300906
93	0xbd47ab6a	-0.048747458
94	0xbcf85cc4	-0.030317672
95	0xbb7bb00c	-0.0038404493
96	0x3a7a4b66	0.00095479784
97	0x3d6c5164	0.057694808
98	0x3c4beaff	0.012446164
99	0x3c01bf12	0.00791909
100	0xbd4e3c44	-0.050350443
101	0x3d018cda	0.031628467
102	0xbc0236b9	-0.007947617
103	0xbcaab9d8	-0.02084057
104	0x3d2e4869	0.042549524
105	0x3cbc9336	0.023019414
106	0xbd5a9622	-0.053365834
107	0x3db8f3ab	0.09030851
108	0x3d6b1360	0.057391524
109	0xb7fc74ca	-3.0095125e-05
110	0xbc6cb805	-0.014448171
111	0xbd601c34	-0.054714397
112	0x3d98e119	0.07464809
113	0xbbe6c823	-0.007042901
114	0x3d8ba8e4	0.06819323
115	0x3cb963bd	0.022630567
116	0x3dae05b7	0.08497184
117	0x3c97ce53	0.018531
118	0x3ce262f5	0.027635077
119	0x3ca8d309	0.020608442
120	0xbd9f8522	-0.07789065
121	0x3d0e93c3	0.034808885
122	0xbc947fc3	-0.018127328
123	0x3d687415	0.05675133
124	0xbd56f123	-0.05247606
125	0xbd964c9e	-0.07338832
126	0xbd03cc7d	-0.032177437
127	0xbd24826e	-0.04016345

fc3.weight f4 [4, 128]
0	0x3e7e1214	0.24811584
1	0xbe8d7ae1	-0.27632812
2	0xbe456577	-0.19276987
3	0x3dfd1ada	0.12358637
4	0xbe9c8c75	-0.3057591
5	0xbdd60a84	-0.104512244
6	0x3e272125	0.16321237
7	0x3e5e1fc8	0.21691811
8	0x3d88689e	0.06660579
9	0xbecb2d2a	-0.39682895
10	0x3d418fc9	0.047256265
11	0x3e68116a	0.22662893
12	0x3daad9ac	0.08342299
13	0x3ee7b3e4	0.45254433
14	0x3c86acb6	0.016439777
15	0x3e8d0961	0.27546218
16	0xbd0c24ed	-0.034214903
17	0x3cc40b16	0.023931067
18	0x3e7d8413	0.24757414
19	0x3d81fb63	0.06346776
20	0x3df6783f	0.12034654
21	0x3dd66df6	0.10470192
22	0xbda0c38f	-0.078498
23	0xbd22d66f	-0.03975528
24	0x3d81ce22	0.06338145
25	0xbc88aa61	-0.016682805
26	0xbd3b58a9	-0.04573885
27	0x3c54b035	0.012981464
28	0xbe3f43b0	-0.18678164
29	0x3e7eacbe	0.24870583
30	0x3d349d37	0.044095244
31	0x3d5d103a	0.053970553
32	0xbc89a497	-0.016802115
33	0x3e6fdceb	0.23424117
34	0x3e65b313	0.22431593
35	0xbd4232e9	-0.047411833
36	0xbdf89c12	-0.12139143
37	0xbe691e95	-0.22765572
38	0xbd8aa602	-0.06769945
39	0x3deda273	0.1160325
40	0xbe73919e	-0.23786017
41	0xbea0a635	-0.31376806
42	0xbe17fac9	-0.1484176
43	0xbe0ac5ca	-0.13552013
44	0x3e924030	0.28564596
45	0xbce50428	-0.027956083
46	0xbd0021cf	-0.031282242
47	0xbd9119d0	-0.070850015
48	0xbd1f2130	-0.03885001
49	0xbee45369	-0.44594887
50	0xbe03e414	-0.12879974
51	0x3ecf74e3	0.40518865
52	0xbcda026b	-0.026612481
53	0xbe9374f5	-0.2880017
54	0xbe55fc27	-0.2089697
55	0xbe9a7bb6	-0.3017251
56	0x3ec57096	0.3856246
57	0xbe4a6fb8	-0.1976918
58	0x3d2904c9	0.04126433
59	0xbedb40e2	-0.4282294
60	0x3dff8011	0.124755986
61	0xbe19df2a	-0.15026537
62	0xbd1014cc	-0.035176083
63	0x3e668eec	0.22515458
64	0x3eaae56c	0.3337816
65	0x3df5ca6a	0.12001498
66	0xbe22d504	-0.15901572
67	0xbde6ebd3	-0.11275449
68	0x3e99ac28	0.30014157
69	0x3e495926	0.19662914
70	0xbe4e721f	-0.20160721
71	0xbd686d84	-0.056745067
72	0xbba1a495	-0.00493295
73	0x3ee4d640	0.4469471
74	0xbb728e9a	-0.0037011267
75	0x3ded0549	0.11573274
76	0x3e9cca61	0.30623153
77	0xbde41da4	-0.11138466
78	0xbda354fe	-0.07975195
79	0xbe3a6fe5	-0.18206747
80	0xbe2b72d8	-0.16743028
81	0x3e5fd9c9	0.21860422
82	0x3ed0601c	0.40698326
83	0x3e2a200c	0.16613787
84	0xbdb3ce9a	-0.087796405
85	0xbc91799b	-0.017758181
86	0x3d8d6b44	0.06905225
87	0x3e6bf623	0.23043112
88	0xbef27a56	-0.4735896
89	0xbd860aa5	-0.06544999
90	0x3d65c7dc	0.056098804
91	0xbc129b53	-0.008948165
92	0xbdab2ccb	-0.08358153
93	0xbd2b9f00	-0.04189968
94	0x3e403017	0.18768345
95	0xbe142845	-0.14468487
96	0x3ea73874	0.32660258
97	0x3e84032e	0.25783676
98	0x3f0cb36f	0.54961294
99	0x3e9e726f	0.3094668
100	0x3df83f10	0.12121403
101	0xbe44cd27	-0.19218884
102	0xbe175b65	-0.14780958
103	0xbe1cc7e5	-0.15310629
104	0xbdb948f6	-0.09047119
105	0xbe198fc4	-0.14996248
106	0x3dc14e6e	0.094387874
107	0x3d9a64b8	0.07538742
108	0x3e4625ec	0.19350404
109	0x3d223042	0.039596803
110	0xbd1e4f1a	-0.038649656
111	0x3e602717	0.21889912
112	0x3e665441	0.22493078
113	0xbdcdee2b	-0.100551926
114	0xbe5d84b7	-0.21632658
115	0x3df6f8ea	0.12059195
116	0x3e88a10b	0.26685366
117	0xbbfd3c91	-0.0077281673
118	0x3eff9902	0.49921423
119	0x3e1ce5f2	0.15322092
120	0xbe562809	-0.2091371
121	0x3ec4f574	0.38468516
122	0xbe2d83eb	-0.16944854
123	0xbe91282f	-0.2835097
124	0xbe7cfaf2	-0.24705103
125	0xbe05af98	-0.13055265
126	0x3da8517b	0.08218666
127	0xbe0be70c	-0.13662356
128	0x3b184298	0.0023233052
129	0xbee32476	-0.44363755
130	0xbdfe27ce	-0.12409936
131	0x3db4045c	0.08789894
132	0x3ded35df	0.11582541
133	0x3dbea1c4	0.09308198
134	0x3e0ab3d0	0.13545156
135	0xbe13d508	-0.14436734
136	0x3e3cd922	0.18442205
137	0xbdbb8baa	-0.09157498
138	0xbdc5bb93	-0.096549176
139	0x3dd1b255	0.10239092
140	0xbd8b1580	-0.0679121
141	0x3dff8330	0.12476194
142	0x3e9bc065	0.30420223
143	0xbd754ca8	-0.05988756
144	0xbc932184	-0.017960317
145	0xbdfb747b	-0.12278076
146	0x3f24b7f8	0.64343214
147	0xbde214b2	-0.110391036
148	0xbe3d9c61	-0.18516685
149	0xbddcfd6e	-0.107905254
150	0xbe1d6d31	-0.15373684
151	0x3d8a85cf	0.06763803
152	0x3e8c7cd0	0.27438974
153	0xbe000b53	-0.1250432
154	0x3ddd534b	0.108069025
155	0x3e881457	0.26578018
156	0xbd71a8c8	-0.058998853
157	0xbeb034f4	-0.344154
158	0xbe319ff0	-0.17346168
159	0xbde1fb9d	-0.110343195
160	0x3d0c4a82	0.034250744
161	0x3da34b66	0.079733655
162	0xbdb3f934	-0.08787766
163	0x3e2041ec	0.15650147
164	0x3e26f5c1	0.16304685
165	0x3d5ef6d3	0.05443461
166	0xbd21c191	-0.03949124
167	0xbd3cb276	-0.04606863
168	0xbc0f027e	-0.0087286215
169	0x3d934f45	0.07192854
170	0xbe63bfbb	-0.22241108
171	0xbb42e9a2	-0.0029741307
172	0xbe4b7097	-0.19867168
173	0xbdda36b0	-0.10654962
174	0xbe127e37	-0.1430596
175	0x3dd029b7	0.101642065
176	0xbefec802	-0.4976197
177	0xbdbeaea9	-0.093106575
178	0x3de43a89	0.11143977
179	0x3e9ecf53	0.3101755
180	0xbc25d0e9	-0.010120609
181	0xbe9bfa52	-0.30464417
182	0x3b5aca1d	0.003338463
183	0xbf1e4e09	-0.6183782
184	0xbe751385	-0.23933227
185	0x3d16af98	0.036788553
186	0x3e97ec04	0.29672253
187	0xbb82343a	-0.003973511
188	0xbd9cd222	-0.07657267
189	0xbdcd7898	-0.10032767
190	0xbe17cd38	-0.14824378
191	0x3aa48900	0.0012553036
192	0x3daf27cb	0.08552512
193	0x3e5d6b05	0.21622856
194	0xbcdfdf58	-0.027328178
195	0xbe177f82	-0.14794734
196	0xbc4de9e1	-0.012567968
197	0xbe6623f8	-0.22474658
198	0xbe16238b	-0.14661996
199	0x3d1ff1b7	0.039048877
200	0xbcc716d9	-0.024302887
201	0xbd1b5bed	-0.037929464
202	0xbd64875a	-0.055793144
203	0x3e587ab8	0.21140563
204	0x3c6f587e	0.0146085005
205	0x3ddb8cb6	0.10720198
206	0xbedc8660	-0.4307127
207	0x3e935393	0.287747
208	0x3ea6fe9e	0.32616132
209	0x3cdb10ac	0.026741348
210	0xbda05eca	-0.078305796
211	0xbe0ba79b	-0.13638155
212	0xbc95e474	-0.018297412
213	0xbe8d7b10	-0.27632952
214	0x3da00025	0.078125276
215	0xbd47503c	-0.0486605
216	0x3e13bbe1	0.14427139
217	0x3d651c85	0.0559354
218	0xbe076ea8	-0.13225806
219	0x3dc41b29	0.09575493
220	0x3e27a633	0.16371994
221	0xbf078210	-0.52932835
222	0x3e21d656	0.15804419
223	0xbd2b375e	-0.04180085
224	0xbd27a7a1	-0.040931348
225	0x3d31593c	0.04329799
226	0xbd781ca7	-0.0605742
227	0xbe33db66	-0.17564163
228	0xbe3d2259	-0.18470134
229	0xbc805c8a	-0.015669126
230	0xbdabd02c	-0.08389315
231	0x3e0e3a6a	0.1388947
232	0x3de44df5	0.111476816
233	0xbe453d43	-0.1926165
234	0x3e8f8b9f	0.2803621
235	0x3c82fa1f	0.015988408
236	0x3e0fd028	0.14044249
237	0xbc0fe3dd	-0.008782354
238	0xbd3e17c5	-0.046409387
239	0x3da55b67	0.08074074
240	0xbaf0595d	-0.0018337179
241	0xbe250dd1	-0.16118552
242	0x3e926901	0.28595737
243	0x3d40d6a8	0.047079712
244	0x3e26767c	0.16256136
245	0xbea6f163	-0.32606038
246	0x3e42fa9d	0.19040914
247	0x3e664d2e	0.22490379
248	0xbe6acbe2	-0.22929338
249	0x3e0a202c	0.13488835
250	0xbb2ddb7f	-0.0026528535
251	0x3e036463	0.12831263
252	0x3da61139	0.08108754
253	0x3d9294cf	0.07157289
254	0xbe099ebe	-0.13439462
255	0x3e0da1fc	0.13831323

fc3.bias f4 [4]
0	0x3d17256a	0.036900915
1	0xbd9d3c32	-0.07677497
2	0x3d7fc683	0.062445175
3	0xbc7c4fd5	-0.015399893
