savedmodels/checkpoint_1545158393_critic_episode119_score31.763.pth (torch_old, 169980 bytes, 5 tensors)

fcs1.weight f4 [256, 33]
-0.01840463 0.04422616 0.05028474 -0.028211763 -0.085651055 -0.04815121 0.10309543 0.05045008
0.06337681 0.0534684 -0.00811517 -0.024450334 -0.038871814 0.08279801 0.081386 -0.03238091
0.07127212 -0.033272862 -0.036003828 0.014905049 -0.013193847 -0.008449102 -0.004418128 0.12085172
-0.012477456 0.031087806 -0.04520915 0.0038262985 -0.058693 -0.050394535 -0.06503779 0.040429823
0.029197166 0.0118673835 -0.06356159 0.052402113 0.029908191 0.03734432 0.03850109 0.032563865
-0.028600458 0.023021169 -0.012534861 0.007632254 0.023902943 0.041965567 0.02047146 0.053610325
0.05519077 0.026209312 0.028045518 0.053136807 -0.011043635 -0.015775353 0.0121323615 0.044865575
-0.0028621396 -0.018433064 0.01508929 -0.058686588 -0.08166936 0.07347986 0.020014852 0.06761564
0.0048096925 -0.018622397 0.055960696 -0.03776009 0.04982628 -0.0039928267 0.042200737 0.048479237
-0.052958805 -0.03573793 -0.02277054 0.014556817 0.016035423 -0.02725019 0.02594535 -0.041321833
0.013881455 -0.0010234751 0.023366718 -0.012248738 -0.016923912 -0.04799352 -0.062678024 0.003561998
-0.056342226 -0.0145708015 0.0061750086 -0.09648138 0.06380132 0.004809225 -0.023362841 -0.0031918436
0.062352225 -0.054345243 0.21792395 0.06458247 0.0028538893 0.08990921 0.035861075 -0.01547691
0.037333112 0.029278364 -0.023652961 0.016899256 -0.025820067 0.006894585 0.02120807 -0.0006026158
-0.045124028 0.05065994 -0.07543679 -0.020253748 -0.02522927 -0.06290616 -0.018471321 0.026366271
0.03078176 -0.055763032 -0.031043256 -0.037483167 -0.012241135 0.016072743 0.010569629 -0.04763581
-0.02473484 0.09231055 -0.010972619 0.046222497 -0.021204384 0.012985588 0.052911963 -0.02027476
-0.04528286 0.071744524 0.028368738 0.024269966 -0.10794958 0.07013278 -0.015001064 0.028031811
0.013042246 -0.011502845 -0.00035606662 -0.005665713 -0.013913673 -0.019375656 -0.0009883596 -0.032410845
-0.0014933989 0.037680227 0.031525683 -0.024305446 0.012962321 0.012349869 -0.018289113 0.04678056
-0.059352797 0.017925903 -0.054307777 0.016678609 -0.28769523 -0.09079582 0.08915427 -0.0064976704
-0.018656118 -0.031894837 -0.02473368 0.04537078 -0.008157151 -0.06123795 0.03822351 -0.014270791
0.00954107 -0.0011247445 0.15787144 -0.12625998 -0.026157126 0.013142863 -0.018353801 -0.04189022
0.02563423 -0.0068982225 -0.0002551094 0.018946357 0.022908172 -0.04084658 -0.0071918047 -0.09003472
0.059301116 0.025068505 0.04787697 -0.055284783 0.009369083 0.054746296 0.029332865 -0.02095637
-0.04339431 -0.007839985 -0.062886715 0.09910747 0.060066316 0.027728386 -0.0061669275 -0.036723234
0.0105043175 -0.04674019 0.019678906 0.05200708 -0.048454154 -0.0046531856 0.03624602 0.0367188
-0.0004400541 0.017167872 -0.07073437 -0.0074372455 0.019525476 -0.031090153 0.033639945 -0.013369395
-0.039513186 0.08980057 0.011123006 -0.04773082 -0.115888745 0.0014542788 0.08272385 -0.05727002
0.026086405 0.12842491 -0.022981158 -0.07022246 -0.035883915 0.057726424 0.037463203 0.094362244
-0.026240453 -0.071740136 0.04589383 -0.030673165 0.053110007 -0.017585756 -0.06902082 -0.008713669
-0.019928476 0.010853664 0.030221002 -0.013013832 0.015153272 0.011904057 -0.019348044 -0.09671705
00000000: 4ec5 96bc 7d26 353d 5ff7 4d3d 5b1c e7bc
00000010: d269 afbd 343a 45bd b223 d33d bea4 4e3d
00000020: b3cb 813d ae01 5b3d 7df5 04bc 114c c8bc
00000030: 0d38 1fbd 0192 a93d b4ad a63d d8a1 04bd
00000040: 1ef7 913d 2049 08bd c078 13bd 4f34 743c
00000050: 012b 58bc 1a6e 0abc f2c5 90bb 1b81 f73d
00000060: 3e6e 4cbc dbab fe3c 3b2d 39bd a3c2 7a3b
00000070: 1268 70bd 806a 4ebd 8832 85bd be99 253d
00000080: e52e ef3c 6a6f 423c 942c 82bd 99a3 563d
00000090: 0602 f53c 5cf6 183d 52b3 1d3d b061 053d
000000a0: 824b eabc e496 bc3c 055f 4dbc fd17 fa3b
000000b0: 1bd0 c33c 16e4 2b3d c3b3 a73c 8096 5b3d
000000c0: b80f 623d e9b4 d63c b7bf e53c fba5 593d
000000d0: 5df0 34bc 503b 81bc d0c6 463c f7c4 373d
000000e0: bc92 3bbb f000 97bc 1239 773c 5961 70bd
000000f0: 4442 a7bd 9c7c 963d 30f6 a33c 127a 8a3d
00000100: a09a 9d3b ff8d 98bc 0b37 653d 53aa 1abd
00000110: a416 4c3d 42d6 82bb aeda 2c3d 2a92 463d
00000120: 55eb 58bd f061 12bd 4989 babc b77f 6e3c
00000130: b85c 833c ca3b dfbc 588b d43c 1541 29bd
00000140: 0b6f 633c 2026 86ba 8f6b bf3c eeae 48bc
00000150: 04a4 8abc da94 44bd 565d 80bd 6970 693b
00000160: 1bc7 66bd 5fba 6ebc ba57 ca3b 0898 c5bd
00000170: 44aa 823d b496 9d3b 6e63 bfbc 402e 51bb
00000180: 0c65 7f3d 1e99 5ebd 7527 5f3e d043 843d
00000190: 5108 3b3b 5222 b83d 10e3 123d de92 7dbc
000001a0: 9bea 183d 2ed9 ef3c dbc3 c1bc 4f70 8a3c
000001b0: 9b84 d3bc f9eb e13b 8cbc ad3c ddf8 1dba
000001c0: f9d3 38bd cc80 4f3d 9b7e 9abd 30eb a5bc
000001d0: 9dad cebc f2d4 80bd 2b51 97bc 14fe d73c
000001e0: 082a fc3c c767 64bd 6d4e febc f387 19bd
000001f0: 0b8f 48bc fcaa 833c 3d2c 2d3c c41d 43bd
00000200: b8a0 cabc 500d bd3d 80c6 33bc cd53 3d3d
00000210: d1b4 adbc 81c1 543c 37ba 583d 4117 a6bc
00000220: 857a 39bd cbee 923d 8e65 e83c cfd1 c63c
00000230: ab14 ddbd c6a1 8f3d 06c7 75bc f8a2 e53c
00000240: 25af 553c 6e76 3cbc 74ae bab9 72a7 b9bb
00000250: 2df6 63bc b2b9 9ebc d88b 81ba 3cc1 04bd
00000260: 27be c3ba 9556 1a3d 1321 013d 371c c7bc
00000270: ea5f 543c 1b57 4a3c 0dd3 95bc f99c 3f3d
00000280: eb1b 73bd 58d9 923c d571 5ebd 94a1 883c
00000290: ca4c 93be 29f3 b9bd 8496 b63d 69ea d4bb
000002a0: b7d4 98bc 29a4 02bd 499e cabc b6d6 393d
000002b0: 92a5 05bc a5d4 7abd 4190 1c3d 09d0 69bc
000002c0: 2652 1c3c 2a6c 93ba 0da9 213e 4c4a 01be
000002d0: 7847 d6bc 2a55 573c b65a 96bc 1495 2bbd
000002e0: e0fe d13c 7c0a e2bb 34c0 85b9 6435 9b3c
000002f0: eba9 bb3c be4e 27bd 3ba9 ebbb 2064 b8bd
00000300: bae5 723d 775c cd3c a41a 443d 4c72 62bd
00000310: c880 193c a73d 603d 7a4b f03c b1ac abbc
00000320: 3bbe 31bd 4873 00bc c0ca 80bd dbf8 ca3d
00000330: 1908 763d a426 e33c f013 cabb 1a6b 16bd
00000340: 4d1a 2c3c a472 3fbd a835 a13c 6005 553d
00000350: dd77 46bd c079 98bb b576 143d 7466 163d
00000360: 10b7 e6b9 a3a3 8c3c 2edd 90bd 23b4 f3bb
00000370: e4f3 9f3c c7b0 febc 0aca 093d 4f0b 5bbc
00000380: 94d8 21bd 5ce9 b73d 453d 363c 6481 43bd
00000390: 1457 edbd 809d be3a 1f6b a93d f893 6abd
000003a0: 28b3 d53c d281 033e fb42 bcbc cbd0 8fbd
000003b0: 03fb 12bd 8b72 6c3d 0473 193d fe40 c13d
000003c0: 38f6 d6bc 7eec 92bd 2bfb 3b3d 4a46 fbbc
000003d0: e189 593d 0110 90bc ca5a 8dbd c7c3 0ebc
000003e0: 0b41 a3bc 91d3 313c 0992 f73c f837 55bc
000003f0: 6e45 783c 3c09 433c ca7f 9ebc 9713 c6bd

fcs1.bias f4 [256]
0.031274807 0.18582547 -0.009701018 0.18744133 -0.020584399 -0.20080465 -0.21985658 -0.15673588
0.03993865 0.087765336 -0.07544298 -0.015221506 0.093011275 -0.0452624 0.06418299 -0.014642278
-0.13157116 -0.13541456 0.10415968 -0.13992062 0.017214008 0.002004271 0.066286884 0.023772465
-0.04641897 -0.057798937 0.05839702 -0.06430315 0.055957135 0.034761142 0.07591855 -0.049898963
-0.14829318 -0.08708167 0.08573885 -0.06958072 0.16812336 0.10630696 -0.12193781 0.046783928
-0.09541394 -0.122645706 0.06188512 -0.14327124 -0.048730392 -0.16934253 0.08538518 0.088329025
0.12283496 -0.10108936 -0.11696381 0.023308251 -0.14648089 -0.07440163 -0.1758444 0.110935174
-0.077066 -0.06269272 0.050546266 0.03943668 -0.12805818 0.10535066 -0.17194869 -0.05145368
-0.14162569 -0.124632396 0.055627853 0.13504916 0.057751305 -0.02113128 0.06866669 0.12638661
-0.04285696 -0.13036475 0.012185063 0.07410988 0.057689726 -0.09501728 0.19081602 -0.12053122
0.0073191966 0.116880774 -0.06994977 0.06753574 0.11162484 -0.08100926 0.1322203 0.06016551
0.10559484 0.12356036 0.11084809 0.04124716 0.12862332 -0.217034 -0.23447067 0.009264207
0.19422384 -0.105116 0.16935958 -0.066961624 0.011502478 -0.092884555 0.00076423987 -0.09188123
-0.12822391 0.051362924 -0.03352958 0.045873035 0.056297414 -0.09005289 0.09448248 0.19205864
-0.09673302 0.12685277 0.07135406 -0.15072538 0.020850668 -0.18107238 -0.0102442745 -0.13819757
0.13224381 0.03773902 0.14148301 -0.04530026 -0.13241832 0.10566155 0.018872362 0.050713245
-0.002587221 0.09690617 -0.09378177 -0.21933298 0.010751349 0.100327566 -0.01591868 -0.021367287
-0.16000462 0.056492347 -0.22453119 -0.113201216 0.09127714 -0.19308165 -0.12917228 -0.15046357
0.11829404 -0.14287677 -0.031547245 -0.00076620374 0.06750794 0.13100186 0.040757697 0.012454768
-0.11836868 0.096820116 0.16330989 0.014100866 0.105967924 -0.07799772 -0.021513393 -0.09570981
0.080091834 -0.07967899 -0.08167404 -0.19218077 -0.028578345 0.045466896 0.12578653 0.00513053
-0.023689648 0.07247337 0.01758891 0.16443788 0.18912762 0.15906699 0.030948762 0.042962216
0.15029696 -0.018753855 0.17006397 -0.11358148 -0.0025213792 0.042068835 -0.114682645 -0.05255081
-0.011637613 -0.021700446 -0.059133667 -0.0104795955 0.0019890089 0.21817856 -0.06572311 0.12914097
-0.02758704 0.16015582 0.18056633 -0.04109178 -0.021902198 -0.12397503 0.0001793942 -0.13695182
-0.099081315 0.03617946 0.03497406 -0.09177388 0.124671094 0.04977107 -0.0781882 0.092292696
-0.14561862 -0.01344907 0.20825943 0.07974122 0.059532568 0.021590387 -0.037176292 0.13346602
0.010303125 0.03664054 0.03307195 -0.02111542 0.06610028 -0.11842596 -0.13647452 -0.16567542
0.18138221 -0.07124187 -0.15929267 0.038549885 -0.070424445 0.06352641 -0.06169794 0.073263384
-0.17962149 -0.19367477 0.08682741 -0.06423323 -0.018761592 0.03583226 0.011277557 -0.08884581
0.0640373 -0.10873653 0.13919732 -0.05889605 0.051197924 0.15894632 0.109685384 0.090404734
0.08801107 -0.10778654 0.07617715 -0.08215771 0.13964902 -0.07010535 0.08220252 0.03057189
00000000: 031a 003d 0849 3e3e 05f1 1ebc 9ff0 3f3e
00000010: 9da0 a8bc bc9f 4dbe 1522 61be 5f7f 20be
00000020: b696 233d 50be b33d d981 9abd a063 79bc
00000030: b27c be3d 1165 39bd 5f72 833d 2ae6 6fbc
00000040: 97ba 06be 1daa 0abe ac51 d53d 5a47 0fbe
00000050: 6404 8d3c 165a 033b 6bc1 873d 79be c23c
00000060: d121 3ebd 94be 6cbd b731 6f3d 5fb1 83bd
00000070: 4f33 653d b361 0e3d 2f7b 9b3d db62 4cbd
00000080: 2bda 17be e057 b2bd da97 af3d 5680 8ebd
00000090: 8828 2c3e 77b7 d93d 88ba f9bd 81a0 3f3d
000000a0: 6268 c3bd ac2d fbbd 407b 7d3d b2b5 12be
000000b0: 8599 47bd 2168 2dbe 6dde ae3d d9e5 b43d
000000c0: e590 fb3d f007 cfbd b98a efbd f2f0 be3c
000000d0: 16ff 15be e25f 98bd 8e10 34be fb31 e33d
000000e0: c7d4 9dbd 0a65 80bd 9a09 4f3d 5b88 213d
000000f0: af21 03be 16c2 d73d 5113 30be 18c1 52bd
00000100: 5306 11be 453f ffbd 08da 633d 544a 0a3e
00000110: a28c 6c3d 821b adbc 1fa1 8c3d 7e6b 013e
00000120: c88a 2fbd 567e 05be dca3 473c ecc6 973d
00000130: 104c 6c3d 6b98 c2bd 4665 433e 13d9 f6bd
00000140: dfd5 ef3b 305f ef3d d341 8fbd 2e50 8a3d
00000150: 909b e43d 2fe8 a5bd c264 073e 1c70 763d
00000160: 1c42 d83d 370d fd3d 5304 e33d c8f2 283d
00000170: d5b5 033e 293e 5ebe 1419 70be e7c8 173c
00000180: 9de2 463e 0f47 d7bd 996c 2d3e 2d23 89bd
00000190: e474 3c3c 423a bebd 4557 483a 3a2c bcbd
000001a0: 214d 03be ee61 523d 5056 09bd 5de5 3b3d
000001b0: 1e98 663d a66d b8bd 0880 c13d 05ab 443e
000001c0: f61b c6bd b1e5 013e 1422 923d c157 1abe
000001d0: 05cf aa3c 0a6b 39be 9ad7 27bc aa83 0dbe
000001e0: ec6a 073e 3b94 1a3d ece0 103e c48c 39bd
000001f0: ab98 07be 1565 d83d 369a 9a3c b1b8 4f3d
00000200: 5e8e 29bb be76 c63d a810 c0bd d398 60be
00000210: 6d26 303c 8a78 cd3d e467 82bc 730a afbc
00000220: 40d8 23be 8564 673d 81eb 65be 0ad6 e7bd
00000230: 82ef ba3d 32b7 45be bd45 04be 1f13 1abe
00000240: 2544 f23d 4a4e 12be af37 01bd 10db 48ba
00000250: 9a41 8a3d 5a25 063e 8bf1 263d 150f 4c3c
00000260: 476b f2bd a049 c63d b53a 273e 5207 673c
00000270: b605 d93d 45bd 9fbd db3c b0bc 8103 c4bd
00000280: 3007 a43d bd2e a3bd b844 a7bd 09cb 44be
00000290: 221d eabc 7f3b 3a3d 2fce 003e 011e a83b
000002a0: cb10 c2bc eb6c 943d 9e16 903c 6762 283e
000002b0: acaa 413e 75e2 223e 4288 fd3c 26f9 2f3d
000002c0: 72e7 193e afa1 99bc 4025 2e3e 689d e8bd
000002d0: b93d 25bb 5f50 2c3d bcde eabd 853f 57bd
000002e0: b0ab 3ebc 22c5 b1bc 2536 72bd 9cb2 2bbc
000002f0: 085a 023b 336a 5f3e d799 86bd 883d 043e
00000300: 37fe e1bc e3ff 233e 61e6 383e db4f 28bd
00000310: 3d6c b3bc 9fe6 fdbd c41b 3c39 193d 0cbe
00000320: 25eb cabd ea30 143d f640 0f3d f2f3 bbbd
00000330: 8f53 ff3d c0dc 4b3d 2321 a0bd f403 bd3d
00000340: 0c1d 15be 7d59 5cbc f641 553e 5d4f a33d
00000350: 6cd8 733d 53de b03c 2b46 18bd 51ab 083e
00000360: 70ce 283c 6414 163d 7476 073d 3ffa acbc
00000370: 955f 873d 4f89 f2bd fabf 0bbe d1a6 29be
00000380: 42bc 393e 42e7 91bd 9e1d 23be 7ce6 1d3d
00000390: b13a 90bd 221a 823d fbb6 7cbd 1d0b 963d
000003a0: b2ee 37be ae52 46be 92d2 b13d b68c 83bd
000003b0: e9b1 99bc d9c4 123d 81c5 383c cbf4 b5bd
000003c0: fd25 833d 42b1 debd be89 0e3e fc3c 71bd
000003d0: eab4 513d d3c2 223e bba2 e03d 1e26 b93d
000003e0: 263f b43d 31bf dcbd c402 9c3d 4d42 a8bd
000003f0: 2700 0f3e 6593 8fbd cb59 a83d e671 fa3c

fc2.weight f4 [128, 260]
0.03023883 0.0018965787 0.094180785 -0.0039763986 0.10744773 -0.29619792 -0.08370986 0.08851772
-0.021533096 -0.08101031 0.03918304 0.005805972 -0.058251277 0.06173403 -0.036951076 0.0058511314
-0.0069752196 -0.06827866 0.01610265 0.12611225 0.07880516 -0.010298828 0.036754668 -0.18693852
0.037795898 -0.009075933 0.06935627 -0.26254967 0.06362393 -0.04137446 0.042464305 0.039496437
0.0042245453 0.019781232 0.010676667 -0.017975645 -0.012565762 -0.04830869 0.063751645 -0.04775838
-0.09230835 -0.057482272 -0.004494616 -0.011764865 -0.007170805 0.06071737 0.034756005 -0.043748353
-0.06722299 0.0012655805 0.017952247 0.075577 0.038281385 -0.07749158 -0.0030181622 -0.06549536
-0.06360713 0.06449754 -0.07958725 0.03385447 0.008291954 0.11026368 0.053735424 0.05495889
0.045488417 -0.03725548 -0.03418089 0.07228591 -0.09088614 -0.11228102 -0.083593704 0.043732207
-0.015161705 0.07130251 -0.070000164 -0.055558756 -0.026547104 0.04762978 0.04988876 -0.052191697
-0.072289824 -0.015056182 -0.025303544 -0.10454636 -0.07464985 0.061215356 0.028059293 -0.032931123
-0.047996577 -0.14527828 0.10745285 -0.20873433 -0.011793266 -0.22183599 0.05146189 -0.013098762
0.019947322 -0.08308012 0.043953516 0.057329312 -0.092894316 -0.044756074 -0.008223491 0.020141732
-0.06777874 0.10336053 0.09817153 0.039252 0.085597426 0.010890926 -0.044488456 0.03944906
0.071697146 0.004773545 -0.050266564 -0.10787624 -0.061658047 -0.09688825 -0.011966417 -0.023604026
-0.015809536 -0.00012400217 -0.043972567 -0.07405275 0.04558436 -0.016932394 0.10270171 0.051568545
0.06571033 0.06167918 -0.048997056 0.089480214 0.1085209 -0.07716872 -0.19895695 0.06581824
0.06261456 0.041729778 0.025837215 0.029215386 -0.04322056 -0.15091145 -0.019324401 -0.05284872
0.06470775 -0.018533824 -0.013025423 0.037238136 -0.1397562 -0.0064865137 -0.07129599 0.045673154
-0.037804697 0.1344319 0.019175483 0.05916666 -0.12843932 -0.03372087 0.07096856 0.092288986
-0.013582801 0.14738943 -0.03198911 -0.09903593 0.05563647 -0.11205032 0.04266403 0.06927365
0.07851634 -0.081122465 0.09265514 -0.06568051 -0.021615168 -0.023424149 0.04687574 -0.042666093
-0.016358338 -0.022335606 0.009139296 -0.07280292 -0.052179493 0.043934826 -0.05170422 0.074290775
-0.056819476 -0.115624316 -0.10285118 0.06634235 0.040263575 0.072938606 0.0028278441 -0.01622332
-0.06665619 0.13546865 -0.0031302795 -0.008372339 0.11024502 -0.12404638 0.059255455 0.03629946
0.00481203 0.030278753 -0.017415045 0.072145954 -0.043579586 0.049169295 0.006406637 0.010223586
-0.07605748 0.021592049 -0.012704484 0.0015892718 0.08815282 -0.050690997 0.053945065 0.0101004345
0.023963917 -0.09381228 -0.09820284 -0.104219206 0.00085281447 0.095208205 -0.0765858 -0.019739512
0.016556488 -0.12744384 0.0022605448 0.0062273545 -0.054668635 0.018555626 0.06370264 0.043298624
0.021665357 0.0034726935 -0.08275424 -0.08498145 0.08544334 -0.035158012 -0.19009258 0.041484226
-0.17363532 0.0776296 -0.04266672 -0.105804406 -0.0012642277 0.03152987 -0.049465246 0.0070768683
0.035829153 0.06084902 -0.04431809 0.057791233 0.015367524 -0.010058379 -0.048301473 -0.022171874
00000000: 6cb7 f73c 9f96 f83a dbe1 c03d 734c 82bb
00000010: 8e0d dc3d 41a7 97be 1370 abbd c748 b53d
00000020: 2d66 b0bc bce8 a5bd 657e 203d 0640 be3b
00000030: e498 6ebd d2dc 7c3d 035a 17bd d9ba bf3b
00000040: 6290 e4bb afd5 8bbd b4e9 833c 9223 013e
00000050: 9a64 a13d 6abc 28bc 108c 163d d06c 3fbe
00000060: dfcf 1a3d 39b3 14bc a90a 8e3d e96c 86be
00000070: 434d 823d 4478 29bd 0def 2d3d 04c7 213d
00000080: 0e6e 8a3b 400c a23c 30ed 2e3c a941 93bc
00000090: a0e0 4dbc 55df 45bd 3990 823d 4b9e 43bd
000000a0: 290c bdbd 8872 6bbd 9247 93bb 6cc1 40bc
000000b0: 12f9 eabb c7b2 783d 505c 0e3d 7931 33bd
000000c0: 35ac 89bd d6e1 a53a 9710 933c 1dc8 9a3d
000000d0: f1cc 1c3d e8b3 9ebd 5ccc 45bb 6e22 86bd
000000e0: 7444 82bd 4917 843d a4fe a2bd fcaa 0a3d
000000f0: fada 073c edd1 e13d ad19 5c3d 931c 613d
00000100: 1052 3a3d 3499 18bd 4301 0cbd a30a 943d
00000110: 8322 babd 97f3 e5bd 2d33 abbd 8b20 333d
00000120: cd68 78bc 0d07 923d 3f5c 8fbd 9491 63bd
00000130: 5079 d9bc 7217 433d 2858 4c3d f6c6 55bd
00000140: b00c 94bd 34ae 76bc 6149 cfbc 671c d6bd
00000150: 05e2 98bd f4bc 7a3d 9adc e53c c9e2 06bd
00000160: 0f98 44bd d4c3 14be 3d10 dc3d 74be 55be
00000170: 8b38 41bc f928 63be b4c9 523d 319c 56bc
00000180: 9168 a33c e925 aabd 9a08 343d 24d2 6a3d
00000190: 603f bebd 2552 37bd d2bb 06bc 4600 a53c
000001a0: 94cf 8abd b0ae d33d 280e c93d b5c6 203d
000001b0: b44d af3d db6f 323c 8739 36bd 5695 213d
000001c0: f4d5 923d 666b 9c3b 50e4 4dbd 38ee dcbd
000001d0: 268d 7cbd 596d c6bd ca0e 44bc 3b5d c1bc
000001e0: 0083 81bc 9406 02b9 941c 34bd f8a8 97bd
000001f0: aab6 3a3d ceb5 8abc 4655 d23d 8a39 533d
00000200: 2393 863d 4fa3 7c3d 23b1 48bd 6741 b73d
00000210: 3540 de3d a20a 9ebd 5fbb 4bbe b7cb 863d
00000220: 103c 803d d8ec 2a3d 91a8 d33c 1b55 ef3c
00000230: 0b08 31bd 8888 1abe 354e 9ebc e677 58bd
00000240: 7f85 843d 3fd4 97bc 9568 55bc 0487 183d
00000250: 401c 0fbe d28c d4bb a203 92bd c613 3b3d
00000260: 19d9 1abd 84a8 093e e715 9d3c bd58 723d
00000270: 9985 03be e51e 0abd f757 913d 0202 bd3d
00000280: 668a 5ebc 41ed 163e 0307 03bd 5ad3 cabd
00000290: 11e3 633d a37a e5bd 7ac0 2e3d 58df 8d3d
000002a0: 2dcd a03d 8923 a6bd fac1 bd3d 8183 86bd
000002b0: 4b12 b1bc 00e4 bfbc c700 403d a4c2 2ebd
000002c0: ec01 86bc 29f9 b6bc fcbc 153c b319 95bd
000002d0: 2aba 55bd 01f5 333d cec7 53bd c325 983d
000002e0: 8abb 68bd 71cc ecbd a4a3 d2bd 7fde 873d
000002f0: 6beb 243d d660 953d 5a53 393b c5e6 84bc
00000300: 0a83 88bd 4bb8 0a3e 6025 4dbb 232c 09bc
00000310: 24c8 e13d 070c febd d9b5 723d beae 143d
00000320: 3cae 9d3b 260b f83c ffa9 8ebc 42c1 933d
00000330: 8280 32bd be65 493d c4ee d13b d480 273c
00000340: 06c4 9bbd cfe1 b03c 7826 50bc 1d4f d03a
00000350: 7789 b43d 5da1 4fbd 80f5 5c3d 4b7c 253c
00000360: fa4f c43c a720 c0bd 921e c9bd e170 d5bd
00000370: 698f 5f3a 85fc c23d 04d9 9cbd c2b4 a1bc
00000380: 79a1 873c a380 02be a625 143b d60e cc3b
00000390: 38ec 5fbd f801 983c 8876 823d e659 313d
000003a0: 8c7b b13c 2196 633b 0e7b a9bd c10a aebd
000003b0: ebfc ae3d d901 10bd a1a7 42be 5deb 293d
000003c0: 75cd 31be 45fc 9e3d 4cc3 2ebd fbaf d8bd
000003d0: 71b4 a5ba 7725 013d 129c 4abd 13e5 e73b
000003e0: 97c1 123d d23c 793d e386 35bd 80b6 6c3d
000003f0: 11c8 7b3c e6cb 24bc c4d7 45bd caa1 b5bc

fc2.bias f4 [128]
0.009427642 0.0058642146 0.07533181 -0.03957751 0.035370592 0.09851031 -0.04213745 0.002006141
0.018988118 0.008028669 0.06305691 0.068449534 0.10715739 -0.08851571 -0.03488553 -0.07028689
0.06545699 -0.07419696 0.033532917 0.07144311 0.14558858 0.08612822 -0.043186065 -0.061315924
0.09066887 -0.005649847 0.094052106 -0.038623564 0.13437922 -0.055206858 0.08464031 0.036395792
0.060333196 -0.058189206 0.06235665 0.0061331987 0.01179452 0.0195163 0.11281955 0.0030384087
0.016708689 -0.00093425385 0.0240199 0.04291731 -0.052248955 0.13597412 0.03650441 -0.02618696
0.048447154 -0.00922541 -0.073214956 -0.08020801 0.06720012 -0.03144279 -0.036610756 -0.082864754
0.08654315 -0.0045677214 -0.036008842 -0.031173488 -0.09034452 0.036202043 0.08066761 0.11489148
-0.016707744 -0.034113195 0.009886079 0.07123816 -0.019601034 0.1161888 -0.008173469 -0.042098388
0.06076333 0.033687524 0.017855227 0.10480402 0.08967613 -0.08277738 -0.03283751 -0.021607151
0.042635284 0.08232651 -0.053431593 0.030534474 0.012987856 0.12966995 -0.018817943 0.06525084
0.12824202 0.16323054 0.15052024 0.06244654 -0.015786957 0.10420745 0.0023462432 0.021544997
-0.07964309 -0.04544122 0.13253927 -0.052886363 -0.07770815 0.037293363 -0.03760819 0.08709162
0.0063244076 0.0007240449 0.02021739 -0.07578492 0.025790628 0.01647551 0.025469815 0.0008058079
-0.009536787 -0.061234467 0.07082159 -0.028451944 0.009065641 0.041527547 -0.022553233 -0.042721607
-0.07719402 -0.039657276 0.056116544 0.03485992 -0.028212328 -0.0917181 -0.04903879 0.0996543
00000000: 6676 1a3c 9928 c03b 9047 9a3d 071c 22bd
00000010: c1e0 103d c6bf c93d 5298 2cbd 7679 033b
00000020: f88c 9b3c ae8a 033c fb23 813d 452f 8c3d
00000030: 5575 db3d b947 b5bd 21e4 0ebd 93f2 8fbd
00000040: 500e 863d 93f4 97bd d059 093d c450 923d
00000050: 2c15 153e fe63 b03d dfe3 30bd 6826 7bbd
00000060: 9ab0 b93d 5a22 b9bb 649e c03d be33 1ebd
00000070: b59a 093e 9620 62bd e657 ad3d c113 153d
00000080: f11f 773d ce57 6ebd b069 7f3d 00f9 c83b
00000090: cd3d 413c a6e0 9f3c f00d e73d 0a20 473b
000000a0: a9e0 883c b7e8 74ba 62c5 c43c 10ca 2f3d
000000b0: 0003 56bd cd3c 0b3e a685 153d 0986 d6bc
000000c0: 8670 463d 2d26 17bc b9f1 95bd 1944 a4bd
000000d0: 37a0 893d 28ca 00bd 29f5 15bd ffb4 a9bd
000000e0: 893d b13d d3ac 95bb 027e 13bd 8b5f ffbc
000000f0: 8c06 b9bd 9848 143d 0f35 a53d 394c eb3d
00000100: aede 88bc 47ba 0bbd 38f9 213c 50e5 913d
00000110: 5992 a0bc 65f4 ed3d 04ea 05bc 5c6f 2cbd
00000120: f8e2 783d eefb 093d 2045 923c 7da3 d63d
00000130: 1ea8 b73d 3087 a9bd a080 06bd 7b01 b1bc
00000140: 56a2 2e3d cd9a a83d 16db 5abd 6f23 fa3c
00000150: 04cb 543c 33c8 043e 1628 9abc 3ba2 853d
00000160: e051 033e e825 273e fa21 1a3e f1c7 7f3d
00000170: a653 81bc b76a d53d 6ec3 193b 227f b03c
00000180: eb1b a3bd 9320 3abd 60b8 073e 5f9f 58bd
00000190: 7325 9fbd edc0 183d 0c0b 1abd 175d b23d
000001a0: fa3c cf3b d5cd 3d3a f19e a53c 2035 9bbd
000001b0: de46 d33c a6f7 863c 13a6 d03c da3c 533a
000001c0: 2f40 1cbc fed0 7abd e90a 913d 0d14 e9bc
000001d0: 0e88 143c ca18 2a3d 8fc1 b8bc dafc 2ebd
000001e0: e617 9ebd ab6f 22bd 76da 653d 47c9 0e3d
000001f0: 8a1d e7bc b3d6 bbbd e6dc 48bd 8e17 cc3d

fc3.weight f4 [1, 128]
0.08402615 -0.18339562 0.1667927 -0.049247786 0.047519315 0.06934847 0.088973954 0.09043655
0.057040777 -0.15954183 0.046399996 0.13983683 0.08152861 -0.021284621 -0.21839097 -0.10158914
0.07488735 -0.104384296 0.040875707 0.18390597 0.061849903 0.08867899 -0.111420244 -0.09904801
0.08045362 -0.080428034 0.10918062 -0.08050328 0.077201545 -0.2420471 0.055520225 -0.14371721
0.04993696 -0.1290733 0.06459277 0.15207939 -0.06907886 0.12003724 0.05484982 -0.21441285
0.05256552 -0.2359577 0.11945225 0.055081937 -0.08648566 0.121756725 0.14136145 -0.07898103
0.107305475 -0.15690817 -0.19084974 -0.041318122 0.05225922 -0.07540234 -0.09636579 -0.07376496
0.09241412 -0.11124222 -0.2039982 -0.12504183 -0.049829915 0.07643925 0.05551356 0.047432967
-0.08324077 -0.059442144 -0.077119745 0.06325241 -0.15115501 0.07198919 -0.048834104 -0.21880354
0.12637717 0.05514641 0.053347487 0.058248445 0.034414455 -0.049648203 0.058472816 0.14860612
0.0705319 0.057844218 -0.11858747 0.05142939 0.065094285 0.04148726 -0.035130568 0.079876065
0.06597712 0.05555662 0.074865736 0.055663057 -0.19547503 0.09115094 0.06163665 0.04936554
-0.0432739 -0.060100004 0.10618558 -0.13147643 -0.18917313 0.07280186 -0.17609048 0.05171487
0.06658816 -0.07360427 0.091015495 -0.056117903 0.07435588 -0.070178956 0.0376513 -0.07795963
-0.10275155 -0.061296154 0.07131591 -0.08268202 -0.13270076 0.12239013 0.0703732 0.012990133
-0.13938259 -0.054169204 0.093933545 0.05453669 -0.10195786 -0.12482747 0.06633275 0.07250846
00000000: e715 ac3d 10cc 3bbe b5cb 2a3e 0cb8 49bd
00000010: 9da3 423d 9206 8e3d fa37 b63d cc36 b93d
00000020: 97a3 693d ef5e 23be ec0d 3e3d 6331 0f3e
00000030: 79f8 a63d 165d aebc e2a1 5fbe f80d d0bd
00000040: 8a5e 993d 6fc7 d5bd 496d 273d d951 3c3e
00000050: 5356 7d3d 559d b53d 4c30 e4bd afd9 cabd
00000060: dec4 a43d 74b7 a4bd 179a df3d e7de a4bd
00000070: d81b 9e3d 32db 77be 2d69 633d 9b2a 13be
00000080: b38a 4c3d cb2b 04be 3749 843d b3ba 1b3e
00000090: 3879 8dbd 16d6 f53d 34aa 603d 0b8f 5bbe
000000a0: f14e 573d e59e 71be 62a3 f43d 999d 613d
000000b0: 651f b1bd 975b f93d 0ec1 103e cec0 a1bd
000000c0: f9c2 db3d 89ac 20be 1d6e 43be 313d 29bd
000000d0: c40d 563d 8b6c 9abd 6d5b c5bd 1512 97bd
000000e0: 9d43 bd3d f6d2 e3bd e7e4 50be f70a 00be
000000f0: 741a 4cbd 2e8c 9c3d 3062 633d 1249 423d
00000100: 237a aabd 9b79 73bd f5f0 9dbd 7b8a 813d
00000110: 61c8 1abe 126f 933d 4506 48bd 090e 60be
00000120: 0469 013e 34e1 613d e582 5a3d ec95 6e3d
00000130: 2cf6 0c3d ea5b 4bbd 3181 6f3d 342c 183e
00000140: 0773 903d 0fee 6c3d fddd f2bd a0a7 523d
00000150: 2750 853d 8cee 293d 12e5 0fbd 1096 a33d
00000160: 031f 873d 578f 633d 3553 993d f2fe 633d
00000170: 9b2a 48be 58ad ba3d b676 7c3d 8533 4a3d
00000180: f93f 31bd 6c2b 76bd d377 d93d c2a1 06be
00000190: 9ab6 41be 2419 953d 1051 34be f9d2 533d
000001a0: 605f 883d d6bd 96bd 5566 ba3d e3db 65bd
000001b0: e547 983d fcb9 8fbd 4038 1a3d 4ca9 9fbd
000001c0: 686f d2bd ad11 7bbd 130e 923d 3155 a9bd
000001d0: b5e2 07be ada7 fa3d d31f 903d 91d4 543c
000001e0: 4fba 0ebe 87e0 5dbd 3b60 c03d dd61 5f3d
000001f0: 48cf d0bd 8ba5 ffbd 77d9 873d 517f 943d
