savedmodels/checkpoint_1545158393_actor_episode140_score36.241.pth (torch_old, 169478 bytes, 6 tensors)

fc1.weight f4 [256, 33]
0	0xbc5ddb1d	-0.01354101
1	0xbd1cbb11	-0.038264338
2	0xbdd485e1	-0.10377098
3	0x3d03d3fb	0.032184582
4	0xbccd0edb	-0.025031498
5	0x3e30b664	0.17257077
6	0xbde64094	-0.11242786
7	0xbd271382	-0.04079009
8	0x3beb1bff	0.0071749683
9	0xbd875286	-0.06607537
10	0xbe042f3d	-0.12908645
11	0x3d5c9624	0.053854123
12	0xbd203ee5	-0.03912248
13	0x3ddf55b7	0.10905021
14	0x3e3420d2	0.17590645
15	0x3e17170f	0.1475489
16	0xbd248e87	-0.040174987
17	0xbc20fa5e	-0.009825317
18	0xbd7844e8	-0.06061259
19	0xbd875b72	-0.06609239
20	0xbc29318e	-0.010326756
21	0x3d0908ff	0.033455845
22	0x3e2fca85	0.17167099
23	0xbd8d5fe9	-0.06903059
24	0x3d399959	0.04531226
25	0xbd27dc59	-0.040981624
26	0xbd67846b	-0.056522768
27	0x3d530b2d	0.05152433
28	0xbdeea9ae	-0.116534576
29	0x3d012a70	0.031534612
30	0xbc968bfe	-0.0183773
31	0x3ce90074	0.028442599
32	0xbee908d3	-0.45514545
33	0xbdf796b8	-0.12089294
34	0xbdfa51d0	-0.12222636
35	0xbd28330c	-0.041064307
36	0x3dc74d96	0.09731595
37	0x3de14a99	0.110005565
38	0x3dbbf2e2	0.091771856
39	0x3c8e357d	0.01735949
40	0x3c8e2cb8	0.017355308
41	0x3d136ea6	0.035994194
42	0xbb3d4c31	-0.0028884525
43	0xbdafbfd6	-0.08581512
44	0x3deeffea	0.116699055
45	0x3dd2ecbd	0.102990605
46	0x3c22d592	0.009938614
47	0x3da313e6	0.0796278
48	0xbdcc27ca	-0.09968527
49	0x3dabd211	0.08389676
50	0x3d2628a4	0.0405661
51	0xbd893a3d	-0.06700561
52	0x3af93810	0.00190139
53	0xbca94059	-0.020660566
54	0xbd6b8818	-0.057502836
55	0x3ce5fafb	0.028073778
56	0x3b57dd9e	0.003293849
57	0x3cc1c45c	0.023653202
58	0x3d1dc710	0.03851992
59	0xbdb33d73	-0.08751955
60	0xbc87c069	-0.01657124
61	0x3e3c3d94	0.18382865
62	0xbd715bca	-0.058925427
63	0x3ce72623	0.028216427
64	0x3d544e1a	0.051832296
65	0xbe85f12c	-0.26160562
66	0xbde29e2a	-0.11065324
67	0xbd2c0b0f	-0.042002734
68	0xbc76e493	-0.015069145
69	0x3dd5f1bb	0.10446497
70	0x3dabfe8a	0.08398159
71	0xbd5c5e12	-0.05380065
72	0x3d647960	0.055779815
73	0xbd8db17e	-0.069186196
74	0x3d0ea74d	0.03482752
75	0xbd574e60	-0.05256498
76	0xbd5df1b7	-0.054185595
77	0x3aa95282	0.0012918266
78	0x3d3650e8	0.044510752
79	0xbd49e75c	-0.049292907
80	0x3d7317b5	0.05934878
81	0x3cb107ce	0.021610167
82	0x3dc031a3	0.093844675
83	0x3cbc4f80	0.022987127
84	0x3c7c88a6	0.015413439
85	0x3d163056	0.03666719
86	0xbd176c6d	-0.036968637
87	0x3d900288	0.07031733
88	0x3dc76cf2	0.097375765
89	0xbe128694	-0.1430915
90	0x3b1f3470	0.002429273
91	0xbc0ed98b	-0.0087188585
92	0xbe135567	-0.14388047
93	0xbd572545	-0.052525777
94	0xbcd47512	-0.02593473
95	0x3d064128	0.03277698
96	0xbc1fdc85	-0.009757166
97	0xbd12a17c	-0.035798535
98	0xbe22f872	-0.15915087
99	0x3ba91c2e	0.00516083
100	0x3b4abe59	0.003093621
101	0x3cecab70	0.028890342
102	0xbdb05340	-0.08609629
103	0x3c86aa39	0.01643859
104	0x3d51a59a	0.05118332
105	0x3dc38f96	0.09548871
106	0xbd8d47cc	-0.0689846
107	0xbd4f2d85	-0.05058052
108	0xbce455e4	-0.027872987
109	0xbcf04cd2	-0.029333506
110	0xbd9fc746	-0.0780168
111	0x3d04c906	0.032418273
112	0xbd44ba1f	-0.04802906
113	0xbe28321d	-0.16425367
114	0x3cd837b8	0.026393756
115	0x3d0dd261	0.03462446
116	0x3d670c6e	0.05640834
117	0x3d64e1bd	0.055879343
118	0xbd0249b1	-0.03180856
119	0xbe6cca35	-0.23124011
120	0x3d7aa43d	0.061191786
121	0xbd2e17de	-0.04250323
122	0xbd249dd9	-0.040189598
123	0xbd9d944f	-0.07694303
124	0xbdb00114	-0.08593956
125	0x3e2746b2	0.16335562
126	0x3d4cc495	0.049992163
127	0xbd45c154	-0.048280075
128	0xbd63518c	-0.05549769
129	0xbca720d3	-0.020401394
130	0xbd34cd38	-0.044141024
131	0x3e50ab22	0.20377782
132	0x3d03e188	0.032197505
133	0xbd9974f6	-0.07493012
134	0x3d3bcab8	0.045847625
135	0x3b284b70	0.002567973
136	0x3da324fd	0.07966039
137	0xbdc3bd1c	-0.09557554
138	0x3def031f	0.11670517
139	0xbcf31d44	-0.02967704
140	0xbd639af1	-0.055567686
141	0x3d2c0be2	0.04200352
142	0xbd34c682	-0.044134624
143	0xbdbc630c	-0.09198579
144	0x396bb62d	0.00022479212
145	0xbc29f072	-0.010372268
146	0x3df70d7d	0.120631196
147	0xbd334b39	-0.04377291
148	0xbc2da3d2	-0.01059814
149	0xbbc211a1	-0.0059225117
150	0x3e0d6992	0.13809803
151	0x3c1d65f3	0.009606826
152	0xbd04c78f	-0.032416876
153	0x3d38b4a0	0.045094132
154	0x3b828c57	0.003984015
155	0xbc4cf823	-0.012510332
156	0x3dd0f730	0.10203397
157	0xbe082d18	-0.13298452
158	0x3e09d05b	0.13458388
159	0xbe482529	-0.19545425
160	0x3c873ef6	0.016509514
161	0x3c374fb8	0.01118844
162	0x3e541159	0.20709743
163	0x3d74a828	0.05973068
164	0xbeefe8b2	-0.4685722
165	0x3d355fc2	0.044280775
166	0x3e031383	0.12800412
167	0xbe6f0fd4	-0.23345882
168	0xbc4536d9	-0.0120370025
169	0x3dcf5574	0.10123721
170	0xbd15f8e6	-0.03661432
171	0xbde45d69	-0.11150629
172	0x3dcf44e7	0.10120564
173	0xbba5c7fa	-0.0050592395
174	0x3d0f9e0c	0.035062835
175	0x3ccc24ea	0.024919946
176	0xbd1ffda2	-0.039060242
177	0xbdea4e52	-0.1144072
178	0xbd039fda	-0.03213487
179	0xbdf33830	-0.11875951
180	0x3d6a2a48	0.05716923
181	0xbd0164c4	-0.03159024
182	0xbd3ead0e	-0.046551757
183	0xbd48b535	-0.049000937
184	0xbd8d638e	-0.06903754
185	0xbe1a8401	-0.15089418
186	0xbd9fcfa1	-0.07803274
187	0xbcd1ffa0	-0.025634587
188	0xbbf39230	-0.0074331984
189	0xbda4a07f	-0.08038425
190	0x3d8fd8b0	0.07023752
191	0xbdf06419	-0.11737842
192	0x3cda206e	0.026626792
193	0x3e07269b	0.1319832
194	0x3cbf8ce8	0.023382619
195	0xbd12a3e3	-0.035800826
196	0x3c824cb4	0.015905716
197	0x3e42aa26	0.19010219
198	0xbd3bf805	-0.045890827
199	0x3d0c18c3	0.034203302
200	0x3be06ef1	0.0068491627
201	0x3d06a22e	0.03286951
202	0x3dc39ab0	0.09550989
203	0x3d71d649	0.05904225
204	0x3e190a2d	0.14945288
205	0xbce9e980	-0.028553724
206	0x3a9f4689	0.0012151758
207	0x3d85f4a1	0.065408
208	0x3da39656	0.07987659
209	0xbd4cd2c5	-0.050005693
210	0xbd0e7ce5	-0.034787077
211	0xbd927f9d	-0.071532466
212	0x3dd9a48e	0.106270894
213	0xbe0a0056	-0.1347669
214	0x3db8adff	0.09017562
215	0x3dc19960	0.09453082
216	0x3df57c57	0.119866066
217	0x3d5cfb94	0.05395086
218	0x3df75397	0.1207649
219	0xbc47a2e4	-0.012184832
220	0xbcd6ee0f	-0.026236562
221	0x3cf8f5c0	0.03039062
222	0x3d2ea377	0.04263636
223	0xbe444c00	-0.19169617
224	0x3da2cff1	0.07949818
225	0x3cc49d30	0.024000734
226	0xbce187db	-0.027530601
227	0x3d22ba90	0.0397287
228	0xbda54d99	-0.08071441
229	0x3c468038	0.012115531
230	0xbe5284b4	-0.20558435
231	0xb942a754	-0.00018563616
232	0x3dd31ad3	0.10307851
233	0x3c280451	0.010254935
234	0x3cd4b4ff	0.025965212
235	0xbc206dee	-0.009791834
236	0xbd95c958	-0.07313794
237	0xbb9b0358	-0.004730623
238	0x3d8de367	0.06928139
239	0xbd9cde0d	-0.0765954
240	0x3c2a1a5e	0.010382263
241	0x3d9ed7f0	0.077560306
242	0xbc24d3c4	-0.0100602545
243	0xbb5c837d	-0.003364771
244	0x3e55e15f	0.20886753
245	0xbcb9854e	-0.022646572
246	0xbdc3dae5	-0.09563235
247	0x3d67febc	0.056639418
248	0x3b876420	0.004131809
249	0x3c898ce7	0.01679082
250	0x3d5fe96d	0.05466597
251	0xbd0c1ab4	-0.034205154
252	0xbd9db197	-0.07699888
253	0xbceaff3d	-0.02868616
254	0x3e26e9b9	0.16300096
255	0x3c4bf8a2	0.012449415

fc1.bias f4 [256]
0	0x3d8ac01c	0.06774923
1	0x3e4fb1ed	0.20282717
2	0xba8d8d5e	-0.0010799577
3	0x3db4e14f	0.08832037
4	0x3e1c588a	0.1526815
5	0xbe49e432	-0.19715956
6	0xbe3f8437	-0.1870278
7	0xbdfcea34	-0.12349358
8	0x3d22c454	0.039738014
9	0x3da994de	0.08280347
10	0xbdc5593e	-0.09636162
11	0x3d458556	0.048222862
12	0xbc466ce0	-0.012110919
13	0x3d0e5431	0.03474826
14	0x3e2bc36d	0.16773768
15	0x3d0f1cbf	0.034939524
16	0xbdf66035	-0.12030069
17	0xbc7aa256	-0.015297493
18	0x3e33b622	0.17549947
19	0xbd96640c	-0.07343301
20	0x3c7bdb8c	0.015372168
21	0x3df6315d	0.12021134
22	0xbd55e6f8	-0.052222222
23	0x3b28d25c	0.002576015
24	0x3dd60f8e	0.104521856
25	0xbdad61be	-0.084659085
26	0x3d16d1d4	0.0368212
27	0x3d7f4b4d	0.06232767
28	0x3d171ec0	0.03689456
29	0x3e0518e1	0.12997772
30	0x3dc68f42	0.09695293
31	0xbdeeb356	-0.11655299
32	0xbe48fb15	-0.1962703
33	0x3cb406c3	0.02197588
34	0xbd3cacfa	-0.0460634
35	0xbcc8564c	-0.024455212
36	0x3e371aff	0.17881392
37	0x3dd358fb	0.10319706
38	0xbd2e379f	-0.042533513
39	0x3e3215f7	0.17391191
40	0x3c4865a2	0.012231262
41	0xbd5e1c7b	-0.05422638
42	0xbcca6d37	-0.02471028
43	0xbd61d787	-0.055137184
44	0xbdf4b9ec	-0.11949524
45	0xbd1887af	-0.037238773
46	0x3e2f832f	0.17139886
47	0x3db0aba9	0.086264916
48	0x3e29f307	0.16596614
49	0xbdedc173	-0.11609163
50	0xbdba324b	-0.09091624
51	0x3e34c2e0	0.17652464
52	0xbd6969d7	-0.056985702
53	0xbd67224b	-0.05642919
54	0xbe0176b7	-0.12642942
55	0x3e1430b1	0.144717
56	0xbd87bba4	-0.066275865
57	0x3dbbd7f0	0.09172046
58	0x3d1c4c82	0.0381589
59	0x3aa715d5	0.0012747595
60	0xbdafe9ff	-0.08589553
61	0x3e05174c	0.12997168
62	0xbd9e44c6	-0.07727961
63	0x3b3f6ec4	0.0029210309
64	0xbde6f4f0	-0.11277187
65	0x3c9db09d	0.019249255
66	0x3e13d2db	0.14435904
67	0x3e30f329	0.17280258
68	0x3ce0602f	0.027389614
69	0xbcaa11f2	-0.02076051
70	0x3dd29e78	0.10284132
71	0x3dff9b88	0.12480837
72	0xbd5d7bef	-0.05407327
73	0xbd5fd804	-0.054649368
74	0x3d8f15d2	0.06986584
75	0x3e2fdda4	0.17174393
76	0x3c03f1fd	0.0080533
77	0x3d2f9d2c	0.0428745
78	0x3e615e53	0.22008638
79	0xbdd2c0a9	-0.10290653
80	0x3cbfb7cb	0.023403069
81	0x3def520c	0.11685571
82	0x3ccacc64	0.024755664
83	0xbc0d912a	-0.008640567
84	0x3e0f43a4	0.13990647
85	0xbe08b371	-0.13349701
86	0x3d9675c8	0.07346684
87	0x3d5c73b3	0.053821277
88	0x3e405ee6	0.18786201
89	0x3da7f53a	0.0820107
90	0x3e192364	0.14954907
91	0xbd123796	-0.035697542
92	0x3d30bfd8	0.043151706
93	0xbd746811	-0.059669558
94	0xbe4a73fa	-0.19770804
95	0x3df4e07e	0.11956881
96	0x3e0e58c4	0.13901049
97	0xbcb8886b	-0.022525987
98	0x3d7e35a2	0.062062867
99	0x3d1a36b6	0.037649833
100	0x3dac12b7	0.08402007
101	0xbe2ba474	-0.16761953
102	0x3dbae023	0.09124782
103	0xbd68abb5	-0.056804378
104	0xbe102ce2	-0.14079621
105	0x3e57fb11	0.21091868
106	0xbd0ab42a	-0.033863224
107	0x3c01f48d	0.007931841
108	0xbb9bd643	-0.0047557666
109	0xbe021da5	-0.12706621
110	0x3e412dea	0.18865171
111	0x3dd7bc1a	0.105339244
112	0xbce165e7	-0.027514411
113	0xbb987bfb	-0.0046534515
114	0x3d25d035	0.040481765
115	0xbd37ccdb	-0.0448731
116	0x3d4f4b74	0.050609067
117	0xbe079e5a	-0.13244
118	0xbd3dd183	-0.046342384
119	0xbd45551b	-0.048176866
120	0x3e20dc35	0.15709002
121	0x3a7ee49c	0.00097233965
122	0x3e21eda4	0.15813309
123	0xbd858fc7	-0.06521564
124	0xbe25f4f9	-0.16206731
125	0x3e134b48	0.14384186
126	0x3dc5c6ab	0.096570335
127	0x3d4314b8	0.04762718
128	0xbbd538ff	-0.0065070386
129	0x3e312495	0.17299111
130	0xbdba5ae7	-0.090993695
131	0xbe3bfd1a	-0.1835827
132	0x3ddf61cf	0.109073274
133	0x3e2fc161	0.17163612
134	0x3db4e224	0.088321954
135	0xbceaae3f	-0.02864754
136	0xbe17dc7d	-0.14830203
137	0x3d11cacd	0.035593797
138	0xbe5053c6	-0.20344457
139	0xbe239b8e	-0.15977308
140	0x3e256079	0.16150083
141	0xbe194ae1	-0.1496997
142	0xbe20035f	-0.15626286
143	0xbd2463eb	-0.04013435
144	0x3ded354c	0.11582431
145	0xbde21cd6	-0.11040656
146	0x3d3dfee3	0.046385657
147	0xbb72ddc8	-0.0037058461
148	0x3d8abf0b	0.0677472
149	0x3e111829	0.14169373
150	0x3d9e45ff	0.077281944
151	0x3c97f379	0.018548714
152	0x39f7d4ed	0.00047270153
153	0x3e07e076	0.13269219
154	0x3e1e6263	0.15467219
155	0xbc6f0f99	-0.014591121
156	0x3d8f38bf	0.06993245
157	0x3bc1df76	0.005916531
158	0x3da0cd56	0.07851665
159	0xbe48458f	-0.19557784
160	0xba30f8e1	-0.0006750953
161	0xbe0917db	-0.13388006
162	0xbd9e2d8e	-0.077235326
163	0xbe82dfa2	-0.25561243
164	0x3d91fe79	0.07128615
165	0xbdb1a2db	-0.0867364
166	0x3d3bdc34	0.0458643
167	0xbd613b58	-0.054988235
168	0x3d79af72	0.060958333
169	0x3dc07e3a	0.09399076
170	0xbd2b8799	-0.041877363
171	0x3e00a0d5	0.12561353
172	0x3e90b16c	0.28260362
173	0x3e0592ec	0.13044327
174	0x3db9c49f	0.090707056
175	0x3e113c49	0.14183153
176	0x3e570613	0.20998411
177	0xbd680f24	-0.056655064
178	0x3e34268b	0.17592828
179	0xbdb8178f	-0.089888684
180	0xbbcdff6f	-0.0062865536
181	0x3e2574c1	0.1615782
182	0xbd2243e9	-0.039615545
183	0x3d4b06a0	0.049566865
184	0x3d0e6a39	0.03476927
185	0x3e2601ee	0.16211674
186	0xbcdf5a94	-0.02726487
187	0xbca45a2a	-0.020062525
188	0x3dfde938	0.123979986
189	0x3d78f836	0.060783587
190	0xbd2f84cb	-0.04285125
191	0x3dc9836f	0.09839522
192	0x3dea5122	0.11441256
193	0x3e29242d	0.16517706
194	0x3e2b8712	0.16750744
195	0x3ca2bd75	0.01986573
196	0xbd6ae9fd	-0.057352055
197	0x3aa5a4fa	0.0012637668
198	0x3d91dc46	0.07122092
199	0xbbc47b42	-0.005996139
200	0xbb0b17e6	-0.0021223961
201	0x3dbd6bbd	0.09249065
202	0x3d08dcdf	0.033413764
203	0xbd0352ee	-0.03206151
204	0xbcb55e54	-0.022139706
205	0x3caf0a0a	0.021367092
206	0x3e071f17	0.13195454
207	0x3c1d0965	0.009584759
208	0xbd9e64ab	-0.07734045
209	0xbc2a1e02	-0.010383131
210	0x3e49ab1d	0.19694181
211	0x3dbe05ff	0.092784874
212	0x3e14af61	0.14520027
213	0x3d92024a	0.07129343
214	0x3c25758e	0.010098828
215	0x3d1c0b5c	0.03809677
216	0x3db9ebe1	0.090781935
217	0x3d848057	0.064697914
218	0x3e05140a	0.12995926
219	0x3e0dd4ad	0.1385066
220	0x3d9ca4b6	0.076486036
221	0xbdcb0c48	-0.09914452
222	0xbce3a826	-0.02779014
223	0xbe75450d	-0.23952122
224	0x3e2b7017	0.16741978
225	0xbda3d127	-0.07998877
226	0xbd84397d	-0.064562775
227	0xbd6d6c63	-0.057964694
228	0x3ce72359	0.028215097
229	0xbbcb603e	-0.0062065413
230	0xbe0ae4f8	-0.13563907
231	0x3d9e2bf8	0.0772323
232	0xbe44f217	-0.19232975
233	0xbe5e1383	-0.2168713
234	0x3e0edaaa	0.13950601
235	0xbd07b5a7	-0.03313222
236	0x3d6e26e9	0.058142576
237	0xbc447bae	-0.011992378
238	0x3dabe5a2	0.08393408
239	0xbddb4929	-0.107073136
240	0xbd016fd5	-0.031600792
241	0xbe13fdab	-0.14452235
242	0x3db4b4a1	0.08823515
243	0x3d0fb0d1	0.035080735
244	0x3dc66726	0.09687643
245	0x3d94a415	0.07257859
246	0x3c75bada	0.014998162
247	0x3d7646ad	0.060125995
248	0x3e122ff7	0.1427611
249	0xbd696af1	-0.056986753
250	0x3e69865a	0.22805157
251	0xbd9f22b2	-0.077702895
252	0x3d82334c	0.0635744
253	0xbd1e40f6	-0.03863617
254	0x3db99750	0.09062064
255	0x3dc886cc	0.097913355

fc2.weight f4 [128, 256]
0	0xbdf14676	-0.117810175
1	0x3de9f65f	0.11423945
2	0xbcd091de	-0.02546018
3	0xbca96dc7	-0.020682229
4	0xbe36fbb1	-0.1786945
5	0xbdbaf59b	-0.09128877
6	0x3e09e895	0.13467629
7	0xbbbb0e04	-0.005708458
8	0x3cad353d	0.02114355
9	0x3e2cde0c	0.16881579
10	0x3e157a41	0.14597417
11	0x3dfd41a8	0.123660386
12	0x3e31f7ae	0.17379639
13	0x3c2308ee	0.0099508595
14	0xbe7b39f0	-0.2453382
15	0xbc883b2c	-0.016629778
16	0x3d46359d	0.048390973
17	0xbd80eb1f	-0.06294846
18	0xbd874ffa	-0.06607051
19	0x3c8d6fa3	0.017265147
20	0x3e00aad2	0.12565163
21	0x3d7973e4	0.060901538
22	0x3d75d1ae	0.06001442
23	0x3e43e3d2	0.19129875
24	0xbe71515e	-0.23566195
25	0xbe0786ea	-0.1323506
26	0xbc9e73cd	-0.019342327
27	0xbe5aba38	-0.213601
28	0xbdb62d02	-0.08895303
29	0x3dfe26b5	0.124097265
30	0xbd77d386	-0.06050446
31	0x3e596128	0.21228468
32	0x3e08679c	0.13320774
33	0x3bf453fc	0.007456301
34	0xbd89a589	-0.067210265
35	0xbc68f772	-0.014219152
36	0x3d1fcdd4	0.039014652
37	0xbdec4834	-0.11537209
38	0xbc09c2fc	-0.008408304
39	0x3dcdac3b	0.10042616
40	0xbe456f6c	-0.19280785
41	0xbebf1a39	-0.37324694
42	0x3d47d835	0.048790175
43	0x3c3f7b08	0.011687048
44	0xbce02a7d	-0.02736401
45	0x3da31214	0.079624325
46	0xbb2c8c13	-0.0026328608
47	0x3d603c17	0.054744806
48	0xbc390cf6	-0.011294594
49	0x3d89ff37	0.067381315
50	0x3d8b0e93	0.06789889
51	0x3bf770bf	0.007551282
52	0xbe2aab40	-0.16666889
53	0xbdb73f6c	-0.08947644
54	0x3d102b84	0.03519775
55	0x3e5a169a	0.21297684
56	0xbdddc2cb	-0.108281694
57	0xbdfe6bb0	-0.124228835
58	0x3d92265e	0.07136224
59	0xbd51364a	-0.051077165
60	0xbd56e5b5	-0.05246516
61	0x3df3eb95	0.11910168
62	0x3d6052ba	0.054766394
63	0x3d3126d0	0.043249905
64	0x3e62bbb9	0.22141923
65	0xbe0435c0	-0.12911129
66	0x3de0f74d	0.10984669
67	0x3db7c69c	0.089734286
68	0x3cf76032	0.030197237
69	0xbc607004	-0.013698582
70	0x3d9d27fe	0.076736435
71	0x3d86a0a5	0.06573609
72	0x3d0905cc	0.033452794
73	0x3e80e1a6	0.25172156
74	0xbd4b47b1	-0.049628917
75	0x3ddf5019	0.10903949
76	0xbdccf659	-0.100079246
77	0x3dcb5085	0.09927467
78	0x3dbebbd8	0.09313172
79	0x3dcd903d	0.10037277
80	0xbe6dadab	-0.2321078
81	0xba5ebfd5	-0.0008497213
82	0x3dbbd8ed	0.09172235
83	0x3dd626e5	0.10456637
84	0xbc615462	-0.013753029
85	0x3c177a4f	0.009245469
86	0xbce333e1	-0.027734699
87	0x3e294b14	0.16532546
88	0xbab21b1f	-0.0013588405
89	0xbe02ab2f	-0.12760614
90	0x3d260dcd	0.040540505
91	0x3d2f3aa5	0.042780537
92	0x3d195b92	0.037440844
93	0x3c96288b	0.01832988
94	0xbe0b3e79	-0.1359805
95	0xbd9d519e	-0.07681583
96	0xba7568bd	-0.00093616155
97	0x3d4fe541	0.050755743
98	0x3d206ed6	0.0391682
99	0x3d39638e	0.04526096
100	0xbd3c7382	-0.046008594
101	0x3d80a093	0.06280627
102	0x3b652a81	0.0034967961
103	0x3d009858	0.031395286
104	0x3dd4aa81	0.103840835
105	0x3dd28679	0.10279555
106	0x3dbd580e	0.09245311
107	0x3e2af3c9	0.16694559
108	0x3ce3b439	0.027795898
109	0x3de8eba0	0.11373067
110	0x3c18d7d3	0.0093288
111	0x3de4f17e	0.111788735
112	0xbd148355	-0.03625806
113	0x3df08cc6	0.117456004
114	0x3d5a71f9	0.05333135
115	0x3b41ee81	0.0029591622
116	0x3df94710	0.12171757
117	0x3d30f003	0.043197643
118	0xbcb4b3a1	-0.02205831
119	0x3c1f84d2	0.009736257
120	0x3d4d0d9f	0.05006182
121	0x3dcd8895	0.100358166
122	0xbdc43cff	-0.095819466
123	0x3b748417	0.0037310177
124	0xbdf32e54	-0.11874071
125	0x3ca49782	0.020091776
126	0x3cdfbf38	0.02731286
127	0x3e3d0788	0.18459904
128	0xbdc80c56	-0.09767978
129	0xbd57c2fc	-0.052676186
130	0x3c2526e1	0.01008007
131	0x3dc3bab0	0.09557092
132	0x3d3d4123	0.046204697
133	0xbdc1ebad	-0.0946878
134	0xbdd11acf	-0.102101915
135	0x3e29a67e	0.16567418
136	0x3e3771bd	0.17914481
137	0x3e854daf	0.2603583
138	0x3d80187c	0.0625467
139	0x3de9b9b1	0.11412371
140	0xbcf426dc	-0.029803686
141	0x3db27cbd	0.08715198
142	0x3d91eaa4	0.07124832
143	0x3a808e51	0.0009808039
144	0x3dc661c1	0.09686614
145	0xbe6566c2	-0.2240248
146	0xbde3738c	-0.11106023
147	0xbdf3f074	-0.11911097
148	0xbccc685b	-0.024952104
149	0x3db58a6a	0.08864291
150	0xbdc3344d	-0.0953146
151	0xbd5aae4e	-0.053388886
152	0xbe5389d4	-0.20658046
153	0x3e4847c0	0.1955862
154	0x3d01b7b8	0.03166935
155	0xbbc0bf51	-0.0058821817
156	0xbd512376	-0.05105921
157	0x3e1f744e	0.1557171
158	0xbd018d9b	-0.031629186
159	0x3e0f9d31	0.14024808
160	0xbe06a6d8	-0.13149583
161	0xbd2c3b66	-0.042048834
162	0xbcac9b71	-0.021070214
163	0x3e9301b5	0.2871224
164	0xbdc4d96c	-0.096117824
165	0x3e616cba	0.22014132
166	0xbd2eb53d	-0.04265331
167	0x3d3cc96f	0.04609054
168	0xbdb2c19f	-0.087283365
169	0xbd88c0da	-0.066774085
170	0xbe383d95	-0.17992242
171	0x3d43dcea	0.047818102
172	0x3d8e40ad	0.0694593
173	0xbe100ff7	-0.1406859
174	0x3d568324	0.05237116
175	0x3d823100	0.06357002
176	0x3e026454	0.12733585
177	0x3e01a765	0.12661512
178	0x3e5af759	0.21383418
179	0x3dd9bd98	0.10631865
180	0xbd770865	-0.06031074
181	0x3d6a178c	0.057151362
182	0xbcd0cd38	-0.02548848
183	0xbe350f17	-0.17681538
184	0xbb82e281	-0.0039942865
185	0xbcd6a5a6	-0.026202034
186	0x3c8d4c67	0.017248346
187	0x3d59b866	0.05315437
188	0xbd472db3	-0.048627567
189	0xbc411a21	-0.011786015
190	0x3e1f6acf	0.15568088
191	0x3ce475b8	0.027888164
192	0x3e31cb63	0.17362742
193	0xbd1b9b47	-0.03798988
194	0xbd8cd4ba	-0.06876512
195	0x3ccd23bc	0.025041454
196	0xbd856047	-0.06512504
197	0xbdef90d8	-0.11697549
198	0x3df8248f	0.12116348
199	0xbe50ee75	-0.20403464
200	0xbd90f5a6	-0.07078104
201	0x3cb73e32	0.022368524
202	0x3d53261e	0.051550023
203	0x3d3c2e2b	0.045942467
204	0x3e547a63	0.20749812
205	0x3de6f45f	0.11277079
206	0xbd76ee68	-0.060285956
207	0xbe4985ce	-0.19679949
208	0xbe09fad9	-0.13474597
209	0xbc803cd8	-0.015654013
210	0xbd8518c9	-0.06498868
211	0x3e540350	0.20704389
212	0x3d8879cb	0.06663855
213	0xbd096fdb	-0.03355394
214	0xbe847d24	-0.25876725
215	0x3db228f5	0.08699218
216	0x3bd87d91	0.0066067656
217	0x3bcb66a6	0.006207305
218	0x3ca433b3	0.020044183
219	0xbd80d5f3	-0.062908076
220	0x3d40859f	0.04700243
221	0x3e1828d3	0.14859323
222	0xbe0e6f28	-0.1390959
223	0xbc8ad6a4	-0.016948052
224	0x3d8ddcad	0.06926856
225	0xbe13bc2c	-0.1442725
226	0xbce03de5	-0.027373264
227	0x3df87fd9	0.1213376
228	0x3ccbae16	0.024863284
229	0xbcea8ec1	-0.028632523
230	0x3dc7b955	0.09752146
231	0x3e278ba3	0.16361861
232	0x3dac13e8	0.08402234
233	0x3e3fd74e	0.18734476
234	0xbd70fa7c	-0.05883263
235	0x3e22ad3b	0.15886395
236	0x3d850ccb	0.06496581
237	0xbd1cda36	-0.03829404
238	0xbdd51ec9	-0.104062624
239	0x3d49ff71	0.049315874
240	0x3e415148	0.18878663
241	0xbdfa04e2	-0.122079626
242	0xbb66a0b1	-0.0035190994
243	0xbcc671b6	-0.024224143
244	0x3c8938d3	0.016750729
245	0xbdf6e7e4	-0.120559484
246	0xbde09512	-0.10965933
247	0xbd528c05	-0.051403064
248	0xbca70243	-0.02038682
249	0xbc646548	-0.013940163
250	0x3ca6c40c	0.020357154
251	0x3ce2debf	0.027694104
252	0x3d8c1e58	0.06841725
253	0x3dadc86f	0.08485495
254	0x3e352d5d	0.17693086
255	0x3de8e62f	0.11372029

fc2.bias f4 [128]
0	0x3d11a4ed	0.035557676
1	0x3d185364	0.037188902
2	0xbd5fea9e	-0.054667108
3	0x3d23e372	0.04001183
4	0xbd5f422d	-0.05450647
5	0x3d265829	0.04061142
6	0xbccdc6d8	-0.02511923
7	0x3c471699	0.012151384
8	0xbca2fa24	-0.019894667
9	0x3adc728a	0.0016818803
10	0x3c9fd1ac	0.019509159
11	0xbda33fe2	-0.07971169
12	0xbd01896e	-0.031625204
13	0x3b24f440	0.0025169998
14	0xbd4e238c	-0.05032687
15	0x3d5a906d	0.05336039
16	0x3cc1753a	0.023615468
17	0x3d89647c	0.06708619
18	0xbd0fc8ac	-0.035103485
19	0xbceb7c37	-0.028745754
20	0xbd007e6d	-0.03137057
21	0xbd01482c	-0.03156297
22	0xbd6a8192	-0.057252474
23	0xbc2bad33	-0.010478306
24	0xbd08ec75	-0.033428628
25	0xbce5bee4	-0.028045125
26	0xbd6da9d0	-0.058023274
27	0x3d13aa7b	0.036051255
28	0x3c6ab69e	0.014325766
29	0xbc488853	-0.0122395335
30	0x3b079c5b	0.002069256
31	0xbc986345	-0.018602023
32	0xbd830ee3	-0.06399324
33	0xbd3f5115	-0.046708185
34	0xbda8f2e9	-0.082494564
35	0xbc0879d9	-0.008329832
36	0xbd343550	-0.043996155
37	0xbc9dd748	-0.019267693
38	0xbc9c6aac	-0.019093834
39	0xbc4aa644	-0.012368742
40	0x3d58f80d	0.052970935
41	0xbcbe3b66	-0.023221683
42	0x3d24bf4f	0.04022151
43	0xbd0b1c65	-0.033962626
44	0xbce27462	-0.027643386
45	0x3d530a24	0.051523343
46	0x3cc0e239	0.023545371
47	0xbc5aadb5	-0.013347079
48	0x3d53a11e	0.051667325
49	0x3db11bdd	0.086478926
50	0x3b5d02ea	0.003372366
51	0xbd5dd3d2	-0.054157086
52	0x3be0ec67	0.006864119
53	0xbcdf3f0c	-0.027251743
54	0xbc2d64fd	-0.0105831595
55	0x3dcb5489	0.09928233
56	0xbcc95061	-0.02457446
57	0x3b4dcbaa	0.003140191
58	0x3da050a5	0.07827882
59	0xbc1b446e	-0.009476764
60	0x3c1d6363	0.009606215
61	0x3d1547cf	0.036445435
62	0x3b1b55f4	0.0023702355
63	0x3d98f0d3	0.074678086
64	0xbd8270ce	-0.06369172
65	0x3c8d6ea4	0.017264672
66	0x3b87469d	0.004128291
67	0x3b972cc1	0.0046134894
68	0x3c419cc3	0.01181716
69	0x3d973088	0.073823035
70	0x3cb45e62	0.022017661
71	0x3d6f9ecd	0.058501054
72	0x3d015bd2	0.031581707
73	0x3d79be5b	0.060972553
74	0xbc2602bc	-0.010132488
75	0x3d3a0c4f	0.045421895
76	0xbd71375b	-0.05889068
77	0x3d34f414	0.044178084
78	0x3d27974f	0.040915783
79	0x3cd5ce42	0.026099328
80	0xbcdf25d6	-0.027239721
81	0xbb628cd2	-0.0034568799
82	0x3d79c8dc	0.06098257
83	0xbb737294	-0.0037147151
84	0xbd14d577	-0.03633639
85	0xbd26aa6e	-0.04068988
86	0x3b328ec8	0.0027245749
87	0x3cb12649	0.021624701
88	0x3c81c647	0.015841616
89	0x3c546c80	0.012965322
90	0x3d951398	0.07279128
91	0x3c893350	0.0167481
92	0xbc9de66b	-0.01927491
93	0xbd8cad22	-0.0686896
94	0xbccd74d9	-0.025080131
95	0xbb82c54d	-0.0039908052
96	0x3c66a427	0.014077223
97	0x3d757c67	0.059933092
98	0xb9c82ab8	-0.000381788
99	0xbb0731ff	-0.0020629165
100	0xbd7232ef	-0.059130605
101	0x3cf770a4	0.030205078
102	0xbb6fe4ec	-0.0036604954
103	0xbc3c477f	-0.011491655
104	0x3d1df11c	0.038560018
105	0x3cb11e4e	0.021620896
106	0xbd500044	-0.050781503
107	0x3d91e67f	0.07124042
108	0x3d55ef8a	0.052230395
109	0xbb973753	-0.0046147495
110	0xbcf89166	-0.030342769
111	0xbd343091	-0.04399163
112	0x3da84941	0.08217097
113	0xbcecda2e	-0.02891263
114	0x3d846ba5	0.06465844
115	0x3bc7fed9	0.0061033783
116	0x3dad676b	0.08466991
117	0x3c03b615	0.008039017
118	0x3c296fbb	0.01034158
119	0x3c40b8e1	0.011762829
120	0xbd9bd971	-0.07609833
121	0x3d272ed1	0.040816132
122	0xbc720093	-0.014770645
123	0x3d5c6133	0.053803634
124	0xbd29678c	-0.041358516
125	0xbda8c5f0	-0.082408786
126	0xbd202af6	-0.03910347
127	0xbd2ffa0c	-0.042963073

fc3.weight f4 [4, 128]
0	0x3e882980	0.26594162
1	0xbe831776	-0.25603837
2	0xbe730719	-0.23733176
3	0x3de61a19	0.112354465
4	0xbeb4ae24	-0.3528911
5	0xbe129059	-0.14312877
6	0x3e1c078d	0.15237255
7	0x3e7c543f	0.24641512
8	0x3c6f0570	0.014588699
9	0xbed3f785	-0.4139978
10	0x3e21b40b	0.15791337
11	0x3e8b0fee	0.2716059
12	0x3e17ccfb	0.14824288
13	0x3f3a5949	0.7279249
14	0xbc1d1211	-0.009586827
15	0x3f0d5aa7	0.5521645
16	0xbc8cee04	-0.017203338
17	0x3d95cacd	0.07314072
18	0x3e7c2d00	0.24626541
19	0x3da39559	0.0798747
20	0x3ec8a4c3	0.39188203
21	0x3e2f3217	0.17108952
22	0xbdd9032f	-0.1059631
23	0xbdc9c699	-0.098523326
24	0x3d57890a	0.052620925
25	0x3c92f645	0.017939696
26	0xbda90208	-0.082523406
27	0x3a99eaa7	0.0011742905
28	0xbe449bb7	-0.19200025
29	0x3e8780c9	0.26465443
30	0x3d856e05	0.06515125
31	0x3db1b431	0.08676947
32	0xbcd78a5c	-0.026311092
33	0x3ed0f252	0.40809876
34	0x3e957349	0.29189518
35	0xbdfa9e27	-0.122371964
36	0xbe73a12c	-0.23791951
37	0xbe966c2d	-0.29379407
38	0xbdae4d86	-0.0851088
39	0x3e039e46	0.12853345
40	0xbe84a76a	-0.25908977
41	0xbeb7b1cd	-0.3587784
42	0xbe0d7d39	-0.138173
43	0xbe52896d	-0.20560236
44	0x3ec78777	0.3897054
45	0xbcd62360	-0.026139915
46	0x3c3182e3	0.0108344285
47	0xbdbb6e35	-0.0915188
48	0x3cb764c9	0.022386925
49	0xbf0951f5	-0.5364068
50	0xbe230caf	-0.15922807
51	0x3ef42eb3	0.4769188
52	0xbcbfa960	-0.023396194
53	0xbe86b51e	-0.26310056
54	0xbe829ab5	-0.25508657
55	0xbeb372a6	-0.35048407
56	0x3f2ca8e5	0.6744521
57	0xbe8a70ec	-0.27039278
58	0x3b9a5955	0.0047103562
59	0xbeee56c2	-0.46550566
60	0x3e3fd448	0.18733323
61	0xbe14b518	-0.14522207
62	0xbcc39123	-0.023872918
63	0x3e87d27c	0.26527774
64	0x3f04c9b5	0.5187028
65	0x3dd4972a	0.10380395
66	0xbe7366de	-0.2376971
67	0xbdfe1a10	-0.12407315
68	0x3ef13fc4	0.47118962
69	0x3e542b63	0.20719676
70	0xbe5e2ba3	-0.21696334
71	0xbda21d04	-0.079156905
72	0xbb6446c4	-0.0034832219
73	0x3f13d395	0.57744724
74	0xbca252cc	-0.019814871
75	0x3d89a8bc	0.06721637
76	0x3ebc30fc	0.36756122
77	0xbe34759e	-0.17622992
78	0xbbaa47c8	-0.0051965453
79	0xbe8fff13	-0.28124294
80	0xbe43226f	-0.19056104
81	0x3e76df63	0.24108653
82	0x3ed65a5a	0.41865808
83	0x3e84c9b8	0.2593515
84	0xbd958d98	-0.073023975
85	0xbc3b591f	-0.011434822
86	0x3e39c03e	0.18139741
87	0x3e7c95ce	0.24666521
88	0xbf1c0b77	-0.60954994
89	0xbdc09edb	-0.09405299
90	0x3da4e72b	0.08051904
91	0xbd4d2751	-0.050086323
92	0xbdf4d175	-0.11954013
93	0xbcb4bcf4	-0.022062756
94	0x3e2a76b8	0.1664685
95	0xbe749bf6	-0.2388762
96	0x3eba0ebe	0.36339372
97	0x3e9580bf	0.29199788
98	0x3f1c02e9	0.6094194
99	0x3eb29db9	0.34885958
100	0x3e929cf9	0.28635386
101	0xbe8d3630	-0.27580404
102	0xbe369cee	-0.17833301
103	0xbe6f5c0e	-0.2337496
104	0xbe19db9d	-0.15025182
105	0xbe09ef4c	-0.13470191
106	0x3db5d912	0.088792935
107	0x3ddc0a26	0.10744123
108	0x3e7abb3b	0.24485485
109	0x3d7e233a	0.062045313
110	0xbd0f8273	-0.035036515
111	0x3e4067ca	0.18789592
112	0x3e924234	0.28566134
113	0xbdef92c9	-0.11697919
114	0xbe8c4439	-0.273958
115	0x3dea72a6	0.11447649
116	0x3e92dd18	0.28684306
117	0x3cac9210	0.021065742
118	0x3f0ed9ec	0.5580127
119	0x3e207bbc	0.15672201
120	0xbe0eda14	-0.13950378
121	0x3ed13ca7	0.40866587
122	0xbe658e13	-0.22417478
123	0xbeb58463	-0.35452566
124	0xbea9a582	-0.33134085
125	0xbe2b3ac1	-0.16721632
126	0x3dae6379	0.08515067
127	0xbe55e7ff	-0.2088928
128	0xbc851c6a	-0.0162489
129	0xbf0677b2	-0.5252639
130	0xbe0e2d99	-0.13884582
131	0x3deab38f	0.11460029
132	0x3ddf360c	0.108989805
133	0x3db52304	0.08844569
134	0x3d49a6c0	0.04923129
135	0xbe3d70af	-0.18500017
136	0x3e852e95	0.26012102
137	0xbdc46075	-0.0958871
138	0xbe40089d	-0.18753286
139	0x3e025c33	0.12730484
140	0xbd84fe3b	-0.06493803
141	0xbc888b4d	-0.016667986
142	0x3ed4d313	0.41567287
143	0x3a3e0c93	0.00072497985
144	0xbd155b3b	-0.036463957
145	0xbe0119f4	-0.12607557
146	0x3f2b9b09	0.6703344
147	0xbdb3a788	-0.087721884
148	0xbe222a46	-0.15836439
149	0xbda495e4	-0.08036402
150	0xbe262deb	-0.16228454
151	0x3ccd7962	0.025082294
152	0x3e8e978f	0.27850005
153	0xbdf7f222	-0.1210673
154	0x3dc582d0	0.09644091
155	0x3e7c4bae	0.24638245
156	0xbd9a0beb	-0.075218044
157	0xbeb8b553	-0.3607584
158	0xbe338a83	-0.17533307
159	0xbe1114e4	-0.14168125
160	0x3c9bbc07	0.019010557
161	0x3d7e9f52	0.06216366
162	0xbd8698c2	-0.06572105
163	0x3e269edb	0.16271536
164	0x3e3f4a89	0.18680777
165	0x3d40782d	0.04698961
166	0xbd249a21	-0.04018605
167	0xbd82693b	-0.06367727
168	0xbd02e6de	-0.031958453
169	0x3da1a525	0.07892827
170	0xbe6ad4fa	-0.22932807
171	0xbcaabd90	-0.020842344
172	0xbe6d8078	-0.23193538
173	0xbe212173	-0.15735416
174	0xbe342c6a	-0.17595068
175	0x3dbdd084	0.09268287
176	0xbf044cad	-0.516795
177	0xbdf6295d	-0.12019608
178	0x3dabbc76	0.083855554
179	0x3e96397b	0.2934073
180	0xbc22a234	-0.009926368
181	0xbea6175a	-0.3243969
182	0xbc5e7596	-0.013577839
183	0xbf4f2c62	-0.809271
184	0xbe97f0d3	-0.29675922
185	0x3d1801e6	0.037111185
186	0x3e8f42de	0.27980703
187	0x3b864a21	0.0040981923
188	0xbe28c19a	-0.16480103
189	0xbded02e1	-0.11572815
190	0xbe38c4cd	-0.18043824
191	0xbcd8e1b0	-0.026474804
192	0x3d2b0fce	0.04176312
193	0x3e501170	0.20319152
194	0xbd285fc3	-0.04110695
195	0xbe4a3266	-0.19745788
196	0xbe2a717a	-0.1664485
197	0xbeab2e60	-0.3343382
198	0xbe103bbe	-0.1408529
199	0x3d221fd6	0.039581142
200	0xbc570374	-0.013123382
201	0xbd516943	-0.051125776
202	0xbd6a97e6	-0.057273768
203	0x3e37cde5	0.17949636
204	0xbc795a2f	-0.015219255
205	0x3e04cf97	0.12969814
206	0xbee19c6e	-0.4406466
207	0x3ea7c95e	0.32770818
208	0x3ea27478	0.31729484
209	0x3d591f2a	0.053008236
210	0xbdeca060	-0.115540266
211	0xbe42db43	-0.19028954
212	0xbcb0cb6d	-0.021581376
213	0xbe8a7149	-0.27039555
214	0xbc3cbe13	-0.011519927
215	0xbe149e6e	-0.14513561
216	0x3e46eb62	0.19425729
217	0x3d848944	0.06471494
218	0xbdea0379	-0.114264436
219	0x3e3cb0ee	0.18426868
220	0x3e3df705	0.18551262
221	0xbf11f4b6	-0.57014024
222	0x3e0847b5	0.13308604
223	0xbe18e860	-0.14932394
224	0xbd5a5ef6	-0.053313218
225	0x3cb1561f	0.021647511
226	0xbdc65d85	-0.09685806
227	0xbe3b69b6	-0.18302044
228	0xbdb11fe0	-0.08648658
229	0xbd17f4eb	-0.037098806
230	0xbdb579e3	-0.08861139
231	0x3e05c729	0.13064255
232	0x3decd471	0.115639575
233	0xbe4bb699	-0.19893874
234	0x3e992f5f	0.29918954
235	0x3d4a0baf	0.04932755
236	0x3e22aa70	0.15885329
237	0xbcfd242d	-0.030901039
238	0xbd424028	-0.047424465
239	0x3d9f43c4	0.07776597
240	0xbd0aa789	-0.03385118
241	0xbe4c25ea	-0.19936338
242	0x3e96d67d	0.29460517
243	0x3bb5dc1a	0.00554992
244	0x3e055316	0.13019976
245	0xbed5a504	-0.4172746
246	0x3e28c949	0.16483034
247	0x3e717e1c	0.23583263
248	0xbe594241	-0.2121668
249	0x3e181297	0.14850841
250	0xba092fa4	-0.0005233234
251	0x3e079e5a	0.13244
252	0x3db5ce86	0.08877282
253	0x3dae2dfc	0.085048646
254	0xbe5c8103	-0.21533589
255	0x3deb0556	0.11475627

fc3.bias f4 [4]
0	0x3d05a835	0.032631118
1	0xbda290b8	-0.07937759
2	0x3d8068c4	0.062699825
3	0xbc5496ba	-0.012975389
