savedmodels/checkpoint_1545158393_actor_episode128_score34.436.pth (torch_old, 169478 bytes, 6 tensors)

fc1.weight f4 [256, 33]
000000 99 76 8d bc 4f cd 45 bd 3f 38 ac bd be 48 2e 3d
       -0.017268466 -0.0482915 -0.084091656 0.04254984
000010 ab 6c d1 bc 2d 4e 04 3e 77 5e c4 bd 08 ec fc bc
       -0.025564512 0.12920447 -0.0958833 -0.030874267
000020 d2 93 a8 bc 24 7d a3 bd c6 93 14 be 43 9d b5 3b
       -0.020578299 -0.07982853 -0.14509496 0.0055424287
000030 ed 03 50 bd 5e d9 bf 3d 6c 0e 20 3e 35 fe 27 3e
       -0.050784994 0.093676314 0.15630502 0.16405566
000040 7c 0e 3a 3b 43 f0 ae 3c fa 30 25 bd 29 40 5e bd
       0.002838998 0.0213548 -0.04032991 -0.054260407
000050 94 97 55 bb d0 3e 8e 3d ec 4c 16 3e fd a1 89 bd
       -0.0032591568 0.06945574 0.14677781 -0.0672035
000060 02 10 6f 3d 07 8c 21 bd 95 09 82 bd fc 94 35 3d
       0.058364876 -0.03944018 -0.06349484 0.044331536
000070 db ba e8 bd 70 2a 01 3d aa 3f 37 bc 74 00 e9 3c
       -0.11363765 0.031534612 -0.011184612 0.028442599
000080 2e c9 ed be 81 52 00 be 4d c2 fd bd 7a bf 49 bd
       -0.4644255 -0.12531473 -0.123905756 -0.049254872
000090 d1 00 dd 3d 56 84 c3 3d db 2d 32 3d 89 de 4e 3c
       0.10791171 0.095467255 0.043500762 0.012626299
0000a0 98 b4 8d 3c cb 83 99 3d d8 55 86 bc e7 1b cc bd
       0.017298028 0.07495841 -0.016398355 -0.099662594
0000b0 58 14 1d 3e e5 47 c9 3d 97 98 cd 3b 9d 5e c5 3d
       0.15339792 0.09828166 0.0062742936 0.09637187
0000c0 f2 06 cb bd 76 73 97 3d c0 0e 27 3d 5c b6 cd bc
       -0.09913434 0.07395069 0.04078555 -0.02511137
0000d0 32 93 1d bc 6d 9f d4 bb 7d 53 13 bd a2 d8 06 3c
       -0.009617614 -0.0064887316 -0.035968293 0.00823036
0000e0 96 e4 40 bb e4 ee 19 3c a7 82 0b 3d ef 2c ab bd
       -0.0029433123 0.009395335 0.034060147 -0.0835818
0000f0 5c e0 c5 bc 07 6a 3f 3e ca 5b 71 bd 0d a3 12 3d
       -0.024154834 0.1869279 -0.058925427 0.03580003
000100 1a 4e 54 3d 29 05 6f be aa a1 01 be 7c 3d 02 bd
       0.051832296 -0.23341812 -0.12659326 -0.031796917
000110 52 5f 29 bc 2f c0 cb 3d 8c fa 88 3d 64 52 a4 bd
       -0.010337668 0.099487655 0.06688413 -0.08023527
000120 34 8a 69 3d 0c 06 86 bd 1a ae 1d 3d 8d 1e 5d bd
       0.057016566 -0.06544122 0.038496114 -0.053984214
000130 8c 93 68 bd 42 ac 85 3c 6a a8 fd 3c 4f db 8f bd
       -0.056781337 0.01631749 0.030964095 -0.07024252
000140 a6 82 63 3d 0a 71 88 3c 45 cc c0 3d 59 0c c5 3c
       0.055544518 0.016655464 0.09413961 0.02405374
000150 69 ca 99 bc 79 6f 06 3d 23 8c 4e bd 3e 00 4d 3d
       -0.018773274 0.032821152 -0.050426614 0.05004906
000160 52 3b b8 3d d1 bf f7 bd 8e 47 6d 3c db a2 c5 bc
       0.089956895 -0.12097133 0.014482392 -0.024125507
000170 ae 36 14 be 9a 97 4a bd df ff 22 bd 28 41 06 3d
       -0.14473984 -0.049460985 -0.0397948 0.03277698
000180 c3 13 52 bc 7c a1 12 bd 1b d7 2d be 28 ce ff 3c
       -0.012822094 -0.035798535 -0.16976587 0.031226233
000190 22 c0 0b bc 1b 7b eb 3c 8d fd 97 bd c6 c4 28 3d
       -0.008529695 0.028745225 -0.07421408 0.041203283
0001a0 9e 8b 1f 3d 3b 14 cb 3d 9b 8f c6 bd d7 72 ab bd
       0.03895151 0.09915968 -0.09695359 -0.08371513
0001b0 6d 69 e7 bc b4 f0 03 bd ab 49 c0 bd 31 d3 56 3d
       -0.028248513 -0.032211974 -0.09389051 0.0524475
0001c0 d8 f3 1c bd 27 6a 27 be 55 61 03 3d 90 66 6d 3d
       -0.038318485 -0.16349088 0.032075245 0.05795914
0001d0 e8 99 91 3d 42 e9 07 3d 08 00 a1 3c c7 bf 57 be
       0.071094334 0.033181436 0.019653335 -0.21069251
0001e0 16 0f 5d 3d bb 0a 66 bd 2a f1 ae bc 9f 8a 39 bd
       0.053969465 -0.056162577 -0.02135523 -0.045298215
0001f0 c6 f2 4d bd b2 b4 2c 3e 3c fb 25 3d 19 ec 26 bd
       -0.050280355 0.16865805 0.0405228 -0.040752504
000200 8c 51 63 bd 31 1c 33 bc 38 cd 34 bd dd 1b 2a 3e
       -0.05549769 -0.010932014 -0.044141024 0.16612191
000210 cc 48 fc 3c 3d d0 85 bd d9 f0 68 3d e9 7d 43 bc
       0.030796431 -0.06533859 0.056870315 -0.011931875
000220 c6 01 9a 3d 68 68 a5 bd b0 b2 00 3e be 27 4f bc
       0.075198695 -0.080765545 0.12568164 -0.012643753
000230 12 82 7a bd 3d a7 6b 3d 9d 4a e4 bc 77 38 ab bd
       -0.0611592 0.057532538 -0.02786761 -0.08360379
000240 35 9e 84 bc 3b 2f 12 bc 14 c7 ff 3d 66 11 ec bc
       -0.01618872 -0.008922393 0.12489143 -0.02881689
000250 44 07 3d 3c e2 03 17 bb a4 34 1b 3e 1d 0b c2 3b
       0.011537377 -0.0023043086 0.151568 0.005921735
000260 3b ab db bc eb 40 0d 3d ce ca d6 bc 28 c8 a3 3c
       -0.026815047 0.03448574 -0.026219752 0.019992903
000270 89 56 b2 3d 19 47 09 be bf 95 01 3e 78 16 3b be
       0.087079115 -0.13406028 0.1265478 -0.1827029
000280 dd 01 35 3c b8 4f 37 3c a8 02 47 3e 28 a8 74 3d
       0.0110478075 0.01118844 0.19434607 0.05973068
000290 eb 75 eb be 49 21 37 3d 37 0d 0c 3e c4 c8 63 be
       -0.45988402 0.044709478 0.13676916 -0.22244555
0002a0 1d 9e 16 bd 9f 9c d5 3d ed e0 f7 3c e1 f8 ca bd
       -0.036771882 0.10430264 0.03025862 -0.09910751
0002b0 58 c3 d6 3d ae 7f 71 3a 87 21 f5 3c 24 70 c3 3c
       0.104864776 0.0009212446 0.029923214 0.023857184
0002c0 fc 1a 4b bd a5 98 cc bd ff 9d 8e bc 60 b7 ff bd
       -0.04958628 -0.09990052 -0.017409323 -0.12486148
0002d0 f0 8d 76 3d 7a 6b e4 bc 05 e5 46 bd b9 3f 72 bd
       0.060193956 -0.02788328 -0.048558254 -0.059142802
0002e0 0a de e2 bc 98 ef 03 be 17 67 c4 bd 83 60 91 bc
       -0.027693767 -0.12884367 -0.09589975 -0.017746216
0002f0 4c b0 9e 3c df b2 31 bd 4e 63 b6 3d f0 c7 dd bd
       0.019371174 -0.043383475 0.089056596 -0.10829151
000300 e7 43 5b 3d 9d 13 03 3e e8 8c bf 3c c3 6b 80 bd
       0.053531554 0.1280045 0.023382619 -0.06270554
000310 b4 4c 82 3c 56 3f 26 3e 69 2a 94 bd 0e 8c 12 3d
       0.015905716 0.16235098 -0.072346516 0.035778098
000320 5b e2 a4 3b 35 11 0c 3d e7 51 8b 3d 5d 93 59 3d
       0.0050318665 0.034196097 0.06802731 0.053119052
000330 4b d6 14 3e b0 66 f3 bb 7f ad 0d 3d 9b 1e 44 3d
       0.14534871 -0.007428013 0.034589287 0.04788075
000340 ab 6d 59 3d e4 78 0b bc 20 99 30 bd a6 70 a2 bd
       0.053083103 -0.008512709 -0.04311478 -0.07931642
000350 1c dc d0 3d 9a 67 f0 bd bb 7f dc 3d 44 3a e4 3d
       0.101982325 -0.117385104 0.1076655 0.11143926
000360 a3 12 ee 3d 85 f3 af 3c 05 94 e9 3d 5d e8 32 bd
       0.116246484 0.021478424 0.114051856 -0.04367863
000370 39 aa a3 bd 93 54 4e 3d e4 1d e0 3c f6 94 39 be
       -0.07991452 0.050373625 0.027358003 -0.1812323
000380 0a a7 94 3d 7e e4 93 3c c3 61 c3 bc 90 ba 22 3d
       0.07258423 0.01805329 -0.023850327 0.0397287
000390 7f 1f 99 bd 38 80 46 3c c4 77 5d be b7 99 24 3c
       -0.074767105 0.012115531 -0.21627718 0.010046414
0003a0 fa 96 b5 3d c6 cc 38 3c c3 03 20 3d 70 c4 25 bc
       0.08866687 0.011279291 0.039066087 -0.010117635
0003b0 cb 73 ab bd 22 2f 2f ba f5 bf aa 3d 70 84 b3 bd
       -0.08371695 -0.00066827436 0.08337394 -0.08765495
0003c0 9c 78 5c bc c3 f2 62 3d fa c9 81 3a 1e 4c ca bb
       -0.01345649 0.055407297 0.0009902113 -0.0061736247
0003d0 ef fa 5a 3e da 25 d2 bc ce 91 ca bd 50 31 3f 3c
       0.21384786 -0.025652815 -0.09891091 0.011669472
0003e0 9e 36 df ba a8 a6 ca 3c cc a7 8d 3d ae cf 9b bc
       -0.0017029827 0.024737671 0.0691677 -0.019019928
0003f0 71 70 bf bd 83 16 48 bd 68 e4 20 3e df 92 93 3c
       -0.09347618 -0.048849594 0.1571213 0.01801437

fc1.bias f4 [256]
000000 0b 7b 99 3d da 75 57 3e 11 d2 87 bb 0b 46 c8 3d
       0.07494172 0.2104105 -0.004144915 0.09778985
000010 d8 49 0f 3e 50 71 65 be 14 6d 39 be 06 4e e0 bd
       0.13993013 -0.22406507 -0.18108016 -0.10952382
000020 96 1a 5f 3d 6e d1 a4 3d 95 e0 e0 bd 34 be 7d 3d
       0.054468714 0.08047758 -0.109803356 0.06194897
000030 f0 15 8e 3b 30 a7 3a 3d 28 9a 2c 3e a1 e6 36 3d
       0.0043361112 0.0455696 0.16855681 0.04465354
000040 53 ba fc bd 89 e3 80 bc dc c6 3d 3e 6a d0 8c bd
       -0.12340226 -0.015733497 0.1853289 -0.06875689
000050 9e 8f 81 3c ae ad 0d 3e 29 73 3a bd 0c 98 4c bd
       0.015815552 0.13835785 -0.04551998 -0.04994969
000060 bb f0 e2 3d 36 e6 9c bd 98 dd ef 3c 1a d7 68 3d
       0.11081072 -0.07661097 0.029280469 0.05684576
000070 29 b2 08 3d 46 a3 0c 3e 40 15 cf 3d 2e 61 ff bd
       0.03337303 0.13734159 0.10111475 -0.124697074
000080 4f 46 36 be 86 72 3b 3d 44 53 1d bd 04 21 3e bd
       -0.17800258 0.045763515 -0.038409486 -0.046418205
000090 1d f8 3d 3e f1 95 bd 3d 1e 69 15 bd a8 50 38 3e
       0.18551679 0.09257115 -0.0364772 0.17999518
0000a0 fc b4 1c ba cd bd 90 bd 8a 16 8d bb b3 5e 88 bd
       -0.00059778965 -0.070674516 -0.0043056654 -0.066586874
0000b0 d2 14 00 be 75 44 4e bd fc d3 30 3e 69 b3 ba 3d
       -0.12507942 -0.050358254 0.17268366 0.09116251
0000c0 54 8e 36 3e cf b3 e1 bd c2 9d a0 bd d4 82 37 3e
       0.17827731 -0.11020624 -0.0784259 0.17921
0000d0 e5 79 8a bd 0f 03 2c bd 52 3f 01 be 1c 0d 1b 3e
       -0.06761531 -0.041995104 -0.12621811 0.1514172
0000e0 87 a8 88 bd 83 bc ae 3d eb d5 50 3d 97 0c 50 ba
       -0.06672769 0.085320495 0.050985258 -0.00079364463
0000f0 67 f3 cd bd 3c e6 0e 3e be 0b 85 bd c4 8f c8 3b
       -0.10056191 0.13955015 -0.0649638 0.006120654
000100 8f 79 04 be 09 fb 18 3b 7f a9 0f 3e 0d dd 33 3e
       -0.12936996 0.0023342988 0.14029501 0.17564793
000110 a8 13 0b 3d 5a ca 39 bc 64 6f 01 3e 4a 7b ea 3d
       0.033954293 -0.011339748 0.12640148 0.11449297
000120 ff aa 54 bd 14 cf 7e bd f5 2f 91 3d 96 d6 33 3e
       -0.051920887 -0.062209204 0.07089225 0.17562327
000130 33 b4 a3 3c d2 cd 5a 3d f1 31 66 3e e0 31 d5 bd
       0.019983387 0.05341894 0.22479989 -0.104099035
000140 9d 7e 34 3c aa 18 f5 3d 75 c7 30 3d e8 42 58 bc
       0.011016515 0.11967595 0.043158967 -0.013199545
000150 6d 01 15 3e 1f 61 07 be 7a 5f 9d 3d be c8 4a 3d
       0.14551325 -0.13220643 0.07684226 0.04950785
000160 1e e5 36 3e f8 f5 9e 3d 11 55 1f 3e 8b 28 ac bc
       0.17860839 0.077617586 0.15559794 -0.021015426
000170 b5 92 cd 3c 48 c8 6e bd d3 57 49 be a1 87 c8 3d
       0.02509437 -0.05829647 -0.19662409 0.09791494
000180 82 67 0d 3e af cd e3 bc de 6d a8 3d c4 27 dc 3c
       0.13809016 -0.027808039 0.082240805 0.02687443
000190 08 16 a7 3d 35 8b 1a be 46 f3 c5 3d 63 47 6c bd
       0.08158499 -0.15092166 0.09665541 -0.057685267
0001a0 de 81 07 be 15 f4 5c 3e 13 81 f2 bc 5d ad db 3b
       -0.13233134 0.21577485 -0.029602563 0.006704016
0001b0 cf af 8d bc a9 c6 0a be aa 42 4b 3e 63 84 ec 3d
       -0.017295746 -0.13552345 0.19849649 0.11548688
0001c0 8e 38 5c bd c1 68 b8 bc 9b 20 f3 3c e3 ba 01 bd
       -0.053764872 -0.022510888 0.029678633 -0.03167237
0001d0 db d6 6b 3d 8a 6c 10 be 1f 14 1f bd ba 45 04 bd
       0.05757795 -0.14103904 -0.03883755 -0.03229306
0001e0 be d9 19 3e 21 c1 f2 3b f4 95 24 3e 54 ab 71 bd
       0.15024468 0.0074082767 0.16072828 -0.05900128
0001f0 49 2f 18 be 2c ac 14 3e 0e 07 ea 3d 98 48 49 3d
       -0.14861788 0.14518803 0.11427127 0.049141496
000200 45 df f8 ba 27 29 30 3e 82 2e 99 bd 06 e1 23 be
       -0.0018987438 0.17203198 -0.07479574 -0.16003808
000210 58 a3 e2 3d 87 0e 3b 3e 85 27 af 3d 23 46 64 bc
       0.110663116 0.1826726 0.085524596 -0.0139327375
000220 8d 19 0e be 81 ee 15 3d a0 9d 57 be d8 5f 2a be
       -0.13876934 0.03660441 -0.21056223 -0.16638124
000230 c6 e2 32 3e fa ff 0b be 04 c9 16 be 3a 0a 19 bd
       0.1746932 -0.13671866 -0.14725119 -0.03736327
000240 6d 53 dd 3d eb 54 e9 bd e2 e8 68 3d c2 13 39 3a
       0.10806928 -0.1139315 0.05686272 0.0007060134
000250 bf f9 88 3d df 17 1e 3e ec f0 bd 3d 75 6f ec 3b
       0.0668826 0.15438794 0.09274468 0.007215435
000260 d9 69 06 3c fb 64 10 3e ed e9 20 3e 64 a8 3d bd
       0.008203947 0.14101021 0.15714236 -0.046303168
000270 ab a6 ad 3d 32 35 6f 3c 9d 52 ad 3d 08 a9 54 be
       0.08479055 0.014600085 0.08463023 -0.20767605
000280 fc 00 b3 3a 3c f5 ec bd f8 f5 ab bd ac 46 7f be
       0.001365691 -0.11570212 -0.08396524 -0.24929303
000290 2f 94 70 3d c4 a6 c6 bd 1f 6f 04 3d d2 46 2c bd
       0.05873507 -0.09699777 0.032332536 -0.042059727
0002a0 df 91 51 3d a3 c8 e1 3d 28 05 87 bd 3f df 00 3e
       0.051164504 0.110245965 -0.0659278 0.12585162
0002b0 42 8b 90 3e b9 dc f3 3d e8 e2 a0 3d 11 23 1a 3e
       0.28231245 0.11907334 0.07855779 0.1505244
0002c0 6e 4b 53 3e 2b 89 fb bc 01 da 23 3e 8a 67 d7 bd
       0.20634243 -0.030705055 0.1600113 -0.105177954
0002d0 da 7f 16 bb 31 4c 21 3e ae 10 4c bd 79 0f 30 3d
       -0.002296439 0.15751721 -0.049820594 0.042983506
0002e0 f7 8f 2a 3d 8c ca 2b 3e d0 7e e3 bc 18 80 19 bd
       0.0416412 0.16776484 -0.02777043 -0.037475675
0002f0 d1 0d 04 3e cb e2 8f 3d df 7a 3c bd 97 af ff 3d
       0.12895896 0.07025679 -0.046015617 0.12484663
000300 45 a5 fb 3d fb 99 26 3e d1 6c 4a 3e 4b 80 c3 3c
       0.12287382 0.16269676 0.19768073 0.023864886
000310 44 59 99 bd 1e 9f ff bb 4d d2 56 3d ba 98 1e 3b
       -0.07487729 -0.0078009507 0.052446652 0.002419992
000320 d6 7b 09 bc 59 d9 c2 3d 61 ef d9 3c ca 40 df bc
       -0.008391341 0.09514112 0.026603403 -0.027252574
000330 a7 61 d9 bc 6a 9d bb 3b 85 ce 0c 3e 6d d9 ae 3b
       -0.026535822 0.0057255523 0.13750656 0.0053359778
000340 45 b2 90 bd fa be 01 bd 94 af 4b 3e 00 da c5 3d
       -0.07065252 -0.03167627 0.19891196 0.09660721
000350 4d 3d 18 3e cb 66 69 3d d2 61 9d 3c a6 37 0d 3d
       0.14867134 0.056982797 0.019211683 0.0344769
000360 4f cf c1 3d 5c 13 69 3d e8 3f 03 3e f3 14 0f 3e
       0.09463369 0.05690323 0.12817347 0.13972835
000370 2f 1a da 3d 84 d6 b4 bd 4a 17 f8 bc d1 84 74 be
       0.106495254 -0.08829978 -0.030284543 -0.2387879
000380 40 6e 29 3e 0d 56 c5 bd f0 10 a1 bd 6c 53 13 bd
       0.16545963 -0.096355535 -0.07864559 -0.03596823
000390 6b 12 be 3c 6e af a0 3a 37 d6 e9 bd 20 c2 8d 3d
       0.023202142 0.0012259313 -0.11417811 0.06921792
0003a0 80 c4 3e be 7d 92 59 be 67 4f 19 3e f8 29 7e bc
       -0.18629646 -0.21247287 0.14971696 -0.015512936
0003b0 1f a0 7f 3d 21 c4 8e bc 35 f4 85 3d d1 01 c7 bd
       0.062408563 -0.017427506 0.065407194 -0.09717143
0003c0 a2 0f 07 bd 30 41 18 be 75 24 b6 3d b6 3c a1 3c
       -0.032973893 -0.14868617 0.088936724 0.01968227
0003d0 ad c0 ef 3d b2 77 dd 3d 29 e6 08 3c aa 20 6d 3d
       0.11706672 0.10813846 0.008355656 0.05789248
0003e0 89 aa 1c 3e 76 7e a0 bd 44 d3 68 3e e3 11 86 bd
       0.15299429 -0.078366205 0.22736841 -0.0654638
0003f0 91 c8 8d 3d ed df 3a bd 95 be a0 3d b7 c7 b2 3d
       0.06923021 -0.04562371 0.07848851 0.08729499

fc2.weight f4 [128, 256]
000000 38 7c e1 bd e7 ed 00 3e 5e 75 f2 bc 2c 3a bd ba
       -0.11010021 0.12590753 -0.02959698 -0.0014436892
000010 60 89 2d be b7 b3 bc bd b3 96 d1 3d ae e1 4d 3c
       -0.16946936 -0.092139654 0.10233822 0.012566013
000020 ff dd 53 3d 38 47 36 3e 86 54 fe 3d a9 e2 fb 3d
       0.051725384 0.17800605 0.12418465 0.12299091
000030 f4 cd 16 3e 71 13 01 3c ec d4 7c be 3c 56 91 3c
       0.14727002 0.00787817 -0.24690598 0.017741315
000040 94 66 8d 3d 2f da ec bc 68 68 7a bd fb db 45 3b
       0.06904331 -0.028912632 -0.061134726 0.0030190933
000050 40 ca f8 3d 74 ff a6 3d 47 6e 8c 3d 25 8c 6b 3e
       0.12147951 0.081541926 0.06856971 0.2300268
000060 0f 20 53 be ea 62 d8 bd 9c 18 05 bb 7e ed 68 be
       -0.20617698 -0.10565741 -0.0020308858 -0.22746846
000070 ae b0 63 bd 2f 3b f9 3d ae 18 1f bd 7b 81 6f 3e
       -0.055588417 0.121694915 -0.038841896 0.23389237
000080 54 4e ed 3d 89 a6 0e 3d 38 00 66 bd 70 97 2a bc
       0.115872055 0.03482679 -0.056152552 -0.010412082
000090 36 5e 56 3d 0c 8f f1 bd 5d e0 92 3b a3 9d ad 3d
       0.05233594 -0.11794862 0.0044823126 0.084773324
0000a0 93 0f 3a be 49 fb c8 be f9 fb e9 3c 83 13 21 3d
       -0.18170004 -0.39254215 0.028562533 0.03932525
0000b0 49 d9 18 bd 0f e5 b7 3d 81 1f 48 3c 78 af 84 3d
       -0.037316594 0.08979236 0.012214542 0.064787805
0000c0 6b bc c8 3b 6d 02 5f 3d 4b 16 8f 3d 6e fb a5 3b
       0.006125977 0.054445673 0.06986674 0.005065373
0000d0 db f3 1b be f8 84 b4 bd 7d ba 14 3d 87 45 4d 3e
       -0.15229742 -0.08814424 0.03631066 0.20046054
0000e0 f2 2c c2 bd f9 50 d2 bd 02 9a 8a 3d 38 61 c2 bc
       -0.09481229 -0.102693506 0.06767656 -0.023727998
0000f0 87 3d 4b bd 56 e2 f6 3d 89 1c e4 3c 95 51 94 3d
       -0.049619224 0.12054889 0.027845638 0.07242123
000100 85 f6 3e 3e 5a f0 f6 bd 59 e3 f3 3d 13 40 af 3d
       0.18648727 -0.12057562 0.119085975 0.08557143
000110 4c 81 3c 3d 7d 30 e3 bc 33 8d b0 3d 73 aa 78 3d
       0.046021745 -0.027733082 0.086206816 0.060709428
000120 dc 6a 29 3d ea ff 55 3e e5 12 6a bd eb 86 eb 3d
       0.041361675 0.20898405 -0.057146925 0.11500343
000130 5c bc aa bd b3 6f c6 3d 69 4d 9b 3d 48 08 f0 3d
       -0.08336708 0.09689274 0.07583124 0.117203295
000140 c2 22 3f be d5 95 68 3c 67 0a 07 3e e0 d1 c3 3d
       -0.18665603 0.014195879 0.13187562 0.09561515
000150 88 44 b3 bb e5 bc d2 3c 4c 0c 85 bb c9 36 3a 3e
       -0.005470816 0.025724838 -0.004060304 0.18184961
000160 f0 d1 5a 3b a1 dd 1e be 67 58 1f 3d df af 48 3d
       0.0033389293 -0.15514232 0.038902666 0.04899585
000170 b7 d4 08 3d fa 32 69 3b 6d ec 01 be 74 d6 9c bd
       0.033405986 0.0035583363 -0.12687846 -0.07658091
000180 c4 62 40 3c 0d f5 8d 3d 6c c0 5d 3d b8 21 4b 3d
       0.011742298 0.06931505 0.054138586 0.049592704
000190 08 a1 06 bd 06 c1 97 3d d4 34 31 3c a5 35 53 3d
       -0.032868415 0.07409863 0.010815818 0.05156483
0001a0 bd 75 ed 3d 6f 62 c9 3d a2 5b a4 3d 01 27 23 3e
       0.115947224 0.09833228 0.0802529 0.15932848
0001b0 76 90 18 3d 88 8d df 3d 90 1c 02 3d d8 c7 e8 3d
       0.037247144 0.10915667 0.03176552 0.11366242
0001c0 36 d7 07 bd ee 15 00 3e c7 b1 23 3d a9 1b 33 3c
       -0.033164226 0.12508366 0.039964464 0.010931888
0001d0 9f 8c 01 3e 11 64 44 3d 93 f7 9e bc 98 ca 5b b9
       0.12651299 0.047946993 -0.019405162 -0.0002096094
0001e0 93 f6 56 3d 13 5a e3 3d 6a 30 c4 bd 7b 89 44 bc
       0.052481245 0.11101165 -0.09579547 -0.0119956685
0001f0 7b fe 53 bd 12 41 05 3d a1 42 f0 3c 00 9c 53 3e
       -0.051756363 0.03253276 0.029328646 0.20664978
000200 96 c7 bc bd 8d bc 2d bd 3b 17 8b ba a5 d4 9d 3d
       -0.092177555 -0.042416144 -0.0010611782 0.07706574
000210 68 b1 45 3d 31 9e a8 bd 6c a1 d4 bd 5e e8 23 3e
       0.04826489 -0.082332976 -0.10382351 0.1600661
000220 5a 77 37 3e 1f 67 8d 3e 37 cd 87 3d ab 10 ea 3d
       0.17916623 0.27617738 0.066309385 0.114289604
000230 b7 8a 8d bc ad dd ca 3d b8 0e 97 3d 10 d7 9c 3a
       -0.017278058 0.099055625 0.07375854 0.0011965949
000240 ba f8 d3 3d 43 e6 4f be 85 13 ca bd 9b 94 d7 bd
       0.10350175 -0.20302682 -0.09867004 -0.10526391
000250 5c 20 18 bd d2 2b cd 3d cb 4f aa bd 98 33 84 bc
       -0.037140235 0.10018124 -0.083160006 -0.016137883
000260 9d c6 2d be 33 8c 5b 3e 8a 74 ec 3c 51 ab 78 3c
       -0.16970296 0.214402 0.028864164 0.015177564
000270 c5 46 1d bd 1a 44 34 3e 15 e2 a1 bc b6 fc 0e 3e
       -0.03839757 0.17604104 -0.019761125 0.13963589
000280 8c 8a 01 be 0e 76 15 bd e6 9f d2 bc 1c f2 9a 3e
       -0.12650508 -0.03648954 -0.025711011 0.3026284
000290 34 b1 a7 bd e0 a2 61 3e 4d 2d 7e bc c8 dc 52 3d
       -0.08188096 0.22034788 -0.01551373 0.051480085
0002a0 c7 77 9d bd fc 65 95 bd 55 6b 0d be 9c 9f 4f 3d
       -0.07688861 -0.072948426 -0.13810475 0.050689325
0002b0 56 7b b7 3d b6 7f 18 be 67 06 82 3d 51 db 6c 3d
       0.08959071 -0.14892468 0.063488774 0.057826344
0002c0 9f 97 09 3e 9e 78 07 3e 98 c9 5e 3e f1 0e ed 3d
       0.13436745 0.13229606 0.2175659 0.115751155
0002d0 a1 5d 48 bd 78 6b a9 3d 22 cf 8c bc d7 ff 33 be
       -0.048917416 0.08272451 -0.017188612 -0.17578064
0002e0 56 df 1d bb a9 f7 a9 bc 8d 0e fb 3c e5 1c 6c 3d
       -0.0024089417 -0.020747976 0.030646587 0.057644743
0002f0 46 45 6b bd 52 b4 db bb f2 b1 26 3e 65 a3 33 3d
       -0.05743911 -0.0067048455 0.16278818 0.043856997
000300 34 08 29 3e a7 7f a9 bc 00 43 95 bd 13 cd 59 3c
       0.16507035 -0.020690752 -0.0728817 0.013293522
000310 c8 74 6f bd fb c1 d2 bd 63 6c 07 3e ae e7 50 be
       -0.05846098 -0.10290905 0.1322494 -0.20400879
000320 4f 9e 8f bd 38 f0 19 3d 03 11 96 3d d4 9e 82 3d
       -0.07012617 0.037582606 0.073274635 0.0637795
000330 9a 2e 79 3e ea 00 de 3d b7 a8 43 bd 5c 05 4a be
       0.24334183 0.10840018 -0.04776832 -0.19728607
000340 44 53 03 be 93 2b d6 bc 79 f9 95 bd 84 4f 4d 3e
       -0.12824732 -0.026143825 -0.07322974 0.20049864
000350 21 71 88 3d 7b a3 17 bd 41 22 87 be a4 94 9d 3d
       0.066622026 -0.03702114 -0.2639332 0.076943666
000360 cb 4e 8f 3b 73 2e 66 3c 7a 8e c6 3c c6 68 d8 bc
       0.0043734065 0.01404916 0.02423786 -0.026417147
000370 a2 3c 4c 3d b2 a9 0a 3e a2 b9 11 be 76 22 9c ba
       0.04986251 0.13541296 -0.1423097 -0.0011912126
000380 62 32 a7 3d 0c ab 22 be 8c 58 f0 bc 7f 54 16 3e
       0.08163907 -0.15885562 -0.029339097 0.1468067
000390 74 98 30 3d 9d 94 f5 bc c4 be da 3d 89 4d 22 3e
       0.04311414 -0.02997809 0.10680917 0.1584989
0003a0 3b 56 e3 3d d7 73 56 3e 48 11 a5 bd 7a 6b 17 3e
       0.111004315 0.20942627 -0.08059937 0.14787093
0003b0 ff 4a 6d 3d 6c ae 18 3c 81 e3 d2 bd e6 b3 9a 3d
       0.05793285 0.009318929 -0.10297299 0.07553844
0003c0 ac a1 46 3e d1 79 db bd 8d 19 a3 bb 40 08 fd bb
       0.1939761 -0.10716594 -0.004977411 -0.0077219307
0003d0 aa 91 bc 3b 69 51 ec bd 01 f3 b4 bd f4 51 bc bd
       0.005754669 -0.11538965 -0.08835412 -0.09195319
0003e0 f2 26 76 bc 4f 51 b8 bb 75 b9 a8 3c db b6 2b 3d
       -0.015023934 -0.005624927 0.020596245 0.04192243
0003f0 76 2f a0 3d ac 21 a4 3d 0d 15 48 3e 86 68 0e 3e
       0.078215525 0.08014235 0.1953928 0.1390706

fc2.bias f4 [128]
000000 fd cd 24 3d 7b b5 d1 3c e7 20 76 bd bc df 31 3d
       0.04023551 0.025599232 -0.060089972 0.04342626
000010 7e bb 50 bd 00 27 40 3d 71 c3 b2 bc 5b d3 9f 3c
       -0.050960056 0.046912193 -0.02182171 0.019509962
000020 ea 78 a3 bb d3 38 44 ba 25 93 dc 3c bd 7b a9 bd
       -0.0049887793 -0.0007485274 0.026925633 -0.08275554
000030 40 5a a3 bc c4 10 7d 3c a4 07 2b bd fb 24 69 3d
       -0.019940495 0.015445892 -0.041755334 0.056920033
000040 64 e9 e7 3c 93 b6 95 3d fd ab 21 bd 49 3e 9d bc
       0.028309532 0.07310214 -0.03947066 -0.019194739
000050 27 db e7 bc 4c 72 b2 bc 68 c2 48 bd 63 97 c0 bb
       -0.028302742 -0.021783017 -0.049013525 -0.0058774217
000060 8d df 00 bd dd c0 47 bc 1d 9e 47 bd 8c e2 28 3d
       -0.031463195 -0.012191978 -0.048734773 0.041231677
000070 a0 f3 84 3c f5 a6 3c bc 1a 8e 00 bb 67 18 98 bc
       0.01622945 -0.011514415 -0.001961595 -0.018566323
000080 22 a5 80 bd c7 85 29 bd a4 52 88 bd 32 11 3b bc
       -0.062814966 -0.041387346 -0.066563874 -0.011417674
000090 3f c9 39 bd 1a 04 40 bd d7 7d a3 bc 9f be 40 bc
       -0.04535794 -0.04687891 -0.019957466 -0.011764198
0000a0 7b a8 27 3d 5f c0 c3 bc f2 d4 22 3d 8a 73 0f bd
       0.04093216 -0.02389544 0.03975386 -0.035022296
0000b0 8c f4 fc bb f3 41 7a 3d 14 c3 cb 3c 86 cc 27 bc
       -0.007719582 0.06109805 0.024873294 -0.010241633
0000c0 f7 32 49 3d f6 18 a9 3d 63 33 4a 3b c5 3a 41 bd
       0.04912087 0.08256714 0.0030853383 -0.047175188
0000d0 4d 9f 02 3c cc 9b 0b bd e5 9e 86 bc 23 f7 b0 3d
       0.007972551 -0.034084126 -0.016433189 0.086408876
0000e0 97 2a 82 bc f0 ed 1e 3c bd 4c 9a 3d e1 73 e9 bb
       -0.015889449 0.009700283 0.07534168 -0.0071244095
0000f0 ca ce ac 3c 06 61 1d 3d ca 1b 36 3c 7b 08 9c 3d
       0.021094698 0.038422607 0.011115024 0.07618805
000100 b7 81 8e bd 4d 6d 91 3c 9e ae 0b 3b 7d 41 7c 3b
       -0.06958335 0.017752314 0.0021313797 0.0038491182
000110 f8 a5 30 3c ab 0c 56 3d 31 22 98 3c 88 f8 85 3d
       0.0107817575 0.052258175 0.018570991 0.06541544
000120 d1 61 09 3d 6b 6c 7b 3d 01 52 14 bc b7 56 41 3d
       0.03354055 0.061382692 -0.009052754 0.04720184
000130 a6 ed 82 bd df 8b 05 3d 13 06 4d 3d 6f a4 01 3d
       -0.06392984 0.032604095 0.05005462 0.031650957
000140 8f 0b c8 bc 5f 7f 35 3c 62 62 6d 3d 12 64 9e bb
       -0.024419574 0.011077731 0.057955153 -0.0048337067
000150 5e 99 03 bd 11 6e 10 bd 4f 64 5b 3b 06 78 1e 3d
       -0.032128684 -0.035261218 0.0033476537 0.038688682
000160 d4 59 e0 3c 0f 0a 11 3d da 7f 97 3d d6 4b 9f 3c
       0.027386583 0.035409983 0.073974326 0.019445341
000170 e3 32 99 bc ad ee 5d bd 1a fb f7 bc 87 11 20 bc
       -0.018701022 -0.054182697 -0.030271102 -0.009769804
000180 cc 8a 1a 3c 3a ac 74 3d c6 c2 55 3c 61 27 cd 3b
       0.009432506 0.05973456 0.013046926 0.006260798
000190 e0 d9 47 bd e6 b6 60 3c df 1f b9 ba d8 9f 48 bc
       -0.048791766 0.013715481 -0.0014123878 -0.012245141
0001a0 3d ef 1b 3d 32 9b af 3c 60 84 4f bd 42 69 a6 3d
       0.038069952 0.021436308 -0.050663352 0.08125545
0001b0 4c d9 67 3d 01 d7 44 ba 4c 74 74 bc 7f 7e 3f bd
       0.056603715 -0.0007508845 -0.014920305 -0.046751495
0001c0 84 15 9a 3d 1d 1b cc bc f0 8a 98 3d cd c5 44 3c
       0.07523635 -0.024915272 0.07448375 0.01201005
0001d0 69 72 af 3d 2f 2c 63 3c 63 b0 90 3c c8 61 9c 3c
       0.08566744 0.013865515 0.017662233 0.019089594
0001e0 81 6e 9c bd 11 b9 f6 3c 99 c4 9c bc 0e c5 64 3d
       -0.076382644 0.030117543 -0.019136714 0.05585199
0001f0 f6 66 52 bd 2f 80 ad bd b5 96 23 bd 55 bb 3c bd
       -0.051367722 -0.08471715 -0.039938647 -0.04607709

fc3.weight f4 [4, 128]
000000 a2 b1 8c 3e db d8 80 be 24 08 3d be 9a 1f ba 3d
       0.27479273 -0.25165448 -0.18460137 0.09088059
000010 fc 3d 9d be c7 35 ab bd 9c 57 27 3e 26 f6 7d 3e
       -0.30711353 -0.083598666 0.16342014 0.2480093
000020 ff 0e 81 3d d1 3e c9 be ee c1 ae 3d d0 9d 88 3e
       0.063016884 -0.39305738 0.08533083 0.266829
000030 08 55 fd 3d d9 a9 12 3f 88 ae 7f 3c e2 67 ee 3e
       0.12369734 0.57290417 0.015605576 0.4656363
000040 86 a9 7d bc 61 95 65 3d 72 c9 8a 3e 9e f2 aa 3d
       -0.015482312 0.056050662 0.27106816 0.08347057
000050 b4 e4 55 3e 42 f6 1e 3e ca 2b a8 bd 10 ea 87 bd
       0.20888025 0.15523627 -0.08211477 -0.06636441
000060 a3 dd 8d 3d fc 40 1c 3c d2 bd 74 bd c8 9e a8 3c
       0.069270395 0.009536978 -0.05975134 0.020583525
000070 65 79 33 be c8 41 83 3e c8 e8 6d 3d 7a 28 99 3d
       -0.17526777 0.25636125 0.058083326 0.074784234
000080 fb 30 d1 bc 89 f1 ca 3e 43 e7 a0 3e f7 f6 37 bd
       -0.025536051 0.39637402 0.3142644 -0.04491326
000090 95 84 27 be c5 f8 86 be 59 e4 8c bd 03 1a f0 3d
       -0.1635917 -0.2636167 -0.06879491 0.11723711
0000a0 32 d5 7d be 15 43 a7 be 7d 6c 11 be 68 a4 32 be
       -0.24788359 -0.32668367 -0.14201541 -0.17445529
0000b0 00 0b bd 3e 4f fa 0c bd 06 ab 6f 3c bd b1 8a bd
       0.36922455 -0.0344184 0.0146281775 -0.06772182
0000c0 61 0e 30 bd df c1 fa be 4d 0d 08 be 03 94 06 3f
       -0.042982463 -0.48976037 -0.13286324 0.525696
0000d0 2b 82 09 bc a3 c8 88 be f1 c0 60 be 57 e0 b7 be
       -0.008392851 -0.26715574 -0.21948601 -0.35913345
0000e0 ae 6a fe 3e 07 d9 60 be 60 cc d0 3c 95 40 e8 be
       0.49690765 -0.2195779 0.025488079 -0.45361772
0000f0 06 a5 dd 3d 8c 24 15 be dd 0d 12 bb 6e 83 81 3e
       0.10822491 -0.14564723 -0.0022286095 0.25295585
000100 04 bd f8 3e 14 9b 00 3e 26 37 4f be 9a 92 ee bd
       0.48581707 0.12559158 -0.20235881 -0.11649056
000110 35 a6 d8 3e 70 6f 25 3e e7 90 57 be ba 76 6a bd
       0.42314306 0.16155791 -0.2105137 -0.057242133
000120 0d 6e bb 3b ae 55 f6 3e 13 cf 89 3a 13 cf f6 3d
       0.005719906 0.48112243 0.0010513983 0.12051215
000130 1e 75 bd 3e 0e 16 ee bd b0 49 48 bd a2 fa 6e be
       0.37003416 -0.116253 -0.0488984 -0.23337796
000140 0d 15 37 be 32 1d 77 3e a1 f0 e3 3e ac 54 88 3e
       -0.17879124 0.24132231 0.44519523 0.266271
000150 2a ca 35 bd fe ff 15 3c a0 1a 19 3e 7f 6b 8c 3e
       -0.04438225 0.009155272 0.14951563 0.27425763
000160 ef 39 03 bf 09 de 96 bd b4 1d 89 3d 2b c0 a8 bb
       -0.51260275 -0.073665686 0.066951185 -0.0051498613
000170 53 4c ea bd 9a 01 f5 3c 69 19 59 3e ec 62 32 be
       -0.11440339 0.02990799 0.212011 -0.17420548
000180 18 4e b2 3e f4 e3 8c 3e 96 48 16 3f f8 0d af 3e
       0.34825206 0.27517664 0.5870451 0.34190345
000190 6a 33 4f 3e 60 41 75 be 62 8c 2e be 2f eb 51 be
       0.20234457 -0.2395072 -0.1704574 -0.20499872
0001a0 af ad d1 bd 47 4d 11 be 95 90 ae 3d 82 4d d1 3d
       -0.10238206 -0.14189635 0.085236706 0.102198616
0001b0 90 13 7d 3e a6 ff 8c 3d 74 76 1a bd 41 a9 4c 3e
       0.24714494 0.068846986 -0.037710622 0.1998644
0001c0 e5 b4 80 3e 64 5b 98 bd e5 8e 80 be 0f bd fe 3d
       0.25138012 -0.074393064 -0.2510902 0.12438404
0001d0 7b 29 91 3e 58 c3 9e 3c 6e 04 09 3f 42 c1 31 3e
       0.2835196 0.019380257 0.53522384 0.17358878
0001e0 07 83 3b be 28 ab d1 3e 16 fc 3a be c8 24 99 be
       -0.18311702 0.40950894 -0.18260226 -0.29910874
0001f0 27 37 8e be 67 6a 0f be 69 73 48 3d ad 54 1f be
       -0.27776453 -0.14005433 0.04893819 -0.15559645
000200 f5 80 e7 bb 07 77 ea be ab ef 0c be 92 df e3 3d
       -0.0070649334 -0.45793936 -0.13763301 0.11126627
000210 4c e6 f4 3d 6c 2f be 3d 33 18 01 3e 24 c7 25 be
       0.11957988 0.09286389 0.12606888 -0.16189247
000220 29 86 4a 3e 77 a3 c3 bd b9 71 fd bd f5 fb de 3d
       0.1977774 -0.09552663 -0.123752065 0.10887901
000230 54 cc 94 bd bc fa 28 3d a4 fa 99 3e 13 bc 03 bd
       -0.07265535 0.041254744 0.30074036 -0.032161783
000240 77 57 dd bc e0 76 09 be bf 5b 2e 3f ba 98 d4 bd
       -0.027019246 -0.13424253 0.68108743 -0.10380693
000250 d5 7e 78 be 0f d2 b1 bd 3d 66 1f be 26 c8 89 3d
       -0.24267133 -0.086826436 -0.15566345 0.067276284
000260 97 15 84 3e 1c 47 08 be f6 d6 dc 3d 7a 0c 80 3e
       0.25797722 -0.13308376 0.10783188 0.2500952
000270 20 97 87 bd 77 8f ad be b3 9a 34 be 85 8e 06 be
       -0.06620622 -0.33898517 -0.17637138 -0.13140304
000280 e2 10 f4 3c 47 d9 21 3d 89 f3 90 bd 42 53 27 3e
       0.029793207 0.039513852 -0.07077701 0.16340354
000290 8a a9 1a 3e ed 88 95 3d 42 42 28 bd 77 c6 43 bd
       0.15103737 0.07301507 -0.041078813 -0.047796693
0002a0 fc 96 cb bc 7e ad 93 3d 36 1e 69 be a6 bd 53 3a
       -0.024852268 0.072108254 -0.22765431 0.0008077271
0002b0 d4 13 4c be 20 f6 f9 bd cf a4 1d be ce 23 c4 3d
       -0.19929439 -0.12205148 -0.153949 0.09577142
0002c0 17 49 fb be 2a 5d d6 bd ac 37 da 3d 68 65 8d 3e
       -0.490792 -0.104669884 0.1065515 0.2761643
0002d0 1e 12 2e bc 58 fb 9e be 9d a5 7a 3b bb eb 2e bf
       -0.010624437 -0.31051135 0.0038245686 -0.68328446
0002e0 59 fc 99 be e9 ec 05 3d cd 0c 98 3e 33 b6 6d bc
       -0.30075338 0.03269664 0.29697266 -0.014508772
0002f0 09 12 ac bd 76 2d d3 bd 61 84 28 be bf 6a d0 bc
       -0.084018774 -0.10311405 -0.16456749 -0.025441526
000300 75 2f 32 3d d9 26 5a 3e 7e d9 13 bd c3 20 36 be
       0.04350229 0.21303882 -0.03609609 -0.17785935
000310 80 6f 57 bd 34 55 84 be 99 13 0b be 15 d8 2d 3d
       -0.05259657 -0.25846255 -0.13581695 0.0424424
000320 85 ca c5 bc ac 90 a8 bd 03 ea 2f bd 6a 40 41 3e
       -0.02414442 -0.08230719 -0.04294778 0.18872228
000330 47 a0 67 3a 01 c3 e4 3d d2 a7 d1 be d0 9e 9c 3e
       0.0008835834 0.111700065 -0.4094835 0.30589914
000340 aa 67 a7 3e 8e 01 4f 3d ed 0e d5 bd 6c a3 3a be
       0.32696277 0.050538592 -0.104032375 -0.18226403
000350 22 ac 02 bd 27 af 87 be 0e 88 8f 3d d2 ad ac bd
       -0.03190244 -0.26500818 0.07008372 -0.08431591
000360 6a 56 38 3e 88 ea 5f 3d 2f c9 06 be b8 b7 dd 3d
       0.18001714 0.054667026 -0.13162683 0.10826057
000370 e8 3b 2e 3e cd 7c 0b bf 30 0e 36 3e 2b 05 7a bd
       0.1701504 -0.54487306 0.1777885 -0.061040085
000380 01 82 46 bd ba 90 10 3d f4 46 b9 bd d7 90 36 be
       -0.048463825 0.035294272 -0.09046736 -0.1782869
000390 07 8b 41 be 0b f6 a1 bc aa f8 ab bd 7b ea 1b 3e
       -0.18900691 -0.019770643 -0.08397038 0.15226166
0003a0 9c 7b d8 3d f2 eb 42 be 57 b1 90 3e 8e 61 6d 3c
       0.105704516 -0.19035318 0.282603 0.014488591
0003b0 98 3d 09 3e bd a0 92 bc af 23 60 bd 6e 2d c2 3d
       0.13402402 -0.017898912 -0.05472153 0.09481321
0003c0 70 b6 92 bc f7 ee 44 be e8 ea 99 3e 28 48 d3 3c
       -0.017909259 -0.19231783 0.30062032 0.025791243
0003d0 ac 82 14 3e 41 33 ac be 56 ed 2a 3e 06 cd 62 3e
       0.14502972 -0.33632854 0.16692099 0.22148523
0003e0 eb 8c 39 be 44 81 14 3e 39 7e a4 ba f1 bf 03 3e
       -0.18120162 0.14502436 -0.0012549824 0.12866189
0003f0 14 0c 9b 3d 17 0a 6f 3d 54 63 04 be cc 0b 16 3e
       0.07570663 0.05835923 -0.12928516 0.14652938

fc3.bias f4 [4]
000000 6b 7d 14 3d e6 32 9d bd c3 f8 7b 3d 1b 46 6a bc
       0.03625242 -0.07675724 0.061516535 -0.014298941
