savedmodels/checkpoint_1545158393_critic_episode132_score35.357.pth (torch_old, 169980 bytes, 5 tensors)

fcs1.weight f4 [256, 33]
00000000: 08b8 8dbc 46bd 5c3d ff03 903d e372 13bd
00000010: 0b40 adbd f764 59bd 4ed3 fc3d b457 2b3d
00000020: 828d 8e3d 532e 5a3d cac2 52bc 5b4a fdbc
00000030: 73d4 ccbc a908 ad3d f924 b53d 91be 43bc
00000040: 2c37 9e3d 6066 483c 86af 10bd f714 60bc
00000050: 9296 28bd d0b9 48bc 9ec8 8fbc 78e6 f73d
00000060: 39eb a13a a4f1 303d b07a 1dbd 0447 433c
00000070: 33ba 4fbd 806a 4ebd 68c5 95bd be99 253d
00000080: 901a c33c 4981 373c b5b4 7dbd 11af 623d
00000090: e78b f23c 9d2f 113d e5f2 f63c cc83 123d
000000a0: afd7 ccbc fb13 ca3c 1972 62bc 8593 a43b
000000b0: 729f c83c 8003 333d 87e8 953c 184b 5c3d
000000c0: 902b 663d 0ef8 b93c 7891 203d f844 123d
000000d0: 9f30 d3bb a58c 18bc 95ed 763c dc9e 243d
000000e0: 50af 05bb 85ed aabc e246 8c3c b69c 7cbd
000000f0: 48fe a7bd 0235 973d 30f6 a33c 1636 8b3d
00000100: a09a 9d3b 62df 81bc 1ccf 5c3d c79d 21bd
00000110: 0421 5c3d 976a 18bb e8fa 253d 6646 5e3d
00000120: f64b 51bd b2c7 d1bc 0713 88bc e4b3 f13b
00000130: 7254 423c 8cf2 f3bc 9987 c43c 921c 35bd
00000140: 0ef4 273c 408b d03a c030 ac3c 0bf5 0dbd
00000150: 6ff3 54bc ffbd 73bd af14 8dbd a25d 1a3d
00000160: cbf1 12bd 21d8 babc 1d0e 223c 0b48 cbbd
00000170: 4fa7 633d 802f 403b 10cc d6bc 402e 51bb
00000180: 6b8a 833d 1e99 5ebd dd5e 693e a3c8 7e3d
00000190: ef10 343b a2e5 bd3d 0273 1c3d 135a b0bc
000001a0: 358d 1e3d 0efb f53c e2b8 2fbc 4bdb 5c3c
000001b0: 4e2a c3bc f5ca 0e3c c8d3 ca3c ca08 85bc
000001c0: a073 3fbd 4a7a 553d 7afe 96bd 85d8 97bc
000001d0: 2665 82bc 997b 88bd d596 5cbc 568f cd3c
000001e0: f0e5 153d ca9a 33bd cdd5 fdbc cdde 1bbd
000001f0: e47f bbbc 6570 5d3c 1c8a 183c 98a3 40bd
00000200: b8a0 cabc bca1 bf3d 80c6 33bc 2ce1 1d3d
00000210: 4d74 f3bc 4738 393c 43df 543d 8651 8dbc
00000220: 7faa 60bd 28d0 833d dd2c ce3c a505 013d
00000230: 1b05 ebbd 2125 863d bcf3 9dbc 8119 ed3c
00000240: c663 223c daa7 8ebc ef77 5c3a 795d a8bb
00000250: 672c 7ebc cb92 9ebc 7f3e 1cbc c98b bdbc
00000260: 88b1 0ebb 0c75 0f3d f679 f13c b623 a5bc
00000270: 654f a13c 39c0 6b3c 136d debc b8f0 303d
00000280: 36a7 6abd 58d9 923c 94c5 4fbd 94a1 883c
00000290: 753c 9bbe 4085 b4bd 0177 b43d a885 27bc
000002a0: 81fa 8cbc bd47 f8bc 4ef2 9ebc b186 1c3d
000002b0: bcd2 febb bf61 5dbd dd64 2b3d 0cfd 95bc
000002c0: 4019 42bb b0f1 afbb 8513 253e 0544 08be
000002d0: 4368 01bd c413 c93c 9ad7 4c3c 5ef3 26bd
000002e0: 6595 833c c63b 68bb a1cc 29bb fdec 933b
000002f0: b962 9a3c 24db 12bd 8b3d 9f3b dbc4 b4bd
00000300: 4cb1 6f3d c538 ff3c a41a 443d de3d 5fbd
00000310: c880 193c 1d9b 283d d195 ab3c f5df d9bc
00000320: 803c 48bd f437 9fbb 80ad 90bd a4da ba3d
00000330: 3252 613d 62c1 1a3d 0875 c1bc 7805 3bbd
00000340: 79a8 073b a4d1 4fbd 04e3 2c3c f687 4b3d
00000350: fada 64bd 0040 10bc 3e24 3dbb 1df1 443d
00000360: 6a23 793b 08f9 583c 7cd7 adbd 6aa4 cc3b
00000370: 7ace bd3c 1103 d7bc 2605 e23c 312c 99bc
00000380: ca93 2ebd edc1 b13d e16b 533c 6481 43bd
00000390: a52f e7bd 809d be3a 7c79 963d 3836 94bd
000003a0: 15d2 1a3d 183c 033e 6541 10bd eaf5 abbd
000003b0: 671d 3ebd 7663 7c3d 2a16 3f3d 1cdb 973d
000003c0: dec7 82bc f03f 79bd f83f 0a3d 7738 0bbd
000003d0: 8a75 273d 8b07 95bb b0c5 87bd e7ad 17bc
000003e0: 5409 cabc 23db 2d3c ae2c ef3c 2758 963c
000003f0: 79fd 103d 7ce3 873c d1a7 24bd a3a7 97bd
-0.017299667 0.053891443 0.07032012 -0.035998236 -0.08459481 -0.053074803 0.12344991 0.041831687
0.06960584 0.053266834 -0.012863824 -0.030919245 -0.025003647 0.084489174 0.088449426 -0.01194729
0.07725367 0.012231439 -0.035323642 -0.013676873 -0.04115922 -0.012251332 -0.017551716 0.12104505
0.0012353427 0.043199196 -0.038447082 0.011918787 -0.050714683 -0.050394535 -0.07313043 0.040429823
0.023816377 0.011200258 -0.061939914 0.055342738 0.029607726 0.0354458 0.030145118 0.035770223
-0.02500519 0.02466773 -0.013821148 0.0050224685 0.024490092 0.04370451 0.018299354 0.053782552
0.05619389 0.02270129 0.03920123 0.035710305 -0.006445005 -0.009310876 0.015071292 0.040190563
-0.0020398684 -0.020865211 0.017123643 -0.06167289 -0.08202797 0.07383157 0.020014852 0.067974254
0.0048096925 -0.015853588 0.053908452 -0.03945711 0.053742424 -0.0023256892 0.040522486 0.054266356
-0.051097833 -0.025607917 -0.016610635 0.007376181 0.011860954 -0.029778741 0.02399044 -0.0442167
0.010251058 0.001591064 0.02101934 -0.03465752 -0.012997492 -0.059507366 -0.06888711 0.03768695
-0.035875123 -0.022808136 0.00989106 -0.099258505 0.05557948 0.0029325187 -0.026220351 -0.0031918436
0.064228855 -0.054345243 0.22790094 0.06220306 0.0027475914 0.092723146 0.038195617 -0.021527326
0.038708884 0.030026939 -0.010725232 0.013480018 -0.023823883 0.008715381 0.024759188 -0.016239543
-0.046741128 0.052118577 -0.07372756 -0.018535862 -0.015917372 -0.066641994 -0.0134636955 0.025092762
0.03659624 -0.04384879 -0.030985737 -0.038054276 -0.022888131 0.0135155665 0.009310272 -0.047031015
-0.02473484 0.0935702 -0.010972619 0.03854482 -0.029718542 0.0113049215 0.05197073 -0.017250787
-0.054850098 0.06436187 0.025167877 0.031499524 -0.11475583 0.065500505 -0.01928126 0.028942825
0.009911483 -0.017414022 0.00084102055 -0.005138096 -0.015513516 -0.019357106 -0.009536385 -0.023137944
-0.0021773297 0.035023734 0.0294771 -0.02015863 0.019691179 0.014389091 -0.02715162 0.043198317
-0.05728837 0.017925903 -0.050725535 0.016678609 -0.30319563 -0.08814478 0.08811761 -0.010224737
-0.017209293 -0.030307645 -0.01940265 0.03821439 -0.0077765863 -0.054048296 0.041844238 -0.018309139
-0.00296171 -0.0053693876 0.16120727 -0.13307197 -0.031593572 0.024545558 0.012502575 -0.040759437
0.016062448 -0.0035436018 -0.0025909322 0.004514335 0.018845903 -0.03585352 0.0048596314 -0.0882661
0.058518693 0.031155 0.04787697 -0.05450236 0.009369083 0.041163553 0.020945461 -0.026596049
-0.048885822 -0.004858965 -0.070643425 0.09123734 0.05501003 0.03778208 -0.023615375 -0.045659512
0.0020699783 -0.05073704 0.010552172 0.04969021 -0.055872895 -0.008804321 -0.0028860713 0.048081506
0.0038015493 0.013242967 -0.08488366 0.0062451856 0.023169745 -0.02624658 0.027590346 -0.01869783
-0.04262141 0.086795665 0.012904138 -0.04773082 -0.11288384 0.0014542788 0.0734739 -0.07236904
0.037798006 0.12815893 -0.035218615 -0.08396514 -0.04641476 0.06161829 0.046651997 0.07414839
-0.015964445 -0.06085199 0.03375241 -0.033989396 0.04088358 -0.0045480183 -0.06629503 -0.00925777
-0.024662651 0.010611328 0.02919611 0.018352581 0.03539798 0.016587965 -0.040199105 -0.07405021

fcs1.bias f4 [256]
00000000: aee8 bd3c 14a7 3e3e 8531 00bc c03a 413e
00000010: 2b48 8bbc 70d2 4cbe 630e 5ebe 9bdc 28be
00000020: 39a0 333d aba9 953d 7afe 91bd 7b51 8dbc
00000030: 40cd b53d 1987 2dbd 1646 7f3d 1db6 95bc
00000040: d54c 15be 937b 09be 126c df3d 5e42 10be
00000050: 6671 223c ef60 02bb 9359 913d e0cc d83c
00000060: 6cab 27bd efff 72bd 7882 623d 1978 90bd
00000070: 96a3 7b3d 6423 e43c 4ac1 9c3d 169f 46bd
00000080: f5fd 1dbe 135b adbd 3b04 b43d 476e 84bd
00000090: dd23 223e 17d7 bd3d 24ef 02be a5f8 6b3d
000000a0: 06a0 d2bd e29f 08be f284 763d e46f 1abe
000000b0: db0a 3cbd 6152 33be 42c2 a93d 63d2 9c3d
000000c0: 091f fa3d 0f00 ebbd 75e5 f3bd a4b4 e33c
000000d0: 23f4 13be daaf a0bd 94c7 32be 4520 e33d
000000e0: 1c09 98bd 41b3 81bd d72a 593d a9b1 2e3d
000000f0: cd0f 01be eeb4 dd3d 83ba 30be 52f1 55bd
00000100: 0904 09be 4228 02be 1220 5b3d c6dd 113e
00000110: 543d 653d a810 02bd 200f 7a3d 93dd 023e
00000120: ee51 22bd 2c38 03be 7e7c 823c fd09 8b3d
00000130: fe7b 743d 05a7 bcbd e8ec 4a3e 751a fcbd
00000140: 8ab6 9bba 2219 e93d a570 89bd 7529 7a3d
00000150: 8f91 dd3d 4e17 9cbd 469c 063e 289e 843d
00000160: da7c ce3d d98c 033e 9518 e93d afc9 2b3d
00000170: 2025 073e 8105 5cbe 92fe 75be b03a 063c
00000180: 8b9d 493e 292c ebbd 01c1 313e 813c 92bd
00000190: ccc2 ba3b c333 c4bd 0a7e 24bb 905a c2bd
000001a0: 7736 ffbd b621 293d fd77 04bd df8e 1a3d
000001b0: ae65 733d 1f47 c6bd 7933 ae3d af83 493e
000001c0: c53e c1bd 1901 043e 4ef4 963d b160 1fbe
000001d0: 95ce b33c e56f 43be 05d1 0cbc 8345 0dbe
000001e0: c0fa 083e ed5c c93c b650 0b3e 0516 5bbd
000001f0: 4f26 0dbe d0a8 db3d fbfd a33c cc3e 583d
00000200: edc9 1e3b d881 b83d 8341 c2bd f82a 63be
00000210: ed22 e13b bcc3 cd3d db18 3ebc 2187 83bc
00000220: 8365 2abe 66dc 4c3d f6a9 6abe 41f2 f3bd
00000230: 06fb cb3d 29ac 50be af59 0ebe 654b 1abe
00000240: 688c fa3d 2e55 12be 9d27 08bd 6a69 2d3b
00000250: 8775 8d3d 9a6a 023e 625d 1b3d caf5 8c3c
00000260: 35b1 e8bd c921 c43d 8533 283e 12d1 84ba
00000270: 9f07 e03d 6580 a8bd 5367 8dbc db2e c0bd
00000280: c7a5 973d d285 9dbd f9a6 aabd 0a0c 40be
00000290: 2e1a f2bc 220f 3e3d fb40 043e e222 d33b
000002a0: 1cc0 d6bc 4dec 793d 4d60 913c 433d 2c3e
000002b0: 50a9 463e f515 293e 7161 e53c 9b5c 133d
000002c0: 230c 1c3e 03c4 9bbc fb5d 313e 64d6 ebbd
000002d0: 980d 25ba c5fb 093d 6278 02be 87c0 4ebd
000002e0: 569b 63bc a689 d3bc fa5a 70bd c507 3bbc
000002f0: 27e1 4fbc 3c79 623e 9c15 80bd 5513 083e
00000300: 5b55 19bd f8df 273e b804 3d3e 55c8 42bd
00000310: d931 87bc dce3 00be 362c 15bb be0b 0bbe
00000320: fedb cdbd f54b a33c 5596 cb3c ef43 bcbd
00000330: 9edc fb3d 4b2c 543d 825c 96bd a1ca be3d
00000340: caf2 20be 0f5e 51bc 67a5 573e 0721 aa3d
00000350: dd47 823d cc31 b63c e50c 17bd 3d6c 0d3e
00000360: 04d8 203c 3116 f23c ac1f ba3c aece 4ebc
00000370: d762 663d 4dd7 febd 4709 06be f4e8 2bbe
00000380: 073e 3f3e d12c a4bd 6f63 1dbe 4bd1 0e3d
00000390: decd aabd e0b7 733d 0416 7ebd 8b91 883d
000003a0: 6ca9 3cbe 180c 49be 0ea9 b73d 2c67 92bd
000003b0: d5ed 49bd 240a 1f3d 09fc 523c da7d bcbd
000003c0: 280e 893d daea eabd f745 103e ccd5 68bd
000003d0: a2b7 2e3d 7eeb 213e 8f3c eb3d f9ad c23d
000003e0: 86e2 a73d eed0 f5bd 1f1f 9f3d 5d78 c4bd
000003f0: 1a7f 143e 77a8 8dbd 0b7a a93d 3d65 d03c
0.02318224 0.18618423 -0.007824306 0.18870068 -0.017002186 -0.2000215 -0.21685176 -0.16490404
0.043853972 0.07307752 -0.07128616 -0.017250767 0.08877039 -0.042365167 0.0623227 -0.018275315
-0.1458009 -0.13426046 0.10909285 -0.14087817 0.009914732 -0.0019894203 0.07097163 0.02646488
-0.040934965 -0.05932611 0.055300206 -0.07054157 0.061435305 0.027848907 0.076540545 -0.04849156
-0.15428908 -0.08464637 0.087898694 -0.06466346 0.15833993 0.09269541 -0.12786537 0.057610173
-0.10284428 -0.1334224 0.06018538 -0.15081745 -0.04590879 -0.17511894 0.08289005 0.076573156
0.12212951 -0.114746206 -0.11909 0.027796097 -0.144486 -0.07846041 -0.17458946 0.11090139
-0.074236125 -0.06333018 0.05301937 0.0426499 -0.12603684 0.10825525 -0.17258649 -0.052232094
-0.13380446 -0.1271067 0.05349738 0.14244756 0.05596669 -0.031754166 0.06104958 0.12779836
-0.039628915 -0.12814397 0.015928503 0.067890145 0.05968856 -0.09211544 0.19816935 -0.12309734
-0.0011879962 0.11381747 -0.06710938 0.061074693 0.10818779 -0.076216325 0.13145551 0.064754784
0.10082407 0.12846698 0.11381642 0.041940387 0.13197756 -0.21486475 -0.24022892 0.008192703
0.19689004 -0.11483032 0.17358781 -0.071404465 0.005699491 -0.09580185 -0.002509954 -0.0948993
-0.1246156 0.041291915 -0.032340992 0.03773391 0.05942314 -0.09681534 0.085059114 0.1967914
-0.094358005 0.12891044 0.07370816 -0.15564229 0.021949092 -0.19085653 -0.008594756 -0.13796048
0.13376904 0.024580443 0.13605008 -0.053487796 -0.13784145 0.10725558 0.020018568 0.052794263
0.0024229244 0.09009141 -0.094851516 -0.2218436 0.0068706186 0.10047099 -0.011602606 -0.016055645
-0.16640286 0.050014876 -0.22916397 -0.11911441 0.09959988 -0.20378174 -0.13901399 -0.15067823
0.122338116 -0.14290306 -0.033240903 0.0026460537 0.06907182 0.12735978 0.037930854 0.017207045
-0.113619246 0.095767565 0.16425903 -0.0010133109 0.109389536 -0.08227614 -0.017261183 -0.09383937
0.074046664 -0.0769154 -0.08332629 -0.18754593 -0.0295535 0.04640115 0.12915413 0.0064433673
-0.026214652 0.06101637 0.017746115 0.16820244 0.19400525 0.16512282 0.028000565 0.035976987
0.15239005 -0.019014364 0.17321007 -0.11515501 -0.0006296276 0.03368737 -0.12741235 -0.050476577
-0.013892015 -0.025822472 -0.058680512 -0.011415427 -0.012687958 0.2211656 -0.06254122 0.13288625
-0.037434917 0.16394031 0.18458831 -0.047554333 -0.016503261 -0.12586921 -0.0022761947 -0.13578698
-0.10051726 0.01993368 0.024851957 -0.09192645 0.12297939 0.051800054 -0.07341863 0.09315992
-0.15717617 -0.012778773 0.2105919 0.08307081 0.06361363 0.022240542 -0.03687753 0.13810821
0.009817127 0.029551597 0.02272018 -0.012622518 0.056246605 -0.12443409 -0.13089477 -0.16788083
0.18676005 -0.080163606 -0.15369962 0.034867566 -0.08340047 0.05950153 -0.062032714 0.06668385
-0.18424004 -0.1963352 0.089677915 -0.07148585 -0.04929908 0.03882803 0.012877473 -0.09203692
0.06692153 -0.11470576 0.1408919 -0.056844518 0.042655595 0.1581249 0.1148616 0.09505839
0.08197503 -0.12002741 0.07769608 -0.0959327 0.1450161 -0.06916898 0.08275231 0.0254389

fc2.weight f4 [128, 260]
00000000: 46b1 d73c bf77 533b 5e3f c23d a0af 63bb
00000010: 1a13 db3d cc7e 99be f35d 9fbd 48db a63d
00000020: edf6 96bc 9a2f b1bd be78 123d ca63 b13b
00000030: c36d 31bd aa7b 7f3d 6738 0abd bca0 f53b
00000040: 070a c4bb 0668 7cbd cd53 9b3c 9067 fb3d
00000050: 9385 a23d af41 dfbc 18fe 233d 30a1 38be
00000060: e31a 203d e42f eabb 2893 923d 183f 82be
00000070: b24c 8c3d 66f9 2fbd 8d90 283d 8af0 233d
00000080: fc92 883c 4f79 cd3c 5b79 7d3c e1b8 56bc
00000090: ef12 6ebc 6cea 2fbd 891b 883d 19bc 29bd
000000a0: 2a3d bbbd d3a1 62bd b982 2cbd b6ee 3cbc
000000b0: f6f4 bfbb 5545 4d3d 9c1d 063d a021 39bd
000000c0: 2362 88bd cbd0 513b 20ab 9b3c f5ff 973d
000000d0: ed1c 443d c706 8ebd 8672 063b c7bf 79bd
000000e0: c54a 8dbd 1dcd 5c3d dc2d a1bd e288 123d
000000f0: facb 91bc b19d ed3d b4d8 5a3d 8e92 653d
00000100: 1e40 053d 6de8 ebbc b214 3ebd e355 973d
00000110: 7a31 bcbd a2ee edbd 67a0 b9bd dcfd 2d3d
00000120: f384 5bbc f293 8b3d 86be 83bd 4d21 71bd
00000130: 4f94 cfbc 8bca 2b3d dc69 583d bcd4 65bd
00000140: d3ba 96bd cc1f 58bc 0835 19bd e766 eebd
00000150: 41e8 9cbd 83b7 813d a6fa 003d 02dc 08bd
00000160: 684d 57bd 266f 14be c232 de3d b507 55be
00000170: e4a8 34bc 34c6 5ebe f6c5 463d e7b2 25bc
00000180: 0868 893c 2f62 aebd 3347 3e3d 653c 6e3d
00000190: 9642 cabd 4c6b 5ebd 6dca c5bb e54d b53c
000001a0: cfc2 86bd 126a d43d cc84 ce3d 2043 273d
000001b0: 3a84 b03d 3862 953c 40f7 40bd 700a 233d
000001c0: 9965 943d e281 c73b 3bd0 56bd 73ff cabd
000001d0: ccb2 7ebd 5541 c8bd d6dd 61bc b97c bfbc
000001e0: 05e4 89bc a070 ad3b 8b35 2dbd 550a 9cbd
000001f0: dab6 453d cfa6 84bc e60a c63d 71bb 6e3d
00000200: 93c1 863d c359 8b3d dcee 62bd a02f c33d
00000210: 4cc7 e93d c22d a3bd c2b3 52be c27b 8b3d
00000220: 24f4 743d 890d be3c deed c23c b19f da3c
00000230: 8b1a 4cbd 5795 21be 6315 15bd f891 27bd
00000240: 736e 863d 2bcb c2bc 15d5 8ebb 69b2 133d
00000250: fdfa 07be 2e04 e8bb dfcc 75bd 98de 353d
00000260: a2d2 f7bc a6b2 0a3e 7964 d23c b598 643d
00000270: 9533 05be 34ca 11bd acf7 943d 6e7c bd3d
00000280: f0b5 353a 2ab9 163e 2fbd 2abd 7987 c1bd
00000290: 066c 413d 8aa9 e7bd c0ec 2b3d 8976 893d
000002a0: 215d b43d 90a3 a7bd 4a19 b53d f897 86bd
000002b0: 611b b2bc 22c3 80bc 9395 163d 65a2 8cbd
000002c0: c750 00bc dbe3 95bc 3365 2a3c 8907 82bd
000002d0: bdc3 4cbd 88d7 0d3d 1801 58bd a317 933d
000002e0: 9604 64bd fdd3 02be 2329 c3bd 27ac 913d
000002f0: 6f1d 233d e611 9a3d 8f83 3cbc 7211 5fbc
00000300: 31e4 91bd b867 0e3e d55b a03a 296b 26bc
00000310: eb97 eb3d 83f8 ecbd 97e0 693d 868b 6b3d
00000320: c011 523c 306f 0c3d 9362 a2bc 4c4b 903d
00000330: 5ddb 32bd b66d 483d 24fe 563c 8e3a 3b3c
00000340: e5b1 9bbd ab69 ad3c e84d 47bc 2898 083b
00000350: 8a12 bc3d 3242 4cbd 3bb7 783d a033 713c
00000360: 7bc0 cc3c 77b8 babd f740 bbbd 1750 dabd
00000370: bfd2 f03b 9c2c d53d 3940 92bd d2a1 c43b
00000380: e927 8a3c 7bdd 06be 9cf7 5c3b b8f7 4e3c
00000390: 722b 88bd fff3 b63c 26ce 823d 37f3 313d
000003a0: d2a9 823c 82cd 913c 4387 9fbd dab6 a8bd
000003b0: 284a a33d 1edc 11bd 6b97 3cbe 9da5 353d
000003c0: 5f17 32be e191 a13d dd00 28bd 8a78 00be
000003d0: d1d9 c33b c9ae f53c e2ab 41bd 4174 ee3b
000003e0: f6e4 1b3d cca4 823d babb 3cbd 7f55 7b3d
000003f0: 5d69 853c 26c5 73bb 9683 3fbd 7b4b d6bc
0.026329648 0.003226742 0.094847426 -0.0034742132 0.10697003 -0.2997955 -0.07781591 0.08147293
-0.01842829 -0.086516574 0.03575968 0.005413507 -0.043317568 0.062373795 -0.033745196 0.0074959677
-0.0059826407 -0.061622642 0.018960858 0.12275612 0.079356335 -0.027253 0.040037245 -0.18030238
0.03908814 -0.0071468223 0.07156974 -0.25438762 0.06850566 -0.042962454 0.04115348 0.040024318
0.01667165 0.025082259 0.015470828 -0.013105602 -0.014530881 -0.04294817 0.06645877 -0.04143915
-0.091425255 -0.05533011 -0.042116854 -0.0115315225 -0.005858059 0.05011495 0.03274308 -0.045198083
-0.06659343 0.003201532 0.019002497 0.07421867 0.04787915 -0.069348864 0.0020515039 -0.06097391
-0.06899027 0.05390655 -0.07870075 0.035775073 -0.017797459 0.11602343 0.05342932 0.05604797
0.03253185 -0.028797353 -0.046406455 0.073894285 -0.091891244 -0.11617781 -0.090637974 0.042478427
-0.013398397 0.06815328 -0.06432824 -0.05886965 -0.025339274 0.041941207 0.05283533 -0.056111082
-0.07359853 -0.013191175 -0.03740409 -0.11640721 -0.076614864 0.0633383 0.031489037 -0.03341294
-0.052564055 -0.14495525 0.10849525 -0.20803721 -0.011026595 -0.21755296 0.048528634 -0.010113454
0.016773239 -0.08514821 0.04645462 0.058163065 -0.098759815 -0.054301545 -0.006036094 0.02213187
-0.065801255 0.10371794 0.10083923 0.0408355 0.0861897 0.01823531 -0.047110796 0.039804876
0.07245941 0.0060884813 -0.052444678 -0.09912004 -0.062182233 -0.09778086 -0.0137858 -0.023374902
-0.016832361 0.005292967 -0.04228739 -0.07619158 0.048270084 -0.016192822 0.096700475 0.058284227
0.0657989 0.0680423 -0.055403575 0.09530568 0.11414966 -0.07967712 -0.20576385 0.06810714
0.059803143 0.023199813 0.023795065 0.026687475 -0.04983 -0.15779625 -0.03639735 -0.04091069
0.06564035 -0.023778519 -0.0043588975 0.036058817 -0.13279338 -0.0070805764 -0.060009833 0.044401735
-0.030251805 0.13544711 0.025682675 0.055809695 -0.13007958 -0.035593227 0.07273802 0.09252249
0.0006931713 0.14719072 -0.041684326 -0.094496675 0.04722216 -0.11311634 0.04197383 0.06712062
0.088068254 -0.08185494 0.08842714 -0.065719545 -0.02174157 -0.015718047 0.03676374 -0.06866912
-0.007831759 -0.018297127 0.010400104 -0.063490935 -0.049991358 0.034629375 -0.052735418 0.07182243
-0.055668436 -0.1277618 -0.095293306 0.071129136 0.039822992 0.07522945 -0.011505975 -0.013614999
-0.07123602 0.13906753 0.0012234399 -0.010157385 0.115035854 -0.11570837 0.05709895 0.057506107
0.012821615 0.034285724 -0.019822394 0.07045612 -0.043666232 0.048932754 0.013122115 0.011427535
-0.0760229 0.02116855 -0.01216457 0.0020842645 0.091832235 -0.049867816 0.060721617 0.014721781
0.024994126 -0.09117215 -0.091432504 -0.10659807 0.0073493416 0.10408899 -0.07141156 0.006000736
0.016864734 -0.13170426 0.0033716923 0.012632303 -0.066489115 0.022333143 0.06386976 0.04344484
0.015950117 0.01779819 -0.07789471 -0.08238001 0.079731286 -0.03561031 -0.18417136 0.044347394
-0.17391728 0.07889152 -0.04101645 -0.12545982 0.0059768935 0.02999057 -0.04728306 0.007277042
0.03806015 0.06379089 -0.046077468 0.061360832 0.016285593 -0.0037196367 -0.04675635 -0.026159039

fc2.bias f4 [128]
00000000: d52c 803c 7bfb d83a 1575 aa3d 071c 22bd
00000010: 530d 0a3d 9181 d93d f00b 31bd f9d1 b53b
00000020: c79d b93c f735 663c cb89 863d 426e 923d
00000030: 0d6d eb3d b7fe c0bd 64fc 17bd efdb 91bd
00000040: 9cff 893d a897 99bd c14c 133d 5c1d 9c3d
00000050: fee4 1c3e 39f7 b63d f8a0 40bd 1bef 89bd
00000060: 3818 c33d 5aa1 edbb 73b9 c53d 749e 36bd
00000070: 4977 113e 0ab3 52bd 2021 bc3d d6b5 0f3d
00000080: e0c0 853d 84a4 81bd 7f1c 8b3d 4dbb 293c
00000090: 15e9 783c 2b3c ab3c 0eca f13d cf96 653b
000000a0: 25c5 a83c a57f 053b 3ebe df3c f19a 4d3d
000000b0: 42d6 5fbd 27e8 123e dd67 1e3d aa35 eabc
000000c0: 5652 443d 56bb cbbb c58d 94bd 49ab b9bd
000000d0: 5c07 883d 3da4 08bd f1ab 22bd 7074 b7bd
000000e0: aab6 bb3d 446c 57bc e87a 1dbd eac8 09bd
000000f0: 4f2b b7bd 321e 203d ad4f ab3d b965 fb3d
00000100: fadf 8abc b03c 1cbd dc8b ad3b 5b07 a03d
00000110: b406 adbc 634d ee3d 6cce 36bc 42ed 2bbd
00000120: 7656 7a3d a243 0d3d a685 a83c ec89 d73d
00000130: 50e7 c33d 7c01 acbd 4dab d7bc 4e79 acbc
00000140: d2c1 463d 3de1 a93d 494f 60bd 2e3b f43c
00000150: 1c4b 453c 8f6f 0a3e 3817 95bc 3099 893d
00000160: 4b25 0b3e 69e5 2e3e ab0e 223e 5094 843d
00000170: 177d c4bc d9ec db3d ca44 023c 7337 d43c
00000180: eb1b a3bd 9b90 36bd 2a84 0f3e e851 68bd
00000190: 80aa a3bd f76d 193d a561 1abd 9afe c33d
000001a0: 3e41 363c 4cff 93bb 4f50 e43c 0c62 b1bd
000001b0: 37e5 063d 3369 9d3c 64f1 ff3c 11ab 873a
000001c0: aa3e 36bc 9cea 87bd a7de 943d 8278 00bd
000001d0: de20 7f3b 5d34 3c3d 974e a6bc dafc 2ebd
000001e0: 6f18 a4bd cbf1 2ebd fca1 7a3d b27d 293d
000001f0: 51c9 0abd 5aa1 bfbd 951f 38bd 8536 de3d
0.015646378 0.0016554439 0.08323113 -0.03957751 0.033704113 0.10620416 -0.043224275 0.0055487123
0.022658242 0.014050952 0.06569251 0.07149936 0.11495409 -0.09423583 -0.037105933 -0.07122027
0.06738207 -0.07499629 0.03596187 0.07622787 0.15321729 0.08933873 -0.04702851 -0.06735059
0.09526104 -0.0072519006 0.09654512 -0.044584706 0.1420566 -0.051440276 0.091860056 0.03508552
0.065309286 -0.06330207 0.067925446 0.010359597 0.01519229 0.020902714 0.11806117 0.0035032516
0.020601818 0.0020370272 0.027312394 0.05019659 -0.05464769 0.14346372 0.03867327 -0.028590042
0.047930084 -0.0062174005 -0.07253603 -0.09065873 0.06642029 -0.033359755 -0.039714757 -0.089577556
0.091657 -0.013148371 -0.03844729 -0.033638872 -0.08943807 0.039091296 0.08364806 0.122752614
-0.016952503 -0.038143814 0.0052962136 0.07813903 -0.02112136 0.11635854 -0.011157613 -0.041974314
0.06111761 0.034488328 0.020571541 0.105243534 0.09565604 -0.083987206 -0.0263268 -0.021053936
0.048524685 0.08294914 -0.054763112 0.029813375 0.012041833 0.13519119 -0.018199548 0.06718671
0.13588445 0.170797 0.15825908 0.06473601 -0.023985429 0.107385345 0.007950971 0.025905346
-0.07964309 -0.0445715 0.1401526 -0.056718737 -0.07991505 0.037458386 -0.037690777 0.09570046
0.011123953 -0.0045165177 0.027870325 -0.08661279 0.03293344 0.019215202 0.031243034 0.0010350664
-0.011123339 -0.06636545 0.0726903 -0.031364925 0.0038929502 0.045948375 -0.020301146 -0.042721607
-0.08012473 -0.04271106 0.061189637 0.041379638 -0.033883397 -0.09356947 -0.044951994 0.108502425

fc3.weight f4 [1, 128]
00000000: 8e27 ab3d 2852 31be a197 2b3e 0cb8 49bd
00000010: 1651 7e3d aeaf 913d 5149 a63d 6789 b73d
00000020: da3d 5d3d 25f7 22be 108c 363d 973a 083e
00000030: 8068 aa3d 6f5f 82bc 7f49 70be 8472 c7bd
00000040: 576e 8b3d ca64 cdbd 6913 233d 0ed0 3a3e
00000050: d543 823d 4b36 b43d 8503 e2bd 0ae2 d1bd
00000060: 016e 883d 5ac3 9abd bb62 db3d 1daa b1bd
00000070: af3a a03d 9bec 86be 9e65 6a3d 3a4a e6bd
00000080: 889b 523d 7d5e 0cbe 3ac6 823d 70c5 173e
00000090: 9358 90bd 60e6 f03d df0e 653d 4ed8 5bbe
000000a0: 446b 4a3d c053 5cbe a50a ef3d 3169 633d
000000b0: bcc0 c6bd a800 fc3d f3ca 073e 987a aabd
000000c0: a07d bd3d bf65 2bbe e45d 4fbe 16ae 0cbd
000000d0: d196 4e3d f1f1 86bd ef89 d8bd 276a b1bd
000000e0: bd0c bf3d 5fbe c8bd be0d 49be 14d2 fbbd
000000f0: 723d 2fbd 86ee 963d 7f55 3f3d e383 443d
00000100: 378b bdbd 07de 9bbd ab94 8dbd cd40 803d
00000110: 5edd 17be f04b 933d 80c1 68bd ed02 6ebe
00000120: 96d5 013e fad3 513d 5a04 523d b741 793d
00000130: 6853 0a3d c295 42bd 1b06 623d 9321 123e
00000140: e6ba 8b3d ef16 683d 79a2 e0bd 9734 593d
00000150: c202 813d 3306 313d 8b90 33bd d4c7 a83d
00000160: 2536 893d 829e 6a3d aca2 9d3d 91f2 543d
00000170: b20e 4cbe 1151 b73d c333 803d f0dc 433d
00000180: f93f 31bd 4095 80bd 76ff db3d 71ad 14be
00000190: dc90 38be a84f 913d bb35 33be 814e 533d
000001a0: a95c 8d3d 66e1 acbd e81a af3d 900c 8ebd
000001b0: 9145 993d f7e2 a7bd b554 0f3d f195 b4bd
000001c0: a56f dcbd e593 48bd 8b7c 9d3d 1a9c d3bd
000001d0: 1ca5 0ebe e7c5 fa3d 6a4a 893d 91d4 543c
000001e0: 3cda 16be 04fa 50bd 5dca a63d c83b 5e3d
000001f0: ba0f fbbd 0a83 09be 910f 803d 0493 913d
0.08357154 -0.17316496 0.1675706 -0.049247786 0.06208905 0.07113586 0.08119453 0.08961754
0.054014064 -0.1591459 0.044567168 0.133036 0.08320713 -0.015914647 -0.23465537 -0.09738639
0.06808155 -0.100289896 0.039813433 0.18243429 0.06360594 0.08799418 -0.110358275 -0.10248192
0.066616066 -0.075567916 0.10712191 -0.08675025 0.07823693 -0.2635239 0.057225816 -0.11244626
0.051417857 -0.1370792 0.06385465 0.1482141 -0.07048144 0.117626905 0.055922385 -0.21469232
0.049418703 -0.21516323 0.11671952 0.05552024 -0.0970473 0.12304813 0.13261013 -0.08324164
0.09252477 -0.16738032 -0.2025066 -0.03434571 0.0504368 -0.065891154 -0.10573184 -0.08662825
0.093286015 -0.098019354 -0.19634148 -0.122959286 -0.04278321 0.073697135 0.046712395 0.04797734
-0.09255069 -0.07610708 -0.06913122 0.0626236 -0.14830539 0.07192218 -0.05682516 -0.23243304
0.12679133 0.051227547 0.05127368 0.060853686 0.03377095 -0.0475061 0.055181604 0.1427062
0.068227574 0.056662496 -0.10968489 0.05302867 0.06299354 0.043218803 -0.04383902 0.08241239
0.066997804 0.05728007 0.07697043 0.05198914 -0.19927481 0.08951009 0.06259873 0.047818124
-0.0432739 -0.06278467 0.10742085 -0.14519288 -0.1802401 0.07095271 -0.17500965 0.05158854
0.06902439 -0.08441429 0.08550054 -0.0693599 0.07483972 -0.08197587 0.034992892 -0.088176616
-0.10763482 -0.04896917 0.0768977 -0.103325084 -0.13930172 0.12244778 0.067036465 0.012990133
-0.14731687 -0.051019683 0.081440665 0.05425623 -0.12258859 -0.13428894 0.06252969 0.07108119
