savedmodels/checkpoint_1545158393_critic_episode134_score35.714.pth (torch_old, 169980 bytes, 5 tensors)

fcs1.weight f4 [256, 33]
00000000: 2f5b 96bc b7e7 5e3d 5b44 913d abd3 12bd
00000010: 5dcf aebd fefd 50bd 65af fe3d d6af 273d
00000020: 655e 893d 25e2 5d3d 6af4 36bc 5b2a 0bbd
00000030: bc09 cabc 9755 ab3d 96d3 ba3d d3b3 2abc
00000040: 163a a53d 39d6 673c 172f 02bd 1160 aebc
00000050: 61cf 2dbd c4bf 58bc ee26 85bc 40e0 f83d
00000060: 0943 c2ba 44ce 2f3d bdad 22bd a74f 3e3c
00000070: 0f02 4dbd 806a 4ebd 6726 95bd be99 253d
00000080: 9aee cb3c d4ca 3d3c 32bd 80bd 3697 663d
00000090: 3fb2 f83c 0f51 123d 0501 e63c 6c43 143d
000000a0: 1622 cabc 0d0e b93c 3b33 67bc 5540 a93b
000000b0: 4677 e53c ca56 323d dfe9 993c a011 573d
000000c0: 688e 673d 3a05 b33c a03c 203d 8200 173d
000000d0: 2e78 d5bb b398 ffbb 063b 623c 3b15 2c3d
000000e0: dd4a 82bb 0b39 a8bc c755 a03c 63a9 77bd
000000f0: 4f70 a9bd d44c 983d 30f6 a33c 1da8 8c3d
00000100: a09a 9d3b b197 70bc 5472 6e3d 4c6a 28bd
00000110: cdb4 603d 8211 a839 9c14 393d 42d2 493d
00000120: 4bf1 4bbd 2795 b3bc d7a8 86bc 59fa ef3b
00000130: 8f14 3a3c a290 0cbd b3d2 a63c 15e2 30bd
00000140: 3cc4 023c 83a8 283b 63e9 ec3c fdca 26bd
00000150: 2d4f f8bb 8f5f 7abd 0d17 86bd b657 3a3d
00000160: d410 07bd a641 c4bc cc99 423c 89be c7bd
00000170: ac5b 573d 53f2 1738 d94b c3bc 402e 51bb
00000180: f778 893d 1e99 5ebd e980 6d3e c762 823d
00000190: 6ead 783b fef1 c03d 6a31 193d 5d4d a4bc
000001a0: fb9e 183d 1a2d 013d dc26 32bc f877 883c
000001b0: 9d75 c6bc bc1a fb3b 8e58 bd3c b3a7 7ebc
000001c0: 29d4 37bd 8a35 5b3d 7c77 95bd 970f 9cbc
000001d0: ae65 7dbc ea81 87bd 8a98 8ebc 7569 dd3c
000001e0: 2432 123d 2828 2fbd 2c42 09bd 267c 0bbd
000001f0: ffc4 c5bc 0778 753c b57d 243c c62f 3fbd
00000200: b8a0 cabc 4523 be3d 80c6 33bc 9b6a 1f3d
00000210: cfa5 04bd ce45 323c 1189 573d 2f24 8abc
00000220: d08d 6cbd dec9 7f3d 6d6e d23c 9557 093d
00000230: ef46 eabd 7bb3 8d3d be42 8bbc f711 ea3c
00000240: f78c 103c be40 a8bc 3a3c 7e38 5573 93bb
00000250: 0224 82bc a97b b5bc d86d 04bc 2a79 a8bc
00000260: ced0 f0b7 eaa9 083d b243 e53c df11 8abc
00000270: b19d 8d3c f4e4 9d3c f64e 02bd d14f 2f3d
00000280: 2fc4 66bd 58d9 923c ad24 4ebd 94a1 883c
00000290: 567a 9cbe 3061 b4bd 536a b83d 197d 0dbc
000002a0: ec86 97bc b73a f7bc 5aee b5bc ac2d 263d
000002b0: 18a3 57bb 8adf 3cbd 3a83 1d3d b741 b3bc
000002c0: a7de f43a 1448 39bc 147a 253e 4b1b 08be
000002d0: ebe0 f0bc 5cad c53c 8e17 8c3c 4e00 4abd
000002e0: 9327 913c 9050 36bb 0fbf 50bb f58b 403b
000002f0: c6a9 b23c 13f4 06bd 7831 b63b 6a3b b6bd
00000300: 8df4 733d 8155 0c3d a41a 443d 1f81 63bd
00000310: c880 193c acfe 123d ba38 be3c b8b5 cebc
00000320: e430 4ebd aa67 c1bb 588a 8bbd 54b4 b93d
00000330: 260e 5b3d 0816 173d f08a 9fbc c394 3dbd
00000340: b870 f33a 8940 4fbd 129e 1c3c c3d8 513d
00000350: 67f0 5cbd a121 27bc 33dc a13a 5f58 453d
00000360: dc9a 843a a213 903c dfdd aebd efa7 113c
00000370: e4d3 b63c a8fd bfbc 47db f93c dd9c 91bc
00000380: f90d 2abd fbb4 b33d a233 373c 6481 43bd
00000390: b322 e9bd 809d be3a d950 9d3d 702a 88bd
000003a0: 0ee5 173d cc18 043e 9e5a 0ebd e610 a0bd
000003b0: 11ce 31bd d6cc 7f3d f0c6 473d ab2e 903d
000003c0: 0db5 74bc 12ba 77bd 8f4e 093d 88ec 0fbd
000003d0: 93ff 413d d32a f3bb 98ee 88bd a14a 18bc
000003e0: 90fb 8fbc 4aa5 043c a4ca c63c bf45 8c3c
000003f0: 9ff7 f83c 8763 8f3c e325 2bbd f942 9abd
-0.018354027 0.0544202 0.07093116 -0.035846394 -0.08535645 -0.051023476 0.124357976 0.040939175
0.067074575 0.054170746 -0.011166671 -0.03397594 -0.024662845 0.08365934 0.09122388 -0.01041885
0.0806772 0.014150196 -0.03178319 -0.021286042 -0.0424341 -0.013229314 -0.016253915 0.12152147
-0.0014821003 0.04292132 -0.03971647 0.01161567 -0.05005079 -0.050394535 -0.07282715 0.040429823
0.024894048 0.0115840025 -0.06286086 0.05629655 0.030358432 0.035721835 0.028076658 0.03619711
-0.024674457 0.022589708 -0.014111335 0.0051651397 0.028010976 0.0435398 0.018788276 0.052507043
0.056532294 0.021853078 0.039120317 0.03686572 -0.0065145707 -0.0078001856 0.013808018 0.042012434
-0.0039762096 -0.020535013 0.019572152 -0.060464274 -0.08273374 0.07436529 0.020014852 0.068680026
0.0048096925 -0.014684604 0.0582145 -0.041116998 0.054859925 0.000320565 0.04518567 0.049272783
-0.04979066 -0.021921707 -0.016437931 0.007323545 0.011357441 -0.03431762 0.020364141 -0.04318436
0.007981356 0.0025735206 0.028919881 -0.04072093 -0.007577798 -0.061126288 -0.06547365 0.045493804
-0.032975033 -0.023957085 0.011877488 -0.097531386 0.05257766 3.6226887e-05 -0.023839878 -0.0031918436
0.06712525 -0.054345243 0.23193707 0.063664965 0.003794517 0.09421156 0.03740064 -0.020056421
0.03726099 0.031537153 -0.010873523 0.016658768 -0.024226004 0.007663099 0.023113515 -0.015542912
-0.044880066 0.053517856 -0.072981805 -0.019050403 -0.015466137 -0.06616576 -0.01740672 0.027027825
0.03569235 -0.042762905 -0.033510372 -0.034053944 -0.024141787 0.01498223 0.0100397365 -0.04667642
-0.02473484 0.09284071 -0.010972619 0.038920026 -0.03238469 0.010880901 0.05262095 -0.016862957
-0.05775243 0.062448375 0.02568742 0.03353079 -0.11439311 0.06918999 -0.016999599 0.02857302
0.008822671 -0.020538684 6.061441e-05 -0.0044998326 -0.01588631 -0.022153692 -0.008082829 -0.020565588
-2.8707462e-05 0.033365168 0.027986381 -0.016854225 0.017287107 0.019274212 -0.031813584 0.04280073
-0.05633944 0.017925903 -0.050327946 0.016678609 -0.30562085 -0.088075995 0.09004655 -0.008635783
-0.018496953 -0.030179365 -0.022208381 0.0405709 -0.0032903608 -0.04611162 0.038455226 -0.021881921
0.0018682078 -0.011308689 0.1615985 -0.13291661 -0.029404124 0.024130516 0.017101076 -0.049316697
0.017719066 -0.0027819015 -0.003185216 0.0029380296 0.02180947 -0.03294761 0.0055600964 -0.08898051
0.059559394 0.03426123 0.04787697 -0.05554306 0.009369083 0.035887405 0.023220409 -0.025233135
-0.050339594 -0.0059022503 -0.06813496 0.09067598 0.05348029 0.036886245 -0.01947543 -0.04628445
0.0018573022 -0.050598655 0.009559171 0.05123211 -0.053940203 -0.010200889 0.001234895 0.04817998
0.0010116952 0.017587487 -0.08538412 0.008890136 0.022317834 -0.023436382 0.030500067 -0.017774994
-0.04151723 0.08774754 0.011181744 -0.04773082 -0.113835715 0.0014542788 0.07681436 -0.06648719
0.037083678 0.12900084 -0.034754388 -0.07815723 -0.04340941 0.062451206 0.048773706 0.07040151
-0.014935744 -0.060480185 0.033522185 -0.035137683 0.047362875 -0.0074208765 -0.06686133 -0.009295137
-0.017576009 0.008096049 0.024266548 0.017123101 0.030391512 0.017503513 -0.04178418 -0.07532305

fcs1.bias f4 [256]
00000000: 5764 c03c 0860 3f3e 037b a1bb 7f7b 403e
00000010: 5606 88bc 2ae3 4dbe f107 5fbe 7174 28be
00000020: 46cd 393d 4cb5 8d3d 9d71 97bd 7d2b 96bc
00000030: 5f22 af3d 203a 29bd 45e9 663d a50b aabc
00000040: a66a 16be d070 0bbe 5491 e23d 35cd 13be
00000050: bd2c 0a3c bddb 76bb 2ed9 903d 9655 d43c
00000060: c97a 19bd 5c92 79bd 97c6 6d3d ed86 95bd
00000070: a269 6a3d d2c5 f73c 5ffb 9c3d 26c8 4abd
00000080: 8d41 23be 32a7 aebd e061 b33d 6250 92bd
00000090: b6c8 213e e1ce b43d 0e12 01be 535f 633d
000000a0: 1c3b d6bd 6d0b 0dbe b1af 7e3d 3c92 17be
000000b0: 2bd9 3abd 28ec 34be ebfa aa3d 3f98 9b3d
000000c0: be42 f53d 92c6 edbd 7fe0 edbd f0d1 e63c
000000d0: 272a 12be 8c9a a2bd 15ad 35be 83a6 e63d
000000e0: 6638 9bbd d428 81bd 81f9 593d f34d 2d3d
000000f0: c60b 00be a038 df3d 7ed1 32be 75ab 55bd
00000100: 6bc6 07be cd50 03be 612e 593d 0a59 133e
00000110: fd27 693d a68c fdbc da17 693d 10c0 033e
00000120: df27 27bd d605 02be 0cd7 793c 6509 883d
00000130: d954 7d3d c0bd bdbd 0d0b 4b3e 4cac ffbd
00000140: dc1b c339 0770 e83d 2eb2 86bd 56ff 723d
00000150: 0f1d df3d d4d3 96bd b9e6 063e 4522 893d
00000160: 08ed cb3d 9c9f 033e dc63 e83d e80e 273d
00000170: cce6 063e 43f2 5dbe d3d3 75be 5a9c 023c
00000180: 518b 493e bd83 e9bd 3533 323e b1b6 8fbd
00000190: 1d5f 443b df18 cabd 7ba8 68bb 17a4 bebd
000001a0: ccaa fbbd b9be 2d3d 1340 08bd 9c6e 203d
000001b0: 7c55 733d 6598 c7bd d739 ad3d 07aa 493e
000001c0: c09a c2bd 8b76 053e 15dd 993d 025b 22be
000001d0: 6104 b83c 9153 42be fd68 14bc f14b 0dbe
000001e0: eed5 073e 7b51 cb3c ca98 0b3e 3900 5ebd
000001f0: 675b 10be e386 e03d a70f a93c e782 5b3d
00000200: 36ec 293b 0ca8 bc3d 5529 c6bd 1018 60be
00000210: 566a 1b3c b635 cc3d ecea 0bbc 5acc 7abc
00000220: 22a3 2dbe 2294 4d3d 3f5e 68be deed fabd
00000230: f4a0 c83d a9e3 4ebe 98ea 12be 833c 1abe
00000240: 9013 fb3d be6e 12be cb8d 0dbd 3096 ef3a
00000250: f796 8e3d 0739 ff3d 71be 2b3d a6d0 a83c
00000260: 50f9 e7bd 8755 c63d c10c 283e dccb 3cbb
00000270: cc99 e23d c0b7 a9bd 0898 93bc 1dae bebd
00000280: b8dc 983d 15c9 9abd 68d5 aabd a214 41be
00000290: a9db d0bc ace4 3a3d 32bb 043e 9b31 df3b
000002a0: 20b4 e6bc 30b6 783d 4d7a 663c e2c2 2c3e
000002b0: e151 463e ca8a 2a3e 65af dc3c 0b91 113d
000002c0: 2c55 1d3e 11ca 9ebc 4be6 313e 4a05 eebd
000002d0: ece4 0cba 8ab7 083d c0b1 02be 86f8 46bd
000002e0: 61c7 82bc 9387 d6bc 632c 76bd c690 52bc
000002f0: 6049 4ebc bbbf 613e 8948 74bd cf74 0a3e
00000300: bb6c 26bd 12e0 283e fd07 3e3e 8625 43bd
00000310: 211e 98bc 734a f9bd 8e2c cdba 4265 0ebe
00000320: ae79 c9bd e271 973c 4ae1 d73c 9a3c b9bd
00000330: 3485 f93d ef35 583d 6af6 96bd acf4 bc3d
00000340: 4820 20be 610f 73bc a0f4 573e 4ff2 ab3d
00000350: 7147 853d 237c b63c f2f5 18bd 7608 0e3e
00000360: 8518 123c 8277 f33c bf7e b03c 83f8 4abc
00000370: 0a95 6a3d 5a17 fbbd e5e5 04be 8f82 2cbe
00000380: c811 3f3e 58e5 a5bd 39dd 1dbe b8f2 163d
00000390: 278b acbd c311 733d 0267 7abd fb78 8a3d
000003a0: 6917 3dbe 3dce 48be 7ee7 b63d 40d4 98bd
000003b0: 99e5 4bbd 8402 233d 4b4b 543c 5f59 bbbd
000003c0: eca9 883d ba78 ecbd 6207 113e 0af4 65bd
000003d0: c08c 263d 956b 223e 65ea ea3d c74d c43d
000003e0: a38b a83d d723 f1bd 8c66 9c3d 90a6 c8bd
000003f0: ec89 133e 5fa4 89bd 0a68 a93d e40e df3c
0.023485346 0.18688977 -0.004927994 0.1879711 -0.016604584 -0.20106187 -0.21780373 -0.16450669
0.04536178 0.06919345 -0.07394717 -0.018331284 0.08551478 -0.041315198 0.056374807 -0.020757506
-0.1468912 -0.13617253 0.110628754 -0.14433749 0.008433518 -0.0037667595 0.07072674 0.025919717
-0.037470613 -0.060930595 0.05805072 -0.07301126 0.057229646 0.030245695 0.07665133 -0.049507283
-0.15942974 -0.08527984 0.087589025 -0.07144238 0.15799221 0.088285215 -0.12604544 0.05551083
-0.10460493 -0.1377389 0.06217927 -0.14801878 -0.045617264 -0.17668211 0.0834864 0.07597398
0.11975621 -0.1161014 -0.11615085 0.028176278 -0.14273892 -0.07939634 -0.17741807 0.11262228
-0.075791165 -0.063066155 0.05321646 0.042310666 -0.12504491 0.10899472 -0.17462727 -0.052165467
-0.13259284 -0.12823792 0.053022746 0.14389434 0.0569229 -0.030950855 0.056907512 0.12866235
-0.04080951 -0.12697539 0.015249025 0.06642417 0.061848495 -0.092647076 0.19828434 -0.12484035
0.00037214055 0.113494925 -0.06576954 0.05932554 0.10894214 -0.07364622 0.13173951 0.066959895
0.099573195 0.12853855 0.11347172 0.0407857 0.1317398 -0.21674447 -0.24006586 0.007971847
0.19682051 -0.1140208 0.17402346 -0.070172675 0.0029963918 -0.09868025 -0.0035500813 -0.093086414
-0.12288436 0.042418215 -0.03326423 0.039167985 0.059407696 -0.09745864 0.08458298 0.19693767
-0.095021725 0.13033502 0.07512871 -0.15855029 0.022463026 -0.1897719 -0.009058234 -0.137985
0.13265201 0.024819126 0.13632503 -0.05419943 -0.14097367 0.109632276 0.020637346 0.053591635
0.0025928146 0.0921174 -0.09675852 -0.21884179 0.009485802 0.09971182 -0.008539896 -0.01530751
-0.16956761 0.0501901 -0.22692202 -0.12252401 0.09796324 -0.20204033 -0.14347303 -0.15062146
0.122595906 -0.14300057 -0.034559052 0.0018279012 0.06962388 0.12462049 0.041929666 0.020607304
-0.113268495 0.09684282 0.16411115 -0.0028808033 0.11064491 -0.08287001 -0.01801683 -0.09310553
0.07463974 -0.075578846 -0.08341485 -0.18855527 -0.025495367 0.045628235 0.12962034 0.0068113334
-0.028162062 0.060720623 0.014067245 0.16871217 0.19367172 0.16654506 0.026939103 0.035538714
0.15364522 -0.019383462 0.17373006 -0.116221026 -0.0005374688 0.03337816 -0.12763119 -0.048576854
-0.015964212 -0.026187694 -0.060100924 -0.0128518995 -0.012590736 0.22045796 -0.059639487 0.13521121
-0.040631037 0.16491726 0.18557735 -0.047643207 -0.018569054 -0.12172403 -0.0015653537 -0.13905814
-0.09837662 0.01848692 0.026352543 -0.09044762 0.121836096 0.05278581 -0.073712185 0.09226355
-0.15637314 -0.01483521 0.21089411 0.08395826 0.06507767 0.02227599 -0.037343927 0.13870415
0.008916979 0.029720072 0.021544812 -0.012388351 0.05727104 -0.12260313 -0.12978323 -0.16846679
0.18659127 -0.081003845 -0.15416421 0.03685257 -0.08424979 0.05934311 -0.061133392 0.067613564
-0.18465962 -0.19609924 0.089308724 -0.074623585 -0.04977951 0.03979732 0.012957404 -0.091479056
0.06673035 -0.11546464 0.14162973 -0.056140937 0.040661573 0.15861352 0.114704885 0.09585147
0.082297586 -0.11774414 0.07636747 -0.09797394 0.14408082 -0.067208044 0.08271797 0.02722878

fc2.weight f4 [128, 260]
00000000: 1b24 d23c 3767 853b a8aa c13d c7f2 5fbb
00000010: 9492 db3d fe64 99be d381 93bd 23aa 9e3d
00000020: 26dc 8ebc ebcc a5bd 1d05 093d cfda ca3b
00000030: 1ed1 1fbd d28e 7d3d 6b98 0ebd b7a8 083c
00000040: 146d 0cbc 8be4 7abd 674f 8f3c 673a f73d
00000050: 4d4f a43d 5331 dabc e00e 273d 9555 39be
00000060: bbcd 233d 6216 adbb 8404 9a3d a381 81be
00000070: 8310 923d b694 23bd deaf 233d 6ec7 253d
00000080: 8a30 8d3c 7fde d23c 4676 833c c95c 63bc
00000090: 42ff 6bbc 667a 25bd 03b6 863d 2121 29bd
000000a0: 9b89 acbd 418a 4bbd 9794 2dbd 99dc 34bc
000000b0: 19d6 b4bb 2011 523d fc64 023d 57fb 3cbd
000000c0: 11e0 8cbd fd92 1c39 b740 b93c 975d 9e3d
000000d0: ca9a 563d 0202 8fbd bad6 1ebb 4c4d 71bd
000000e0: 7106 8fbd 8782 6a3d 8ee7 a1bd ec72 123d
000000f0: 33b0 bcbc 9644 ee3d 1642 5f3d 5235 633d
00000100: 2653 e53c 7095 9abc 1a59 3bbd e16e 973d
00000110: ce43 b9bd f82e f1bd d6e6 bebd 135c 2d3d
00000120: 1bdb 28bc 53c5 913d 6230 82bd 9917 71bd
00000130: ffeb cbbc 7884 363d 038e 5a3d 8beb 6ebd
00000140: 0fc1 96bd 0ef2 68bc 32fa 12bd fa04 e8bd
00000150: f6e1 a1bd c0bd 823d 0aaf f33c 34df f6bc
00000160: 00ac 5cbd 1392 13be 5af3 dc3d 6289 51be
00000170: a342 25bc 7599 5cbe 37ad 4b3d 08a0 eebb
00000180: 714e 8d3c 5ed4 a3bd 0fe5 3b3d 0190 6f3d
00000190: b24b c2bd d2ec 60bd e5f2 43bb 55a9 b33c
000001a0: 6022 86bd d93c d03d f128 ce3d 40eb 313d
000001b0: a6b8 b03d 9f89 993c 76c9 44bd f109 263d
000001c0: 136e 943d 81c1 bd3b 983b 5abd 4a5e d8bd
000001d0: f9e8 80bd 4f41 c3bd 3a37 59bc d94c bcbc
000001e0: 9111 87bc 14c8 bd3b 6033 29bd 26a1 9abd
000001f0: 854e 4f3d c905 88bc 0d72 c23d 95c5 733d
00000200: c982 863d f74f 933d 4029 67bd 5a4e c43d
00000210: d77f e93d d6c7 9fbd 3dfd 4fbe 1158 8c3d
00000220: 666c 7c3d 2ac9 be3c 56bb c13c 02e5 073d
00000230: 8d78 44bd 71af 21be e32d 1ebd dfb5 fdbc
00000240: f6c2 853d f9ad bfbc 84cf 89ba ec03 0e3d
00000250: d27d 07be 6b61 d4bb b749 77bd a22a 3f3d
00000260: 2e6b e2bc f817 0b3e f4b9 e23c 899b 563d
00000270: 7c5f f7bd 7047 02bd 663c 943d 5b70 bf3d
00000280: 864e eab9 0612 163e 4c70 2bbd 4fde cbbd
00000290: 4d2b 3b3d 609e edbd 046d 2c3d ee7b 883d
000002a0: e7ba b73d ded8 9ebd 9d82 b23d f4ee 86bd
000002b0: 8b66 b3bc a4a7 57bc 0845 173d 6630 93bd
000002c0: 704b 0cbc 719a 8cbc 1152 333c 1c4b 6fbd
000002d0: 3773 49bd f31b f73c eaa8 63bd 34c4 913d
000002e0: ba23 5bbd a286 05be f67e c4bd 1f50 913d
000002f0: b318 223d 9058 9b3d 593f 4cbc ef8d 55bc
00000300: 4131 96bd 6d6c 0f3e aae2 053b 8f64 1dbc
00000310: edf3 ec3d 5fb2 f3bd ce6a 633d 0686 5c3d
00000320: e42f 473c 0c88 0b3d d7af 98bc 9d49 8f3d
00000330: a15a 23bd d1ae 483d 5dd1 4a3c 200f 343c
00000340: 8830 9bbd b9c3 af3c 8df1 58bc 12b9 093b
00000350: 735a ba3d f185 46bd ecc4 833d e98a 663c
00000360: c5f4 e33c 88d0 b9bd d6cc c4bd 3ca4 ddbd
00000370: 33af d83b e1e2 d93d 763e 93bd 47a7 063c
00000380: 3259 873c 4521 07be ba09 5f3b 8501 7b3c
00000390: cbd8 81bd 64c2 b53c 66a3 813d b2b2 2f3d
000003a0: fa92 a53c 499a c73c d6e5 a3bd e308 9fbd
000003b0: 3643 a33d 4020 0ebd 0644 3bbe 5957 313d
000003c0: 180d 33be 2ba4 a03d 6bfc 23bd cada 01be
000003d0: 5066 ea3b b41a fe3c 9f09 40bd 0915 f53b
000003e0: 280a 173d 7b6e 883d e908 36bd aa84 793d
000003f0: cae2 823c 09f7 a8bb afce 3dbd 18a6 e0bc
0.025651982 0.004071142 0.09456378 -0.0034171806 0.10721317 -0.29959863 -0.072024964 0.07747295
-0.01743896 -0.080957256 0.033452142 0.006190635 -0.03901779 0.061903782 -0.034813326 0.008341006
-0.008570928 -0.06125311 0.017493917 0.12071686 0.08022938 -0.026634848 0.04078567 -0.18099053
0.03999112 -0.0052822093 0.075203925 -0.25294217 0.071320556 -0.039936744 0.039962642 0.040473394
0.01723506 0.02574086 0.016047608 -0.013877102 -0.01440412 -0.04039993 0.06577685 -0.04129136
-0.08424684 -0.049692396 -0.042378034 -0.011038923 -0.0055186865 0.051285863 0.031834587 -0.046138134
-0.06878675 0.00014932077 0.022613866 0.077326946 0.052393712 -0.06982805 -0.0024236874 -0.058911607
-0.069836505 0.057253387 -0.07905494 0.03575413 -0.023033237 0.116341755 0.054506384 0.055470772
0.02799375 -0.018870085 -0.04573927 0.07394195 -0.09046136 -0.11776537 -0.09321372 0.042324137
-0.010306145 0.07117715 -0.063568845 -0.058860395 -0.024892805 0.044559926 0.05335809 -0.0583301
-0.07361042 -0.014217867 -0.035883136 -0.11329074 -0.07904427 0.06383848 0.029746551 -0.030135728
-0.05387497 -0.14411192 0.10788603 -0.20462564 -0.010086688 -0.21542914 0.049725737 -0.007282261
0.017249318 -0.0799949 0.045872744 0.058486942 -0.09487094 -0.05491335 -0.0029899415 0.02193133
-0.06549525 0.10167856 0.10066403 0.043437243 0.08628969 0.01874238 -0.04804369 0.040536825
0.072475575 0.0057908897 -0.05327949 -0.10564859 -0.06294436 -0.09533941 -0.013257796 -0.022985863
-0.016487869 0.0057916734 -0.04130876 -0.07550268 0.05061199 -0.016604321 0.0949441 0.0595146
0.06567914 0.071929865 -0.056435823 0.09585257 0.11401337 -0.078017876 -0.20311446 0.06852735
0.061626814 0.023289282 0.023648899 0.033177383 -0.04796653 -0.15789582 -0.03861798 -0.030970512
0.065313265 -0.023398386 -0.0010514115 0.03467171 -0.1323159 -0.0064813397 -0.060373034 0.046671517
-0.027638998 0.13583362 0.02767656 0.052394424 -0.12078759 -0.03180641 0.072380826 0.09347602
-0.00044690463 0.14655313 -0.04185514 -0.099545114 0.04569559 -0.11602473 0.042096153 0.06664263
0.08971196 -0.07756208 0.08716319 -0.065885454 -0.021899482 -0.013162527 0.036931068 -0.07186966
-0.008562908 -0.017163487 0.010944859 -0.05842124 -0.049182143 0.030164694 -0.05558101 0.07117501
-0.05350087 -0.1303964 -0.095945284 0.0709536 0.039574336 0.07585251 -0.012466275 -0.013034328
-0.07333613 0.14006205 0.0020429292 -0.009606495 0.11569963 -0.11899256 0.05552178 0.053838752
0.012157414 0.03406529 -0.018638534 0.069964625 -0.039881352 0.048994843 0.012379018 0.010989934
-0.07577616 0.021455633 -0.013241184 0.0021014852 0.09099283 -0.04846758 0.06434044 0.014071205
0.027826676 -0.09072977 -0.09609382 -0.10822341 0.0066126822 0.10638977 -0.07189648 0.008218593
0.016522024 -0.13196285 0.0034032897 0.0153201865 -0.06340178 0.02218742 0.06329994 0.042895027
0.020211685 0.024365561 -0.08002822 -0.07765367 0.07971804 -0.034698725 -0.18287668 0.04329619
-0.17485464 0.078438126 -0.040035646 -0.12681118 0.00715331 0.031018592 -0.046884175 0.007479314
0.03687492 0.066616975 -0.04444209 0.060917534 0.015977282 -0.005156402 -0.046339687 -0.02742295

fc2.bias f4 [128]
00000000: 206c 873c a103 073a 0310 ad3d 071c 22bd
00000010: 705c 0e3d 9802 dc3d b7dd 38bd d553 cc3b
00000020: dcb7 b93c 29ae 5e3c 8754 8a3d 6c27 953d
00000030: 18f7 ed3d 0350 c1bd f77c 18bd ac41 93bd
00000040: d8d0 8d3d fd90 9abd bb4e 173d f20b 9f3d
00000050: 0223 1e3e 2eba b53d 9baa 3fbd 3314 8abd
00000060: 60b0 c13d c277 09bc df24 c73d 945b 33bd
00000070: 3cba 123e c2ad 50bd 5326 bf3d ad5f 1c3d
00000080: 96ec 883d dc9c 81bd e685 8c3d 8efa 2b3c
00000090: 84a2 6f3c 9532 b23c 19f6 f13d bd8c 7b3b
000000a0: e8ba ac3c 4785 1336 fbd3 e43c ec75 513d
000000b0: f3e4 69bd 70e7 133e 4ae3 1a3d a4eb f0bc
000000c0: 9818 423d ee6e c9bb 904d 91bd 9d47 b8bd
000000d0: 795a 8a3d 7607 12bd 118e 28bd 9065 b1bd
000000e0: 22d8 bd3d 5019 8fbc d8d4 13bd eac8 09bd
000000f0: 02f8 bcbd 2cda 203d 293a ab3d bf9b fc3d
00000100: 0f6c 8dbc dc22 1abd 1d5f cd3b 406d a23d
00000110: 77a8 aebc 3358 f03d 0eef 29bc ff2c 32bd
00000120: b2d0 743d 09f9 143d d100 aa3c ae8f d93d
00000130: 050c c63d 7357 acbd 9356 cabc 930b 98bc
00000140: a96c 463d de66 aa3d bd13 6bbd 4ab6 fe3c
00000150: 8ce9 433c bcef 093e 55d9 9dbc a8a4 893d
00000160: 4866 0c3e 2521 303e c051 233e faa0 833d
00000170: ae0e c5bc f4a7 db3d 0775 203c 5ed3 df3c
00000180: eb1b a3bd d538 35bd 22cd 103e ae05 68bd
00000190: 4108 a2bd 4e8d 213d deb5 1bbd 4231 ca3d
000001a0: 2a7a 323c e0db acbb 4959 e83c c573 b7bd
000001b0: e2b2 0c3d e371 a03c 3a4d f93c 8855 3cba
000001c0: 1ab5 3bbc 7ea6 8abd aa76 913d 2f42 f9bc
000001d0: cb91 e13b cd14 3e3d 832c 94bc dafc 2ebd
000001e0: 7806 a3bd 2ab5 32bd 3ccf 733d 2e83 2e3d
000001f0: 8010 14bd 9777 c1bd 342c 2dbd 82c6 df3d
0.01653105 0.0005150382 0.084503196 -0.03957751 0.034756124 0.10742682 -0.04513332 0.0062355795
0.022670679 0.013591328 0.067544036 0.0728291 0.11619395 -0.09439089 -0.03722855 -0.0719026
0.069245994 -0.075471856 0.036940318 0.0776595 0.15443042 0.088734016 -0.04679356 -0.06742134
0.09457469 -0.008390369 0.097238295 -0.043788508 0.14328855 -0.05094696 0.09333482 0.03817718
0.0668575 -0.06328747 0.068614766 0.010496749 0.014626149 0.021752635 0.118145175 0.0038383447
0.021085218 2.1982285e-06 0.027933111 0.05113785 -0.05710311 0.14443755 0.037814416 -0.029409237
0.047386736 -0.006147257 -0.07094872 -0.08998034 0.067555375 -0.035651647 -0.04115111 -0.0866195
0.0926974 -0.017468125 -0.036091655 -0.033638872 -0.09226991 0.039270565 0.083607025 0.12334394
-0.01726344 -0.0376309 0.006267442 0.07930994 -0.021320565 0.11735573 -0.0103719365 -0.043499943
0.05976934 0.03637031 0.020752342 0.10623108 0.09670261 -0.08415117 -0.024699485 -0.018560207
0.04844347 0.083204016 -0.05739187 0.031092782 0.011957537 0.13470358 -0.019268671 0.06720859
0.13710892 0.17200144 0.15949154 0.06427188 -0.024054851 0.10725394 0.0097935265 0.027322467
-0.07964309 -0.044243652 0.14140752 -0.05664604 -0.079117306 0.0394414 -0.03801524 0.098726764
0.010893384 -0.0052752346 0.028362887 -0.08957628 0.034350283 0.019585555 0.030432332 -0.0007184376
-0.011456752 -0.06770037 0.071027115 -0.030427067 0.006883835 0.046406556 -0.018087631 -0.042721607
-0.07960218 -0.043629803 0.059523806 0.04260557 -0.036148548 -0.09446638 -0.042278484 0.10926534

fc3.weight f4 [1, 128]
00000000: a1c2 aa3d b30d 35be 06b2 2b3e 0cb8 49bd
00000010: 607a 603d b337 923d f3ad af3d d2e6 b53d
00000020: 368a 5c3d 7410 26be 91a0 363d 617c 073e
00000030: afeb aa3d 54e2 a9bc d9d1 79be 75c8 c2bd
00000040: c906 863d b829 cabd b994 223d 8fd3 3a3e
00000050: 11ca 823d 2e90 b13d 3947 e6bd bacf d3bd
00000060: 1262 883d 4dd6 a0bd 863b db3d 2347 b8bd
00000070: 00d9 a03d c6ba 86be 1cbc 6b3d 6d29 f5bd
00000080: 9de3 523d dc55 0dbe a905 813d e852 173e
00000090: aacf 8cbd 376f f03d 0340 643d 02dc 59be
000000a0: 08a0 463d 5b01 5dbe e51a ed3d fede 633d
000000b0: 683a cbbd ebef fc3d a615 093e 7d6f a6bd
000000c0: 0db4 ba3d fa51 2fbe 3b59 50be 4de9 15bd
000000d0: 9d7f 4e3d f9e5 86bd f8b4 e1bd 10b5 b6bd
000000e0: 4f3b c03d dac8 c2bd 0768 4bbe 14d2 fbbd
000000f0: c2d5 2bbd 0a7a 943d 0a0a 3a3d 2dd9 443d
00000100: 2d65 c5bd adc0 a2bd bbb4 91bd f94f 803d
00000110: cfe6 18be 0fee 933d 1fb6 63bd e51c 6ebe
00000120: 605b 003e e6b2 513d 08cd 4e3d 4d5a 773d
00000130: 8323 093d f4a1 40bd 9869 5f3d fa18 113e
00000140: 3cde 8b3d 9a20 663d 5d65 e0bd 737f 573d
00000150: 101b 803d 73b1 303d 2830 39bd 040f a83d
00000160: 15d7 893d c072 6b3d 5069 9e3d 8c49 4f3d
00000170: 466d 4ebe 47c8 b63d e38c 803d 1df9 443d
00000180: f93f 31bd 11a3 81bd 5834 dc3d d812 14be
00000190: b3fb 35be ae56 903d 2bd0 3abe e4e1 533d
000001a0: fae9 8c3d 3cde aabd 0fa6 ab3d b3bc 89bd
000001b0: a70b 993d fc17 c0bd c0d1 0f3d 394c b6bd
000001c0: 3bdf e0bd a622 5dbd c520 9a3d 27c3 d9bd
000001d0: f933 0dbe 1112 fb3d bd04 883d 91d4 543c
000001e0: c1a5 1bbe f469 57bd 0e0c a33d 3b49 5f3d
000001f0: cbca 03be 58e2 0cbe 1f48 653d 1ec8 913d
0.08337904 -0.17681007 0.1676713 -0.049247786 0.054804206 0.0713953 0.085781 0.08881916
0.053842746 -0.16217214 0.04458672 0.1323104 0.08345734 -0.020737804 -0.24396457 -0.095108904
0.06544263 -0.098712385 0.039692614 0.18244766 0.06386197 0.08670078 -0.112440534 -0.10342355
0.066593304 -0.07853375 0.107047126 -0.08997943 0.078538895 -0.26314372 0.057552442 -0.11970792
0.0514866 -0.13802284 0.06299908 0.1477772 -0.06875546 0.117399625 0.05572511 -0.21275333
0.04849246 -0.21582548 0.11577395 0.055632584 -0.099232495 0.12350448 0.13387164 -0.081267335
0.09116373 -0.17121115 -0.20346539 -0.036599446 0.05041467 -0.065868326 -0.11020845 -0.08921254
0.09386312 -0.09510966 -0.19863902 -0.122959286 -0.041951902 0.072498396 0.04541973 0.048058677
-0.096384384 -0.07946906 -0.0711455 0.062652536 -0.14931796 0.072231404 -0.055593606 -0.2325321
0.12534857 0.051196 0.0504885 0.060388852 0.033481132 -0.04702945 0.05454406 0.14169684
0.06829497 0.056183435 -0.109568335 0.05261178 0.06255162 0.04313798 -0.04521194 0.08205989
0.06730477 0.05748248 0.077349305 0.05060725 -0.20158872 0.089249186 0.06276872 0.048089135
-0.0432739 -0.063299306 0.10752171 -0.14460313 -0.17771797 0.07047783 -0.18243472 0.051729098
0.06880565 -0.08343169 0.083812825 -0.06725445 0.07472926 -0.09379575 0.035112143 -0.08901257
-0.10980078 -0.05398812 0.075257815 -0.106329255 -0.13789357 0.12259305 0.06641529 0.012990133
-0.15199949 -0.05259128 0.079612836 0.054513197 -0.12870328 -0.13758218 0.055976983 0.071182474
