savedmodels/checkpoint_1545158393_critic_episode116_score30.761.pth (torch_old, 169980 bytes, 5 tensors)

fcs1.weight f4 [256, 33]
-0.014607434 0.035470653 0.045554906 -0.024390692 -0.08232164 -0.049311507 0.10007994 0.058652736
0.05932273 0.06417362 6.0588063e-05 -0.019244337 -0.037852686 0.08316281 0.070612654 -0.036823645
0.06741146 -0.036900803 -0.044727597 0.018475268 -0.011420943 -0.0035286006 -0.00035360485 0.12731226
-0.017017877 0.03692508 -0.04830517 -0.0023735354 -0.060829427 -0.050394535 -0.058838114 0.040429823
0.032920063 0.012046764 -0.06398509 0.051806685 0.029587874 0.037751887 0.038004804 0.029787334
-0.029940687 0.024219343 -0.014216477 0.0066476087 0.025446948 0.04384761 0.02074962 0.05374974
0.055505816 0.031004045 0.027732821 0.05562404 -0.011817193 -0.0153167015 0.011427259 0.04676726
-0.0047038635 -0.018156046 0.01412406 -0.05861516 -0.081209816 0.07317166 0.020014852 0.0671561
0.0048096925 -0.016646897 0.05350053 -0.039587583 0.047872473 -0.0052042375 0.036397323 0.050270077
-0.049702518 -0.041487347 -0.010574293 0.022655454 0.025948886 -0.027499614 0.028435051 -0.043555513
0.011159108 -0.0035275277 0.026396373 -0.02054015 -0.009358742 -0.043260157 -0.057739075 0.0053310706
-0.05245771 -0.017013323 0.0052277143 -0.094995104 0.06252225 0.0030411403 -0.025710799 -0.0031918436
0.06412022 -0.054345243 0.22192173 0.06588482 0.0022452162 0.08882511 0.033445332 -0.01751898
0.034633704 0.03179066 -0.023927378 0.01231164 -0.020796081 0.009684898 0.020643575 -0.00092371146
-0.042459074 0.049534302 -0.07697243 -0.018710203 -0.024657896 -0.060556203 -0.016141122 0.025813768
0.034640327 -0.054901067 -0.030162716 -0.040063825 -0.009692763 0.019170344 0.009633812 -0.048079003
-0.02473484 0.09324648 -0.010972619 0.05055725 -0.02093205 0.01032953 0.05396061 -0.020943131
-0.049539987 0.071556635 0.031510815 0.024888575 -0.10854664 0.06815204 -0.01844197 0.027574876
0.011870872 -0.012242887 -0.004681082 -0.0047867214 -0.021601193 -0.01715992 -0.0012575188 -0.030238036
0.004721617 0.029677467 0.029657355 -0.024502967 0.008792281 0.017104754 -0.02156501 0.045279015
-0.057547674 0.017925903 -0.052806232 0.016678609 -0.2864374 -0.09438383 0.08817008 -0.0048369686
-0.019046932 -0.03611132 -0.022892348 0.047646802 -0.00815203 -0.061171867 0.03271345 -0.017859915
0.005343416 -0.00022632367 0.15595338 -0.124615684 -0.02584294 0.006370532 -0.02604205 -0.044531718
0.024634775 -0.004384978 0.00022830343 0.015340333 0.019981619 -0.03965086 -0.007886937 -0.091566674
0.0593841 0.023338089 0.04787697 -0.055367768 0.009369083 0.054796785 0.024928259 -0.019275622
-0.043498285 -0.008384081 -0.06691485 0.102721855 0.056852113 0.01663964 -0.0043662256 -0.038437434
0.009819128 -0.046987854 0.026297849 0.046959687 -0.044968013 -0.0050745113 0.04221438 0.03886942
0.00046902642 0.020557215 -0.069790825 -0.00197862 0.024334952 -0.030962922 0.03351502 -0.014600979
-0.04254345 0.091557354 0.007534275 -0.04773082 -0.11764553 0.0014542788 0.080834284 -0.06022432
0.020344177 0.12986767 -0.015403697 -0.07326424 -0.033135083 0.056041285 0.037947766 0.094623625
-0.03087449 -0.078031845 0.05044679 -0.034302462 0.051983878 -0.024347316 -0.06904494 -0.01594054
-0.029585714 0.009327928 0.038416978 -0.017208207 0.005346121 0.010528798 -0.018259851 -0.10519019
00000000: 0554 6fbc ad49 113d c897 3a3d fdce c7bc
00000010: 3f98 a8bd ddfa 49bd b6f6 cc3d da3d 703d
00000020: 64fc 723d 756d 833d f01f 7e38 4da6 9dbc
00000030: 6b0b 1bbd 4351 aa3d 5e9d 903d 64d4 16bd
00000040: 050f 8a3d 4c25 17bd 4934 37bd 7259 973c
00000050: e81e 3bbc 1840 67bb 0a64 b9b9 255e 023e
00000060: 1369 8bbc c13e 173d a4db 45bd 518d 1bbb
00000070: 4728 79bd 806a 4ebd 3c00 71bd be99 253d
00000080: 30d7 063d ca5f 453c 9d0a 83bd 3f33 543d
00000090: 4562 f23c b9a1 1a3d edaa 1b3d 9104 f43c
000000a0: 2c46 f5bc a567 c63c 3aec 68bc 2fd4 d93b
000000b0: 1e76 d03c 8d99 333d 1bfb a93c b028 5c3d
000000c0: 115a 633d 32fc fd3c f12f e33c 09d6 633d
000000d0: e69c 41bc e7f2 7abc 6639 3b3c 078f 3f3d
000000e0: de22 9abb fdbb 94bc 9a68 673c 7316 70bd
000000f0: 5551 a6bd 06db 953d 30f6 a33c 2389 893d
00000100: a09a 9d3b 135f 88bc 5f23 5b3d 9726 22bd
00000110: ed15 443d 4f88 aabb 5c15 153d ffe7 4d3d
00000120: de94 4bbd a3ee 29bd cd3f 2dbc ee97 b93c
00000130: c292 d43c df46 e1bc a0f0 e83c 4467 32bd
00000140: b1d4 363c 182e 67bb 353d d83c d143 a8bc
00000150: 6955 19bc 9031 31bd cf7f 6cbd 43b0 ae3b
00000160: e5dd 56bd 865f 8bbc 3f4d ab3b cb8c c2bd
00000170: aa0b 803d de4d 473b 749f d2bc 402e 51bb
00000180: 7651 833d 1e99 5ebd 733f 633e 9fee 863d
00000190: 7a24 133b f0e9 b53d f9fd 083d f783 8fbc
000001a0: 12dc 0d3d ec36 023d 5903 c4bc c3b6 493c
000001b0: 8b5c aabc 68ad 1e3c b71c a93c 3a25 72ba
000001c0: 91e9 2dbd 7be4 4a3d b9a3 9dbd 2446 99bc
000001d0: 5bff c9bc c809 78bd 633a 84bc 6577 d33c
000001e0: 04e3 0d3d f1df 60bd cd17 f7bc f719 24bd
000001f0: 65ce 1ebc 200b 9d3c 23d7 1d3c 7dee 44bd
00000200: b8a0 cabc 03f8 be3d 80c6 33bc 1e15 4f3d
00000210: b179 abbc 303d 293c cd05 5d3d ee90 abbc
00000220: 71ea 4abd 498c 923d 7c11 013d 20e3 cb3c
00000230: b34d debd 4c93 8b3d 9d13 97bc b5e4 e13c
00000240: 0c7e 423c 6496 48bc c363 99bb eed9 9cbb
00000250: fcf4 b0bc f692 8cbc 54d3 a4ba c2b5 f7bc
00000260: cbb7 9a3b 291e f33c fbf3 f23c 72ba c8bc
00000270: 800d 103c 451f 8c3c 1ba9 b0bc 7d76 393d
00000280: 1cb7 6bbd 58d9 923c 594b 58bd 94a1 883c
00000290: eca7 92be 4f4c c1bd 8492 b43d 6f7f 9ebb
000002a0: 5008 9cbc 77e9 13bd bc88 bbbc 4b29 433d
000002b0: 1890 05bc 5a8f 7abd 8afe 053d f54e 92bc
000002c0: d217 af3b 4c51 6db9 3eb2 1f3e 8236 ffbd
000002d0: 93b4 d3bc e5bf d03b 2356 d5bc e466 36bd
000002e0: dece c93c ddaf 8fbb bc64 6f39 0556 7b3c
000002f0: 7eb0 a33c f168 22bd 3638 01bc 4f87 bbbd
00000300: be3c 733d 852f bf3c a41a 443d 50c9 62bd
00000310: c880 193c 9872 603d 5936 cc3c e9e7 9dbc
00000320: 422b 32bd 625d 09bc a70a 89bd d65f d23d
00000330: c3dd 683d db4f 883c 8e12 8fbb 9270 1dbd
00000340: 68e0 203c 5676 40bd 966e d73c cd58 403d
00000350: 6130 38bd 1648 a6bb fce8 2c3d 8a35 1f3d
00000360: a9e7 f539 9b67 a83c 7eee 8ebd bcab 01bb
00000370: 185a c73c f4a5 fdbc 0c47 093d f238 6fbc
00000380: 0a42 2ebd 6c82 bb3d 14e2 f63b 6481 43bd
00000390: 24f0 f0bd 809d be3a 728c a53d c7ad 76bd
000003a0: d5a8 a63c 08fc 043e ca5f 7cbc 900b 96bd
000003b0: a7b8 07bd 8c8b 653d 1e6f 1b3d 08ca c13d
000003c0: 80ec fcbc 29cf 9fbd 4ba1 4e3d bd80 0cbd
000003d0: 0ced 543d 0674 c7bc 6f67 8dbd bc95 82bc
000003e0: bd5d f2bc 2ad4 183c 1f5b 1d3d 3af8 8cbc
000003f0: 832e af3b fb80 2c3c af95 95bc f46d d7bd

fcs1.bias f4 [256]
0.037474714 0.18536596 -0.007932921 0.1883769 -0.019082882 -0.20088752 -0.22161378 -0.15076025
0.03960445 0.08549154 -0.074140966 -0.012507009 0.09606675 -0.04618318 0.065749414 -0.013238689
-0.13133201 -0.13526371 0.1100243 -0.141611 0.018319646 0.0059115198 0.06753358 0.023369577
-0.045747712 -0.059923407 0.06170067 -0.06460394 0.052133426 0.039202563 0.07540732 -0.049862534
-0.14650157 -0.085772164 0.084656656 -0.06468968 0.17182428 0.10707666 -0.11725306 0.048376087
-0.09321839 -0.12247704 0.06301163 -0.14656213 -0.049112137 -0.17001249 0.084766015 0.08979654
0.122833714 -0.09816693 -0.11835479 0.02295037 -0.1463843 -0.07438212 -0.17473255 0.110231854
-0.07981774 -0.05851156 0.050450526 0.03740749 -0.13040091 0.10687229 -0.17267409 -0.0526785
-0.14792156 -0.12453826 0.05631874 0.13354139 0.05913551 -0.021872258 0.070441425 0.12545279
-0.0445733 -0.12656455 0.008909579 0.06836105 0.05918957 -0.096935205 0.19031847 -0.12153699
0.005748515 0.116637126 -0.06705865 0.06823847 0.11484889 -0.08229134 0.13063394 0.061486173
0.107734516 0.121850096 0.110262 0.04490147 0.12915748 -0.21170728 -0.2326404 0.01190774
0.19164081 -0.103474446 0.16931474 -0.062257305 0.0104586445 -0.09252203 -0.001094339 -0.091350175
-0.12894136 0.05531892 -0.034556843 0.047653712 0.05589232 -0.08957042 0.0960688 0.19113398
-0.09416277 0.12680332 0.0706399 -0.15388007 0.019916141 -0.18025838 -0.00916388 -0.13873854
0.12926924 0.037513085 0.13842656 -0.047335908 -0.13371502 0.10362837 0.020390475 0.04981506
-0.0040317075 0.096365824 -0.09469017 -0.2231918 0.011364163 0.10329331 -0.014751148 -0.021999324
-0.16081393 0.06104144 -0.22325982 -0.11105918 0.090166025 -0.19419259 -0.12823321 -0.1511636
0.11893732 -0.14139368 -0.032338843 0.00030671366 0.06386554 0.1344222 0.041783758 0.010336135
-0.11530001 0.09679478 0.1624022 0.010888582 0.10032592 -0.07894292 -0.014974401 -0.09466894
0.07918186 -0.0801644 -0.07992762 -0.18872349 -0.029073102 0.047614098 0.124291845 0.005645731
-0.025135284 0.07498643 0.016643152 0.1650461 0.18960533 0.15802109 0.03401089 0.042874277
0.15076071 -0.018114049 0.17042533 -0.115072824 -0.0019957437 0.043114666 -0.11134622 -0.05345679
-0.015823288 -0.020834792 -0.058674585 -0.012458569 -0.0005130584 0.21699163 -0.065001905 0.12901667
-0.023750124 0.15966849 0.17966536 -0.039429937 -0.022810796 -0.12257891 0.0012173943 -0.139952
-0.09835325 0.03987334 0.034670793 -0.0913458 0.12645188 0.049087875 -0.07607006 0.08907377
-0.13836898 -0.013389106 0.2070927 0.07954979 0.059276074 0.021215914 -0.034344107 0.13240844
0.007814641 0.03357988 0.036744308 -0.019551564 0.06814821 -0.119696714 -0.1346997 -0.16720979
0.17831913 -0.07494917 -0.16133344 0.038877014 -0.06728336 0.06358754 -0.06778466 0.07256634
-0.17958537 -0.19323009 0.08806018 -0.06382135 -0.016119303 0.033240516 0.011668119 -0.088175476
0.062447418 -0.10817366 0.13728935 -0.059598714 0.061497718 0.15813538 0.11003391 0.088937856
0.08782029 -0.107882105 0.07862891 -0.07904792 0.13800679 -0.06893319 0.08059476 0.029893378
00000000: 167f 193d 93d0 3d3e 15f9 01bc e0e5 403e
00000010: b453 9cbc 75b5 4dbe b9ee 62be e560 1abe
00000020: 4738 223d 3016 af3d 38d7 97bd 33ea 4cbc
00000030: a5be c43d 932a 3dbd a1a7 863d 16e7 58bc
00000040: e67b 06be 9282 0abe 6c54 e13d 7902 11be
00000050: 1513 963c 6cb5 c13b 0c4f 8a3d 8e71 bf3c
00000060: f461 3bbd 3f72 75bd d7b9 7c3d 124f 84bd
00000070: dc89 553d de92 203d 276f 9a3d a83c 4cbd
00000080: 8204 16be 51a9 afbd 7860 ad3d 067c 84bd
00000090: b4f2 2f3e 024b db3d 5f22 f0bd 0126 463d
000000a0: 49e9 bebd 3ed5 fabd 3e0c 813d 6214 16be
000000b0: cf29 49bd c117 2ebe ce99 ad3d 40e7 b73d
000000c0: 3e90 fb3d be0b c9bd ff63 f2bd 6a02 bc3c
000000d0: c4e5 15be a755 98bd 17ed 32be 3dc1 e13d
000000e0: 7c77 a3bd d1a9 6fbd 36a5 4e3d 9938 193d
000000f0: d187 05be dcdf da3d 7ad1 30be 69c5 57bd
00000100: c078 17be ea0d ffbd 7bae 663d 13bf 083e
00000110: 1438 723d 732d b3bc 9843 903d b276 003e
00000120: 7e92 36bd 239a 01be 7cf9 113c e100 8c3d
00000130: c370 723d f785 c6bd d8e2 423e 63e8 f8bd
00000140: 0a5e bc3b 72df ee3d 0c56 89bd 9cc0 8b3d
00000150: e535 eb3d 5d88 a8bd e7c4 053e edd8 7b3d
00000160: eaa3 dc3d 8b8c f93d 0bd1 e13d 9bea 373d
00000170: dc41 043e cbc9 58be 4939 6ebe ae18 433c
00000180: 7d3d 443e 69ea d3bd d860 2d3e 8401 7fbd
00000190: bc5a 2b3c 317c bdbd ec6f 8fba cd15 bbbd
000001a0: 3409 04be 1896 623d 7a8b 0dbd 8a30 433d
000001b0: 58ef 643d b270 b7bd b8bf c43d a0b8 433e
000001c0: 69d8 c0bd bbd8 013e a7ab 903d bd92 1dbe
000001d0: 2d27 a33c a795 38be 1924 16bc 7a11 0ebe
000001e0: 285f 043e 52a7 193d b1bf 0d3e 4ce3 41bd
000001f0: 97ec 08be 1c3b d43d ed09 a73c e00a 4c3d
00000200: 6a1c 84bb 725b c53d ebec c1bd 648c 64be
00000210: c130 3a3c 718b d33d cdae 71bc ed37 b4bc
00000220: 68ac 24be 9706 7a3d 399e 64be ff72 e3bd
00000230: f7a8 b83d 6cda 46be 914f 03be a1ca 1abe
00000240: 6995 f33d 81c9 10be bc75 04bd 69ce a039
00000250: f0cb 823d f9a5 093e 7225 2b3d e458 293c
00000260: 6922 ecbd 573c c63d c34c 263e 0666 323c
00000270: ad77 cd3d d3ac a1bd 3157 75bc cae1 c1bd
00000280: 192a a23d 3c2d a4bd 18b1 a3bd bb40 41be
00000290: b72a eebc 0007 433d b98c fe3d d3ff b83b
000002a0: 83e8 cdbc 7c92 993d 3857 883c d801 293e
000002b0: e627 423e 48d0 213e 014f 0b3d f09c 2f3d
000002c0: 0461 1a3e ea63 94bc fa83 2e3e 4dab ebbd
000002d0: 06cb 02bb 0199 303d 7d09 e4bd 82f5 5abd
000002e0: d79f 81bc baad aabc c354 70bd 071f 4cbc
000002f0: c47e 06ba 0e33 5e3e b81f 85bd f21c 043e
00000300: 9f8f c2bc 2380 233e 32fa 373e 4981 21bd
00000310: b5dd babc a70a fbbd f990 9f3a 944f 0fbe
00000320: 6e6d c9bd 3a52 233d f602 0e3d 8213 bbbd
00000330: 9a7c 013e 5e10 493d 9fca 9bbd 4f6c b63d
00000340: 99b0 0dbe fb5d 5bbc 1c10 543e 00eb a23d
00000350: 78cb 723d ffcc ad3c 68ac 0cbd 1496 073e
00000360: fb08 003c 0e8b 093d 3381 163d 9a2a a0bc
00000370: 4a91 8b3d 8d23 f5bd b8ee 09be 0b39 2bbe
00000380: 4a99 363e f37e 99bd 9834 25be 813d 1f3d
00000390: dccb 89bd 2f3a 823d afd2 8abd a99d 943d
000003a0: 3ae5 37be 1cde 45be e558 b43d c5b4 82bd
000003b0: a10c 84bc 3527 083d a32b 3f3c 5895 b4bd
000003c0: ddc8 7f3d 278a ddbd 9495 0c3e c81d 74bd
000003d0: 08e5 7b3d 3eee 213e 7559 e13d 0d25 b63d
000003e0: 20db b33d 4bf1 dcbd 3208 a13d e0e3 a1bd
000003f0: a751 0d3e d82c 8dbd de0e a53d f5e2 f43c

fc2.weight f4 [128, 260]
0.030047195 0.0031750735 0.09402115 -0.0036663238 0.10734373 -0.29159385 -0.08231933 0.09151954
-0.020989386 -0.08111749 0.039278205 0.00782988 -0.059186827 0.060564768 -0.03575861 0.0075491406
-0.007971745 -0.071421064 0.01560346 0.12373411 0.07862361 -0.022570498 0.037409995 -0.18195617
0.036391057 -0.0078028943 0.06989616 -0.2669026 0.066455685 -0.044402 0.04206627 0.039827682
-0.00028120872 0.015611562 0.011963156 -0.016837053 -0.012139041 -0.04497352 0.06070189 -0.04954617
-0.09324764 -0.05610122 -0.0031559775 -0.012772573 -0.0072972933 0.05685566 0.03379353 -0.04525355
-0.0666647 -3.5272817e-05 0.010433775 0.06764829 0.042397153 -0.07958925 -0.0038760134 -0.06423906
-0.06500709 0.06874994 -0.08044071 0.0345991 0.0040331045 0.11428705 0.053951494 0.05605714
0.051140323 -0.03777609 -0.03396914 0.07133382 -0.08634952 -0.1079315 -0.085712776 0.04302417
-0.014270262 0.071216635 -0.07050469 -0.055499878 -0.029837852 0.044397652 0.0490209 -0.060357574
-0.07547323 -0.016437428 -0.03232967 -0.09816926 -0.075629845 0.060535803 0.026015425 -0.029670471
-0.045581352 -0.14285515 0.10813294 -0.20544755 -0.010234768 -0.22178957 0.050624393 -0.013412468
0.020936074 -0.084248595 0.043255713 0.05818887 -0.09126092 -0.04516658 -0.0073860115 0.01903379
-0.06793444 0.10311151 0.09790948 0.041174233 0.084532894 0.014341311 -0.043169778 0.039972853
0.07085667 0.003705696 -0.050531857 -0.105562255 -0.063239604 -0.09613353 -0.013639053 -0.022585463
-0.014114159 0.001224103 -0.04438229 -0.07367088 0.046548758 -0.018672498 0.10283089 0.04920627
0.065481864 0.06863819 -0.04188895 0.08896611 0.10751686 -0.074016765 -0.19876978 0.06579197
0.058765315 0.03997584 0.028267829 0.029514197 -0.04113673 -0.14278409 -0.01721104 -0.056318752
0.06478452 -0.019036904 -0.009903628 0.035690844 -0.14115351 -0.005069394 -0.073125355 0.04425084
-0.035303306 0.13462108 0.021741185 0.06093282 -0.124518536 -0.03467837 0.073432334 0.09285557
-0.020451505 0.1484483 -0.027474014 -0.10508826 0.05388166 -0.120145395 0.042515166 0.06951311
0.07763992 -0.080677934 0.093057066 -0.06664194 -0.022863979 -0.02277814 0.048583347 -0.04479013
-0.017212676 -0.02342735 0.009368709 -0.070251144 -0.052871972 0.031745628 -0.04997215 0.07260941
-0.05623036 -0.12182737 -0.10384652 0.06579754 0.041038558 0.072458774 0.0067263856 -0.016060762
-0.068364255 0.1346395 -0.0029266072 -0.009288563 0.1082956 -0.12277562 0.058571376 0.03582084
0.004631203 0.032081895 -0.01740405 0.072165765 -0.041497156 0.048944406 0.007778014 0.010087374
-0.078086935 0.021211794 -0.012395372 0.000103421524 0.08775796 -0.048288506 0.057533454 0.008586373
0.026072348 -0.08827911 -0.09842046 -0.1108355 -0.00078614475 0.09445118 -0.07801766 -0.01031471
0.015307016 -0.12683263 0.0016166051 0.0058697388 -0.058366396 0.017351713 0.058989223 0.04357542
0.017931132 0.008193251 -0.08433607 -0.08466852 0.08558709 -0.036640517 -0.18890879 0.042778
-0.17379683 0.07640173 -0.041263826 -0.10599509 -0.0044787275 0.030845063 -0.0498789 0.006735085
0.03404218 0.06380819 -0.045555428 0.05556468 0.018237712 -0.01009953 -0.048547827 -0.020898664
00000000: 8925 f63c e514 503b 298e c03d b546 70bb
00000010: 08d7 db3d ca4b 95be 0997 a8bd 996e bb3d
00000020: eff1 abbc ed20 a6bd 2fe2 203d e648 003c
00000030: e36d 72bd c312 783d 9f77 12bd c85e f73b
00000040: ec9b 02bc 3545 92bd a8a5 7f3c 4f68 fd3d
00000050: 6a05 a13d c4e5 b8bc 393b 193d b852 3abe
00000060: ca0e 153d 6caf ffbb b825 8f3d 75a7 88be
00000070: eb19 883d dfde 35bd ae4d 2c3d 5a22 233d
00000080: 326f 93b9 a3c7 7f3c 1d01 443c dced 89bc
00000090: d4e2 46bc 2736 38bd 8ca2 783d edf0 4abd
000000a0: 9ef8 bebd 65ca 65bd 84d4 4ebb 0e44 51bc
000000b0: 221e efbb 7be1 683d 166b 0a3d c95b 39bd
000000c0: 8187 88bd e6f1 13b8 6df2 2a3c 308b 8a3d
000000d0: a3a8 2d3d b0ff a2bd b704 7ebb c58f 83bd
000000e0: 7022 85bd c5cc 8c3d 19be a4bd c9b7 0d3d
000000f0: 2228 843b 540f ea3d 3efc 5c3d 2c9c 653d
00000100: 8478 513d 1abb 1abd 3a23 0bbd 7717 923d
00000110: 04d8 b0bd 310b ddbd 2e8a afbd 1d3a 303d
00000120: d1cd 69bc 07da 913d c364 90bd d753 63bd
00000130: 836e f4bc 50da 353d 24ca 483d 8139 77bd
00000140: b591 9abd c9a7 86bc 1e6c 04bd f70c c9bd
00000150: d2e3 9abd 64f4 773d 4d1e d53c 7d0f f3bc
00000160: 83b3 3abd 9f48 12be ce74 dd3d d860 52be
00000170: baaf 27bc ce1c 63be 865b 4f3d f8bf 5bbc
00000180: 2182 ab3c 878a acbd e72c 313d 7457 6e3d
00000190: 01e7 babd 9700 39bd 5b06 f2bb c0ec 9b3c
000001a0: 3621 8bbd 212c d33d c484 c83d 50a6 283d
000001b0: 951f ad3d d1f7 6a3c cbd2 30bd 93ba 233d
000001c0: 4d1d 913d 43db 723b 7efa 4ebd 0631 d8bd
000001d0: c483 81bd a8e1 c4bd 5676 5fbc 2605 b9bc
000001e0: 133f 67bc 1572 a03a 34ca 35bd c2e0 96bd
000001f0: e9a9 3e3d 11f7 98bc 0099 d23d 848c 493d
00000200: 5b1b 863d 2e92 8c3d bf93 2bbd dd33 b63d
00000210: cd31 dc3d 1a96 97bd 4e8a 4bbe f1bd 863d
00000220: e6b3 703d b5bd 233d ef91 e73c c2c7 f13c
00000230: fd7e 28bd fe35 12be 2bfe 8cbc 7eae 66bd
00000240: bfad 843d 48f3 9bbc d442 22bc 9030 123d
00000250: 8c8a 10be 291d a6bb bfc2 95bd 5e40 353d
00000260: 339a 10bd 1cda 093e 921a b23c b194 793d
00000270: 9303 ffbd e80a 0ebd b163 963d 102b be3d
00000280: ea89 a7bc d502 183e 2f11 e1bc 8338 d7bd
00000290: 04b3 5c3d ca0e f6bd 6224 2e3d e45c 8e3d
000002a0: ae01 9f3d 793a a5bd b494 be3d 927b 88bd
000002b0: 3d4d bbbc 3999 babc 55ff 463d db75 37bd
000002c0: 9901 8dbc b7ea bfbc 377f 193c d5df 8fbd
000002d0: 4890 58bd b407 023d 99af 4cbd 3eb4 943d
000002e0: ce51 66bd a180 f9bd 7cad d4bd dcc0 863d
000002f0: 0c18 283d 4465 943d 0369 dc3b dc91 83bc
00000300: 8f02 8cbd f0de 093e 52cc 3fbb 0f2f 18bc
00000310: 15ca dd3d c971 fbbd 8ae8 6f3d e0b8 123d
00000320: 59c1 973b 4e68 033d f092 8ebc a5cb 933d
00000330: ecf8 29bd ee79 483d b6de fe3b 8345 253c
00000340: 0bec 9fbd 5bc4 ad3c f515 4bbc 02e4 d838
00000350: 72ba b33d 2bca 45bd 33a8 6b3d dcad 0c3c
00000360: ad95 d53c aecb b4bd ab90 c9bd b9fd e2bd
00000370: 4815 4eba 9f6f c13d b9c7 9fbd 08ff 28bc
00000380: 47ca 7a3c 6ae0 01be 44e4 d33a f056 c03b
00000390: 9a11 6fbd 2e25 8e3c af9e 713d 247c 323d
000003a0: 4fe4 923c fc3c 063c 64b8 acbd b066 adbd
000003b0: 4948 af3d 5e14 16bd 4e71 41be fc37 2f3d
000003c0: ccf7 31be 8378 9c3d 4204 29bd f413 d9bd
000003d0: 4ac2 92bb c9ae fc3c d14d 4cbd fdb1 dc3b
000003e0: d06f 0b3d dead 823d 5498 3abd ca97 633d
000003f0: 4167 953c 8078 25bc 16da 46bd ad33 abbc

fc2.bias f4 [128]
0.008254568 0.00572613 0.073588245 -0.03957751 0.038191974 0.09668347 -0.04302539 0.00089077855
0.019354358 0.011531003 0.061960302 0.0675024 0.105306394 -0.08675499 -0.035876412 -0.06921208
0.06577759 -0.07354209 0.03235262 0.06999245 0.14377534 0.085980125 -0.04338486 -0.061140962
0.08920134 -0.003381968 0.093325384 -0.03882067 0.13251899 -0.054890774 0.08252519 0.03599237
0.060824487 -0.059400782 0.061851896 0.0054016863 0.0110309245 0.018287368 0.11094892 0.00423001
0.01493467 0.00016012986 0.02236511 0.04121498 -0.053103704 0.13453759 0.036904074 -0.025990812
0.044927415 -0.0066180727 -0.07570802 -0.077967934 0.0667477 -0.030079154 -0.035150643 -0.08265484
0.08567645 -0.005393939 -0.035183307 -0.03584769 -0.091202565 0.03412863 0.077203944 0.11265837
-0.014012874 -0.033645716 0.010639592 0.06924067 -0.01787094 0.11391763 -0.006839385 -0.042389072
0.060550936 0.03221427 0.01660034 0.10488494 0.088573165 -0.08232505 -0.032074858 -0.022041583
0.043235525 0.08107721 -0.05261159 0.030618818 0.012425463 0.12848815 -0.019617187 0.06423585
0.12645276 0.161427 0.14870302 0.06286062 -0.01726139 0.10340149 0.0013802627 0.020929296
-0.07964309 -0.043003 0.13086908 -0.052802157 -0.07672387 0.035257384 -0.038606253 0.08679759
0.005160584 0.0020926278 0.019563505 -0.075234815 0.025363084 0.018960891 0.02577781 0.00036128244
-0.008334796 -0.059923418 0.071367934 -0.029655537 0.0066889795 0.039881796 -0.021180395 -0.042721607
-0.0760998 -0.038456913 0.054592926 0.033593748 -0.029353976 -0.09133228 -0.048643507 0.09894317
00000000: 2b3e 073c 43a2 bb3b 6fb5 963d 071c 22bd
00000010: 306f 1c3d fc01 c63d 643b 30bd 2383 693a
00000020: 088d 9e3c 88ec 3c3c 16ca 7d3d b33e 8a3d
00000030: e1aa d73d 9aac b1bd 25f3 12bd 10bf 8dbd
00000040: 67b6 863d 3c9d 96bd 2e84 043d 3458 8f3d
00000050: d839 133e 5916 b03d 53b4 31bd f26e 7abd
00000060: 31af b63d 02a4 5dbb 6121 bf3d 6c02 1fbd
00000070: 0fb3 073e 26d5 60bd f802 a93d bc6c 133d
00000080: 1923 793d 3c4e 73bd 6a58 7d3d a100 b13b
00000090: 0dbb 343c 64cf 953c 3039 e33d e59b 8a3b
000000a0: 8cb0 743c 88e8 2739 0937 b73c 0ad1 283d
000000b0: 4583 59bd 39c4 093e ba28 173d afea d4bc
000000c0: cf05 383d 6bdc d8bb ce0c 9bbd a7ad 9fbd
000000d0: 05b3 883d 8f68 f6bc 1ffa 0fbd f146 a9bd
000000e0: 2277 af3d a4bf b0bb 5f1c 10bd 07d5 12bd
000000f0: 69c8 babd 76ca 0b3d 1a1d 9e3d 6eb9 e63d
00000100: 4196 65bc 17d0 09bd af51 2e3c 0dce 8d3d
00000110: 1466 92bc a54d e93d eb1c e0bb 2aa0 2dbd
00000120: 4204 783d 1cf3 033d 70fd 873c eacd d63d
00000130: d965 b53d 099a a8bd ed60 03bd 8d90 b4bc
00000140: bc17 313d cf0b a63d 407f 57bd 51d4 fa3c
00000150: 2b94 4b3c 6692 033e 39b4 a0bc 168e 833d
00000160: d57c 013e 1f4d 253e 9b45 183e 12bd 803d
00000170: c267 8dbc 29c4 d33d eee9 b43a ea73 ab3c
00000180: eb1b a3bd ea23 30bd 8b02 063e 1347 58bd
00000190: 6821 9dbd 0c6a 103d 9721 1ebd efc2 b13d
000001a0: 1e1a a93b 7824 093b a543 a03c b614 9abd
000001b0: 3ec6 cf3c df53 9b3c fc2b d33c 826a bd39
000001c0: ab8e 08bc 4272 75bd 5a29 923d 2bf0 f2bc
000001d0: 3a2f db3b 185b 233d 8282 adbc dafc 2ebd
000001e0: 36da 9bbd ff84 1dbd d59c 5f3d 9999 093d
000001f0: c077 f0bc 6b0c bbbd 6a3e 47bd b7a2 ca3d

fc3.weight f4 [1, 128]
0.083675295 -0.17898057 0.16638581 -0.049247786 0.049914084 0.06900962 0.089605875 0.08970446
0.055410303 -0.1590398 0.046357464 0.14070827 0.08121165 -0.026589531 -0.22145727 -0.10080714
0.07481689 -0.103037044 0.04059884 0.18408304 0.06153376 0.08908362 -0.10614731 -0.0971004
0.08070944 -0.0794647 0.10852852 -0.08134847 0.07675468 -0.2378543 0.055404242 -0.14416602
0.048921436 -0.12998821 0.064582944 0.15397511 -0.067782395 0.12031031 0.055003714 -0.21752961
0.053026233 -0.236629 0.1197411 0.05496272 -0.08631608 0.12139786 0.14366582 -0.07519707
0.10904881 -0.15813136 -0.19471535 -0.04078443 0.052275024 -0.077145316 -0.09516149 -0.06421539
0.09225835 -0.11973234 -0.19996159 -0.12000372 -0.051719137 0.07770657 0.05425963 0.047629602
-0.08256212 -0.059538852 -0.07347262 0.0635971 -0.15363222 0.07232102 -0.04644005 -0.21243718
0.12400735 0.055650968 0.05334344 0.058559015 0.034464315 -0.049451422 0.06547328 0.14946532
0.07027399 0.057930578 -0.120247245 0.051528018 0.06403806 0.041466117 -0.036283184 0.07836869
0.06574952 0.055144306 0.07448349 0.05575086 -0.20256853 0.0913142 0.06149422 0.04926228
-0.0432739 -0.060564745 0.10574387 -0.13094305 -0.18887891 0.07214577 -0.17405641 0.052368816
0.0663136 -0.072745726 0.09209626 -0.051805228 0.07477843 -0.06745191 0.037640497 -0.074460424
-0.09906845 -0.059738226 0.073333815 -0.0805288 -0.120461755 0.12234601 0.07192181 0.012990133
-0.13951518 -0.053832963 0.09061071 0.05522569 -0.09828015 -0.12723778 0.068692535 0.07262682
00000000: f45d ab3d af46 37be 0b61 2a3e 0cb8 49bd
00000010: b672 4c3d ea54 8d3d 4983 b73d f9b6 b73d
00000020: eaf5 623d 54db 22be 53e1 3d3d d415 103e
00000030: 4b52 a63d 4ad2 d9bc b2c5 62be f973 cebd
00000040: 9939 993d 1605 d3bd f84a 263d 4480 3c3e
00000050: d30a 7c3d 7971 b63d c363 d9bd 93dc c6bd
00000060: fe4a a53d 63be a2bd 3344 de3d 079a a6bd
00000070: 8f31 9d3d 1490 73be 8fef 623d 42a0 13be
00000080: d861 483d a11b 05be 1044 843d a7ab 1d3e
00000090: 7fd1 8abd 4065 f63d 934b 613d 15c0 5ebe
000000a0: 0932 593d df4e 72be d23a f53d 9720 613d
000000b0: 7cc6 b0bd 719f f83d 221d 133e ec00 9abd
000000c0: fc54 df3d 30ed 21be 7663 47be 930d 27bd
000000d0: 561e 563d 5dfe 9dbd 07e4 c2bd 5c83 83bd
000000e0: f2f1 bc3d 3b36 f5bd bbc2 4cbe 83c4 f5bd
000000f0: 72d7 53bd 9f24 9f3d 593f 5e3d 4217 433d
00000100: 5416 a9bd 03df 73bd d078 96bd 323f 823d
00000110: c451 1dbe 0b1d 943d ec37 3ebd 2289 59be
00000120: 91f7 fd3d 45f2 633d a77e 5a3d 94db 6f3d
00000130: 742a 0d3d 938d 4abd db16 863d 700d 193e
00000140: cfeb 8f3d 9d48 6d3d 3044 f6bd 0b0f 533d
00000150: 6326 833d 60d8 293d ad9d 14bd c47f a03d
00000160: afa7 863d ffde 613d cd8a 983d 045b 643d
00000170: 206e 4fbe f002 bb3d 5de1 7b3d 3fc7 493d
00000180: f93f 31bd bd12 78bd 3e90 d83d ef15 06be
00000190: 7969 41be 29c1 933d d83b 32be af80 563d
000001a0: 6dcf 873d b6fb 94bd f79c bc3d b831 54bd
000001b0: 6f25 993d 3a24 8abd ec2c 1a3d b57e 98bd
000001c0: 66e4 cabd 12b0 74bd 0a30 963d 49ec a4bd
000001d0: a7b4 f6bd 8b90 fa3d be4b 933d 91d4 543c
000001e0: 11dd 0ebe f47f 5cbd 1c92 b93d 5534 623d
000001f0: 1a47 c9bd 9f4a 02be acae 8c3d 5fbd 943d
