savedmodels/checkpoint_1545158393_critic_episode121_score32.415.pth (torch_old, 169980 bytes, 5 tensors)

fcs1.weight f4 [256, 33]
-0.019651167 0.04544879 0.04760238 -0.02748485 -0.086350985 -0.05009458 0.09973852 0.05328573
0.06484349 0.050881248 -0.0109385485 -0.020186992 -0.039345182 0.08524108 0.08333331 -0.033820786
0.067761935 -0.021585295 -0.03836593 0.016134294 -0.010364369 -0.027147846 -0.020677637 0.1207896
-0.008697195 0.03351589 -0.039832104 0.002500443 -0.06055083 -0.050394535 -0.063712016 0.040429823
0.02284062 0.011691929 -0.06507772 0.051772818 0.03133429 0.03655325 0.03483411 0.03209051
-0.028592378 0.021042943 -0.014486202 0.0067424695 0.022697166 0.04165582 0.020262968 0.052164298
0.054092232 0.025373919 0.030773023 0.0522123 -0.009717004 -0.0141593795 0.013053209 0.040611964
-0.0034837467 -0.019829215 0.01688409 -0.058745123 -0.08352883 0.073139384 0.020014852 0.069475114
0.0048096925 -0.018707614 0.05478016 -0.03974161 0.047474295 -0.00308688 0.040294953 0.052115005
-0.055872608 -0.03117278 -0.023275614 0.015124416 0.0153307235 -0.026372878 0.024962578 -0.042629063
0.012968976 -0.004000608 0.027620362 -0.010522828 -0.018334977 -0.04979573 -0.06518845 0.004066375
-0.049643196 -0.016289813 0.0061517153 -0.09585146 0.061337966 0.0042607374 -0.027963804 -0.0031918436
0.062900715 -0.054345243 0.21898748 0.063803956 0.0021497975 0.09043585 0.036866896 -0.016742215
0.03818825 0.029805385 -0.022898097 0.019830959 -0.027156524 0.0057500163 0.02287181 -0.0009396283
-0.04621571 0.04944153 -0.07484058 -0.01860052 -0.026459623 -0.06535334 -0.019937748 0.030792454
0.032964174 -0.05413831 -0.03181728 -0.039501246 -0.010609306 0.014461277 0.009696191 -0.048293725
-0.02473484 0.093183994 -0.010972619 0.04477909 -0.0248425 0.011168542 0.053375307 -0.018289216
-0.049419533 0.07230505 0.02920601 0.01975247 -0.10881063 0.072271794 -0.013237418 0.02491974
0.017526047 -0.014419888 -0.0019129277 -0.0054182285 -0.009750205 -0.021260392 -0.004607509 -0.033908736
-0.00884784 0.040790115 0.0317093 -0.022462523 0.0106213195 0.011275591 -0.02049052 0.04473313
-0.059185136 0.017925903 -0.052260347 0.016678609 -0.28960225 -0.089456476 0.0892618 -0.00629335
-0.018180544 -0.029967232 -0.02363349 0.04535783 -0.009087292 -0.059387706 0.033681694 -0.019267593
0.008679128 -0.002248803 0.15924743 -0.12764958 -0.026048154 0.009731668 -0.0143989995 -0.039321195
0.0209387 -0.0024918437 0.00042713858 0.015465173 0.019891435 -0.040893115 -0.0041757235 -0.088432066
0.05914218 0.02746431 0.04787697 -0.055125847 0.009369083 0.056479868 0.029215744 -0.017989025
-0.042746298 -0.010001201 -0.06270189 0.09825848 0.060715735 0.029819274 -0.01793131 -0.041016012
0.006505317 -0.05050787 0.020931521 0.05325616 -0.04697036 -0.006454442 0.03072325 0.034980778
-0.0036683134 0.01853317 -0.065714695 -0.0051345536 0.021734068 -0.03467232 0.031004412 -0.012951137
-0.03922952 0.09176591 0.010816588 -0.04773082 -0.11785409 0.0014542788 0.077514276 -0.057381507
0.028991727 0.12650992 -0.029107247 -0.06992656 -0.04033349 0.061871987 0.035547223 0.092251286
-0.027677007 -0.07407561 0.04001148 -0.028001677 0.051266342 -0.014552602 -0.06991483 -0.009622731
-0.020907123 0.0050481893 0.025462018 -0.0076684477 0.021981318 0.00050444534 -0.023587575 -0.09200524
00000000: 7cfb a0bc 8328 3a3d b7fa 423d e827 e1bc
00000010: c9d8 b0bd f92f 4dbd b643 cc3d 2342 5a3d
00000020: aacc 843d db68 503d 9937 33bc 315f a5bc
00000030: 6a28 21bd e092 ae3d a8aa aa3d aa87 0abd
00000040: c5c6 8a3d a5d3 b0bc 9825 1dbd 112c 843c
00000050: 50cf 29bc 2965 debc 2664 a9bc 8a60 f73d
00000060: ae7e 0ebc f547 093d fd26 23bd 79de 233b
00000070: 2604 78bd 806a 4ebd 727b 82bd be99 253d
00000080: 401c bb3c 818f 3f3c 7847 85bd bc0f 543d
00000090: 6258 003d dcb8 153d 36ae 0e3d 5771 033d
000000a0: 903a eabc 4062 ac3c 8957 6dbc efef dc3b
000000b0: 68ef b93c 4b9f 2a3d 86fe a53c 3baa 553d
000000c0: d18f 5d3d f7dc cf3c b517 fc3c 91dc 553d
000000d0: 1234 1fbc befc 67bc 20dd 553c bb58 263d
000000e0: 924f 64bb e170 a2bc 8150 8a3c ba9e 70bd
000000f0: 2a11 abbd 1aca 953d 30f6 a33c f848 8e3d
00000100: a09a 9d3b b640 99bc 2961 603d 19c8 22bd
00000110: 6874 423d 414d 4abb 520c 253d 8b76 553d
00000120: adda 64bd 0f5e ffbc 80ac bebc 66cc 773c
00000130: b72d 7b3c ef0b d8bc 527e cc3c d09b 2ebd
00000140: d47b 543c 8817 83bb 1944 e23c f167 2cbc
00000150: 3c33 96bc 9bf6 4bbd 8681 85bd 3a3f 853b
00000160: aa56 4bbd 3772 85bc 5494 c93b c54d c4bd
00000170: 853d 7b3d a89d 8b3b 5914 e5bc 402e 51bb
00000180: 17d2 803d 1e99 5ebd 413e 603e a6ab 823d
00000190: 9ee3 0c3b 6e36 b93d be01 173d f826 89bc
000001a0: 486b 1c3d 6c2a f43c ca94 bbbc 8974 a23c
000001b0: 5c77 debc a26a bc3b a95d bb3c 6351 76ba
000001c0: af4c 3dbd 3483 4a3d 0546 99bd 1e60 98bc
000001d0: dac1 d8bc f9d7 85bd 7d54 a3bc 7540 fc3c
000001e0: 7105 073d 22c0 5dbd d652 02bd 0fcc 21bd
000001f0: a8d2 2dbc feee 6c3c c6dc 1e3c a4cf 45bd
00000200: b8a0 cabc 40d7 be3d 80c6 33bc 476a 373d
00000210: 8082 cbbc 43fc 363c 11a0 5a3d 44d3 95bc
00000220: 236c 4abd ac14 943d 7141 ef3c efcf a13c
00000230: 1cd8 debd 3c03 943d c1e1 58bc 7c24 cc3c
00000240: c992 8f3c 6541 6cbc 34bb faba 658b b1bb
00000250: 53bf 1fbc 462a aebc 96fa 96bb e3e3 0abd
00000260: 88f6 10bc 8913 273d 9ce1 013d 5303 b8bc
00000270: 0b05 2e3c 42bd 383c bcdb a7bc 163a 373d
00000280: 1d6c 72bd 58d9 923c f20e 56bd 94a1 883c
00000290: bf46 94be f534 b7bd e4ce b63d 7238 cebb
000002a0: 5def 94bc d77d f5bc 059b c1bc 22c9 393d
000002b0: dde2 14bc 8640 73bd d1f5 093d 12d7 9dbc
000002c0: e732 0e3c a760 13bb c211 233e 92b6 02be
000002d0: f062 d5bc 9371 1f3c c8e9 6bbc 430f 21bd
000002e0: a387 ab3c 334e 23bb 92f1 df39 a361 7d3c
000002f0: 5df3 a23c 8a7f 27bd 82d4 88bb df1b b5bd
00000300: 123f 723d d5fc e03c a41a 443d a4cb 61bd
00000310: c880 193c 6f57 673d db55 ef3c b85d 93bc
00000320: be16 2fbd 14dc 23bc d969 80bd be3b c93d
00000330: 10b1 783d 8d47 f43c afe4 92bc 6800 28bd
00000340: 8e2a d53b 57e1 4ebd 9578 ab3c 2223 5a3d
00000350: fe63 40bd c97f d3bb 53af fb3c 0148 0f3d
00000360: 1668 70bb e0d2 973c 6d95 86bd c23f a8bb
00000370: a50b b23c 9004 0ebd f7fc fd3c 0131 54bc
00000380: 22af 20bd c4ef bb3d 0f38 313c 6481 43bd
00000390: 7c5d f1bd 809d be3a cebf 9e3d df08 6bbd
000003a0: 0f80 ed3c d18b 013e 5272 eebc a835 8fbd
000003b0: bb34 25bd 7b6d 7d3d f799 113d 3eee bc3d
000003c0: e4ba e2bc f4b4 97bd 14e3 233d c663 e5bc
000003d0: a8fc 513d 096e 6ebc 822f 8fbd a9a8 1dbc
000003e0: 6a45 abbc 486b a53b b995 d03c 9a47 fbbb
000003f0: 2a12 b43c c13c 043a bb3a c1bc 3e6d bcbd

fcs1.bias f4 [256]
0.032600626 0.18768518 -0.009152516 0.18831466 -0.018537004 -0.20064534 -0.22182186 -0.15964992
0.040752564 0.0836971 -0.075777225 -0.015706746 0.09296277 -0.04517016 0.06466776 -0.012971035
-0.13406083 -0.13332036 0.10534041 -0.14200617 0.015755687 0.0015137661 0.06613267 0.024215408
-0.044523932 -0.059983708 0.05942527 -0.0669026 0.05415487 0.029464047 0.07661514 -0.049543153
-0.15121588 -0.08793959 0.08531933 -0.06558048 0.17019351 0.105174154 -0.12236265 0.05050689
-0.09601105 -0.12369765 0.060043648 -0.14214435 -0.0489347 -0.17018694 0.08421756 0.08628459
0.12265879 -0.10318007 -0.11939104 0.024968963 -0.14456795 -0.07280191 -0.17273554 0.1072657
-0.07642426 -0.062428016 0.050882015 0.039084885 -0.1266416 0.10723074 -0.17230733 -0.05101761
-0.13952915 -0.12557751 0.0567504 0.13591085 0.05581054 -0.021261832 0.06375418 0.12505081
-0.043929126 -0.13124852 0.013371817 0.072004266 0.05547747 -0.094074346 0.19194458 -0.121012695
0.008109035 0.11677871 -0.06926296 0.06598513 0.10845698 -0.078836985 0.13519101 0.06167208
0.10308901 0.12448167 0.1106135 0.04128525 0.1297882 -0.21855849 -0.23542798 0.012391903
0.19418617 -0.108536765 0.16925265 -0.07121768 0.013224459 -0.091259845 0.0011094792 -0.09109982
-0.12831947 0.04776812 -0.03301752 0.04423245 0.05703736 -0.09039855 0.09188775 0.19406424
-0.096678324 0.12544148 0.071404636 -0.15187564 0.021391422 -0.18195732 -0.01205554 -0.13711697
0.13214193 0.033648983 0.14315665 -0.044888873 -0.13373327 0.10440852 0.019516217 0.051439274
-0.0011970693 0.10078211 -0.09538699 -0.21717332 0.009530373 0.10287221 -0.016230185 -0.021523232
-0.15999894 0.05637074 -0.22433978 -0.10919482 0.09274711 -0.19329505 -0.12981082 -0.14935802
0.11889991 -0.14198515 -0.029906368 -0.0017223317 0.068703786 0.13008901 0.03973061 0.014569273
-0.11632493 0.096597835 0.16310154 0.014129543 0.109615095 -0.07845458 -0.019724969 -0.09585011
0.07948564 -0.07795996 -0.08251667 -0.19279504 -0.02959185 0.045664575 0.12608135 0.005896824
-0.023347622 0.070954904 0.017942386 0.16428058 0.19027959 0.16038713 0.030732442 0.041554075
0.14969994 -0.021092113 0.17070787 -0.11385074 -0.0014403285 0.042039175 -0.11805274 -0.053259574
-0.0126302345 -0.022359436 -0.05882185 -0.00978421 -0.0026820973 0.21833533 -0.06456715 0.1291948
-0.028860606 0.16001458 0.18084808 -0.042674884 -0.021904955 -0.12429025 -0.001178219 -0.13615404
-0.09881038 0.03443814 0.034041647 -0.09215946 0.12427692 0.051735956 -0.07843765 0.092600755
-0.14805736 -0.013216413 0.2085564 0.07697822 0.060184445 0.021940928 -0.03681938 0.13402522
0.008987332 0.035633545 0.03302924 -0.020439167 0.062777884 -0.11858229 -0.1371742 -0.16644496
0.1821259 -0.073775604 -0.15806611 0.036696978 -0.0734128 0.06370246 -0.06241613 0.07032338
-0.17885795 -0.19552319 0.08916391 -0.068043895 -0.019741623 0.03446432 0.011553033 -0.088305645
0.0649008 -0.11026783 0.13924557 -0.06265683 0.04935084 0.15679558 0.11176543 0.091356546
0.086907305 -0.10875392 0.075920455 -0.08080471 0.14111577 -0.069279 0.08146471 0.027306212
00000000: 3c88 053d 8b30 403e 6ff4 15bc 8fd5 403e
00000010: eada 97bc f975 4dbe 4525 63be 457b 23be
00000020: 29ec 263d 6369 ab3d 1731 9bbd 6fab 80bc
00000030: 4463 be3d 5804 39bd 8870 843d 7784 54bc
00000040: 3e47 09be 2285 08be b6bc d73d 116a 11be
00000050: 1212 813c 9069 c63a 9170 873d 645f c63c
00000060: ba5e 36bd 7ab1 75bd e967 733d 3b04 89bd
00000070: 7fd1 5d3d 965e f13c 66e8 9c3d c3ed 4abd
00000080: 56d8 1abe ac19 b4bd e7bb ae3d 0f4f 86bd
00000090: 3547 2e3e 8c65 d73d 4599 fabd 50e0 4e3d
000000a0: 71a1 c4bd 3255 fdbd 54f0 753d 4a8e 11be
000000b0: c16f 48bd 7c45 2ebe 427a ac3d fab5 b03d
000000c0: 8834 fb3d 1350 d3bd 4a83 f4bd b68b cc3c
000000d0: 9f09 14be 2b19 95bd 96e1 30be 1fae db3d
000000e0: 5384 9cbd 85b4 7fbd a969 503d 7917 203d
000000f0: 56ae 01be ca9b db3d 5571 30be d7f7 50bd
00000100: bbe0 0ebe 6497 00be 1c73 683d 372c 0b3e
00000110: 9899 643d 4b2d aebc 8d91 823d 520d 003e
00000120: 07ef 33bd 0366 06be 7715 5b3c f976 933d
00000130: 583c 633d 0daa c0bd 1f8d 443e 81d5 f7bd
00000140: c2db 043c ad29 ef3d bdd9 8dbd 3623 873d
00000150: b11e de3d 4975 a1bd 836f 0a3e dd9b 7c3d
00000160: 5520 d33d 3ff0 fe3d 5589 e23d b91a 293d
00000170: 33e7 043e cccd 5fbe 0814 71be 6907 4b3c
00000180: bdd8 463e 8648 debd 9150 2d3e 93da 91bd
00000190: 67ab 583c 71e6 babd f26b 913a 8b92 babd
000001a0: 2e66 03be 81a8 433d 613d 07bd 162d 353d
000001b0: 02a0 693d e022 b9bd a52f bc3d c7b8 463e
000001c0: 49ff c5bd bb73 003e 983c 923d 4a85 1bbe
000001d0: 103d af3c 0553 3abe 9a84 45bc 6468 0cbe
000001e0: 3750 073e 84d3 093d a897 123e 65dd 37bd
000001f0: 60f1 08be 22d4 d53d 79e0 9f3c fdb1 523d
00000200: fbe6 9cba da66 ce3d 415a c3bd af62 5ebe
00000210: 4825 1c3c aaae d23d 2af5 84bc 7d51 b0bc
00000220: c3d6 23be 01e5 663d 54b9 65be 89a1 dfbd
00000230: 32f2 bd3d 23ef 45be 21ed 04be 4ff1 18be
00000240: cc81 f33d 8e64 11be 33fe f4bc ddbf e1ba
00000250: 92b4 8c3d 0e36 053e 90bc 223d f6b3 6e3c
00000260: c43b eebd 16d5 c53d 1704 273e 997f 673c
00000270: e17d e03d cbac a0bd 4296 a1bc 104d c4bd
00000280: 5ec9 a23d 79a9 9fbd 80fe a8bd 106c 45be
00000290: 9b6a f2bc c70a 3b3d 781b 013e 253a c13b
000002a0: 8343 bfbc ce50 913d e9fb 923c 2b39 283e
000002b0: a7d8 423e 863c 243e 9ac2 fb3c 9b34 2a3d
000002c0: f14a 193e 5ec9 acbc 0bce 2e3e 942a e9bd
000002d0: 68c9 bcba 4531 2c3d a3c5 f1bd b626 5abd
000002e0: 0bef 4ebc 232b b7bc 2eef 70bd f34d 20bc
000002f0: 20c6 2fbb 4c93 5f3e c83b 84bd a44b 043e
00000300: 146d ecbc ddda 233e 3d30 393e dccb 2ebd
00000310: 0572 b3bc e38b febd 786e 9aba f76b 0bbe
00000320: 195d cabd 020f 0d3d 416f 0b3d 19be bcbd
00000330: e684 fe3d 15e9 533d eba3 a0bd 77a5 bd3d
00000340: 599c 17be a789 58bc cf8f 553e c2a6 9d3d
00000350: f783 763d 76bd b33c ebcf 16bd e83d 093e
00000360: 9a3f 133c 7bf4 113d ab49 073d 0a70 a7bc
00000370: b191 803d 46db f2bd 6577 0cbe 8c70 2abe
00000380: 367f 3a3e aa17 97bd 15dc 21be 924f 163d
00000390: 7359 96bd 6f76 823d 0ea8 7fbd b405 903d
000003a0: 8a26 37be 3b37 48be 919b b63d 995a 8bbd
000003b0: 2fb9 a1bc 752a 0d3d ef48 3d3c 97d9 b4bd
000003c0: b6ea 843d 1ad4 e1bd 6496 0e3e 3952 80bd
000003d0: 1b24 4a3d 058f 203e 46e5 e43d 2419 bb3d
000003e0: 75fc b13d 60ba debd 2f7c 9b3d f17c a5bd
000003f0: a780 103e 26e2 8dbd f8d6 a63d 47b1 df3c

fc2.weight f4 [128, 260]
0.029963082 0.0015937618 0.09393247 -0.004042697 0.10702166 -0.29799595 -0.0856428 0.090701684
-0.021045633 -0.07821852 0.03959262 0.007121624 -0.058758296 0.061519157 -0.036058206 0.005251819
-0.0064843656 -0.06852506 0.015798323 0.12880218 0.079591736 -0.009943042 0.037022673 -0.18655804
0.03798844 -0.0074730422 0.06802732 -0.26113978 0.06448971 -0.03897773 0.043310452 0.039863657
0.004480496 0.021712966 0.010570381 -0.014710871 -0.010845552 -0.050264146 0.064950235 -0.04769203
-0.09244971 -0.055562455 -0.005281719 -0.0094821025 -0.007817112 0.058381025 0.035594027 -0.042803656
-0.06689478 0.0008023076 0.021619836 0.07663485 0.038979854 -0.079020835 -0.00039123403 -0.06568068
-0.062447526 0.06461997 -0.0793201 0.033502962 0.0070154597 0.11434523 0.052859474 0.05500886
0.044509225 -0.03585625 -0.03607042 0.072977625 -0.09062984 -0.11329708 -0.08138081 0.04358808
-0.01682897 0.07183535 -0.068988636 -0.059683923 -0.025981447 0.04383098 0.050180092 -0.050346542
-0.07382742 -0.014061852 -0.031187773 -0.10921487 -0.074712686 0.0614848 0.030780822 -0.033694398
-0.04674748 -0.1463247 0.10736708 -0.21078616 -0.012748421 -0.22129337 0.05136181 -0.013998987
0.019481376 -0.088100076 0.044871252 0.053837776 -0.09479855 -0.044583045 -0.006340693 0.021939844
-0.06670588 0.10496262 0.09852971 0.03663832 0.08604848 0.008765665 -0.04368706 0.038694005
0.07152019 0.004735354 -0.04904423 -0.114493035 -0.06082165 -0.09764082 -0.011862422 -0.023762394
-0.01708868 -0.00020217556 -0.040195134 -0.07293367 0.04593612 -0.016695822 0.10156409 0.054413244
0.065996036 0.060609054 -0.046941776 0.0897223 0.10930187 -0.07854732 -0.19932261 0.06602721
0.06310235 0.041140303 0.027069677 0.030300124 -0.04931593 -0.153148 -0.025127837 -0.050042316
0.06481901 -0.017161414 -0.011340227 0.038110305 -0.13939917 -0.0066114943 -0.06875182 0.04561228
-0.036095977 0.13531618 0.01836011 0.06068641 -0.12855004 -0.03726919 0.07003995 0.09215211
-0.01361626 0.1463336 -0.041331254 -0.096756965 0.055261526 -0.10802784 0.04305322 0.0687795
0.07747293 -0.08097732 0.09090793 -0.06561967 -0.021068346 -0.022136657 0.046931416 -0.045131996
-0.015785206 -0.023259532 0.009047323 -0.07221832 -0.051686276 0.044684567 -0.051640376 0.07496347
-0.059000805 -0.11407925 -0.10121013 0.0651047 0.04165514 0.07347513 -0.0014885913 -0.016156359
-0.066257946 0.13599789 -0.0025953336 -0.0066138557 0.1113079 -0.12855276 0.059842233 0.038112666
0.006521947 0.0290729 -0.017709712 0.0714874 -0.047522854 0.048884347 0.004467037 0.011028317
-0.07656831 0.021435602 -0.012549966 0.003718321 0.088684835 -0.051538266 0.052358802 0.011274049
0.024250047 -0.093889326 -0.097008295 -0.094883926 0.0022051143 0.09608432 -0.076624796 -0.019677145
0.017291762 -0.12773809 0.0019972683 0.0065816124 -0.05775961 0.019118823 0.06369694 0.042819917
0.01647539 0.0061141076 -0.08331323 -0.084027685 0.08557355 -0.035106707 -0.19146569 0.042423654
-0.17228773 0.07762594 -0.043455966 -0.1164333 4.203811e-05 0.0322795 -0.049138933 0.0070816427
0.03806466 0.062113535 -0.04456326 0.059292007 0.015278524 -0.012533531 -0.050311305 -0.023088451
00000000: 2375 f53c c6e5 d03a ab5f c03d 9a78 84bb
00000010: 2c2e db3d ed92 98be 7e65 afbd cec1 b93d
00000020: e467 acbc 0831 a0bd df2b 223d 835c e93b
00000030: 8aac 70bd 83fb 7b3d c5b1 13bd 7317 ac3b
00000040: cd7a d4bb de56 8cbd 7c6b 813c b8e4 033e
00000050: fe00 a33d 24e8 22bc 16a5 173d 1209 3fbe
00000060: c499 1b3d 6ce0 f4bb e851 8b3d 1db4 85be
00000070: 2e13 843d 1da7 1fbd 4d66 313d 1348 233d
00000080: 20d1 923b 64df b13c 642f 2d3c dd05 71bc
00000090: 8bb1 31bc c7e1 4dbd a104 853d b858 43bd
000000a0: 4656 bdbd 7595 63bd 4512 adbb d25a 1bbc
000000b0: 5813 00bc f120 6f3d 0bcb 113d e352 2fbd
000000c0: 2100 89bd f451 523a 151c b13c bbf2 9c3d
000000d0: 57a9 1f3d add5 a1bd 8b1e cdb9 9883 86bd
000000e0: fac8 7fbd 7a57 843d 9472 a2bd 673a 093d
000000f0: f1e1 e53b d52d ea3d 2d83 583d f850 613d
00000100: 4e4f 363d 01de 12bd 94be 13bd 4b75 953d
00000110: 239c b9bd 4d08 e8bd fbaa a6bd 6a89 323d
00000120: e8dc 89bc 691e 933d ea49 8dbd 2177 74bd
00000130: 0bd7 d4bc 1d88 333d a489 4d3d 2d38 4ebd
00000140: d532 97bd af63 66bc 807d ffbc 0cac dfbd
00000150: f702 99bd 7cd7 7b3d 1028 fc3c 2303 0abd
00000160: 497a 3fbd 24d6 15be 46e3 db3d 54d8 57be
00000170: c1de 50bc bb9a 62be c360 523d 025c 65bc
00000180: 6897 9f3c d06d b4bd ebca 373d 0085 5c3d
00000190: be25 c2bd b69c 36bd 97c5 cfbb 30bb b33c
000001a0: 189d 88bd a4f6 d63d f2c9 c93d 1012 163d
000001b0: 2f3a b03d dd9d 0f3c 34f1 32bd 9b7d 1e3d
000001c0: 2d79 923d 072b 9b3b 9ae2 48bd 537b eabd
000001d0: 1f20 79bd e9f7 c7bd 9b5a 42bc 5aa9 c2bc
000001e0: 8ffd 8bbc 17ff 53b9 a7a3 24bd 3f5e 95bd
000001f0: 8327 3c3d adc5 88bc d500 d03d 6ce0 5e3d
00000200: ee28 873d 3341 783d 0546 40bd 53c0 b73d
00000210: a9d9 df3d 6bdd a0bd 3a1b 4cbe 4639 873d
00000220: ce3b 813d bc82 283d 3ac1 dd3c f737 f83c
00000230: 80ff 49bd d4d2 1cbe e5d8 cdbc 2cf9 4cbd
00000240: d4bf 843d 1896 8cbc 5ccc 39bc 8d19 1c3d
00000250: a8be 0ebe 3ca5 d8bb c1cd 8cbd f1d3 3a3d
00000260: 60d9 13bd 5390 0a3e f167 963c 5092 783d
00000270: 9fa2 03be 94a7 18bd 1b71 8f3d 3fba bc3d
00000280: bc16 5fbc 7ad8 153e f64a 29bd 8428 c6bd
00000290: e959 623d b33d ddbd 9358 303d 44dc 8c3d
000002a0: 21aa 9e3d 70d7 a5bd f02d ba3d 9b63 86bd
000002b0: 8697 acbc ef57 b5bc 283b 403d 54dc 38bd
000002c0: fa4f 81bc c68a bebc 393b 143c 33e7 93bd
000002d0: fdb4 53bd 2a07 373d dc84 53bd 7386 993d
000002e0: d4aa 71bd 62a2 e9bd 4247 cfbd 9d55 853d
000002f0: 959e 2a3d 217a 963d d61c c3ba 575a 84bc
00000300: 3fb2 87bd 0843 0b3e 7916 2abb 0bb9 d8bb
00000310: 65f5 e33d 56a3 03be 211d 753d 071c 1c3d
00000320: 0fb6 d53b 4a2a ee3c f513 91bc fc67 923d
00000330: 53a7 42bd f43a 483d 3960 923b 1db0 343c
00000340: d9cf 9cbd b799 af3c 5f9e 4dbc 13af 733b
00000350: 65a0 b53d ca19 53bd 2f76 563d cab6 383c
00000360: 09a8 c63c 0c49 c0bd 49ac c6bd 8152 c2bd
00000370: ae83 103b dbc7 c43d 76ed 9cbd f731 a1bc
00000380: 74a7 8d3c c6cd 02be 9ae4 023b 91aa d73b
00000390: 5795 6cbd 149f 9c3c 8b73 823d f063 2f3d
000003a0: 66f7 863c da58 c83b 20a0 aabd b516 acbd
000003b0: 2f41 af3d 0dcc 0fbd 950f 44be 6dc4 2d3d
000003c0: 326c 30be 59fa 9e3d e2fe 31bd 9574 eebd
000003d0: 1452 3038 8237 043d e845 49bd 200d e83b
000003e0: b0e9 1b3d c36a 7e3d f787 36bd 2ddc 723d
000003f0: c652 7a3c 7059 4dbc 3a13 4ebd fe23 bdbc

fc2.bias f4 [128]
0.010414705 0.00391409 0.076701574 -0.03957751 0.03883793 0.09982052 -0.041840497 0.003467361
0.020735014 0.010915563 0.06452324 0.06780203 0.108482085 -0.08824561 -0.035134982 -0.07062005
0.063552715 -0.072204225 0.03318086 0.07225847 0.1468882 0.08690933 -0.043706708 -0.06211173
0.09165001 -0.005808991 0.094841 -0.040065993 0.13569595 -0.051062465 0.08532743 0.036225185
0.061905757 -0.057725396 0.06442255 0.0063002612 0.01343332 0.020695223 0.113522574 0.006845881
0.017507905 0.00043977247 0.0245881 0.04440676 -0.05168751 0.13727088 0.037384346 -0.02685874
0.05102923 -0.0070394604 -0.07223901 -0.08236015 0.06782498 -0.032640833 -0.0362605 -0.081782326
0.08746202 -0.007527329 -0.035995744 -0.030527515 -0.08862723 0.034288153 0.08242079 0.11649012
-0.016970305 -0.035075944 0.010440201 0.072373405 -0.021972338 0.11662531 -0.008827519 -0.041241027
0.059656005 0.03379327 0.018671263 0.10544966 0.090695746 -0.08347045 -0.032241087 -0.02184755
0.04392058 0.08194528 -0.053420298 0.030157056 0.013917207 0.13077734 -0.017101334 0.06667293
0.1295497 0.16451925 0.15183647 0.06361748 -0.017348122 0.104715295 0.0031908946 0.022390582
-0.07964309 -0.04490858 0.13379444 -0.051444694 -0.07541518 0.03849906 -0.037248075 0.08873325
0.005689708 0.0006973153 0.0212585 -0.07747286 0.026309388 0.014990789 0.026635256 0.0022795808
-0.00921558 -0.061006326 0.07119593 -0.028594889 0.009914186 0.04211307 -0.022205725 -0.042721607
-0.078814015 -0.03910969 0.059173707 0.034480006 -0.02921804 -0.092156224 -0.045269307 0.10122183
00000000: 70a2 2a3c c441 803b b715 9d3d 071c 22bd
00000010: 8514 1f3d b36e cc3d f160 2bbd aa3c 633b
00000020: 7adc a93c 31d7 323c c324 843d cadb 8a3d
00000030: db2b de3d 1dba b4bd b3e9 0fbd 3fa1 90bd
00000040: ed27 823d cfdf 93bd a7e8 073d 40fc 933d
00000050: dc69 163e 85fd b13d ce05 33bd df68 7ebd
00000060: 00b3 bb3d 5959 bebb 003c c23d 3d1c 24bd
00000070: e1f3 0a3e e026 51bd 26c0 ae3d dc60 143d
00000080: e490 7d3d 7771 6cbd f8ef 833d 6c72 ce3b
00000090: 6e17 5c3c 0789 a93c 867e e83d 6a53 e03b
000000a0: bd6c 8f3c 4391 e639 fc6c c93c dde3 353d
000000b0: 48b6 53bd bd90 0c3e 5420 193d dc06 dcbc
000000c0: 0704 513d 46ab e6bb 0cf2 93bd 70ac a8bd
000000d0: d3e7 8a3d 65b2 05bd e485 14bd 7e7d a7bd
000000e0: 4a1f b33d d0a7 f6bb 4670 13bd d714 fabc
000000f0: 3182 b5bd bc71 0c3d 3bcc a83d 5f92 ee3d
00000100: 4f05 8bbc cbab 0fbd 600d 2b3c 8238 943d
00000110: 55ff b3bc 40d9 ee3d 4ca1 10bc 5aec 28bd
00000120: db59 743d d06a 0a3d 7af4 983c fef5 d73d
00000130: b1be b93d 8ef2 aabd 3b0f 04bd a2f9 b2bc
00000140: 11e6 333d edd2 a73d 3ecf 5abd ee0b f73c
00000150: ff04 643c 7fea 053e 1918 8cbc d18b 883d
00000160: ada8 043e bc77 283e 057b 1b3e e249 823d
00000170: a61d 8ebc f974 d63d 541e 513b 746c b73c
00000180: eb1b a3bd 0ff2 37bd 6901 093e acb7 52bd
00000190: 4673 9abd 31b1 1d3d 7091 18bd c7b9 b53d
000001a0: bb70 ba3b 0acc 363a 4e26 ae3c 17aa 9ebd
000001b0: c986 d73c ed9b 753c 2e32 da3c 0565 153b
000001c0: f2fc 16bc c5e1 79bd 2ccf 913d d43f eabc
000001d0: 1c6f 223c c17e 2c3d c8e8 b5bc dafc 2ebd
000001e0: 3e69 a1bd 7b31 20bd 2160 723d e83a 0d3d
000001f0: ac5a efbc 67bc bcbd 4f6c 39bd 644d cf3d

fc3.weight f4 [1, 128]
0.08440121 -0.18370415 0.16711493 -0.049247786 0.049999002 0.06978184 0.087728 0.08986979
0.05776058 -0.15967928 0.047123462 0.13778912 0.081906654 -0.018910816 -0.22140096 -0.10160656
0.0739119 -0.10116396 0.040567778 0.18376848 0.06221158 0.08910851 -0.108801775 -0.10204265
0.07854267 -0.079891644 0.10948755 -0.07900368 0.07738972 -0.24675143 0.055762563 -0.13047452
0.051033694 -0.12901539 0.064035796 0.1509178 -0.07162244 0.1200311 0.05487351 -0.2135421
0.051429145 -0.23401938 0.11874078 0.055152617 -0.08710796 0.12210427 0.14052235 -0.076404296
0.106193654 -0.15538587 -0.1941411 -0.04173345 0.052121304 -0.07585652 -0.09682722 -0.08182565
0.09262296 -0.10630941 -0.20817137 -0.1254464 -0.05134423 0.07590011 0.05446155 0.04757395
-0.08647196 -0.062372737 -0.07897611 0.063359186 -0.14894235 0.07216462 -0.05281635 -0.22190045
0.12601547 0.054542024 0.05286333 0.05868225 0.03428701 -0.04920757 0.056762874 0.14813569
0.070284866 0.0574738 -0.11888351 0.052346736 0.06500929 0.04172762 -0.037453547 0.08099176
0.066236824 0.055898167 0.075283125 0.055189315 -0.19399935 0.09104166 0.060791552 0.049724054
-0.0432739 -0.0617073 0.10654435 -0.13434617 -0.1899735 0.07220465 -0.17748502 0.0514504
0.06745312 -0.07730726 0.09019972 -0.06037822 0.0744363 -0.06732809 0.037013393 -0.08209651
-0.10423156 -0.05724346 0.074369706 -0.09069501 -0.13909121 0.12253264 0.07002944 0.012990133
-0.13925141 -0.05186339 0.09260515 0.05438847 -0.10077331 -0.124390334 0.065490626 0.07254534
00000000: 8bda ac3d f11c 3cbe 2d20 2b3e 0cb8 49bd
00000010: c1cb 4c3d c8e9 8e3d bdaa b33d a70d b83d
00000020: 5c96 6c3d f782 23be 8804 413d 9718 0d3e
00000030: adbe a73d dbea 9abc efb6 62be 1a17 d0bd
00000040: 1f5f 973d 0d2f cfbd 662a 263d ce2d 3c3e
00000050: 92d1 7e3d 867e b63d 77d3 debd bdfb d0bd
00000060: fbda a03d 3b9e a3bd 023b e03d aecc a1bd
00000070: 807e 9e3d 68ac 7cbe 4967 643d 1d9b 05be
00000080: b508 513d 9c1c 04be 3325 833d 328a 1a3e
00000090: c9ae 92bd ded2 f53d 0cc3 603d c8aa 5abe
000000a0: 5ea7 523d c7a2 6fbe 5e2e f33d b6e7 613d
000000b0: a865 b2bd ce11 fa3d 17e5 0f3e db79 9cbd
000000c0: 0f7c d93d 791d 1fbe edcc 46be b2f0 2abd
000000d0: 267d 553d aa5a 9bbd 594d c6bd 3594 a7bd
000000e0: 1bb1 bd3d bfb8 d9bd e02a 55be 0575 00be
000000f0: 544e 52bd 8471 9b3d 1313 5f3d e7dc 423d
00000100: 3618 b1bd 8e7a 7fbd 3abe a1bd 76c2 813d
00000110: 5884 18be 0bcb 933d f555 58bd df39 63be
00000120: 330a 013e 7567 5f3d 3887 583d cd5c 703d
00000130: 8970 0c3d e08d 49bd 3080 683d e2b0 173e
00000140: 83f1 8f3d a669 6b3d 3379 f3bd 8869 563d
00000150: 9723 853d 95ea 2a3d e468 19bd 02df a53d
00000160: 2ca7 873d 7af5 643d 0a2e 9a3d 310e 623d
00000170: c4a7 46be 0d74 ba3d 9000 793d 73ab 4b3d
00000180: f93f 31bd cbc0 7cbd ed33 da3d 0b92 09be
00000190: 6a88 42be 08e0 933d a2be 35be a8bd 523d
000001a0: dd24 8a3d 4553 9ebd a1ba b83d 274f 77bd
000001b0: 0f72 983d 4fe3 89bd 5b9b 173d 3722 a8bd
000001c0: 5b77 d5bd 1e78 6abd 254f 983d 4ebe b9bd
000001d0: ed6d 0ebe 65f2 fa3d 986b 8f3d 91d4 543c
000001e0: ec97 0ebe b56e 54bd c5a7 bd3d 72c6 5e3d
000001f0: 3d62 cebd 5cc0 febd f31f 863d a792 943d
