savedmodels/checkpoint_1545158393_actor_episode115_score30.423.pth (torch_old, 169478 bytes, 6 tensors)

fc1.weight f4 [256, 33]
00000000: 6e62 a6bc 74b4 8abc aad2 91bd 9270 1a3b
00000010: c4d4 f8bc f2a8 303e 09da a4bd 78e0 bfbc
00000020: da36 033c c851 88bd 55c4 00be 063a 33bd
00000030: b034 64bd 2c4f a83d 90bd 2b3e cb99 253e
00000040: 0db9 9e3b d7b9 2b3b 6ad0 bcbc 9a85 82bd
00000050: 3275 1ebd 7877 933d 1978 0b3e 7873 82bd
00000060: 2348 253d 5198 86bd 91b0 96bd 0781 b43d
00000070: aec0 ecbd 702a 013d f93c 61bd 7400 e93c
00000080: aa6b d2be ad30 ffbd 956a edbd 508c 5bbd
00000090: 5502 c63d bbd4 d13d bfc3 3c3d 69a2 7a3b
000000a0: eb81 983c 79d3 9a3d 74e5 e1bb 6e4e afbd
000000b0: 34a4 1d3e 4de8 c13d 3d13 0cbb cd33 d83d
000000c0: 254c b4bd 7023 d63d e635 623d 8287 03bb
000000d0: f46e 82bc 5389 a6bc 41b1 8cbc d6fa 61bc
000000e0: 7ee7 773c ec45 3fbc b4b5 b23c 4e59 a2bd
000000f0: ecae 8fbc 2879 463e ca5b 71bd 7d14 ef3c
00000100: 1a4e 543d d36f 43be a46b 0cbe c67b 18bc
00000110: 1656 56bc 1521 953d 3955 7e3d 47cc 8bbd
00000120: 477f 6f3d 5591 80bd c62a 773d e0ec 90bd
00000130: c9a4 96bd 81f3 20bb 2819 183d d665 8ebd
00000140: cf85 5e3d 3d9b b83c e11e e73d 7365 ee3c
00000150: e3bf cc3b 27cf da3c ec50 0cbd 2e9a 5c3d
00000160: d2e8 893d f321 06be 7ea6 63bb 4c8c e23a
00000170: 57dd 10be d8b9 e3bc 8240 0dbd 2841 063d
00000180: dd3f 0dbd 7ca1 12bd 25c4 07be d5fa cc3b
00000190: 075f e4bc 40ab b33c b4ba 73bd 5800 593c
000001a0: 17c7 103d 8e3a ce3d 7bc2 b8bd 50f7 bbbd
000001b0: 9ae7 a3bc 49e6 f2bc 272c d6bd 8845 313d
000001c0: e25c 80bd 0049 41be 9a04 9b3c c5f4 7a3d
000001d0: e97b a73d d7ec 1c3d 3153 9dbc e159 36be
000001e0: 7968 963d b86c f2bc c889 30bd 5001 d7bc
000001f0: 8722 83bd cbe0 143e 7828 a63c c534 80bd
00000200: 8c51 63bd d87f 183c 38cd 34bd 3b19 023e
00000210: 3ca4 8fbb 0c28 5ebd 85e9 863d 7d16 b5bb
00000220: 2ff9 2b3d 7504 45bd a402 0f3e 9a12 06bd
00000230: 85be b2bd 02cf 8f3d b810 a4bc ea98 6cbd
00000240: 76e5 143a d44c dfbc 70cb 0d3e b07a c4bc
00000250: 4d24 003c 4dc3 5ebc 1d1a 1e3e ee8f b53c
00000260: 24eb 81bc ad4e 96bb e430 d2bc e5fc d43c
00000270: ca06 cb3d 9544 07be c7e8 e93d 2e3f 44be
00000280: cc6c 203c b84f 373c 5e2b 503e 28a8 743d
00000290: 67ad dbbe 7b6d 163d 0b2e 023e ca59 59be
000002a0: 2521 acbc 33c2 c73d 0f0c 013c 83f7 a3bd
000002b0: 1a13 d63d a60b 703a 16b2 6f3c ac85 203c
000002c0: d086 6ebc 172d a6bd 7d42 01bd 2ae4 e7bd
000002d0: f118 553d 0d40 8bbd 3f32 2abd c364 c6bd
000002e0: 79c3 dcba 580e 1abe 415e bdbd 96ab c33b
000002f0: 6acb cc3c 373a c0bc c6a0 993d 509a d1bd
00000300: a686 023d 150a 0b3e e88c bf3c 501a 28bd
00000310: b44c 823c a0a2 c73d fc29 bcbd 8639 8c3c
00000320: 3d89 4c3c dde3 673d a8cd 0e3d 0351 673d
00000330: 89f5 123e bed1 93bc b1fb c53c 9d2f 3d3d
00000340: f59a 373d 5515 c2bb 0405 29bd 7f72 90bd
00000350: 46a2 cf3d 1138 c9bd 75b5 e13d b011 cf3d
00000360: 5e51 413d 9a17 573d a146 013e 076d 68bd
00000370: ce57 d9bd 6665 083d edc6 273d 104b 3dbe
00000380: a55c a03d d66b 1b3c 6f32 a6bc 90ba 223d
00000390: d393 87bd 3880 463c 2381 70be 62a2 e43c
000003a0: ae1b be3d 00a7 93bb bd78 153d 4d2d b7ba
000003b0: 29e8 25bd b2f3 c8bc 9b0e 993d bbe7 c1bd
000003c0: 2ec1 87bc 2586 6a3d 7933 b33c acce b2ba
000003d0: e358 5e3e feb1 963b 5c38 d2bd 5e5a 883b
000003e0: 6176 09bc 9c79 523c 2d43 613d 7c31 beb7
000003f0: ec24 7ebd eccf 34bd 05e2 143e 9956 a83b
-0.020310607 -0.01693175 -0.07120259 0.0023565632 -0.030374892 0.17251948 -0.080493994 -0.023422465
0.008008683 -0.066562235 -0.12574895 -0.043756507 -0.05571431 0.08218226 0.16771531 0.16171949
0.004843837 0.0026203298 -0.023048598 -0.06373139 -0.038685985 0.07200521 0.13620032 -0.0636968
0.040351998 -0.06572021 -0.07357896 0.088136725 -0.11560188 0.031534612 -0.05498979 0.028442599
-0.41097766 -0.12460456 -0.115925945 -0.05360061 0.096684135 0.10245653 0.046085116 0.0038243777
0.018616637 0.075598665 -0.006893808 -0.08559881 0.1539467 0.09468136 -0.0021373772 0.10556755
-0.08803586 0.10455978 0.055227183 -0.0020069783 -0.015922047 -0.020329153 -0.017174365 -0.013792714
0.015130876 -0.0116743855 0.021815158 -0.0792719 -0.017539464 0.19382155 -0.058925427 0.029184574
0.051832296 -0.19085626 -0.13712937 -0.009306854 -0.013082048 0.072817005 0.062092993 -0.06826072
0.05847099 -0.0627772 0.060343526 -0.0707643 -0.07355649 -0.0024559202 0.037133366 -0.069530174
0.05432683 0.02253496 0.112851866 0.02910111 0.0062484606 0.026710106 -0.03425686 0.053857975
0.0673386 -0.13098888 -0.0034736688 0.0017284243 -0.14146934 -0.027798578 -0.034485348 0.03277698
-0.034484733 -0.035798535 -0.13258417 0.0062554874 -0.027877344 0.021932244 -0.059504226 0.013244711
0.035346117 0.10069762 -0.09021469 -0.091780305 -0.020007897 -0.029650824 -0.1045764 0.0432792
-0.06267716 -0.18875504 0.018923093 0.061268587 0.08177931 0.038311806 -0.019204708 -0.17807724
0.07344145 -0.029592857 -0.04310015 -0.026245743 -0.0640307 0.14538877 0.020282969 -0.06260065
-0.05549769 0.009307824 -0.044141024 0.12704937 -0.004383592 -0.05423741 0.06587509 -0.0055263625
0.041985687 -0.048099954 0.13965851 -0.032732584 -0.08727745 0.070219055 -0.020027503 -0.057763018
0.00056799443 -0.027258314 0.13847136 -0.023984283 0.007821155 -0.013596368 0.15439649 0.022163358
-0.015859194 -0.0045870156 -0.025658078 0.025999496 0.09913404 -0.13209756 0.11421352 -0.19164726
0.009791564 0.01118844 0.20329043 0.05973068 -0.42905733 0.036725502 0.12712876 -0.21225658
-0.021011898 0.097538374 0.00787641 -0.080061935 0.10452862 0.0009157009 0.014629861 0.009797495
-0.014558509 -0.08114069 -0.03155755 -0.11322816 0.05202574 -0.06799326 -0.041551825 -0.096871875
-0.0016842923 -0.15044534 -0.09246493 0.0059713824 0.02499934 -0.023465259 0.07501368 -0.10234511
0.031866692 0.13578065 0.023382619 -0.04104072 0.015905716 0.09747815 -0.091876954 0.017117273
0.012483892 0.05661379 0.034864098 0.056473743 0.14351477 -0.018044349 0.024167867 0.046187986
0.044825513 -0.005922953 -0.04126455 -0.070530884 0.10138373 -0.09825147 0.11020938 0.101107955
0.04719674 0.052512743 0.12624599 -0.0567446 -0.106124505 0.033299826 0.040961195 -0.18485665
0.078301705 0.009486159 -0.02028772 0.0397287 -0.06619992 0.012115531 -0.23486762 0.027909461
0.09282623 -0.004505992 0.036492098 -0.0013975293 -0.04050461 -0.024530265 0.07473489 -0.09468027
-0.016571607 0.057256836 0.02187513 -0.0013641915 0.21713595 0.004598855 -0.10264656 0.0041611632
-0.00839004 0.012846377 0.054995704 -2.2672808e-05 -0.06204693 -0.044143602 0.14539345 0.0051372764

fc1.bias f4 [256]
00000000: ae11 ff3c 97af 503e fc69 d3bc 9bb9 f13d
00000010: 8e72 183e db41 4fbe 6da7 30be ecac e9bd
00000020: fccf 5d3d e42f 983d cffa d4bd 7e48 643d
00000030: a7f4 e93c 8c3b 303d 0c8c 2a3e c564 1a3d
00000040: 98d4 ccbd de0c bebc 75c0 423e 6365 74bd
00000050: b975 633c e91b 153e a47e 5dbd 09a9 37bd
00000060: c231 bb3d 8a5a bbbd e7d1 203c 6c59 4c3d
00000070: 9748 c83c ef00 0f3e b773 d63d 7607 fcbd
00000080: d151 40be 756a 6d3d 5a2f 07bd d23d 4ebd
00000090: 233e 423e 3da4 ca3d 6986 45bd e605 313e
000000a0: 4f5c 0abd 6795 acbd da72 893c 0f0c 4bbd
000000b0: 15ee debd 10a3 73bd c2b5 363e c57b b63d
000000c0: 542c 2d3e 6020 cebd 18e3 87bd 2fc1 343e
000000d0: 8463 94bd 1193 82bc 9d62 eabd 5b0a 193e
000000e0: ebb6 79bd 0356 6e3d 5413 323d ac54 543c
000000f0: 90a7 c6bd f180 1e3e c465 85bd a955 843c
00000100: ef76 d2bd 088e af3b 9abc 053e 6169 363e
00000110: 0d53 0f3d 089c 92bb e77e e53d 2771 ef3d
00000120: c951 79bd 9a4d fdbc 2ebc 573d 0e58 3d3e
00000130: 0b51 503c edff 2f3d 7996 773e 73f8 d5bd
00000140: 0892 433c f530 d93d d212 813c ebce 75bb
00000150: 2f89 013e 9e14 01be 4fa5 e83d 4147 8b3d
00000160: 1c1b 313e db12 8f3d 7097 163e baf3 72bc
00000170: ef99 e43c a153 80bd bb8f 3abe 6eaa b83d
00000180: e10e 1d3e da3b 21bd a4f6 c23d e889 5b3b
00000190: 4585 ca3d 2a65 0ebe 3a5d c93d c737 93bd
000001a0: d470 0ebe 30af 6a3e 80d7 23bd d428 c83c
000001b0: 9dfe aebb 9e1f 0dbe eecf 4f3e a221 df3d
000001c0: 5fc1 36bd dc60 d9bc 90ba eb3c 8afb 18bd
000001d0: 366b 893d ceb8 13be ebc2 39bd 08e1 25bd
000001e0: 2dd6 223e fa58 913a bdd5 253e 6a1f 80bd
000001f0: 48d6 02be 7f25 1a3e 37c5 043e 6354 3a3d
00000200: 27cb b43b 999e 323e 2df8 a8bd a83d 2bbe
00000210: 21f0 f43d a352 253e f44d a63d 5d14 b4bc
00000220: 0089 17be 7943 713d 0ce1 54be 3867 2abe
00000230: c55e 293e 9f5c 22be 7827 24be 03de 46bd
00000240: 6c6e eb3d 6eb4 e1bd a433 823d 2643 073c
00000250: 6fce c13d 12cd 203e 0737 9c3d 77e4 e83b
00000260: 8966 b13b 3ffd 083e c6a9 373e 58e3 bcbc
00000270: 332e ab3d 5d9c 1c3c 0ae9 a93d 7d1b 55be
00000280: a6b8 333c deec fabd 8844 65bd 555c 82be
00000290: b07a 5d3d 0b6a dfbd af0b b43c fadb 0bbd
000002a0: 4263 633d a83d ef3d 9db1 a2bd 1f5c 043e
000002b0: 50e9 8f3e d50e 093e fb1d 9f3d aa32 063e
000002c0: f757 5b3e 63e3 21bd 6e07 1b3e 3979 d3bd
000002d0: 6626 47bc d64e 283e c80b 56bd c0a4 8e3c
000002e0: ff28 3f3d 00ba 353e fd07 91bc 06b4 38bd
000002f0: 9fef e33d ecce 933d 93ad 3cbd 6322 df3d
00000300: 547e f63d 2aa5 2f3e be67 5f3e f04c f83c
00000310: a47d 8ebd 6e87 e2bc 4698 7e3d d662 25bc
00000320: 235a 91bc 0734 cd3d e554 a63c 3276 eabc
00000330: 4484 febc 11da ef3a 0d02 113e 5cb0 6e3c
00000340: 8e06 91bd cff1 b4bc 4e03 5b3e bc42 c13d
00000350: e72b 173e ef64 843d 950f 7c3c 4e48 7c3d
00000360: 164d ad3d 8d82 913d 05f6 fc3d e22f 0e3e
00000370: f34e d63d 88d3 9ebd 9766 a5bc a008 6cbe
00000380: a99e 373e 11cc c3bd 605e a9bd 39d4 45bd
00000390: 23e1 e93c 4fa0 783c ded5 c5bd 4de5 923d
000003a0: 7507 37be 8e43 56be a76f 153e 8d5e 14bb
000003b0: a208 7e3d e8f0 86bc 2c64 593d 8eed ccbd
000003c0: 0eba 3fbd b5b1 18be f0a1 e33d d8a1 193c
000003d0: dbf8 fd3d 73dc d53d 2fc1 203c 5019 7c3d
000003e0: 316c 1a3e 637d 77bd 8b8b 6e3e b36d a0bd
000003f0: 2c49 913d 018c 26bd 5e02 953d b594 c03d
0.03113636 0.20379482 -0.025807373 0.118029796 0.14887449 -0.20239966 -0.17251368 -0.11409935
0.054153427 0.074310094 -0.103994004 0.055733196 0.028559042 0.04302554 0.16654986 0.037693758
-0.100014865 -0.023199495 0.19018729 -0.059667002 0.013883048 0.14561428 -0.054075852 -0.04483894
0.0914035 -0.09148128 0.00981567 0.049889967 0.024448676 0.139652 0.104712896 -0.123061106
-0.1878121 0.057962853 -0.033004142 -0.050351925 0.18969016 0.09894607 -0.048223887 0.17287406
-0.03377944 -0.08426934 0.016778398 -0.049572047 -0.10885254 -0.05948168 0.17842773 0.08910326
0.16911441 -0.10064769 -0.066351116 0.17651819 -0.072455436 -0.015939267 -0.1144459 0.14945357
-0.06096546 0.058187496 0.043475464 0.0129596405 -0.09699929 0.15478875 -0.06513551 0.016154127
-0.10276591 0.0053575076 0.13060227 0.17813636 0.034991313 -0.004474167 0.11205845 0.11691504
-0.060869012 -0.030920792 0.052669697 0.18490621 0.012714635 0.04296868 0.24178495 -0.104477786
0.011936672 0.10605041 0.015756045 -0.0037507366 0.12649988 -0.12605521 0.11359655 0.068007
0.17295498 0.06986018 0.14706206 -0.014828617 0.027905433 -0.06265951 -0.18218891 0.09016882
0.15337707 -0.03936372 0.09519699 0.0033498947 0.098887004 -0.13905779 0.09832235 -0.07188373
-0.13910228 0.22918391 -0.04000044 0.02443353 -0.005340411 -0.13781592 0.20294163 0.10895087
-0.044618007 -0.026535444 0.028775483 -0.03734926 0.06709902 -0.14425966 -0.045351904 -0.04049781
0.15902014 0.0011089139 0.16194816 -0.06255992 -0.12777054 0.15053366 0.12965856 0.045490634
0.0055173817 0.17443313 -0.08250461 -0.16722739 0.119598635 0.16144805 0.08120337 -0.021982366
-0.14798355 0.058902238 -0.20788974 -0.16640937 0.16540058 -0.15855645 -0.16030681 -0.04855157
0.11495671 -0.11020742 0.06357506 0.0082557555 0.09463202 0.15703228 0.07627683 0.0071073133
0.0054138345 0.13377856 0.17935857 -0.023057625 0.08358421 0.009558764 0.08296402 -0.20811267
0.010969317 -0.1225221 -0.05597356 -0.2546107 0.054072082 -0.10908898 0.021978227 -0.034145333
0.05551458 0.11681682 -0.07944033 0.12925766 0.2810769 0.13384564 0.0776939 0.13105264
0.21420275 -0.039523493 0.15139553 -0.10325856 -0.012155151 0.16436324 -0.05225733 0.017412543
0.046669956 0.17746735 -0.017704004 -0.04509356 0.111296885 0.072172016 -0.04606397 0.108952306
0.12035814 0.17152849 0.21816918 0.030310124 -0.06957558 -0.027652469 0.062156938 -0.010094365
-0.017743176 0.10019689 0.020304153 -0.028620813 -0.031068929 0.0018299242 0.14160939 0.014568415
-0.07081328 -0.02208796 0.2138798 0.09436557 0.14762841 0.06464564 0.015384574 0.061592393
0.084619686 0.07104979 0.12351612 0.13885453 0.10464277 -0.0775519 -0.02019052 -0.23050165
0.17931618 -0.09560407 -0.08269954 -0.048298094 0.028549736 0.015174939 -0.096599326 0.07172642
-0.17873938 -0.20924208 0.14593373 -0.0022639364 0.06201995 -0.016472295 0.053074047 -0.100062475
-0.046808295 -0.1491154 0.111148715 0.009376965 0.12400981 0.10442438 0.009811684 0.061547577
0.15080334 -0.060422312 0.23295419 -0.078334235 0.070940346 -0.040660862 0.07275842 0.094033636

fc2.weight f4 [128, 256]
00000000: 8be6 b9bd e33c f33d 597d b4bc 8101 78bc
00000010: 08d6 31be 87ca a7bd 061f eb3d b244 443c
00000020: c480 2b3d 9b92 383e b4fe ea3d e6e5 023e
00000030: a754 083e 9bda cf3b 8456 6ebe abe7 dd3a
00000040: 61aa 993d 70ba f6bc 75b0 a4bd 9c5d db3c
00000050: 3ec9 0c3e 9acb b93d 343f 8d3d fff9 433e
00000060: 374d 53be aba0 dbbd c431 3dbc 988a 45be
00000070: a5f2 82bd 503d ef3d 9005 06bd 5f61 5d3e
00000080: 69b1 fc3d 6532 67bc 362a ccbd 712f 86bc
00000090: a767 583d 09f5 04be 11ab a4bb bd66 bc3d
000000a0: c8da 2ebe 36ac c5be 0614 483d bd25 463d
000000b0: a1fe 99bd d4bc 953d 6820 803c 06f7 7b3d
000000c0: ebc5 0e3c 7fed 763d 44f8 4d3d f29b 243c
000000d0: 0797 28be 6015 a5bd 33c7 ff3c 18da 3d3e
000000e0: 2d74 eebd 5719 c7bd f3b8 803d 1d81 e43b
000000f0: ebfa adbd d871 993d 31a5 313d 8684 903d
00000100: 1acb 2a3e 8df9 f9bd 79f9 ed3d e38f ae3d
00000110: d61f 133d 89be 21bd 2e2e a83d b4b0 4d3d
00000120: 60a7 473d b329 4b3e d8c0 8bbd eb27 e93d
00000130: 180a 7cbd 5330 cf3d 3730 9f3d 9663 e63d
00000140: 47db 31be 299e 8a3b bfe9 fb3d 95be b23d
00000150: 2449 c73b 6eb6 673c 738e 0dbd 7c57 283e
00000160: b6ee 5d3c acdf dfbd 57bf 133d a451 733d
00000170: ff94 3d3d 9e95 9e3c a292 e6bd ed46 85bd
00000180: 04f5 f7ba d8fd 8f3d 700d 223d 9250 313d
00000190: fd8f 05bd 12a1 b53d ff44 7a3c d5cb 643d
000001a0: 69e6 f03d ca25 bb3d e19d b93d 1809 373e
000001b0: 4160 e43c 4748 d23d 9048 f93c 7c0b c93d
000001c0: 7b94 cfbc 985f f33d bf69 9a3c 057b c93c
000001d0: 4038 ed3d 8709 1d3d c473 38bd cfca 07bc
000001e0: eb23 2d3d cd52 b83d cc02 c3bd e09d 3f3b
000001f0: 5efe 44bd b2e9 b13c 9529 033d a752 4d3e
00000200: 6d6f d6bd b9e9 1fbd 0c32 bebb c8e8 8a3d
00000210: 8e14 443d 7423 b7bd 9258 d3bd 1a42 2b3e
00000220: 14c3 373e bcad 853e 328a 8c3d 3b1c 903d
00000230: 3ef3 dcbc a1e6 a73d 465e 963d e8e3 c53c
00000240: 3a0f d13d 1e57 30be ad3c cfbd 69b9 dfbd
00000250: d6a9 37bd 10c4 bf3d 87bd d8bd 0674 cfbc
00000260: e64f 24be b885 603e b66e b03c 95fc 473d
00000270: 549b 48bd e03f 253e 34d5 b2bc 0c22 163e
00000280: 88b0 e5bd 1525 02bd 797a bdbc 1b61 883e
00000290: 4fb4 c6bd 81f5 4f3e 3f9f f038 551d 7e3d
000002a0: 04be f3bd f3b2 77bd c414 f3bd bfe2 743c
000002b0: b7e4 a83d 80a1 06be 1fd8 573d 7835 893d
000002c0: 288e 093e 89f5 1b3e b6b1 463e 9df0 eb3d
000002d0: 873e 15bd 1da5 c93d 0573 eabb 61c4 1ebe
000002e0: 62ba e4bb 80e6 c3bc 717b 803d 6c62 453d
000002f0: 8fc7 1ebd fa13 ba3b e035 2b3e 6031 293d
00000300: 232b 363e 6eac bebc 3ec2 7ebd b52a 023c
00000310: c657 4ebd bc20 ddbd b07c 063e 9231 53be
00000320: 7984 40bd 1ce0 c039 72aa 8d3d ef24 9a3d
00000330: 139a 433e 877c e13d 8241 2bbd 0d78 3abe
00000340: 43f6 fbbd a82f 09bc d7dd 82bd 3871 623e
00000350: 4e4e 923d 00ff 3bbd d76b 86be f57e c03d
00000360: c99f 653c 2f2b 143d 5fc9 903b e02a 01bd
00000370: 32c3 773d 6764 213e ce93 fabd 5316 b8b9
00000380: 05b5 ba3d 9748 e1bd ae0e ebbc c43f 0b3e
00000390: f16f e53c cbfc 8dbd 6e71 e23d ae3e 0f3e
000003a0: 6470 c03d 0e73 293e d6cf 15be 2c9a 163e
000003b0: d23b 973d 1bd1 1ebd 26e0 b6bd 7c59 a33d
000003c0: 57e5 e23d eb7d fdbd 4f7d a839 8e17 11bc
000003d0: 1a68 8e3b 83e2 cabd 58ce 88bd 494b 9fbd
000003e0: d04d 9abc ca22 92bc b004 c23c 8f9f 433d
000003f0: fbe2 483d a2f0 6e3d ea0e 3c3e 4950 de3d
-0.09077176 0.118768476 -0.022032427 -0.015137077 -0.17366803 -0.08192926 0.114805266 0.011979269
0.041870847 0.18024676 0.11474362 0.12783012 0.13313542 0.0063431985 -0.2327519 0.0016930004
0.075032 -0.030118197 -0.08041469 0.026778035 0.13748643 0.09072037 0.06896821 0.19138335
-0.20634924 -0.10724004 -0.01154751 -0.1929115 -0.06393937 0.11681616 -0.03272015 0.21619175
0.12338526 -0.014111136 -0.099689886 -0.016380044 0.052833226 -0.12984098 -0.0050252755 0.09199283
-0.17075646 -0.3860795 0.04884722 0.048375834 -0.0751927 0.07311407 0.015640453 0.061514877
0.0087141795 0.060285088 0.050285593 0.010046946 -0.16463862 -0.080607176 0.031222915 0.18540227
-0.116432525 -0.0972163 0.06285276 0.0069733993 -0.084951244 0.07492417 0.04337043 0.07056527
0.1667904 -0.12205801 0.11619849 0.08523538 0.035919033 -0.03948835 0.08211933 0.050217345
0.048743606 0.19840126 -0.068238914 0.11384567 -0.061533064 0.10116639 0.07772868 0.11249463
-0.17368804 0.00423028 0.12300443 0.08727757 0.006081717 0.014142616 -0.03455968 0.16439623
0.013545683 -0.10931334 0.036071148 0.05940403 0.046284672 0.019358452 -0.11258437 -0.06507669
-0.0018917625 0.07030839 0.039563596 0.04328973 -0.03260802 0.08868612 0.015275239 0.055858452
0.11762697 0.09138067 0.09063316 0.17874563 0.027877929 0.10267692 0.030430108 0.098166436
-0.025339356 0.118834674 0.018849252 0.024594793 0.115829945 0.038339164 -0.045032278 -0.008288099
0.042270582 0.09000168 -0.09522018 0.0029238388 -0.048094146 0.02171788 0.032022078 0.2005106
-0.104704715 -0.039041255 -0.005804306 0.06782681 0.047871165 -0.08942309 -0.10319628 0.16724434
0.1794551 0.2610911 0.06862296 0.070366345 -0.026971456 0.08198286 0.073422 0.024156526
0.10207982 -0.17220733 -0.10118995 -0.10924036 -0.044839703 0.09363568 -0.105830245 -0.025323879
-0.16046104 0.2192601 0.021537166 0.048824865 -0.048976257 0.16137648 -0.021830179 0.14661425
-0.11215311 -0.031773645 -0.023129689 0.26636586 -0.0970236 0.20308496 0.00011473754 0.062039692
-0.11901477 -0.060473394 -0.11869195 0.014946639 0.08246749 -0.13147545 0.052696344 0.066996515
0.13433135 0.15230383 0.19403729 0.11520503 -0.036436584 0.09845946 -0.0071548247 -0.155046
-0.0069802264 -0.023913622 0.062735446 0.048189566 -0.038764533 0.005678651 0.1671977 0.041306853
0.17789893 -0.02327558 -0.062196963 0.007944752 -0.050376676 -0.10797259 0.13133502 -0.20624378
-0.047001336 0.00036788068 0.069172755 0.07526576 0.19101743 0.1101008 -0.04181052 -0.18209858
-0.1230283 -0.008373179 -0.06389969 0.22113502 0.07143842 -0.045897484 -0.2625415 0.09399215
0.0140151465 0.036173996 0.0044185366 -0.03153503 0.060488887 0.15760957 -0.12235223 -0.00035111848
0.09116558 -0.110001735 -0.028693523 0.13598543 0.02800748 -0.06932982 0.11056791 0.13988754
0.09396437 0.16547796 -0.14630064 0.1470725 0.07384457 -0.038773637 -0.08929472 0.07976052
0.11078899 -0.123775326 0.0003213682 -0.0088557135 0.004345906 -0.09906485 -0.06679982 -0.077780314
-0.018835932 -0.017838854 0.023683876 0.04775959 0.04904459 0.058334954 0.18365064 0.10855157

fc2.bias f4 [128]
00000000: adbd 363d 2c35 0c3d 8a39 3fbd 2e28 073d
00000010: cdd1 55bd 1501 163d 8e20 7fbc a9b9 9b3b
00000020: dfdd a3bb 5d4c 12bb b7cf 0e3d b309 87bd
00000030: e3eb 9dbc 3a11 c33c ca44 2abd f1f9 663d
00000040: 035e 023d 6aa2 a13d daef 16bd af3a 91bc
00000050: dcab 0bbd dcc5 e1bc 21f2 43bd f4b6 90bb
00000060: c666 06bd 925b 4fbb 15ac 47bd b099 133d
00000070: acb1 a43c 28d6 75ba bd4e 353b b8c5 87bc
00000080: e80b 5dbd 04c7 17bd 7f95 8bbd 4eac 05bc
00000090: d6bc 0bbd 46ef 59bd a5b9 dcbc e9ff 17bc
000000a0: 8805 3e3d 8abb aebc e4ef 2d3d ad03 ffbc
000000b0: 54bb b2bc 18bc 743d 34fd e63c 812d 22bc
000000c0: be11 4c3d 0490 a43d b6cd 7d3b 5cac 4abd
000000d0: fbed 1e3c a9e6 23bd 015a 66bc f458 b43d
000000e0: e7f3 89bc f9fd 073b 2095 913d dcf1 adba
000000f0: cc32 bc3c fbf9 363d 9abd a93c 7816 9e3d
00000100: f042 a3bd a642 cb3c dc58 b93b fe27 bc3b
00000110: 72aa f73b 5931 653d b4f7 b83c 8c22 883d
00000120: 955f 153d 742c 7d3d 74e4 8ebb 281c 513d
00000130: 9a34 4bbd f23e e73c 47d7 423d c63b 7f3c
00000140: 0060 27bd 38dc 9638 9839 5b3d 3791 7a3b
00000150: f211 cfbc 8833 06bd 9fee 703c 3245 0a3d
00000160: 1e41 0a3d a0b7 133d 7c45 9e3d 9db4 383c
00000170: b6dd bdbb 3dc7 3ebd a436 02bd 705b 81bb
00000180: 7a7c b83a 8b75 7d3d 1197 633c 7204 173c
00000190: d08a 4fbd d05c ed3c a0cf 26bb 5e0c c1bc
000001a0: f875 2d3d 82f3 c33c e1b9 5dbd 66ca b83d
000001b0: 8cdc 713d a22e 6bb9 e502 57bc 1f48 6abd
000001c0: c5f9 9b3d 0b14 b0bb deba 883d ea2d b43c
000001d0: 6696 ab3d cd15 9d3c 4510 cb3c f8eb 913c
000001e0: 92da 9ebd 19b0 113d 2a95 90bc bca3 603d
000001f0: c3cc 58bd 8b94 96bd 0382 00bd 560a 2dbd
0.044614483 0.034230396 -0.046685733 0.032997303 -0.052202035 0.036622126 -0.0155717265 0.004752357
-0.0050008143 -0.0022323348 0.03486606 -0.06593647 -0.019277519 0.023811925 -0.04156951 0.056390706
0.031827938 0.07892306 -0.036849834 -0.017728178 -0.034099445 -0.027560167 -0.047838334 -0.004416341
-0.032812856 -0.0031640274 -0.048748095 0.03603524 0.020104252 -0.000937792 0.002766534 -0.016573772
-0.053966433 -0.03705503 -0.068156235 -0.008158756 -0.034115635 -0.053206705 -0.026943991 -0.009277322
0.046391994 -0.02132966 0.042465106 -0.031129682 -0.02181784 0.059749693 0.028196909 -0.009898544
0.049821608 0.08035281 0.003872735 -0.04948078 0.009700294 -0.040014897 -0.014059545 0.08806029
-0.016839935 0.0020750745 0.071085215 -0.0013270932 0.02297344 0.044671994 0.020720292 0.07719129
-0.07971752 0.024812054 0.005656345 0.005742072 0.0075581605 0.055955265 0.022579052 0.06647214
0.036468107 0.061809972 -0.00436073 0.051052243 -0.04961071 0.028228257 0.047568586 0.015578216
-0.040863037 7.193576e-05 0.053521723 0.0038233527 -0.025277112 -0.032763988 0.014705329 0.033757396
0.033753507 0.03606379 0.07728097 0.01127353 -0.0057942523 -0.046576727 -0.03179039 -0.003947668
0.0014075183 0.061879676 0.0138909975 0.009217368 -0.05066949 0.02897492 -0.0025453344 -0.023565467
0.042348832 0.023919825 -0.054132346 0.090229794 0.05904822 -0.00022428719 -0.013123249 -0.057197686
0.07615999 -0.005373483 0.06676267 0.02199455 0.083782956 0.019175434 0.024788031 0.017812714
-0.07756533 0.03556833 -0.017649252 0.05484365 -0.05292965 -0.07352551 -0.03137399 -0.042246185

fc3.weight f4 [4, 128]
00000000: 73da 773e 1343 88be 7474 44be 39b4 033e
00000010: b26c 98be f0a2 c7bd 0ef9 173e 6be3 553e
00000020: 6bf0 793d c84c c8be ff0d 133d e176 6c3e
00000030: a9c6 9d3d f7bb d63e 28ad ad3c f869 833e
00000040: fe7d 0bbd a41b c13c fefd 823e e794 873d
00000050: 6713 e73d 8ae9 d63d 16c9 98bd c96b 0bbd
00000060: 49e8 763d c026 77bc b41a 2cbd 9fed 833c
00000070: 9fc2 3bbe ed7c 7b3e 6d81 353d c5ca 7c3d
00000080: b1dd 72bc 69ce 4f3e 5292 533e 1120 33bd
00000090: bfc5 f1bd b87a 50be b72d 99bd 3d69 ef3d
000000a0: 831e 68be afe5 9dbe f4a4 12be f0d3 01be
000000b0: c0ff 8c3e a704 c4bc e88b f5bc 510d 91bd
000000c0: a405 12bd 6927 e2be 55f2 02be 2eff c83e
000000d0: 26be eabc 0bb7 8ebe 04d3 4ebe 8e8c 88be
000000e0: 116c be3e f08f 40be 632f 243d 7236 d5be
000000f0: 73cd f73d 6308 17be fd94 0cbd d51f 5e3e
00000100: fa9a a23e 4bdd e23d 6568 1bbe 295d e4bd
00000110: 0c6c 923e 2bc2 473e 05fc 45be 2eb7 59bd
00000120: 83ea 42bb 243d d93e f6e3 14bb 5cdf e53d
00000130: 2e12 9c3e a231 e2bd b497 bcbd faa6 3bbe
00000140: 5a7d 23be fa61 5a3e 2b54 d03e 13ff 183e
00000150: f56b a8bd 13db 82bc 7e04 4a3d 73d1 743e
00000160: bfe5 e9be b080 73bd 7544 6d3d 51f0 81bb
00000170: 2a4b a3bd ec84 33bd 4dc1 383e 3233 f8bd
00000180: 6713 a63e e1b6 7f3e c26e 093f 4880 9b3e
00000190: 9a35 fd3d d4c9 39be 029b 10be 16cb 05be
000001a0: 8147 abbd de90 14be 8491 cf3d 8ae6 913d
000001b0: 6d9f 383e de9a 0e3d 6b33 f9bc 7905 653e
000001c0: 63e4 5f3e 1acb cdbd f75d 54be 6c56 eb3d
000001d0: 8a47 863e 9c79 81bc b1a3 fb3e 56ff 173e
000001e0: 3609 4bbe b338 c83e aa48 22be e59e 8ebe
000001f0: 8805 75be ab81 ebbd 3d84 b33d 33d5 0dbe
00000200: 27d3 103b a2c2 e2be 391c 08be 5bd2 aa3d
00000210: 945e e13d 0e9c b83d 1203 0a3e 6b04 0ebe
00000220: 2627 433e b923 bdbd f589 c6bd ee69 d63d
00000230: 55c7 90bd abfc e23d 7cac 8c3e b35d 74bd
00000240: b38b 75bc ed81 ffbd 4f07 243f b6df e4bd
00000250: 77ba 51be ccf3 d6bd 8e1d 21be bc2d 813d
00000260: 9175 8c3e a8ed 01be 3a13 d63d 82b6 863e
00000270: 558c 7cbd 0765 b0be b99d 32be fb01 debd
00000280: 698c e93c 8760 ae3d 4d9e a2bd 1d26 1e3e
00000290: ceab 2b3e 753e 443d d971 20bd e71c 4bbd
000002a0: 432b 8fbc d9a0 8c3d 29e8 66be be0e 00bc
000002b0: b90d 3fbe a9e2 dbbd b1a8 0fbe aee3 cd3d
000002c0: 9745 fabe 7c24 b0bd 4bc2 e03d a063 a23e
000002d0: a7b1 25bc 7599 99be 7232 563b e199 1abf
000002e0: 7898 83be c4d6 033d 500b 983e dedd 07bc
000002f0: e075 9fbd 00c0 d0bd ec16 1bbe e670 813b
00000300: 1d67 be3d 8003 5e3e 9bf6 efbc 7cbb 17be
00000310: e27e d7bc e82e 6bbe cd6c 16be 2035 1a3d
00000320: f87d c6bc 569e b1bc ef00 59bd f76b 5b3e
00000330: 3ef2 fd3b 7bec d33d 1a4d e0be 2ad0 8f3e
00000340: 9afe a43e 2f12 e93c 2611 9cbd 950a fbbd
00000350: fc16 72bc c544 8cbe b11d ab3d e895 6fbd
00000360: 533c 0c3e 97ac 493d fe88 07be 2dc6 c03d
00000370: 1521 263e b581 03bf a7e0 283e 3fcc 28bd
00000380: 64e1 2dbd 9f90 133d 0b94 8bbd 6d13 34be
00000390: b9d7 3fbe f6cd b1bc b5d9 b1bd 6f5e 083e
000003a0: 7976 dd3d 698e 49be 52fe 8d3e 9701 953c
000003b0: 7cef 0f3e a1b6 e1bb 10da 50bd ee4e 9e3d
000003c0: 58d3 1ab7 4fd3 2abe ef7b 8f3e 55c5 593d
000003d0: 221d 253e 4366 a9be 8046 463e 042a 6a3e
000003e0: b8c9 6fbe 79c6 0c3e eb14 bbbb 7b47 003e
000003f0: c259 a43d 4867 843d fa7d 0bbe 8d01 083e
0.24204426 -0.26613674 -0.19185048 0.12861718 -0.29770428 -0.09747875 0.148411 0.20887534
0.061020296 -0.3912108 0.03590202 0.23092224 0.07703907 0.4194028 0.021200731 0.25666785
-0.034055702 0.02357275 0.25584406 0.06620198 0.112829976 0.10493763 -0.07460229 -0.03403834
0.06028012 -0.015084922 -0.042017654 0.016104518 -0.18335961 0.24559374 0.044312883 0.061716814
-0.014823363 0.20293583 0.20661286 -0.043731753 -0.11805295 -0.20359313 -0.074794225 0.116899945
-0.2266789 -0.30839297 -0.14320737 -0.12678504 0.27538872 -0.023928 -0.029973939 -0.07082618
-0.03564991 -0.44170693 -0.12787755 0.39257187 -0.028655123 -0.27874026 -0.20197684 -0.26669735
0.37191823 -0.18804908 0.040084254 -0.416431 0.12099733 -0.14749293 -0.034321774 0.2169183
0.31758863 0.110773645 -0.15176542 -0.111505814 0.28598058 0.19507663 -0.19334419 -0.05315321
-0.002974183 0.4242946 -0.0022718883 0.11224243 0.3048262 -0.11044623 -0.092086226 -0.18325415
-0.15965787 0.21326438 0.40689215 0.14941053 -0.08223716 -0.015973603 0.04932069 0.23908024
-0.45683095 -0.059448898 0.057926614 -0.0039654155 -0.07973321 -0.043827936 0.18042488 -0.1211914
0.32436678 0.24972107 0.5368463 0.30371308 0.12363739 -0.18143398 -0.14121631 -0.13065752
-0.08363248 -0.14508387 0.10135177 0.0712405 0.18029566 0.03481566 -0.030420026 0.22365369
0.21864466 -0.10048504 -0.2073897 0.11491093 0.26226455 -0.015805058 0.49148324 0.14843497
-0.19827732 0.39105758 -0.15848032 -0.27855602 -0.23927891 -0.114993416 0.08765457 -0.1385086
0.0022098513 -0.44289118 -0.13292016 0.08340903 0.110043675 0.0901414 0.13477734 -0.13868873
0.19057903 -0.09235329 -0.09694282 0.10469423 -0.070692696 0.11083349 0.27475345 -0.05965967
-0.01498692 -0.12475953 0.6407365 -0.11175482 -0.20481287 -0.10495719 -0.1573393 0.06307551
0.27433446 -0.12688315 0.10452886 0.26311117 -0.06165727 -0.34452078 -0.17442979 -0.108402215
0.028509336 0.08514505 -0.0794035 0.15444227 0.16764757 0.047911126 -0.039171074 -0.04958811
-0.017476683 0.06866617 -0.225495 -0.007816015 -0.18657579 -0.10736591 -0.14029194 0.10053192
-0.48881218 -0.08600709 0.109745584 0.31716633 -0.010113156 -0.2999989 0.0032683876 -0.6039105
-0.25702262 0.03218724 0.2969613 -0.008292643 -0.07786155 -0.10192871 -0.15145463 0.003950226
0.09297011 0.21681023 -0.029292395 -0.14817613 -0.02630562 -0.22967112 -0.14689942 0.03764832
-0.024229988 -0.021681946 -0.052979406 0.21427904 0.007749825 0.103478394 -0.43808824 0.28088504
0.32225496 0.028451053 -0.07620458 -0.12257878 -0.014775988 -0.27396217 0.083552726 -0.05849257
0.13694887 0.04923686 -0.13235852 0.09412799 0.16223557 -0.5136979 0.16491948 -0.04121041
-0.042451277 0.036026593 -0.06815346 -0.17585535 -0.18734635 -0.021704655 -0.086841024 0.13317274
0.108136125 -0.19683231 0.27733094 0.018189235 0.140562 -0.006888226 -0.05098921 0.077298984
-9.228323e-06 -0.1668217 0.2802424 0.053166706 0.16124395 -0.33085832 0.19362831 0.2286759
-0.23416793 0.13747586 -0.0057092807 0.12527268 0.080249324 0.06465012 -0.13622275 0.13281842

fc3.bias f4 [4]
00000000: 6fa2 1c3d 1a5e 9fbd cbdd 7e3d 3dfa 72bc
0.038240846 -0.0778162 0.062223237 -0.014830169
