savedmodels/checkpoint_1545158393_critic_episode130_score34.930.pth (torch_old, 169980 bytes, 5 tensors)

fcs1.weight f4 [256, 33]
00000000: 2cc4 88bc e935 503d 5b0d 8e3d 485d 05bd
00000010: 3a25 acbd 07d3 49bd ef36 fa3d 37e9 263d
00000020: 30a3 913d 9f26 603d 9aa8 5bbc e87c dbbc
00000030: 5a79 c3bc 9163 af3d 2a7d ae3d 0dbe 51bc
00000040: 6b49 9f3d f135 423c 2ea6 22bd 4ee5 a9bb
00000050: 22d2 26bd 91a3 5abc b694 9dbc 2c01 fb3d
00000060: 5cca d53a 7092 3a3d f852 1abd 5404 093c
00000070: a2d2 52bd 806a 4ebd 207d 8ebd be99 253d
00000080: 7eab c53c 5da5 503c f449 84bd e244 5a3d
00000090: 4877 023d df40 173d 7b8e ed3c b66b 093d
000000a0: 37e6 d7bc 9de2 c43c 3b7d 55bc 180a cf3b
000000b0: 7790 bc3c f6b5 373d c30f a33c 3849 533d
000000c0: 5f4c 613d d099 a03c faae 1f3d 3acc 1f3d
000000d0: ae9c 01bc 0cba 4cbc b88a 8a3c 4465 233d
000000e0: 0cca a0ba a204 a9bc c838 873c ed0c 75bd
000000f0: 1e4e acbd 6b9a 963d 30f6 a33c ec85 8f3d
00000100: a09a 9d3b 7eae 8bbc f585 513d c613 19bd
00000110: dcc3 503d 211e 9cbb 8c3d 1a3d 5c34 543d
00000120: 841b 5cbd 9196 a7bc ae9d 94bc 331e 853b
00000130: 7018 083c 2b70 c8bc d079 9c3c d3f2 3abd
00000140: c998 703c fc0b 52ba b6da bf3c 5a48 0abd
00000150: d9bf 17bc 4952 6cbd 8640 96bd 5a61 b03c
00000160: 5e55 19bd 4070 bebc 32b6 063c b171 cfbd
00000170: ad84 6e3d c5a2 b23b 334c e4bc 402e 51bb
00000180: 7fc3 7c3d 1e99 5ebd d6e5 693e 1176 803d
00000190: 37ad e03a 2a35 b93d f659 1f3d 555d a8bc
000001a0: 50ea 183d 57fe e23c 5100 50bc 0e33 653c
000001b0: 2077 cebc 2fbd d63b 92f9 cf3c 09a3 56bc
000001c0: b0b6 3abd b20c 503d 05df 99bd 632e 85bc
000001d0: d379 9ebc e0b9 87bd 7b93 5abc c163 d33c
000001e0: b4eb 1a3d 15c6 40bd de40 05bd 17ef 0bbd
000001f0: ae5b a6bc 5f07 703c 6d1d 0e3c bd87 47bd
00000200: b8a0 cabc 3def c03d 80c6 33bc 798e 243d
00000210: 5e6e e2bc 6344 393c 4196 543d d7c4 8ebc
00000220: 6198 56bd 226d 843d 9a7a ce3c 11e3 013d
00000230: be32 ebbd 99c5 883d f567 9dbc 9e51 f53c
00000240: 0039 1b3c 15e4 4dbc 5f95 8f3a 1737 acbb
00000250: f914 16bc 752f bfbc 86bb 73bc 11c3 d9bc
00000260: 09ec 91bb fde7 173d 832e fa3c b16c b9bc
00000270: f29e cb3c 5bd3 673c e6b3 aabc 38e7 313d
00000280: 986a 6cbd 58d9 923c 14bc 50bd 94a1 883c
00000290: 60eb 99be d077 b3bd 4f6f b23d 2091 1cbc
000002a0: b24d 85bc 6d34 f2bc 2b96 a3bc 0652 233d
000002b0: 4f16 19bc d2a1 55bd b98a 313d cd44 87bc
000002c0: 384d e63a 63f9 20bb 7510 253e 0159 07be
000002d0: 98a7 ecbc 6d9a e93c 43e2 fa3b b740 0bbd
000002e0: 40fd 803c 2f30 6cb9 60d9 bbba 3042 3a3b
000002f0: 1f46 923c 8ee1 14bd e0f3 8f3b b439 b5bd
00000300: 001d 6c3d e6f6 013d a41a 443d 92a9 5bbd
00000310: c880 193c f7e7 383d 901b b73c 0bf4 bfbc
00000320: b1e1 40bd 6bf1 ecbb 6888 8dbd 8a5f bb3d
00000330: 9151 693d 14ed 193d f14f babc f3c6 35bd
00000340: 27d4 403b 42f7 51bd aa55 383c 8090 463d
00000350: 5f10 58bd b655 0cbc e6f6 d73a 7303 4e3d
00000360: b622 233b 247b 893c 77f1 9ebd 2c96 d63b
00000370: 70be ae3c a279 e1bc 60f1 ee3c 78f0 89bc
00000380: 557c 32bd 7327 b63d 4831 413c 6481 43bd
00000390: 2b95 ebbd 809d be3a 6a0c 993d 3986 89bd
000003a0: ef1a 163d 109d fe3d d9c9 09bd ecea a1bd
000003b0: 44bf 2fbd 2767 6c3d 7df3 3b3d 217b 9f3d
000003c0: d5aa 81bc a9ba 79bd 09a3 253d d9ab 07bd
000003d0: 1255 3d3d 4f27 a2bb 6d46 8ebd e83f 04bc
000003e0: 780a dcbc 7fbc 2e3c 4270 df3c f6f4 c53c
000003f0: c4a8 243d cfdc 8b3c 4e11 21bd 5680 93bd
-0.016695105 0.050832663 0.06936141 -0.032559663 -0.08405538 -0.049273517 0.12217509 0.040749755
0.07111204 0.054724332 -0.013406897 -0.026792958 -0.023861576 0.08563913 0.08519967 -0.012801659
0.07777675 0.011853681 -0.039709263 -0.005184806 -0.040727742 -0.013344661 -0.01923595 0.12256083
0.0016310918 0.04554981 -0.03767678 0.008362848 -0.051470406 -0.050394535 -0.069574594 0.040429823
0.024129625 0.012734738 -0.06459418 0.053288348 0.031852037 0.0369271 0.028998604 0.033549987
-0.026354892 0.024033839 -0.013030346 0.006318342 0.023018105 0.044851266 0.019904977 0.0515835
0.055004474 0.019604594 0.03898523 0.039013125 -0.0079108905 -0.012495529 0.01691185 0.039891496
-0.0012267246 -0.020632092 0.016506568 -0.05982678 -0.08413337 0.07353672 0.020014852 0.070079654
0.0048096925 -0.017050978 0.051153142 -0.037372373 0.050968036 -0.004764334 0.037656352 0.051807746
-0.05373718 -0.020457538 -0.018141594 0.004062438 0.008306608 -0.024467548 0.019101053 -0.04564173
0.014684864 -0.000801265 0.02341972 -0.033760406 -0.009262049 -0.05769566 -0.073365256 0.021530796
-0.037434928 -0.023246884 0.00822215 -0.10129107 0.058232 0.0054515325 -0.027868366 -0.0031918436
0.061709877 -0.054345243 0.22841582 0.062725194 0.0017141466 0.09043343 0.038904153 -0.020552317
0.037332833 0.02770917 -0.012695388 0.013989223 -0.025203288 0.006553314 0.02538756 -0.013100394
-0.04558438 0.050793357 -0.07513241 -0.01625747 -0.0193452 -0.0662725 -0.013340826 0.025804402
0.03782244 -0.047063906 -0.032532565 -0.03416356 -0.020307388 0.014650195 0.008674008 -0.048713434
-0.02473484 0.09420631 -0.010972619 0.040174935 -0.027640518 0.011307809 0.051901106 -0.017427845
-0.052391414 0.06466128 0.025204945 0.031710688 -0.11484288 0.06678314 -0.01921461 0.029946145
0.009474039 -0.012566586 0.001095455 -0.0052555907 -0.009160274 -0.023338059 -0.014876252 -0.026582273
-0.0044531864 0.037086476 0.030539757 -0.022634836 0.024856064 0.014149512 -0.020837735 0.043433398
-0.057718843 0.017925903 -0.050960615 0.016678609 -0.3006239 -0.08763087 0.08712637 -0.009556085
-0.0162724 -0.029566014 -0.019969067 0.039873146 -0.009343698 -0.052156277 0.043345187 -0.016512299
0.001757062 -0.0024562709 0.16119559 -0.13217546 -0.028888509 0.028516019 0.007656367 -0.033997264
0.015745759 -0.00022524664 -0.001433175 0.0028420798 0.017855702 -0.03634792 0.004393086 -0.088488966
0.057644844 0.0317296 0.04787697 -0.05362851 0.009369083 0.045143094 0.02235201 -0.023431798
-0.047090236 -0.0072309277 -0.06910783 0.09149082 0.056962553 0.03757961 -0.022743197 -0.044379186
0.0029423328 -0.051261194 0.011250893 0.04847765 -0.052749988 -0.008565357 0.001647678 0.05029626
0.0024892516 0.01678235 -0.077608995 0.0065486636 0.021331042 -0.02752382 0.029167831 -0.016838297
-0.043575604 0.08894243 0.011791535 -0.04773082 -0.11503061 0.0014542788 0.07473071 -0.06715054
0.03664678 0.12432301 -0.033639763 -0.07906136 -0.042907014 0.05771556 0.045886505 0.07787157
-0.01582853 -0.06096903 0.040438686 -0.03312287 0.046223707 -0.0049485336 -0.069470264 -0.008071877
-0.02686046 0.010665058 0.027275208 0.024164658 0.04020001 0.017073063 -0.039323144 -0.072022125

fcs1.bias f4 [256]
00000000: 170a db3c f8ce 403e 0577 29bc 85e1 413e
00000010: 4935 8dbc 69ed 4bbe 1741 60be 3528 27be
00000020: 9625 313d 01bf 9e3d 2048 8fbd 81b8 7ebc
00000030: a66c b43d e100 25bd 6327 7c3d 6cc0 8cbc
00000040: 5d28 13be 03e5 07be d653 de3d 3f12 13be
00000050: 9208 243c 3bc5 88bb dd85 8f3d 5851 de3c
00000060: 0860 31bd 6e39 65bd daa0 5e3d a19b 91bd
00000070: 8728 7c3d d774 e63c c8a4 9b3d 07ca 42bd
00000080: 5b71 1bbe 7cfc aebd b94e b33d 857a 84bd
00000090: 8e5f 223e 0b6d c43d 2693 02be ede0 6d3d
000000a0: e420 cbbd 1b02 06be 601a 723d 90cc 16be
000000b0: 0ab9 3dbd 0b02 33be 076a a93d f435 a23d
000000c0: 8641 fb3d acf7 e7bd ca5d f3bd 823b e33c
000000d0: 348d 14be 9283 9bbd 0d01 2cbe 4094 dc3d
000000e0: 78f6 92bd 41e6 81bd 1a50 533d f56e 313d
000000f0: d465 02be 927d dc3d 7c1d 2ebe 7765 5abd
00000100: c758 08be 4d4b 01be 2e3c 5e3d 0448 113e
00000110: 17f0 693d bbe0 fbbc c8d2 703d 181b 023e
00000120: fd1e 33bd 26f9 03be 0825 7d3c c899 843d
00000130: 8eb8 793d 418c c3bd f4b3 4b3e 3c61 f9bd
00000140: d46b 2e3b 0814 e83d 6973 87bd cc2c 783d
00000150: 9654 dd3d 0f61 9dbd 9702 093e add1 813d
00000160: 4675 ce3d 8781 023e ff53 e83d f675 2f3d
00000170: 934d 083e e251 61be 2994 77be 02de a13b
00000180: 682d 473e 4dc0 e9bd 998d 303e 1a00 93bd
00000190: 0b48 0e3c cad0 c1bd f714 a5ba 6a22 c4bd
000001a0: 4ad9 01be 8af1 243d 6340 05bd dd04 183d
000001b0: 55a9 743d 9cd4 c0bd d57b b13d 1c5c 493e
000001c0: c79f bebd 2e20 023e d91c 983d 952f 1fbe
000001d0: 9519 b73c 66bd 42be 5700 f6bb a510 0ebe
000001e0: 036a 073e 369e db3c ecfd 0b3e a3cc 54bd
000001f0: 93ad 0abe f791 d93d 7c38 b03c 04b5 513d
00000200: 3709 093a 2055 b23d af50 c1bd ca97 60be
00000210: 24df 0a3c 47c5 ce3d 1955 59bc bffe 88bc
00000220: 0a08 2cbe 2c5d 4f3d 37d3 69be 56f7 f2bd
00000230: 07e2 cd3d 4fb1 4fbe fca6 0abe bfe9 1bbe
00000240: 83b8 f93d 704d 10be d068 ffbc 8652 fb3a
00000250: af32 903d 8b79 043e 7689 1e3d 6799 633c
00000260: cfca e8bd 1c4b c23d e022 283e 056e 9f3b
00000270: 8938 db3d 07f7 a8bd 312b a0bc 24a5 c1bd
00000280: 333e 9d3d 3a39 9abd 6b7a aebd 1ed6 3fbe
00000290: ae68 02bd 10b0 383d 1d21 043e db93 013c
000002a0: e6ad e1bc e4b4 783d 40e1 a53c 8755 2c3e
000002b0: 70e5 453e e914 273e b969 033d f627 223d
000002c0: 8511 1b3e 00b8 92bc dc59 313e 9d0e eebd
000002d0: 42af 65ba f29a 093d 4d54 03be 2646 53bd
000002e0: 62f8 60bc 0f13 d1bc 8e71 6dbd fb73 3dbc
000002f0: 214c 31bc 705f 623e 5dd9 7cbd 8338 063e
00000300: 07c7 14bd 4441 273e f43f 3c3e ba4b 2ebd
00000310: c778 91bc ef50 02be 4348 d1ba 9095 0bbe
00000320: d4cd cfbd 9504 a93c dc50 e13c 099f b9bd
00000330: 5767 fc3d 8c50 523d d1d3 98bd d411 c13d
00000340: bf28 1cbe a23d 3abc 38ce 573e 0d61 ab3d
00000350: c1bd 823d 1a89 b53c 2481 1dbd be45 0c3e
00000360: f0fb 363c 9150 013d 7cc3 bc3c f887 6ebc
00000370: 5500 713d 92bd febd f12f 06be e705 2cbe
00000380: 8f98 3f3e 6e06 a1bd 0529 1fbe 0605 083d
00000390: 9bd0 aebd 9786 733d 8f81 7dbd 9f22 843d
000003a0: 0340 3bbe 1ae0 48be e9be b73d 7ce8 92bd
000003b0: e757 36bd da52 1b3d 0461 743c 61fb bdbd
000003c0: 27f9 883d 1c9e e9bd 28a4 0f3e 207b 6ebd
000003d0: 4acc 2e3d a28a 223e 55dc ec3d 743f c03d
000003e0: 3c13 a93d 9ce3 f5bd 5cc9 9e3d d4f6 bcbd
000003f0: 06e8 153e c753 8ebd c93a a83d c0b9 df3c
0.02673821 0.18828952 -0.010343318 0.18933685 -0.017237322 -0.19914784 -0.2189983 -0.16323932
0.043248735 0.07751275 -0.069961786 -0.015546919 0.088097855 -0.04028404 0.061561 -0.017181598
-0.14370866 -0.13270955 0.10855834 -0.14362429 0.010011809 -0.0041739023 0.07007954 0.027138397
-0.043304473 -0.055962972 0.05435262 -0.07109762 0.061562087 0.028131885 0.07599789 -0.04755595
-0.1517996 -0.08544251 0.087552495 -0.06468681 0.15856764 0.09591111 -0.12751445 0.058075834
-0.09918383 -0.1308674 0.059107184 -0.14726472 -0.046319045 -0.17481248 0.08272176 0.07920447
0.12268357 -0.113265365 -0.11883123 0.027738336 -0.1450699 -0.075934544 -0.16797276 0.10770464
-0.071759164 -0.063427456 0.051590063 0.043318707 -0.12734157 0.10766138 -0.17003435 -0.05331942
-0.13315116 -0.12626381 0.05425661 0.14187628 0.057113733 -0.030746808 0.058794767 0.12705648
-0.043730725 -0.12888011 0.0154507235 0.06474644 0.06096702 -0.09548236 0.19892865 -0.12176749
0.0026614564 0.11331946 -0.066138096 0.060589597 0.10807149 -0.07684528 0.13379894 0.063388206
0.10080962 0.12744723 0.11344146 0.042837106 0.13310842 -0.22003892 -0.24177612 0.0049397955
0.19450915 -0.114136316 0.17241515 -0.07177754 0.008684169 -0.094636515 -0.0012594749 -0.095768765
-0.12680545 0.040269412 -0.032532107 0.037114013 0.0597318 -0.09415552 0.08666197 0.19664043
-0.09307819 0.12707588 0.07427377 -0.15545495 0.022351066 -0.19017562 -0.0075073647 -0.13873537
0.13224034 0.02680884 0.13671082 -0.05195297 -0.13542776 0.10623544 0.021511309 0.05119802
0.00052275084 0.087076426 -0.09439217 -0.21932903 0.008476052 0.100962214 -0.013264918 -0.016723035
-0.16799942 0.050625965 -0.22834478 -0.11863582 0.10052877 -0.20282482 -0.13540262 -0.15225886
0.12193396 -0.1409204 -0.031177908 0.0019174374 0.07040917 0.1293699 0.03870531 0.013891554
-0.11366808 0.09486982 0.16419554 0.0048654103 0.107041426 -0.08250242 -0.019551845 -0.09455326
0.07677879 -0.07530446 -0.08519443 -0.18734023 -0.03183811 0.04508978 0.12903257 0.007908787
-0.027548742 0.060719386 0.02024901 0.16829501 0.19325805 0.1631657 0.032083247 0.03958889
0.15143402 -0.017910004 0.17319435 -0.11623881 -0.0008761772 0.033595033 -0.12825127 -0.05158057
-0.013731094 -0.025521783 -0.057969622 -0.011563296 -0.010821373 0.22106719 -0.06173073 0.13107495
-0.03632262 0.1633349 0.18383771 -0.042552687 -0.017757786 -0.12726186 -0.001596697 -0.13631272
-0.101466805 0.020632068 0.027504377 -0.09063537 0.12324398 0.051346347 -0.07462276 0.094272286
-0.15249918 -0.0113672335 0.2107476 0.0836812 0.06383849 0.022160102 -0.038453236 0.1369848
0.011168465 0.031570975 0.023042433 -0.014558785 0.058838207 -0.124385014 -0.13104226 -0.16799127
0.1871054 -0.078625545 -0.15542991 0.033207916 -0.08535882 0.059454527 -0.061891135 0.06451916
-0.18286137 -0.19616738 0.0897196 -0.07173249 -0.044517424 0.03792081 0.014915708 -0.09276462
0.06688147 -0.1140711 0.14027464 -0.05822289 0.042675294 0.15873197 0.115654625 0.09387103
0.08255622 -0.12006304 0.0775325 -0.09226766 0.14639291 -0.06949573 0.082143374 0.027310252

fc2.weight f4 [128, 260]
00000000: 2e6a d03c 13ca 083b eb61 c53d 12a0 5dbb
00000010: 5cf1 d83d c202 98be 99ca a3bd 8b4e a83d
00000020: f363 9bbc 40c7 b4bd a6cf 293d e246 c63b
00000030: 1ec8 30bd 0791 813d 409a 13bd 7f69 f83b
00000040: 80f3 c1bb 42f5 7ebd a65b 923c 6721 023e
00000050: 8c04 a63d 5448 debc 738e 213d c4a8 36be
00000060: 44e5 1d3d 414d fbbb c13c 883d f478 81be
00000070: 48c5 893d 5444 2bbd 26f8 2f3d a4e7 223d
00000080: f810 923c b2d0 be3c db4b 713c 9d93 4cbc
00000090: 7637 6fbc 4f05 3dbd 5fb2 8a3d 418c 2dbd
000000a0: 88e3 b8bd 942a 67bd ce47 10bd 6f3a 2cbc
000000b0: 016b c8bb ab5c 563d 3267 0d3d 333f 2ebd
000000c0: 7f19 86bd 587d 863b 3bfa a73c 02e1 a23d
000000d0: 17c6 313d b516 97bd e901 843b 103e 83bd
000000e0: f3b7 8cbd a3f5 5b3d fe3d a0bd 7ae0 103d
000000f0: 8ce9 4bbc 6849 eb3d 708d 593d 8708 643d
00000100: 1859 0d3d ad7b 0ebd 9306 46bd 88b9 983d
00000110: 742b bdbd 7fd9 e6bd 63f2 b6bd 1a74 313d
00000120: 6574 87bc 035d 883d 4a8c 85bd 19d7 70bd
00000130: 6b78 d9bc c140 313d 9a1e 583d a5d6 53bd
00000140: 4c5f 90bd 99a0 45bc 3fb2 1abd 2062 fabd
00000150: 93dd 98bd 6246 823d cb25 0a3d 20a2 09bd
00000160: a020 58bd 233a 15be 2d7b de3d 6c22 56be
00000170: 10a3 42bc df73 60be 8cd4 483d dc9b 4bbc
00000180: 2f17 913c 5022 afbd a6bc 423d 91fc 683d
00000190: db48 c6bd fbde 60bd e38a 08bc 185e bc3c
000001a0: 3e95 86bd 556a d53d 2141 cf3d 24bc 1d3d
000001b0: fe24 b23d faf4 8a3c 80fd 3ebd f0ef 203d
000001c0: e0e7 943d 17fa c63b 0e58 4ebd 46c3 d9bd
000001d0: ead0 78bd 06d8 c9bd 7fb8 59bc 3568 c0bc
000001e0: 855b 87bc 19a2 393b 8ce5 27bd b5d8 97bd
000001f0: efef 423d b04d 7ebc 7851 c63d 5fa9 623d
00000200: 27a9 863d 0de8 883d 327f 3ebd 75a9 c23d
00000210: 4a60 e93d befc a0bd 437c 54be f6c2 8a3d
00000220: 905d 7b3d df7b d43c 5e60 cf3c c912 cf3c
00000230: 28c9 56bd 63eb 20be 98f2 15bd 8038 36bd
00000240: 56d6 873d ad33 b2bc 4844 dcbb abf0 193d
00000250: 5415 08be 096c eebb 0541 67bd f558 383d
00000260: 17ea ffbc 05bf 0a3e 9dd7 bf3c 0e1c 693d
00000270: 6ad4 03be 7ce9 10bd 9e49 913d 9214 bd3d
00000280: d847 463a 5b8b 163e 9b6b 31bd 1b51 c2bd
00000290: eddb 423d b369 ebbd ce6f 2f3d aed6 8b3d
000002a0: 5c89 b13d 282b a2bd 0923 b63d 671e 86bd
000002b0: 4371 acbc 3440 86bc 97a6 1c3d 837f 87bd
000002c0: cdb5 34bc 1330 94bc 4468 2c3c 4091 84bd
000002d0: 77f1 4bbd e87a 113d 4da0 4fbd 82c3 953d
000002e0: f42b 71bd 0f82 00be cbd9 c4bd 1976 913d
000002f0: c8f4 283d e1cd 993d 286c 34bc f064 67bc
00000300: f776 8cbd 7e0f 0e3e 5a56 383a e5df febb
00000310: af02 eb3d 1e5d efbd 5562 713d 3da3 6c3d
00000320: 9100 543c 4562 073d 8675 9ebc 74d3 8f3d
00000330: 52a8 42bd e54a 4a3d b0fa 4b3c 38db 3c3c
00000340: 6ea9 96bd 0790 af3c 9300 3cbc 6ff0 463b
00000350: fc28 bc3d 9c22 52bd 63da 5f3d 1d8e 7f3c
00000360: ea7b d53c 6b67 babd 2f8b b3bd 2830 d6bd
00000370: c18a f33b 11f9 cf3d a6d7 90bd f5a6 a53b
00000380: e97b 8f3c b42c 05be c3a0 823b 23d3 d83b
00000390: 2732 84bd 80cd b63c b1f6 833d b8e1 2e3d
000003a0: 0d22 5a3c a510 6c3c 3418 9dbd 58ae a8bd
000003b0: 2a76 a13d 52f6 0fbd ae86 3dbe a388 373d
000003c0: f7a8 30be c50f a33d 97ae 23bd ce5e febd
000003d0: 09fa c03a cbc3 f63c 5e7d 3fbd bc09 f73b
000003e0: ddc8 1a3d 8894 803d 0a1b 3fbd 6978 833d
000003f0: 5012 943c 6fd2 bbbb 55eb 45bd 66d0 c1bc
0.025441255 0.0020872399 0.09637817 -0.0033817333 0.10592911 -0.29689604 -0.07997627 0.08218106
-0.018968558 -0.088270664 0.041457795 0.0060509304 -0.043159597 0.0632649 -0.036035776 0.0075809355
-0.00591892 -0.062245615 0.017865967 0.12708054 0.08106336 -0.027134098 0.03944249 -0.17837816
0.038548723 -0.0076691215 0.06652213 -0.25287592 0.067270815 -0.04181321 0.042961262 0.03977169
0.017830357 0.023292873 0.014727558 -0.012486366 -0.014600625 -0.04614764 0.06772303 -0.042370085
-0.09027773 -0.05643709 -0.03522473 -0.0105119785 -0.0061162715 0.05233447 0.034522243 -0.04254074
-0.06547832 0.0041042976 0.020505061 0.07953073 0.043401804 -0.07377378 0.004028548 -0.06408322
-0.06871023 0.053701054 -0.07824324 0.035370328 -0.012445819 0.114886105 0.0531134 0.055672195
0.034508795 -0.034785915 -0.048346113 0.07457262 -0.09236804 -0.11271953 -0.0893295 0.043323614
-0.016534993 0.066583656 -0.06520899 -0.058798883 -0.026546678 0.043274645 0.05276356 -0.051718373
-0.070494264 -0.012062215 -0.037767645 -0.12225747 -0.07464137 0.06361081 0.03372745 -0.03360188
-0.05276549 -0.14572959 0.10863338 -0.20911568 -0.011879697 -0.21919201 0.049030825 -0.0124272965
0.01771125 -0.085514665 0.04754319 0.05688149 -0.09681865 -0.05490015 -0.008333894 0.022994086
-0.065714344 0.10420672 0.10119844 0.038509503 0.08698462 0.016962517 -0.046628475 0.039291322
0.07270789 0.0060722935 -0.050376944 -0.106329486 -0.06074611 -0.09855656 -0.013288616 -0.02348719
-0.016523132 0.0028325377 -0.040990397 -0.074143805 0.0475921 -0.015521452 0.09683508 0.055337306
0.06575232 0.06684885 -0.04650802 0.095049776 0.11395319 -0.07860707 -0.20750527 0.06775467
0.061368525 0.025937973 0.025314506 0.025277512 -0.05243793 -0.15714793 -0.03660831 -0.044487476
0.06632678 -0.021753157 -0.006722007 0.037583034 -0.13289386 -0.0072760624 -0.05645849 0.04500671
-0.031239552 0.1354943 0.023418242 0.05691152 -0.12873998 -0.035378918 0.070941195 0.09232439
0.0007563806 0.14701597 -0.04331551 -0.09488126 0.04757302 -0.1149477 0.042831235 0.06828056
0.08668777 -0.07918388 0.08893401 -0.065487675 -0.021050101 -0.016388036 0.03824481 -0.06616118
-0.011029673 -0.01808933 0.010522906 -0.06473017 -0.049790826 0.035517603 -0.050689984 0.07312681
-0.058879808 -0.12549613 -0.09611853 0.071026035 0.041249067 0.075099714 -0.011012115 -0.0141231865
-0.06858628 0.13873097 0.00070319104 -0.007778155 0.11475121 -0.116876826 0.058931667 0.057772864
0.012939588 0.0330527 -0.019343149 0.07022753 -0.047523804 0.04938783 0.012449905 0.011526875
-0.07356535 0.021430982 -0.011474746 0.0030355712 0.09187505 -0.051302537 0.05465163 0.015597847
0.026060063 -0.09101757 -0.087667815 -0.10458404 0.0074323122 0.101549275 -0.07072382 0.005055303
0.01751514 -0.13005334 0.0039864494 0.0066169663 -0.06454878 0.022314787 0.06443537 0.04269573
0.013313782 0.014408265 -0.07670632 -0.082363784 0.07883866 -0.03514702 -0.18508407 0.04480804
-0.17251955 0.07961992 -0.039961424 -0.12420426 0.0014722954 0.030122658 -0.04675042 0.007539002
0.037789214 0.0627833 -0.046656646 0.06419451 0.018075138 -0.0057318727 -0.048320133 -0.023658942

fc2.bias f4 [128]
00000000: 1492 773c c194 493b dc97 a83d 071c 22bd
00000010: 68a7 143d c8b6 d73d f867 2fbd 57a7 943b
00000020: 15dd b73c 9811 413c 99c4 843d 5317 913d
00000030: 169d e93d 796e babd 68f8 14bd 1574 91bd
00000040: 6b00 893d 1968 9abd 5888 163d 60cd 9a3d
00000050: bb01 1c3e c1d7 b73d a8b9 40bd e3b0 88bd
00000060: 702d c13d aec9 eebb 3d77 c53d 450b 35bd
00000070: fb8f 103e 28fd 55bd 6999 ba3d 7882 0a3d
00000080: b29b 833d a9be 7cbd a593 893d b2ab 163c
00000090: 5233 733c b8e4 a33c 4cca ef3d f414 9e3b
000000a0: d350 aa3c 670e 0aba 6d17 e43c 36c4 4a3d
000000b0: f344 5dbd 4f2b 123e b1ca 1c3d f8dd fabc
000000c0: 8c2e 473d f325 febb 150b 93bd 63d5 b1bd
000000d0: c223 893d b3a0 09bd f094 22bd ead3 b2bd
000000e0: f69c ba3d e584 4dbc 8b4d 1ebd eac8 09bd
000000f0: a70f b5bd b8d6 213d 916c af3d 9267 fa3d
00000100: af5e 87bc c8fd 1abd a783 0b3c 3742 9e3d
00000110: 30b7 aebc 52ce ef3d c1a8 26bc e75c 2dbd
00000120: 96ed 7f3d 1916 073d f47e aa3c 43e8 d83d
00000130: b968 c23d 9fd6 aabd 1ad4 e9bc e4ed b3bc
00000140: dd19 423d fa03 a93d 1bf2 5bbd 14b4 f43c
00000150: 6f4e 373c b322 0a3e a4d1 97bc f9e7 883d
00000160: 7041 0a3e 7104 2e3e f727 213e 42c7 823d
00000170: 1b63 c2bc 172d da3d 0565 e33b 050f d13c
00000180: eb1b a3bd 4e8c 32bd 839f 0e3e 982d 61bd
00000190: 947a a1bd 7d43 183d 6f6a 21bd 7a39 c43d
000001a0: f6ee 2f3c 1026 81bb 1162 da3c e9d9 aebd
000001b0: 4a16 013d 1696 993c ab51 f83c 9427 2d3a
000001c0: 19c2 2abc 7da5 83bd 99ea 923d b634 00bd
000001d0: 190a 953b 913a 3b3d dbee a8bc dafc 2ebd
000001e0: 2254 a9bd a540 2dbd 51ac 723d e66e 233d
000001f0: 6ed9 eebc 9e5f c2bd 1afd 43bd 4b76 dc3d
0.015110511 0.003075883 0.0823209 -0.03957751 0.036292464 0.1053291 -0.04282376 0.00453655
0.022444287 0.01178398 0.064828105 0.07084527 0.11406915 -0.09103102 -0.03636971 -0.07102219
0.06689533 -0.07539386 0.03675112 0.075587034 0.15235035 0.08976699 -0.047052056 -0.066743635
0.09432495 -0.0072872257 0.096418835 -0.0442002 0.14117424 -0.05224338 0.09111292 0.03381583
0.06426181 -0.061705265 0.06717614 0.009196209 0.014843779 0.020006523 0.11708507 0.004824275
0.020790493 -0.00052664283 0.027843202 0.049503528 -0.054020833 0.14274333 0.03827924 -0.030623421
0.048628375 -0.0077559887 -0.07179848 -0.086832784 0.066962734 -0.03360052 -0.03969282 -0.08731826
0.09111969 -0.012543892 -0.03864817 -0.033638872 -0.08840876 0.039511412 0.08565629 0.12226786
-0.01652464 -0.03783968 0.008515275 0.07727473 -0.021327585 0.11709274 -0.01017207 -0.042324927
0.06248244 0.03298006 0.02081249 0.105911754 0.094926305 -0.08341717 -0.02854352 -0.021964021
0.047387946 0.082527116 -0.053697687 0.029871024 0.011188134 0.13489799 -0.018532582 0.0668487
0.13501525 0.16993882 0.15737902 0.06385662 -0.023728898 0.106531315 0.0069395327 0.025519857
-0.07964309 -0.043590836 0.13928036 -0.054975122 -0.07884708 0.037173737 -0.039408144 0.09581275
0.010738125 -0.003941305 0.02665809 -0.08537657 0.031515397 0.018748324 0.03031238 0.0006605324
-0.010422253 -0.06428049 0.07173652 -0.03130027 0.004548323 0.04571015 -0.020621708 -0.042721607
-0.08268 -0.042297978 0.059246365 0.039900683 -0.029156413 -0.09490894 -0.0478488 0.1076475

fc3.weight f4 [1, 128]
00000000: 2db6 ab3d f72a 30be f3b7 2b3e 0cb8 49bd
00000010: a910 7d3d e2e3 913d 33a1 a13d 5650 b83d
00000020: 5eb1 5f3d cfbf 27be 5ac6 383d 5742 093e
00000030: 3784 aa3d 2227 8ebc 063f 6bbe 5f0a cabd
00000040: df3e 8b3d 2516 cbbd 47a1 243d 9940 3b3e
00000050: 151b 823d 5339 b63d 2027 dcbd de39 cebd
00000060: daa5 8f3d 4ed2 99bd 3220 dd3d 8e3a afbd
00000070: bd3a a03d 8618 87be aabd 6a3d 93fc e2bd
00000080: c549 513d 9d67 0ebe 5650 843d 9012 193e
00000090: 93bc 93bd 5230 f13d c039 643d 92ac 5bbe
000000a0: e34d 543d f797 62be 4c7c f23d e62c 643d
000000b0: ff09 c3bd 9246 fc3d 9430 093e 456b adbd
000000c0: c09e c03d 0f22 27be 23f4 4abe b573 19bd
000000d0: 057f 503d 9175 89bd 49aa d0bd 6c02 aabd
000000e0: 5f1d bf3d 278a c9bd ade4 4bbe 14d2 fbbd
000000f0: 6d3a 2bbd 640a 9a3d 698a 473d 24bd 453d
00000100: 7577 bbbd f74a 94bd a82f 8dbd c94e 803d
00000110: be28 1cbe f3f6 933d f64e 6abd a1ff 6cbe
00000120: ca25 043e 1bf8 563d 440b 533d 17ca 773d
00000130: 05de 0a3d e0c8 41bd e464 653d a69b 133e
00000140: bb00 8b3d 56a0 693d 1099 e3bd 2a88 583d
00000150: 1738 813d 5f5d 313d fecd 36bd 76b8 aa3d
00000160: d34d 893d eba1 6a3d 077f 9d3d 29a4 5a3d
00000170: e827 4bbe f8ab b73d cf7c 803d 4bef 443d
00000180: f93f 31bd f5f5 79bd 4a3c dc3d 7bed 13be
00000190: 8fee 39be 6ff5 933d 1088 32be d1af 533d
000001a0: 0229 8d3d 037f abbd 84c7 af3d 613c 90bd
000001b0: ad1c 9a3d a84b a5bd b5ab 0f3d de9e b5bd
000001c0: e987 d3bd 6b41 57bd 5930 a23d 0478 c4bd
000001d0: 5906 0ebe e259 fb3d be26 8c3d 91d4 543c
000001e0: c984 10be e4f1 4ebd 477d a93d a45f 5e3d
000001f0: 3f07 f7bd 87d1 06be 08d5 7f3d d72d 913d
0.08384357 -0.1720389 0.1676939 -0.049247786 0.061783466 0.07123543 0.078920744 0.08999698
0.05461251 -0.16381763 0.045111038 0.13404213 0.08325999 -0.017352644 -0.2297326 -0.098652594
0.06799101 -0.09916333 0.04019287 0.18286361 0.06352822 0.088976525 -0.1074965 -0.10069631
0.070140556 -0.075108156 0.107971564 -0.0855609 0.078237034 -0.26385897 0.057309784 -0.11083331
0.051095743 -0.13906713 0.06460635 0.14948487 -0.07213702 0.117767945 0.055719137 -0.21452549
0.05183209 -0.22128282 0.11840114 0.05570688 -0.09523391 0.12318148 0.13397437 -0.08467726
0.09405279 -0.16321586 -0.19819693 -0.037463862 0.050902385 -0.06711877 -0.10188729 -0.08301243
0.09331774 -0.098408036 -0.19911452 -0.122959286 -0.041803766 0.07521513 0.048715983 0.04827608
-0.09153644 -0.07240861 -0.06893855 0.06265027 -0.15249917 0.07224836 -0.05720421 -0.2314439
0.1290504 0.052482706 0.051524416 0.060495462 0.03390314 -0.04731071 0.05600442 0.14414844
0.06787249 0.057037674 -0.11113179 0.05286423 0.063095264 0.043301936 -0.044630043 0.083359644
0.06704297 0.057283323 0.07690244 0.05337921 -0.19839442 0.08968347 0.06273805 0.04807977
-0.0432739 -0.06102558 0.10753687 -0.1444606 -0.18157409 0.07224547 -0.17434716 0.051681343
0.06892587 -0.08373835 0.085829765 -0.07042766 0.07525001 -0.08071071 0.035075862 -0.08868192
-0.10328657 -0.05255262 0.07919378 -0.09593204 -0.13869609 0.12273003 0.06843327 0.012990133
-0.14113154 -0.050523654 0.08275848 0.05429043 -0.12061929 -0.13165866 0.06245902 0.070888214
