savedmodels/checkpoint_1545158393_actor_episode133_score35.536.pth (torch_old, 169478 bytes, 6 tensors)

fc1.weight f4 [256, 33]
0	0xbc8d9d6d	-0.01728698
1	0xbd4a5431	-0.049396697
2	0xbdc93b6e	-0.098257884
3	0x3d34a24c	0.04410009
4	0xbccdccdc	-0.025122099
5	0x3df9f01a	0.12203999
6	0xbde58689	-0.11207301
7	0xbd50e1e4	-0.050996676
8	0xbc77734f	-0.015103175
9	0xbd89566a	-0.06705935
10	0xbe0432f9	-0.1291007
11	0x3c1baba1	0.009501369
12	0xbd126dcd	-0.035749245
13	0x3dd7edf9	0.105434366
14	0x3e21d49a	0.15803757
15	0x3e1cfee7	0.15331613
16	0xbc33a671	-0.010964976
17	0xbb292dbc	-0.0025814613
18	0xbd68fc16	-0.056881033
19	0xbd3882f5	-0.045046765
20	0xbc80f5d6	-0.015742224
21	0x3d90ef6a	0.070769146
22	0x3e292db3	0.16521339
23	0xbd8c854c	-0.06861362
24	0x3cef20ef	0.029190509
25	0xbcc1b111	-0.023644002
26	0xbd5fbea2	-0.05462516
27	0x3d2e8ce0	0.042614818
28	0xbdfb175d	-0.122603156
29	0x3d012a70	0.031534612
30	0xbc1b1eef	-0.009467824
31	0x3ce90074	0.028442599
32	0xbef9df34	-0.48803103
33	0xbdfae3f0	-0.12250507
34	0xbdf4162b	-0.11918291
35	0xbd22feef	-0.039793905
36	0x3dcf58f1	0.10124386
37	0x3dceb2ef	0.100927226
38	0x3d66a87b	0.05631302
39	0x3cbff004	0.023429878
40	0x3c69c246	0.01426751
41	0x3d49d633	0.049276542
42	0xbc846073	-0.016159272
43	0xbdcb4684	-0.09925559
44	0x3e1159dc	0.14194435
45	0x3dd0f2da	0.1020257
46	0x3b806852	0.003918686
47	0x3dbd4818	0.092422664
48	0xbdcbe65a	-0.099560454
49	0x3d98ab1a	0.0745451
50	0x3d0d311c	0.034470662
51	0xbd5f8cb0	-0.05457753
52	0xbbcb360d	-0.0062015117
53	0xbc65c737	-0.014024547
54	0xbd3a9308	-0.045550376
55	0x3c4e4603	0.012589934
56	0x3b23ce9b	0.0024994973
57	0x3c156311	0.009117858
58	0x3d059d41	0.032620672
59	0xbdb449f3	-0.08803167
60	0xbc8bd684	-0.017070062
61	0x3e3cfab9	0.18455018
62	0xbd715bca	-0.058925427
63	0x3ceb3c27	0.028715206
64	0x3d544e1a	0.051832296
65	0xbe77495f	-0.24149083
66	0xbdf03b8c	-0.11730108
67	0xbd2a60aa	-0.041596092
68	0xbcb590b9	-0.022163736
69	0x3dd80261	0.10547329
70	0x3d9d1317	0.07669657
71	0xbd7f99e0	-0.062402606
72	0x3d3ef2c9	0.046618257
73	0xbd97de30	-0.07415426
74	0x3cef9035	0.029243568
75	0xbd441e1d	-0.04788028
76	0xbd3718c7	-0.044701364
77	0x3c542f6c	0.012950759
78	0x3d29cb12	0.04145343
79	0xbd74041c	-0.05957423
80	0x3d40d028	0.047073513
81	0x3c1b4bb8	0.009478502
82	0x3dab7aa6	0.08373003
83	0x3cbb1f5c	0.022842102
84	0x3c08dbce	0.008353187
85	0x3cdc0244	0.02685655
86	0xbd4297a7	-0.04750791
87	0x3d5bba7d	0.053644646
88	0x3dc4762e	0.095928535
89	0xbe000040	-0.12500095
90	0x3c17a3a4	0.009255324
91	0xbc84948a	-0.01618411
92	0xbe140f62	-0.14458993
93	0xbd5e1ead	-0.054228473
94	0xbd25b604	-0.040456787
95	0x3d064128	0.03277698
96	0xbc03f704	-0.008054499
97	0xbd12a17c	-0.035798535
98	0xbe31e7c3	-0.17373566
99	0x3c74c4a0	0.014939457
100	0xbc4354e1	-0.011922092
101	0x3ccb61fb	0.024826994
102	0xbd903575	-0.07041446
103	0x3cd85211	0.02640632
104	0x3d8bd91c	0.0682852
105	0x3dbe7299	0.092992015
106	0xbdb06a22	-0.08613993
107	0xbda08a6a	-0.078389004
108	0xbccf6b3a	-0.025319684
109	0xbcba63d5	-0.022752682
110	0xbdbf1908	-0.09330946
111	0x3d2fd67c	0.042929158
112	0xbd158365	-0.03650226
113	0xbe2fe217	-0.1717609
114	0x3d07124a	0.032976426
115	0x3d676ee0	0.056502223
116	0x3d6b46e7	0.057440665
117	0x3d10297c	0.035195813
118	0x38ca178c	9.6364965e-05
119	0xbe692990	-0.22769761
120	0x3d62acef	0.055340704
121	0xbd3f99a2	-0.046777375
122	0xbc8e91e0	-0.017403543
123	0xbd848c15	-0.06472031
124	0xbd95e1ce	-0.073184595
125	0x3e2e984b	0.17050283
126	0x3d15edc6	0.03660371
127	0xbd2a2b36	-0.041545115
128	0xbd63518c	-0.05549769
129	0xbbe5ccb5	-0.0070129284
130	0xbd34cd38	-0.044141024
131	0x3e24e09a	0.16101304
132	0x3d07d6d6	0.033163868
133	0xbd96e295	-0.07367436
134	0x3d44dce7	0.04806223
135	0xbb152f17	-0.0022763663
136	0x3d9c7ee4	0.0764139
137	0xbdb5a354	-0.08869043
138	0x3df3d8d8	0.11906594
139	0xbcbb4179	-0.022858368
140	0xbd2f5469	-0.04280511
141	0x3d4753c9	0.048663888
142	0xbd11cb80	-0.035594463
143	0xbdc10fdf	-0.09426855
144	0xbba1d7e0	-0.0049390644
145	0xbc8dcba8	-0.017309025
146	0x3df6b894	0.12046924
147	0xbd2369ad	-0.039895702
148	0x3c018e4a	0.0079074595
149	0xbbd9b2ff	-0.0066436525
150	0x3e1d6135	0.15369113
151	0x3cac4982	0.021031145
152	0xbd05911f	-0.0326091
153	0x3d035e2c	0.03207223
154	0xbca903e4	-0.020631738
155	0x3ca67eb0	0.020324081
156	0x3dc9e808	0.098587096
157	0xbe11c2ea	-0.1423451
158	0x3df6c124	0.120485574
159	0xbe45164e	-0.1924679
160	0x3c4925a5	0.012277042
161	0x3c374fb8	0.01118844
162	0x3e51027e	0.20411107
163	0x3d74a828	0.05973068
164	0xbeee0edc	-0.46495712
165	0x3d1837fc	0.037162766
166	0x3e076db5	0.13225444
167	0xbe7b2524	-0.24525887
168	0xbcd8523d	-0.026406402
169	0x3dc60e5a	0.09670706
170	0x3aacd20d	0.0013185159
171	0xbdfcff33	-0.12353363
172	0x3ded2939	0.11580128
173	0x3c143e3b	0.00904804
174	0x3ccaf860	0.024776638
175	0x3cb56495	0.022142688
176	0xbd1cb6dd	-0.03826033
177	0xbdea8d4d	-0.11452732
178	0xbca96e03	-0.02068234
179	0xbe015722	-0.12630895
180	0x3d6f9665	0.058493037
181	0xbcf30d2e	-0.02966937
182	0xbd305e31	-0.043058578
183	0xbd8087e0	-0.06275916
184	0xbd7b8d25	-0.061413903
185	0xbe12d564	-0.14339215
186	0xbda8b23c	-0.082371205
187	0xbcb7acff	-0.022421358
188	0x3b6eb7b6	0.0036425418
189	0xbd3142a9	-0.043276463
190	0x3dadca75	0.08485881
191	0xbdf13479	-0.117775865
192	0x3d299417	0.041400995
193	0x3dfc91cd	0.12332497
194	0x3cbf8ce8	0.023382619
195	0xbd4f27b5	-0.050574977
196	0x3c824cb4	0.015905716
197	0x3e23fbf3	0.1601408
198	0xbd77606f	-0.0603947
199	0x3d2eed99	0.04270706
200	0x3c516519	0.012780451
201	0x3ce38d9e	0.02777749
202	0x3da1066a	0.078625515
203	0x3d856314	0.06513038
204	0x3e1c78b2	0.15280417
205	0xbc8ece75	-0.01743243
206	0x3cc9eeae	0.024649944
207	0x3d5a75e1	0.053335074
208	0x3d827428	0.06369811
209	0xbcfd8b89	-0.030950325
210	0xbd15921c	-0.036516294
211	0xbda71ce2	-0.08159806
212	0x3de9f23a	0.11423154
213	0xbdf79908	-0.12089735
214	0x3dd6bd74	0.10485354
215	0x3dfaeff5	0.122527994
216	0x3dcfb3ac	0.101416916
217	0x3cd80ab7	0.026372297
218	0x3df6d88e	0.12053023
219	0xbcf97818	-0.030452773
220	0xbd897e98	-0.06713599
221	0x3d7914d6	0.060810886
222	0x3d01b20e	0.031663947
223	0xbe3e9767	-0.18612443
224	0x3d8edc2a	0.06975587
225	0x3cc6a531	0.024248691
226	0xbcb0bf75	-0.021575669
227	0x3d22ba90	0.0397287
228	0xbda5cf9b	-0.08096238
229	0x3c468038	0.012115531
230	0xbe614212	-0.2199786
231	0x3c2be9da	0.010492766
232	0x3db0003f	0.08593797
233	0x3c2f725a	0.010708416
234	0x3d2725d3	0.040807556
235	0xbc17c336	-0.0092628505
236	0xbda7b4d4	-0.08188787
237	0x39abeab2	0.00032790523
238	0x3d9c84f4	0.07642546
239	0xbdadf2c9	-0.08493573
240	0xbc09adf7	-0.008403293
241	0x3d83e7d1	0.064407
242	0xbc0df01f	-0.008663206
243	0xbbdbbfb3	-0.006706202
244	0x3e5e1bbf	0.21690272
245	0xbd0195a5	-0.031636853
246	0xbdc10ca0	-0.09426236
247	0x3d261b16	0.040553175
248	0x3b720552	0.003692944
249	0x3c2938d8	0.010328494
250	0x3d846f4b	0.0646654
251	0xbd183ea0	-0.0371691
252	0xbdaf1655	-0.08549181
253	0xbcff0198	-0.03112869
254	0x3e1d92ab	0.1538798
255	0x3ca2ba6b	0.019864282

fc1.bias f4 [256]
0	0x3d9cff2e	0.07665859
1	0x3e503498	0.20332563
2	0x3a233be2	0.000622688
3	0x3dd04cc2	0.101708904
4	0x3e1949af	0.14969514
5	0xbe59053a	-0.211934
6	0xbe3fc531	-0.18727566
7	0xbddd36c0	-0.10801458
8	0x3d4d4a81	0.05011988
9	0x3da30886	0.0796061
10	0xbde00aeb	-0.109395824
11	0x3d5d8994	0.054086283
12	0xbc107d69	-0.008818963
13	0x3d2de87a	0.042458035
14	0x3e2d26fb	0.16909401
15	0x3d418c7b	0.047253113
16	0xbe0c8f00	-0.13726425
17	0xbc8ad61c	-0.016947798
18	0x3e3d492b	0.18484943
19	0xbd8549cc	-0.06508216
20	0x3c4d2a31	0.012522266
21	0x3e03caae	0.12870285
22	0xbd578fd7	-0.05262741
23	0xbc65e059	-0.014030539
24	0x3dddfdf6	0.10839455
25	0xbd9518e8	-0.07280141
26	0x3d0890af	0.033341106
27	0x3d6f506d	0.05842631
28	0x3d140fdf	0.03614795
29	0x3e0cb3c1	0.13740446
30	0x3dd6c7ed	0.104873516
31	0xbdfb5f34	-0.12274018
32	0xbe3f8b67	-0.18705522
33	0x3d1c7f6c	0.038207456
34	0xbd2db6a5	-0.04241051
35	0xbd231803	-0.03981782
36	0x3e3da565	0.18520124
37	0x3dca5ec8	0.09881359
38	0xbd119827	-0.035545494
39	0x3e3403c5	0.17579563
40	0x3c1f31bb	0.0097164465
41	0xbd741e1f	-0.05959904
42	0xbcbae8a1	-0.022816004
43	0xbd83867a	-0.06422134
44	0xbdfd3af6	-0.123647615
45	0xbd35d121	-0.044388894
46	0x3e306616	0.17226443
47	0x3dbaae43	0.09115269
48	0x3e34fe1a	0.17675057
49	0xbdddc24f	-0.10828077
50	0xbdabcb0d	-0.08388338
51	0x3e36abe1	0.17839004
52	0xbd85d60f	-0.06534969
53	0xbd5af345	-0.053454656
54	0xbdfdd372	-0.123938456
55	0x3e27df56	0.1639379
56	0xbd899b0d	-0.06719027
57	0x3da1376f	0.07871901
58	0x3d51dc0b	0.05123524
59	0xbbb9a433	-0.005665326
60	0xbdbeb9db	-0.09312793
61	0x3e0c55f6	0.13704666
62	0xbd88958c	-0.06669149
63	0x3b574831	0.0032849426
64	0xbde20b83	-0.11037352
65	0x3c5d26bd	0.013498005
66	0x3e110603	0.1416245
67	0x3e313c85	0.17308243
68	0x3cefe8d7	0.029285831
69	0xbc8496da	-0.016185213
70	0x3de3b211	0.11117948
71	0x3df1dc72	0.11809625
72	0xbd4826d5	-0.048865158
73	0xbd4f3c46	-0.05059459
74	0x3d89898a	0.067156866
75	0x3e3194ac	0.1734187
76	0x3ce98d6b	0.028509816
77	0x3d4a842d	0.04944246
78	0x3e625f7a	0.22106734
79	0xbdce3dd4	-0.100703865
80	0x3c8c55cb	0.017130753
81	0x3df8e51a	0.12153073
82	0x3d013eba	0.03155396
83	0xbc0a7794	-0.008451361
84	0x3e1cdfe2	0.1531978
85	0xbe0986b3	-0.1343029
86	0x3da4007d	0.08007906
87	0x3d454542	0.048161753
88	0x3e3eebae	0.18644592
89	0x3d9358ef	0.07194697
90	0x3e1fb3d6	0.15595946
91	0xbcee5829	-0.029094772
92	0x3d3b895a	0.045785286
93	0xbd7f76bc	-0.062369093
94	0xbe4b3cdb	-0.19847433
95	0x3de5f5a8	0.11228496
96	0x3e04db6f	0.12974332
97	0xbca56bd2	-0.020193014
98	0x3dacc9e7	0.08436947
99	0x3d003729	0.031302605
100	0x3dadca7c	0.084858865
101	0xbe1e082d	-0.15432806
102	0x3dbd94d3	0.092569016
103	0xbd7dabad	-0.0619313
104	0xbe0d053f	-0.13771532
105	0x3e5a1c5a	0.21299878
106	0xbcfa8c02	-0.030584339
107	0x3c0fea10	0.008783832
108	0xbc23f85e	-0.010007946
109	0xbe080022	-0.132813
110	0x3e3d35bb	0.18477528
111	0x3dda1222	0.1064799
112	0xbd1f1e47	-0.038847234
113	0xbc91007d	-0.017700428
114	0x3d08a0c6	0.03335645
115	0xbd151519	-0.036397073
116	0x3d4d42f9	0.0501127
117	0xbe126f3d	-0.14300247
118	0xbd254a8d	-0.0403543
119	0xbcfc5817	-0.030803723
120	0x3e1f0cec	0.15532273
121	0x3c430013	0.011901873
122	0x3e20b436	0.15693745
123	0xbd88bbf0	-0.06676471
124	0xbe185351	-0.14875533
125	0x3e0a70cb	0.1351959
126	0x3dcfa78a	0.101393774
127	0x3d3f0d02	0.046643265
128	0x3a3075b9	0.0006731409
129	0x3e36adc1	0.1783972
130	0xbd9afa5c	-0.075672835
131	0xbe36a23c	-0.17835325
132	0x3df50e44	0.119656116
133	0x3e3edb49	0.18638338
134	0x3db56773	0.08857622
135	0xbc9b60ba	-0.018967021
136	0xbe1348e4	-0.14383274
137	0x3d12e569	0.035863314
138	0xbe56ca56	-0.20975623
139	0xbe19d955	-0.15024312
140	0x3e2a4c50	0.16630673
141	0xbe102384	-0.14076048
142	0xbe10293f	-0.14078234
143	0xbd2fa5b5	-0.04288264
144	0x3de49ae9	0.11162359
145	0xbdf02067	-0.1172493
146	0x3d5a215e	0.053254478
147	0xbb48bf69	-0.0030631667
148	0x3d8073c4	0.062720805
149	0x3e1ae651	0.15126921
150	0x3db10a30	0.08644521
151	0x3be04a85	0.006844821
152	0x3bde92da	0.0067924084
153	0x3e127390	0.14301896
154	0x3e1f052d	0.15529318
155	0xbd1e0200	-0.038576126
156	0x3da978ed	0.08275018
157	0x3c7a7d7c	0.015288707
158	0x3db08286	0.08618645
159	0xbe533a18	-0.2062763
160	0x3baa834b	0.0052036396
161	0xbe02b776	-0.12765297
162	0xbda9a8d1	-0.08284152
163	0xbe7eabde	-0.2487025
164	0x3d85e43f	0.06537675
165	0xbda9e73d	-0.08296058
166	0x3d0e9da4	0.034818307
167	0xbd2cd342	-0.04219366
168	0x3d670843	0.056404363
169	0x3dc8bc29	0.09801514
170	0xbd6f9bad	-0.058498073
171	0x3e03adef	0.12859319
172	0x3e90e69b	0.28300938
173	0x3df35e55	0.11883227
174	0x3dc22a28	0.09480697
175	0x3e12147b	0.14265625
176	0x3e5a2620	0.21303606
177	0xbd060923	-0.032723557
178	0x3e2d7554	0.16939288
179	0xbdd1c8a7	-0.102433495
180	0xbb6e5a67	-0.0036369802
181	0x3e19dcf9	0.150257
182	0xbd49b5d6	-0.049245678
183	0x3d48b2fd	0.04899882
184	0x3d264ff6	0.0406036
185	0x3e2f5fd1	0.17126395
186	0xbcab3865	-0.020900914
187	0xbce371c0	-0.027764201
188	0x3e04e095	0.12976296
189	0x3d6d0c04	0.057872787
190	0xbd388c88	-0.045055896
191	0x3ddc3050	0.107514024
192	0x3df5d0e3	0.120027326
193	0x3e278ab8	0.16361511
194	0x3e40bc3d	0.18821807
195	0x3ca7f8ea	0.020504434
196	0xbd8c6b95	-0.06856457
197	0xbb19136e	-0.0023357528
198	0x3d824a50	0.0636183
199	0xbb3ce255	-0.0028821428
200	0xbbb09f74	-0.005390102
201	0x3dc6a3fc	0.09699246
202	0x3cfe9c81	0.031080486
203	0xbd08f843	-0.033439886
204	0xbc9217fa	-0.017833699
205	0x3ca86086	0.020553838
206	0x3e102c10	0.14079309
207	0x3b0e8962	0.0021749367
208	0xbd95b206	-0.07309346
209	0xbca26fae	-0.019828644
210	0x3e4656f6	0.1936911
211	0x3dc0bda1	0.09411169
212	0x3e1df72e	0.15426323
213	0x3d7d711d	0.06187545
214	0x3cc18a07	0.023625387
215	0x3d15111a	0.036393262
216	0x3dbf1092	0.093293324
217	0x3d5e43df	0.054263946
218	0x3e0cd8b7	0.13754545
219	0x3e0de0b4	0.13855249
220	0x3dc8a3af	0.09796845
221	0xbdc3e67c	-0.09565446
222	0xbd033d39	-0.03204081
223	0xbe73c34b	-0.23804967
224	0x3e281753	0.16415147
225	0xbda2f58e	-0.07956992
226	0xbd98bbd5	-0.07457701
227	0xbcebca22	-0.028782908
228	0x3d0fdd0d	0.03512292
229	0x3b90a2a3	0.004413919
230	0xbe03807e	-0.12841985
231	0x3d7b85bf	0.061406847
232	0xbe4174c8	-0.18892205
233	0xbe59eec6	-0.21282491
234	0x3e14e1f3	0.14539318
235	0xbcd19afe	-0.025586601
236	0x3d611d0f	0.054959353
237	0xbc95805b	-0.018249681
238	0x3d862092	0.06549181
239	0xbdeb3c4b	-0.11486109
240	0xbd27bed2	-0.040953465
241	0xbe1a39a6	-0.15061054
242	0x3dc175a7	0.094462685
243	0x3cae02af	0.021241514
244	0x3de4b21a	0.11166783
245	0x3db4d576	0.08829777
246	0x3bedeaa8	0.007260639
247	0x3d66779a	0.056266405
248	0x3e1ff19d	0.15619512
249	0xbd813ca4	-0.063103944
250	0x3e6b06f4	0.22951871
251	0xbd80ccd3	-0.06289067
252	0x3d8e7c48	0.069572985
253	0xbd44f59a	-0.048085786
254	0x3dbcf104	0.092256576
255	0x3dc10622	0.09424998

fc2.weight f4 [128, 256]
0	0xbdfc400b	-0.12316903
1	0x3dfae70f	0.12251102
2	0xbcb27e7d	-0.02178883
3	0xbc3035f5	-0.010755052
4	0xbe33d237	-0.1756066
5	0xbdce9b70	-0.10088241
6	0x3dd15148	0.10220581
7	0x3c23e62f	0.0100036105
8	0x3d4cd4bb	0.050007563
9	0x3e32ecfb	0.17473213
10	0x3e19848a	0.14991966
11	0x3e0518ab	0.12997691
12	0x3e27f1c3	0.16400819
13	0x3bff4479	0.007790145
14	0xbe751aeb	-0.2393605
15	0x3c2f7c0b	0.0107107265
16	0x3d842f3d	0.064543225
17	0xbd103eb3	-0.035216045
18	0xbd62fd8a	-0.055417575
19	0x3bf6e6ad	0.007534823
20	0x3e02ae17	0.12761723
21	0x3d89c521	0.067270525
22	0x3d8a709a	0.06759758
23	0x3e527c77	0.20555292
24	0xbe658ff9	-0.22418202
25	0xbdf74f86	-0.12075715
26	0xbad7537c	-0.0016428079
27	0xbe64365d	-0.22286363
28	0xbd843a57	-0.0645644
29	0x3dfbd125	0.122957505
30	0xbd1bf1e5	-0.038072485
31	0x3e658ec5	0.22417744
32	0x3e02aafc	0.12760538
33	0x3d18fa7c	0.037348256
34	0xbd0cc205	-0.03436472
35	0xbb99ec82	-0.0046973834
36	0x3d59f018	0.053207487
37	0xbde7dcf1	-0.11321438
38	0xbc4b89fe	-0.012423037
39	0x3db8d6a0	0.090253115
40	0xbe403238	-0.18769157
41	0xbebe3de0	-0.37156582
42	0x3d1a56eb	0.037680548
43	0x3d069ccf	0.032864388
44	0xbcad95dd	-0.021189624
45	0x3dbe19bb	0.092822514
46	0x3be7f573	0.0070788204
47	0x3d8f09a6	0.06984262
48	0x3b7812b6	0.003785295
49	0x3d7ab77f	0.06121015
50	0x3d98b942	0.0745721
51	0x3b3fb8c5	0.0029254418
52	0xbe2af007	-0.16693126
53	0xbda9dc84	-0.08294013
54	0x3d27059a	0.040776826
55	0x3e51c9f1	0.20487191
56	0xbdc94785	-0.098280944
57	0xbdf7eb0c	-0.121053785
58	0x3d894c8f	0.067040555
59	0xbcf60675	-0.030032376
60	0xbd7cf320	-0.0617553
61	0x3e27db9f	0.16392373
62	0x3d2ecd0d	0.04267602
63	0x3d600e9c	0.054701433
64	0x3e54ca39	0.20780267
65	0xbe03a67f	-0.12856482
66	0x3ddfe460	0.10932231
67	0x3dbff87c	0.093735665
68	0x3d5e1150	0.05421573
69	0xbcda4040	-0.026641965
70	0x3db5ec89	0.08883006
71	0x3d8b8dd1	0.06814159
72	0x3cfd1dba	0.030897964
73	0x3e6f8e33	0.23394088
74	0xbd48793e	-0.04894375
75	0x3deac342	0.11463024
76	0xbdacb457	-0.084328346
77	0x3dcd71a5	0.100314416
78	0x3dac142f	0.08402287
79	0x3de461d9	0.111514755
80	0xbe5af415	-0.21382172
81	0x3af58726	0.0018732294
82	0x3deff1de	0.117160544
83	0x3dbeca44	0.09315923
84	0xbc4a10ec	-0.012333136
85	0x3cd2a372	0.025712702
86	0xbcc67346	-0.024224889
87	0x3e2e1b09	0.170025
88	0xbba75f71	-0.005107813
89	0xbe0f657a	-0.14003554
90	0x3d1b48fe	0.037911408
91	0x3d374a90	0.044748843
92	0x3d0df8bb	0.034661036
93	0x3c35cd81	0.011096359
94	0xbe0706c7	-0.13186179
95	0xbd9dda7a	-0.07707687
96	0x3c44f216	0.012020608
97	0x3d84e1a5	0.06488351
98	0x3d677764	0.056510344
99	0x3d43826e	0.04773181
100	0xbce13b45	-0.027494082
101	0x3d8e850d	0.06958971
102	0x3ba682dc	0.0050815176
103	0x3d462073	0.04837079
104	0x3dcbacda	0.09945078
105	0x3de4a253	0.111637734
106	0x3db28ef7	0.08718675
107	0x3e28b5d8	0.16475618
108	0x3d212ba3	0.039348256
109	0x3dead011	0.11465467
110	0x3cb59f77	0.022170765
111	0x3df577df	0.11985754
112	0xbd011c6f	-0.031521257
113	0x3df33754	0.118757874
114	0x3d4ca173	0.049958657
115	0x3892e1bc	7.003869e-05
116	0x3e05730e	0.13032171
117	0x3d2cec54	0.042217568
118	0xbc962d86	-0.018332254
119	0x3bdabfc2	0.0066756913
120	0x3d5eed01	0.054425243
121	0x3db691c2	0.0891452
122	0xbdc43b84	-0.09581664
123	0xbb92811f	-0.004470959
124	0xbdafbccd	-0.08580933
125	0x3d0d6c6a	0.03452722
126	0x3cd0decf	0.025496868
127	0x3e48eb96	0.19621119
128	0xbdc54b51	-0.09633506
129	0xbd47fcf9	-0.048825238
130	0x3ad9df6d	0.0016622372
131	0x3db09cc3	0.0862365
132	0x3d5af3c4	0.05345513
133	0xbdcf161b	-0.10111638
134	0xbddeea76	-0.108845636
135	0x3e277bd1	0.16355826
136	0x3e3ea802	0.18618777
137	0x3e894517	0.26810524
138	0x3d8abaaf	0.06773888
139	0x3e0bdab3	0.13657646
140	0xbc904234	-0.017609693
141	0x3dc11cb8	0.09429306
142	0x3d8d022b	0.06885179
143	0xbbc1413c	-0.005897669
144	0x3dc7422a	0.09729417
145	0xbe55bcad	-0.20872755
146	0xbdd48289	-0.1037646
147	0xbdda6a7d	-0.10664842
148	0xbcf69252	-0.030099068
149	0x3db7a332	0.08966674
150	0xbdbda0cf	-0.092591874
151	0xbcb4984d	-0.022045279
152	0xbe42dbdc	-0.19029182
153	0x3e4cac09	0.19987501
154	0x3d076b39	0.03306124
155	0x3b157cb5	0.0022809927
156	0xbd5ca8c9	-0.053871904
157	0x3e372a2f	0.17887186
158	0xbcbb789e	-0.022884663
159	0x3e176f58	0.14788568
160	0xbded5f7d	-0.115904786
161	0xbd45420d	-0.048158694
162	0xbc971db8	-0.018446788
163	0x3e9f7b0b	0.31148562
164	0xbda759f2	-0.081714526
165	0x3e71916d	0.23590632
166	0xbd5e03d6	-0.054202877
167	0x3d3dc19a	0.04632721
168	0xbd85d338	-0.065344274
169	0xbd807c1f	-0.06273674
170	0xbe1c0f90	-0.15240312
171	0x3d52dbcf	0.051479157
172	0x3db49a73	0.08818521
173	0xbe112168	-0.141729
174	0x3d7e51d2	0.06208975
175	0x3d7936d1	0.060843293
176	0x3e063055	0.13104375
177	0x3df7f376	0.12106983
178	0x3e5e13f6	0.21687302
179	0x3df46282	0.119328514
180	0xbd6cfde6	-0.057859324
181	0x3d89ea3d	0.067341305
182	0xbc76351e	-0.015027313
183	0xbe3fdffe	-0.1873779
184	0xbb4c27a7	-0.0031151564
185	0xbc8f7696	-0.0175126
186	0x3cf06d51	0.029349001
187	0x3d942b9b	0.072348796
188	0xbd816dbf	-0.063197605
189	0xbcd9b104	-0.026573665
190	0x3e1466c2	0.14492324
191	0x3d18fd2a	0.03735081
192	0x3e298ad5	0.16556866
193	0xbcf09abc	-0.029370658
194	0xbd8e0f28	-0.069364846
195	0x3ce0431e	0.027375754
196	0xbd872b7c	-0.06600091
197	0xbdd424b2	-0.103585616
198	0x3e04982d	0.12948675
199	0xbe4e71c0	-0.2016058
200	0xbd9e8535	-0.07740251
201	0x3d341e13	0.043973994
202	0x3d9609f3	0.073261164
203	0x3d5e5b04	0.054286018
204	0x3e651cf1	0.22374322
205	0x3de22f1d	0.110441424
206	0xbd0a903a	-0.03382895
207	0xbe407c5c	-0.1879744
208	0xbe066e55	-0.13128026
209	0xbc56f289	-0.013119348
210	0xbd9a276b	-0.0752705
211	0x3e45f4f3	0.19331722
212	0x3d92a9cd	0.07161293
213	0xbd08cfb4	-0.033401206
214	0xbe8595eb	-0.2609094
215	0x3db5a55d	0.08869431
216	0x3c050c69	0.008120635
217	0x35bf4260	1.4249927e-06
218	0x3cf76b4e	0.030202534
219	0xbd1958ee	-0.037438326
220	0x3d460238	0.04834196
221	0x3e0f184f	0.13974117
222	0xbe098278	-0.13428676
223	0xbb6c2753	-0.0036034181
224	0x3dae23ea	0.08502944
225	0xbe162bc1	-0.14665128
226	0xbce05f39	-0.027389156
227	0x3e08d374	0.13361913
228	0x3d049044	0.032364145
229	0xbcca8942	-0.024723653
230	0x3dcd2787	0.10017305
231	0x3e2af17c	0.16693681
232	0x3dc972b7	0.09836333
233	0x3e43dfde	0.19128367
234	0xbd9f5393	-0.077796124
235	0x3e1d7345	0.15376003
236	0x3d5ebc34	0.054378703
237	0x3bbcba44	0.0057595093
238	0xbdd2cdb4	-0.10293141
239	0x3d8f8101	0.070070274
240	0x3e3c70a4	0.18402344
241	0xbde61070	-0.11233604
242	0xb86eeed2	-5.696604e-05
243	0xbc0d2330	-0.008614346
244	0x3befdc49	0.007319961
245	0xbe02988a	-0.12753502
246	0xbda47552	-0.080301896
247	0xbd88fb7a	-0.0668859
248	0xbc588f41	-0.013217748
249	0xb872fe5a	-5.793418e-05
250	0x3cb55801	0.02213669
251	0x3d44238a	0.047885455
252	0x3d995ca5	0.07488374
253	0x3da77e75	0.08178417
254	0x3e42911b	0.19000666
255	0x3e165d62	0.1468406

fc2.bias f4 [128]
0	0x3d222de4	0.039594546
1	0x3cd46ce8	0.025930837
2	0xbd7a27b3	-0.061073016
3	0x3d2dae6b	0.042402666
4	0xbd61be69	-0.05511323
5	0x3d1d387d	0.03838395
6	0xbcf043ba	-0.02932917
7	0x3c586b9d	0.013209251
8	0xbc3cd5da	-0.011525596
9	0xbbdbcd50	-0.0067078248
10	0x3cc96fd9	0.024589466
11	0xbdaa1ba8	-0.08306056
12	0xbcce620e	-0.02519324
13	0x3c3d92d8	0.011570655
14	0xbd4b43e7	-0.049625304
15	0x3d572c03	0.052532207
16	0x3ced4979	0.028965699
17	0x3d92c258	0.071659744
18	0xbd2a1bde	-0.041530482
19	0xbcdbad76	-0.026816111
20	0xbcdcb8ac	-0.026943527
21	0xbccfa23e	-0.025345918
22	0xbd584810	-0.0528031
23	0xbc077cc2	-0.008269491
24	0xbd137630	-0.036001384
25	0xbcaf6f5d	-0.021415407
26	0xbd56d8c4	-0.052452818
27	0x3d2ffdc2	0.04296661
28	0x3c7abe93	0.0153042255
29	0xbbcdb2ff	-0.0062774415
30	0xba567c98	-0.0008182018
31	0xbcca5a86	-0.024701368
32	0xbd846252	-0.064640656
33	0xbd381a78	-0.044947118
34	0xbd9f9d1b	-0.07793637
35	0xbc1aaf68	-0.009441234
36	0xbd23ea80	-0.04001856
37	0xbcff857f	-0.031191586
38	0xbc90d43a	-0.017679323
39	0xbc2d190b	-0.010565053
40	0x3d21953d	0.039448965
41	0xbc990a5e	-0.018681701
42	0x3d1c77fc	0.038200364
43	0xbd04521f	-0.03230488
44	0xbcc9ed28	-0.024649218
45	0x3d78416c	0.060609266
46	0x3cbd27e9	0.02309032
47	0xbc1ad57a	-0.009450311
48	0x3d43ff5f	0.047850963
49	0x3daca844	0.084305316
50	0x3b854249	0.0040667397
51	0xbd588702	-0.05286313
52	0x3ba3b4f2	0.0049959356
53	0xbcebec75	-0.028799275
54	0xbc8b9a1b	-0.017041257
55	0x3dc33e3e	0.09533356
56	0xbcb0fbf2	-0.021604512
57	0x3bf4f955	0.0074760118
58	0x3da3f1c7	0.080051
59	0xbc56e7a7	-0.013116754
60	0x3c6ac4a9	0.014329114
61	0x3d0b28d5	0.033974487
62	0x3bc49668	0.005999375
63	0x3d9f7afe	0.07787131
64	0xbd8f705f	-0.07003855
65	0x3c86bd84	0.01644779
66	0x3b8945fd	0.0041892515
67	0x3b9ac52b	0.0047232113
68	0x3c796e8d	0.015224111
69	0x3d7df018	0.06199655
70	0x3c63dd96	0.013907811
71	0x3d810eba	0.06301637
72	0x3d046472	0.032322355
73	0x3d7e3fa6	0.06207242
74	0xbc4833b6	-0.01221936
75	0x3d47f05c	0.04881321
76	0xbd805daf	-0.06267869
77	0x3d1f98e2	0.03896416
78	0x3d32168f	0.043478545
79	0x3cd25bf0	0.025678605
80	0xbcc68592	-0.024233613
81	0x3aad9e00	0.001324594
82	0x3d888f70	0.066679835
83	0xbc31ca0c	-0.010851394
84	0xbd052792	-0.03250844
85	0xbd218724	-0.03943552
86	0x3a4cf263	0.0007818101
87	0x3d011909	0.031518016
88	0x3cbf0bef	0.02332112
89	0x3cf45e88	0.029830232
90	0x3d9325dc	0.071849555
91	0x3c63cb22	0.013903411
92	0xbcb02a45	-0.02150453
93	0xbd76d9b4	-0.06026621
94	0xbcf1e26c	-0.029526912
95	0xbaa6be5e	-0.0012721529
96	0x3c7e63d8	0.015526734
97	0x3d72bcf9	0.05926225
98	0x3bc24f79	0.005929884
99	0x3b904b6c	0.0044035222
100	0xbd6fb418	-0.05852136
101	0x3c8e7e76	0.017394286
102	0xbc35a9e5	-0.011087869
103	0xbc2811ea	-0.010258177
104	0x3d28fa85	0.04125454
105	0x3ca03209	0.019555109
106	0xbd5396f6	-0.05165764
107	0x3d999b60	0.075003386
108	0x3d6942c7	0.05694845
109	0x37c604f5	2.3605748e-05
110	0xbc90abf6	-0.017660122
111	0xbd2f3c50	-0.042782128
112	0x3da3b825	0.07994107
113	0xbce1e402	-0.027574543
114	0x3d962e40	0.0733304
115	0x3c15d649	0.009145328
116	0x3dbaa70c	0.09113893
117	0x3c94c02c	0.018158041
118	0x3c4f999b	0.0126709
119	0x3c42b41a	0.01188376
120	0xbda0f1e0	-0.07858634
121	0x3d110b6c	0.035411283
122	0xbc72f4c9	-0.014828869
123	0x3d5b4d6a	0.053540625
124	0xbd296f59	-0.041365955
125	0xbda35a66	-0.079762265
126	0xbd315844	-0.043297067
127	0xbd2d9b2d	-0.042384315

fc3.weight f4 [4, 128]
0	0x3e89bdd4	0.2690264
1	0xbe856952	-0.26056916
2	0xbe460f49	-0.19341768
3	0x3db5b3fe	0.088722214
4	0xbea8cf03	-0.32970437
5	0xbded80bb	-0.11596819
6	0x3e177f07	0.14794551
7	0x3e7ba863	0.24575953
8	0x3d0b83ae	0.034061126
9	0xbec9ca05	-0.3941194
10	0x3df25c11	0.118339665
11	0x3e8b3318	0.2718742
12	0x3e100e42	0.14067939
13	0x3f22bee0	0.635725
14	0x3cb683a3	0.022279566
15	0x3f0588b0	0.52161694
16	0xbc7bb89d	-0.015363839
17	0x3d98c024	0.07458523
18	0x3e84a268	0.25905156
19	0x3dbe8279	0.093022294
20	0x3e94f1a2	0.290906
21	0x3e33f8ec	0.17575425
22	0xbdb936be	-0.09043644
23	0xbdb6a53b	-0.08918234
24	0x3d5866c0	0.052832365
25	0x3ca48def	0.02008721
26	0xbd83446d	-0.064095356
27	0x3c91ca14	0.017796554
28	0xbe354d14	-0.17705184
29	0x3e8b5391	0.27212194
30	0x3d8f0003	0.06982424
31	0x3dad444c	0.08460292
32	0xbcbf2654	-0.023333706
33	0x3ed89f8b	0.42309222
34	0x3ea66b4d	0.3250374
35	0xbda5780f	-0.0807954
36	0xbe3b8533	-0.1831253
37	0xbe8f23b6	-0.27956933
38	0xbd9fa578	-0.077952325
39	0x3df66a6e	0.120320186
40	0xbe786782	-0.24258235
41	0xbeaef49f	-0.34171006
42	0xbe07465e	-0.13210437
43	0xbe4d16a9	-0.20028175
44	0x3ec16c42	0.37777907
45	0xbcde9e11	-0.027174981
46	0x3caa463f	0.02078545
47	0xbd9f0ebe	-0.07766484
48	0xbbdda231	-0.0067637195
49	0xbf070b84	-0.52751946
50	0xbe163f8f	-0.14672683
51	0x3f0767ac	0.52892566
52	0xbc59aad5	-0.013285358
53	0xbe8f7cc7	-0.28024885
54	0xbe7208c0	-0.2363615
55	0xbec4693d	-0.3836154
56	0x3f0f92f1	0.5608359
57	0xbe7d382f	-0.24728464
58	0x3c1e715c	0.009670582
59	0xbef01e20	-0.46897984
60	0x3e0ec3d7	0.13941894
61	0xbe125d86	-0.14293489
62	0xbb0d98ae	-0.0021605897
63	0x3e88c61f	0.26713654
64	0x3eff1059	0.4981716
65	0x3de738ba	0.112901166
66	0xbe6dc1ce	-0.23218462
67	0xbde0b1b0	-0.10971391
68	0x3ee89f4a	0.45434028
69	0x3e1e6236	0.15467152
70	0xbe594179	-0.21216382
71	0xbd718b29	-0.058970604
72	0x3c00fe54	0.007873137
73	0x3f019b05	0.50627166
74	0xbb0f5d2b	-0.00218756
75	0x3dbf3a7f	0.09337329
76	0x3ebcfc20	0.36911106
77	0xbe15473d	-0.14577956
78	0xbd19aa20	-0.03751576
79	0xbe8464c1	-0.2585812
80	0xbe43dd60	-0.19127417
81	0x3e797129	0.24359573
82	0x3ee5022c	0.4472822
83	0x3e853084	0.26013577
84	0xbd453484	-0.048145786
85	0x3b60999f	0.0034271253
86	0x3e048415	0.1294101
87	0x3e88a6c7	0.2668974
88	0xbf0e302b	-0.5554225
89	0xbd9d4eee	-0.0768107
90	0x3d9d4b67	0.076803975
91	0xbcc50bd5	-0.024053494
92	0xbdf249f7	-0.11830514
93	0x3c709e91	0.014686243
94	0x3e444449	0.19166674
95	0xbe528e08	-0.20561993
96	0x3ebb2a0c	0.36555517
97	0x3e96ab3e	0.29427522
98	0x3f19713c	0.59938407
99	0x3eb1c5d9	0.34721258
100	0x3e6fb611	0.23409297
101	0xbe83b34f	-0.2572274
102	0xbe2bcfa4	-0.16778427
103	0xbe639718	-0.22225606
104	0xbe067433	-0.13130264
105	0xbe038988	-0.12845433
106	0x3da15f7d	0.07879541
107	0x3ddbca33	0.10731926
108	0x3e83ba0b	0.25727877
109	0x3d8f5a65	0.06999663
110	0xbce6a4a2	-0.028154675
111	0x3e2e534d	0.17023964
112	0x3e8966ca	0.26836234
113	0xbda31b28	-0.07964164
114	0xbe89bf0e	-0.26903576
115	0x3df4ad51	0.1194712
116	0x3e92c209	0.28663662
117	0x3bdc51f9	0.006723639
118	0x3f096a8e	0.53678215
119	0x3e28fe51	0.16503264
120	0xbe1fd2f0	-0.1560781
121	0x3ecf883f	0.40533635
122	0xbe4f6a57	-0.20255409
123	0xbeab0eae	-0.33409637
124	0xbe95d891	-0.2926679
125	0xbe1a7c40	-0.1508646
126	0x3d9087c4	0.07057145
127	0xbe2d3ea9	-0.16918434
128	0xbc68098f	-0.014162435
129	0xbee9e187	-0.45679876
130	0xbe0e7203	-0.1391068
131	0x3df1c0d7	0.118043594
132	0x3deaca1a	0.11464329
133	0x3db6d7d6	0.08927886
134	0x3dcf0bae	0.101096496
135	0xbe270d8a	-0.16313758
136	0x3e553b7e	0.20823476
137	0xbdc7b8f5	-0.09752075
138	0xbe109f04	-0.1412316
139	0x3df6dad7	0.12053459
140	0xbd905b4c	-0.070486635
141	0xbbf66d1b	-0.0075203306
142	0x3eaf67df	0.34258935
143	0xbc10e8a1	-0.008844526
144	0xbd050461	-0.03247488
145	0xbe07bdc5	-0.13255985
146	0x3f2de7c2	0.6793176
147	0xbdc0e447	-0.094185404
148	0xbe7bc801	-0.24588014
149	0xbda117be	-0.078658566
150	0xbe248083	-0.16064648
151	0x3d2f2a08	0.042764693
152	0x3e8652b9	0.26234987
153	0xbe002620	-0.12514544
154	0x3dd22653	0.10261216
155	0x3e7dc0e1	0.24780609
156	0xbd919bdd	-0.07109807
157	0xbeb3ebcf	-0.35140845
158	0xbe328188	-0.17432225
159	0xbe12d6b0	-0.1433971
160	0x3ce7c838	0.028293714
161	0x3d3627b4	0.044471458
162	0xbd95f285	-0.073216476
163	0x3e2ab430	0.16670299
164	0x3e29f9f5	0.16599257
165	0x3d6c5b94	0.057704523
166	0xbd1d368a	-0.03838209
167	0xbd6d9683	-0.058004867
168	0xbcdc0c38	-0.026861295
169	0x3d9c2f3f	0.07626199
170	0xbe69df87	-0.22839175
171	0xbbec23c0	-0.00720641
172	0xbe519eaf	-0.20470689
173	0xbe04f5ba	-0.12984362
174	0xbe1eec68	-0.1551987
175	0x3dbe0983	0.09279158
176	0xbef4e97d	-0.47834387
177	0xbde0b768	-0.10972482
178	0x3dc6070a	0.09669311
179	0x3e89ee5b	0.26939663
180	0xbc18d9c0	-0.009329259
181	0xbea19c4d	-0.3156456
182	0xbb0a8dcf	-0.0021141653
183	0xbf4041bb	-0.75100297
184	0xbea34248	-0.31886506
185	0x3cfd4c17	0.030920072
186	0x3e923664	0.28557122
187	0xbc150302	-0.009094955
188	0xbdf83834	-0.12120095
189	0xbdda4d26	-0.10659246
190	0xbe2c384b	-0.16818349
191	0xbd063e07	-0.032773998
192	0x3d050984	0.032479778
193	0x3e596017	0.21228062
194	0xbd2ac7ea	-0.04169456
195	0xbe3c71bd	-0.18402763
196	0xbdd5e199	-0.1044342
197	0xbea18aa5	-0.3155109
198	0xbe0b0656	-0.13576636
199	0x3d367ae4	0.04455079
200	0xbc96f0b8	-0.01842533
201	0xbdb3f505	-0.08786968
202	0xbd4e0419	-0.050296877
203	0x3e377c7d	0.17918582
204	0xbba04e1f	-0.0048921253
205	0x3df8d886	0.121506736
206	0xbed30b6e	-0.41219658
207	0x3e9e0424	0.30862534
208	0x3ea4511a	0.32093126
209	0x3d4457c2	0.047935255
210	0xbde2c756	-0.110731766
211	0xbe4c6ae3	-0.19962649
212	0xbcde592a	-0.027142126
213	0xbe8c7323	-0.27431592
214	0x3d00a80d	0.031410266
215	0xbdf90e50	-0.12160933
216	0x3e385f26	0.18005046
217	0x3d51c3a6	0.051211976
218	0xbdfc98dc	-0.12333843
219	0x3e00d354	0.12580615
220	0x3e274f9f	0.16338967
221	0xbf0f7183	-0.5603258
222	0x3e1c0e04	0.15239722
223	0xbde5f935	-0.11229173
224	0xbd572314	-0.052523687
225	0x3cbda725	0.02315099
226	0xbdc0dbd2	-0.094169274
227	0xbe38e5ca	-0.18056408
228	0xbe26344b	-0.16230886
229	0xbcbe3a92	-0.023221288
230	0xbda8dcd0	-0.08245242
231	0x3e0c1419	0.13679542
232	0x3de89927	0.113573365
233	0xbe46c9de	-0.19412944
234	0x3e90ab7f	0.2825584
235	0x3cb77fe8	0.022399858
236	0x3e0e1da7	0.13878499
237	0xbcc1474c	-0.023593567
238	0xbd5e6b4f	-0.054301556
239	0x3dc36038	0.09539837
240	0xbccd8742	-0.02508891
241	0xbe4c1fb5	-0.1993397
242	0x3e95d0fb	0.29261002
243	0x3c5fba5d	0.013655272
244	0x3e0d797f	0.13815878
245	0xbec57db0	-0.38572454
246	0x3e2131a4	0.15741593
247	0x3e646c22	0.22306874
248	0xbe54cc19	-0.20780982
249	0x3e11405c	0.14184707
250	0xbb419b4a	-0.0029542022
251	0x3e058fd4	0.13043147
252	0x3daef3c1	0.08542586
253	0x3d7d2057	0.06179842
254	0xbe374ecf	-0.17901157
255	0x3df28f5d	0.118437506

fc3.bias f4 [4]
0	0x3d1663b5	0.03671618
1	0xbd9e004b	-0.077149
2	0x3d7f1af0	0.06228155
3	0xbc86adeb	-0.016440352
