savedmodels/checkpoint_1545155274_actor_episode1_score1.137.pth (torch_old, 169478 bytes, 6 tensors)

fc1.weight f4 [256, 33]
0.049813118 0.01038869 -0.063887276 0.08486735 0.028359495 0.028013356 -0.008161921 0.06396457
-0.023163365 0.0073065874 -0.0730737 -0.01710528 -0.015759787 0.076207675 0.100339465 -0.027518868
-0.06152931 -0.026707456 -0.0059462897 0.047938302 0.04742559 -0.0043609706 -0.036596097 -0.06145827
-0.024882713 0.06180526 -0.0040769666 0.0067334054 -0.077863835 0.031534612 0.02641368 0.028442599
-0.004599251 -0.03948297 -0.0021328207 -0.041594498 0.053572685 0.022522505 0.030610217 0.034245912
0.13427106 0.004984251 -0.011105361 -0.11566244 0.05565522 0.06314174 0.05210797 0.05184858
0.004991647 0.06337115 0.00014606793 -0.03931817 0.074023396 0.010344485 0.05745578 -0.10411628
-0.046883497 -0.06753139 0.098221384 0.068106025 0.023506796 0.0075770533 -0.058925427 -0.011861611
0.051832296 0.0023383999 -0.08196616 0.03931822 -0.05214047 0.10460547 -0.00715541 -0.08955119
-0.068793036 -0.038148426 0.056731947 -0.07271759 -0.038883302 -0.09682515 0.057444323 -0.070285544
0.02040247 -0.007055086 0.005898505 -0.04275097 0.033054963 -0.033791535 -0.057544537 -0.06696875
0.021693446 0.016741132 -0.06811194 -0.0069101374 -0.044487968 -0.044940602 -0.10242578 0.03277698
-0.017343454 -0.035798535 -0.039401155 -0.037778057 0.0029430168 0.077900074 -0.031417154 0.0052991384
-0.06737676 -0.0077295923 0.039978456 -0.10720206 0.033046618 -0.004082653 -0.04853745 -0.041415516
-0.06288793 -0.01306557 -0.04316796 0.007086736 0.024527166 0.008715717 -0.01913644 0.0015396564
0.074651584 0.008850582 0.106069475 -0.02458938 -0.013024112 0.0782499 -0.0044421074 0.025957737
-0.05549769 0.03403171 -0.044141024 0.047501806 -0.027667468 0.043100726 0.05677316 0.0013993543
-0.043500915 -0.01637237 0.117923014 -0.00020327474 -0.01851707 -0.006702283 -0.12444185 0.02089212
0.06694521 -0.013838084 0.06676363 0.015782416 0.0028080898 -0.05252582 0.052878257 0.01750641
-0.042375494 -0.008807669 -0.09369905 -0.030101059 0.10327741 -0.009216163 0.011893597 -0.06489284
0.010551966 0.01118844 0.07653569 0.05973068 0.033584293 -0.09918448 0.0026609807 0.01597851
0.029384438 0.058761846 0.044588715 0.025413418 0.10365708 0.017150588 0.06001389 0.05213526
0.016134199 -0.03586897 -0.08951278 -0.06527739 0.100708574 0.003371955 -0.01307852 -0.036768887
-0.024264423 -0.08177037 0.04338204 0.008867306 0.0616197 0.04387679 -0.04272435 -0.052653387
-0.016414931 0.037765924 0.023382619 0.007241217 0.015905716 -0.025614599 -0.096539706 -0.07167493
0.09584588 0.022500971 -0.0616587 0.04096875 0.008139006 0.07197729 -0.055897985 0.0072948537
0.00857945 0.0016104693 -0.032453027 -0.038887434 0.0047492716 0.034644134 -0.018804785 -0.0381642
-0.035570014 0.056737334 0.047513083 -0.025468394 -0.030780511 0.030816391 -0.09854258 0.06544474
0.046105318 -0.030323463 0.080525875 0.0397287 -0.02639059 0.012115531 0.033824135 -0.044302944
-0.021528013 0.006255242 0.022187615 -0.002595392 -0.009674756 -0.06070269 0.097986914 -0.0500958
-0.06983103 0.033835825 -0.09080888 -0.0017815296 0.04536738 0.047380675 -0.038068913 -0.03085217
-0.08741238 0.021797288 0.027881088 0.100192174 0.017953744 -0.06613484 0.057499148 -0.027654389
00000000: d708 4c3d 5335 2a3c 55d7 82bd efce ad3d
00000010: 2c52 e83c 447c e53c 94b9 05bc dbff 823d
00000020: 19c1 bdbc 196c ef3b aaa7 95bd 5f20 8cbc
00000030: ab1a 81bc c512 9c3d c77e cd3d 406f e1bc
00000040: 2806 7cbd 98c9 dabc 18d9 c2bb f45a 443d
00000050: 5641 423d 79e6 8ebb cae5 15bd abbb 7bbd
00000060: d5d6 cbbc 8327 7d3d 1398 85bb e6a3 dc3b
00000070: 1377 9fbd 702a 013d 8061 d83c 7400 e93c
00000080: 50b5 96bb e5b8 21bd cbc6 0bbb fe5e 2abd
00000090: 086f 5b3d 1e81 b83c 47c2 fa3c 7145 0c3d
000000a0: 5a7e 093e ee52 a33b 43f3 35bc 6ee0 ecbd
000000b0: baf6 633d 7550 813d 2b6f 553d 2d5f 543d
000000c0: f890 a33b bcc8 813d d029 1939 170c 21bd
000000d0: 9499 973d ea7b 293c c156 6b3d eb3a d5bd
000000e0: e908 40bd e64d 8abd 4b28 c93d 2c7b 8b3d
000000f0: 5391 c03c ee48 f83b ca5b 71bd 3457 42bc
00000100: 1a4e 543d d73f 193b e0dd a7bd 240c 213d
00000110: 3f91 55bd 653b d63d ee77 eabb 9d66 b7bd
00000120: 5de3 8cbd 8641 1cbd c25f 683d f6ec 94bd
00000130: 1944 1fbd 444c c6bd bd4a 6b3d def1 8fbd
00000140: 1523 a73c 5a2e e7bb 3f48 c13b a41b 2fbd
00000150: a464 073d fe68 0abd d2b3 6bbd e926 89bd
00000160: 74b6 b13c b324 893c 467e 8bbd 6f6e e2bb
00000170: 0439 36bd a313 38bd 9bc4 d1bd 2841 063d
00000180: dc13 8ebc 7ca1 12bd 1b63 21bd 2abd 1abd
00000190: a1df 403b 138a 9f3d 46af 00bd 65a4 ad3b
000001a0: d4fc 89bd 8548 fdbb 73c0 233d c18c dbbd
000001b0: e45b 073d c7c7 85bb 35cf 46bd 51a3 29bd
000001c0: 63cb 80bd f910 56bc e3d0 30bd da37 e83b
000001d0: 32ed c83c 5ecc 0e3c 06c4 9cbc 4cce c93a
000001e0: eee2 983d 0802 113c f43a d93d ab6f c9bc
000001f0: 1663 55bc 7c41 a03d 198f 91bb 52a5 d43c
00000200: 8c51 63bd d664 0b3d 38cd 34bd 4191 423d
00000210: e3a6 e2bc 638a 303d f98a 683d 8a6a b73a
00000220: 042e 32bd 591f 86bc 9f81 f13d 2626 55b9
00000230: 1cb1 97bc d39e dbbb 5edb febd f425 ab3c
00000240: 921a 893d 22b9 62bc 5fbb 883d 204a 813c
00000250: ee07 383b 5025 57bd df96 583d 9a69 8f3c
00000260: ed91 2dbd 0b4e 10bc 4ae5 bfbd 7f96 f6bc
00000270: 1b83 d33d 64ff 16bc 5ddd 423c 8ae6 84bd
00000280: 27e2 2c3c b84f 373c bebe 9c3d 28a8 743d
00000290: af8f 093d 3c21 cbbd d963 2e3b 5de5 823c
000002a0: a2b7 f03c 43b0 703d a8a2 363d cd2f d03c
000002b0: 2a4a d43d 647f 8c3c 20d1 753d c88b 553d
000002c0: de2b 843c 57eb 12bd 7a52 b7bd 27b0 85bd
000002d0: 4c40 ce3d 04fc 5c3b 4a47 56bc f99a 16bd
000002e0: 2fc6 c6bc 3977 a7bd 5eb1 313d 2d48 113c
000002f0: f064 7c3d 26b8 333d baff 2ebd 14ab 57bd
00000300: 9b78 86bc 71b0 1a3d e88c bf3c bb47 ed3b
00000310: b44c 823c b5d5 d1bc 9cb6 c5bd 4eca 92bd
00000320: d84a c43d f553 b83c d58d 7cbd d9ce 273d
00000330: 7759 053c d468 933d 49f5 64bd ab09 ef3b
00000340: d290 0c3c 6216 d33a 77ed 04bd 6e48 1fbd
00000350: c79f 9b3b 02e7 0d3d 7e0c 9abc 1052 1cbd
00000360: ddb1 11bd 6865 683d 149d 423d 18a3 d0bc
00000370: 6927 fcbc a872 fc3c b1d0 c9bd e407 863d
00000380: eed8 3c3d e968 f8bc c0ea a43d 90ba 223d
00000390: 1431 d8bc 3880 463c 2d8b 0a3d 0177 35bd
000003a0: 845b b0bc c6f8 cc3b cdc2 b53c 7417 2abb
000003b0: de82 1ebc 62a3 78bd 5dad c83d 4131 4dbd
000003c0: 9203 8fbd 6f97 0a3d 02fa b9bd 3782 e9ba
000003d0: 25d3 393d 3d12 423d 26ee 1bbd b1bd fcbc
000003e0: 4305 b3bd 3a90 b23c e166 e43c 8e31 cd3d
000003f0: bb13 933c b471 87bd 3a84 6b3d 758b e2bc

fc1.bias f4 [256]
0.11254047 0.1627465 -0.008665722 0.14275512 0.022120807 -0.15411937 -0.13270374 -0.054553334
0.016594138 0.15266447 -0.060870413 -0.018701365 0.12638977 -0.033175483 0.078903854 0.02408464
-0.029611452 -0.102519326 0.1820974 -0.08524308 0.03789498 0.07223431 0.03645051 0.0027864168
-0.0030464488 -0.05180086 0.08565921 -0.04032175 0.08953919 0.12047924 0.0949278 -0.064735174
-0.10909424 -0.02958937 0.049380954 0.023318348 0.18769906 0.117183544 -0.054708257 0.14023688
-0.09881891 -0.027230911 0.14124593 -0.10835636 -0.036476124 -0.120296605 0.10448906 0.15373445
0.1586745 -0.05312326 -0.1140335 0.09984291 -0.09592048 -0.046359558 -0.11116833 0.14453426
0.0043573296 0.054077074 0.011491894 0.028136829 -0.07291147 0.18077007 -0.12503631 0.015034347
-0.087326944 -0.09185335 0.11278576 0.1437077 0.09574846 0.060203824 0.13615623 0.107543
-0.05498599 -0.049174916 0.07429126 0.15129709 0.1497546 0.039174825 0.17519407 -0.09692725
0.08236854 0.15245178 0.015162625 0.12540583 0.15897936 -0.121861845 0.12500036 0.08859118
0.1041306 0.0972923 0.13167766 0.05464213 0.12689012 -0.1380713 -0.14180602 0.115645714
0.19172893 -0.037972584 0.15128459 0.019421816 0.09404871 -0.026100699 0.09472632 -0.052494567
-0.12004132 0.1411728 -0.051147997 0.14961968 0.041945945 -0.06882159 0.1687149 0.16367626
-0.06962121 0.09241687 0.047605045 -0.051861465 0.038381293 -0.13482375 0.02159971 -0.12371183
0.14406359 0.12432341 0.16952054 0.048834395 -0.047730364 0.12388435 0.092643954 0.116270475
-0.015898086 0.18638834 -0.11111477 -0.13522154 0.064805835 0.16718827 0.04536227 -0.03219731
-0.11840454 0.12201238 -0.15366243 -0.08489671 0.10317217 -0.11204139 -0.10017107 -0.07366068
0.09444333 -0.064072885 -0.0014168398 -0.034430332 0.11396562 0.17775987 0.025885532 0.044963554
-0.01912843 0.1005811 0.14832799 0.054834507 0.11423446 -0.018518837 0.008263193 -0.13336718
0.07869185 -0.06789449 -0.004412452 -0.12285289 0.02241898 0.055998523 0.1141781 -0.026725778
0.039771713 0.17358945 0.019031778 0.12125592 0.20782813 0.16318074 0.10889741 0.13171823
0.17842123 -0.0005756411 0.15473683 -0.056135833 -0.052839685 0.106115274 -0.09268179 -0.024452202
0.031393547 0.0331367 0.03387338 -0.0047422005 0.09466484 0.19426234 -0.028708596 0.12956434
0.089376435 0.1278742 0.16437472 0.00031648742 -0.014331559 -0.04970777 -0.02314029 -0.035678167
-0.015165985 0.12997282 0.056232058 -0.04560429 0.111679606 0.029993737 0.05920029 0.08324015
-0.086127184 -0.012378557 0.14102368 0.12010422 0.1367238 -0.01135314 0.03121815 0.13138574
0.02569691 0.104884654 0.097096525 0.075453825 0.1105051 -0.09972568 -0.12286137 -0.13262174
0.14080185 -0.06573505 -0.11445925 0.03287898 -0.011450396 0.081921 -0.029302819 0.14216776
-0.14025696 -0.1596791 0.18353684 -0.059029985 0.07313121 0.07095961 0.058648147 -0.089621775
0.042935718 -0.089329645 0.1556272 0.04314119 0.12253844 0.13668337 0.09181298 0.091695905
0.13926825 -0.08318872 0.13304582 -0.023390038 0.13621841 -0.009895682 0.077765726 0.10679845
00000000: 9e7b e63d 05a7 263e acfa 0dbc 662e 123e
00000010: b236 b53c 78d1 1dbe 7de3 07be 5173 5fbd
00000020: 6ef0 873c 1354 1c3e 4153 79bd 9b33 99bc
00000030: 526c 013e 04e3 07bd 5898 a13d 274d c53c
00000040: b793 f2bc a7f5 d1bd be77 3a3e ed93 aebd
00000050: c437 1b3d 95ef 933d 214d 153d 519c 363b
00000060: eea6 47bb 232d 54bd 196e af3d 6b28 25bd
00000070: 5360 b73d d2bd f63d 8269 c23d e093 84bd
00000080: cd6c dfbd 6865 f2bc af43 4a3d 1f06 bf3c
00000090: 2f34 403e edfd ef3d c415 60bd 429a 0f3e
000000a0: 9261 cabd 5c13 dfbc c6a2 103e f0e9 ddbd
000000b0: fd67 15bd 115e f6bd 5cfe d53d 906c 1d3e
000000c0: 917b 223e c797 59bd 658a e9bd 717a cc3d
000000d0: f571 c4bd 85e3 3dbd 39ac e3bd ca00 143e
000000e0: eec7 8e3b ec7f 5d3d 7f48 3c3c 357f e63c
000000f0: 9c52 95bd ca1b 393e 8509 00be 9f52 763c
00000100: 78d8 b2bd 9c1d bcbd 38fc e63d 1c28 133e
00000110: c517 c43d 4998 763d 8a6c 0b3e 813f dc3d
00000120: fd38 61bd a36b 49bd 0426 983d a0ed 1a3e
00000130: 4559 193e c875 203d 1366 333e cb81 c6bd
00000140: d6b0 a83d 521c 1c3e a96c 783c 636a 003e
00000150: 7ccb 223e b492 f9bd 1800 003e 4b6f b53d
00000160: 6d42 d53d 2f41 c73d 82d6 063e 6dd0 5f3d
00000170: 7cef 013e 9062 0dbe 9935 11be a9d7 ec3d
00000180: 9754 443e 2489 1bbd 59ea 1a3e 801a 9f3c
00000190: 9c9c c03d 22d1 d5bc dfff c13d 8b04 57bd
000001a0: 39d8 f5bd 9a8f 103e 9080 51bd e735 193e
000001b0: 83cf 2b3d 55f2 8cbd 99c3 2c3e c09a 273e
000001c0: 9195 8ebd 0e45 bd3d 82fd 423d b06c 54bd
000001d0: b435 1d3d 3d0f 0abe e0f1 b03c a15c fdbd
000001e0: 6885 133e 469d fe3d cb96 2d3e 9306 483d
000001f0: ea80 43bd 14b7 fd3d 1dbc bd3d 371f ee3d
00000200: b43c 82bc 96dc 3e3e 2490 e3bd 8477 0abe
00000210: ecb8 843d 6733 2b3e cacd 393d 54e1 03bd
00000220: 147e f2bd a0e1 f93d af59 1dbe 54de adbd
00000230: ee4b d33d f575 e5bd 7d26 cdbd 69db 96bd
00000240: 816b c13d a538 83bd 41b5 b9ba d206 0dbd
00000250: cf66 e93d af06 363e e50d d43c b42b 383d
00000260: 3ab3 9cbc 77fd cd3d 4be3 173e 269a 603d
00000270: c2f3 e93d d1b4 97bc 5862 073c 6891 08be
00000280: 3129 a13d 440c 8bbd 5596 90bb 4c9a fbbd
00000290: 02a8 b73c b55e 653d 35d6 e93d 05f0 dabc
000002a0: aae7 223d 6fc1 313e 88e8 9b3c 0655 f83d
000002b0: e6d0 543e da18 273e 9b05 df3d 25e1 063e
000002c0: 0eb4 363e 9fe6 16ba 5573 1e3e b0ee 65bd
000002d0: 6d6e 58bd f752 d93d f3cf bdbd fc4f c8bc
000002e0: 8596 003d 59ba 073d d0be 0a3d 7664 9bbb
000002f0: a4df c13d b5ec 463e 4a2e ebbc 84ac 043e
00000300: fe0a b73d 74f1 023e d951 283e 39ee a539
00000310: eace 6abc 609a 4bbd b590 bdbc 4523 12bd
00000320: c07a 78bc 9817 053e 9653 663d 90cb 3abd
00000330: 47b8 e43d 6db5 f53c 017c 723d d079 aa3d
00000340: 7363 b0bd 6ecf 4abc 8368 103e 34f9 f53d
00000350: 5301 0c3e 8502 3abc 35bd ff3c fc89 063e
00000360: 5482 d23c c4cd d63d 8bda c63d 8987 9a3d
00000370: 7f50 e23d fa3c ccbd be9e fbbd fecd 07be
00000380: 5c2e 103e 19a0 86bd 9c69 eabd 1cac 063d
00000390: 719a 3bbc 32c6 a73d 770c f0bc 6d94 113e
000003a0: 859f 0fbe eb82 23be 15f1 3b3e 6dc9 71bd
000003b0: d1c5 953d 4653 913d 0a39 703d 9f8b b7bd
000003c0: 5ddd 2f3d 76f2 b6bd bd5c 1f3e d1b4 303d
000003d0: 6ff5 fa3d baf6 0b3e 7208 bc3d 10cb bb3d
000003e0: 569c 0e3e d95e aabd 2a3d 083e 779c bfbc
000003f0: d77c 0b3e 8021 22bc a343 9f3d 25b9 da3d

fc2.weight f4 [128, 256]
-0.025517879 0.08391622 -0.048091255 0.014525465 -0.0011795202 0.046434168 0.044374824 0.04502658
0.0144748585 0.07217784 0.06987724 0.021109145 0.05644558 -0.02006294 -0.031814218 -0.019604914
0.056506336 0.014410693 -0.10203496 -0.02223677 0.040231198 0.03429982 0.034253318 -0.03627128
-0.029848764 -0.027204389 -0.008356181 -0.025670653 -0.038411055 0.09765566 0.04606921 0.026315968
-0.07501779 0.017521897 0.06687619 0.048945725 0.07047045 -0.01989987 -0.06901669 -0.052871004
-0.09540266 0.12759483 -0.039250523 0.047004707 -0.017093403 0.03697739 0.027786095 -0.056788314
0.0064428747 0.02108755 0.029281635 0.022592543 0.015490673 0.105727464 -0.04528989 0.13148133
-0.060171843 -0.029409634 0.018082218 0.029601913 0.09293556 0.07442532 0.10554173 0.04078202
-0.03448244 -0.018777104 0.015758196 0.037449196 0.01944329 -0.010520744 0.003950806 0.009320275
-0.009552184 -0.068865426 -0.0108522065 0.09220552 -0.027314529 0.027627498 -0.03694697 0.05137475
-0.026040958 -0.075317755 0.0055018924 0.026521469 -0.0005174541 -0.012232681 -0.01572393 0.09162574
0.010749595 0.045147114 0.12429213 0.0032338176 -0.07231243 -0.058713034 -0.025270281 0.02353011
0.049461093 0.027186608 -0.0054685683 0.03461866 -0.02469401 0.044705432 0.04182376 0.00012798213
-0.067770265 0.030618137 -0.07067929 0.047994457 -0.020033944 0.06052298 0.024370898 0.062168658
-0.0072057 0.036084004 0.033669874 -0.02257251 0.09612379 0.09076597 -0.03226914 -0.08886727
-0.062229663 0.008274138 -0.05764889 0.0009016908 0.05644866 0.010275504 0.01729934 0.11610241
-0.04059331 0.069935724 -0.059078753 -0.0818615 0.0857373 -0.06140914 -0.08260185 0.08065826
-0.01757557 0.008221999 0.10210137 -0.036888037 0.039972782 0.029170394 -0.031856373 0.013266077
0.056936022 0.06343507 -0.059040476 -0.017428027 -0.058831785 0.04788489 -0.005223194 0.08854871
-0.08349654 0.06488522 -0.014969331 0.07392479 0.11971601 0.066836566 0.012776434 0.1138015
-0.03135297 0.051735513 -0.038132273 0.101265036 -0.046566088 -0.04457701 0.013283545 -0.022700736
0.03888 -0.035060678 0.027487317 0.030287342 -0.018961033 -0.031477246 0.03809348 0.02052183
0.06048807 0.06210417 -0.11322709 0.06636219 -0.08222403 -0.10972417 0.057796173 -0.06992958
0.028112926 -0.00734313 0.038623355 0.12847681 0.010721528 0.029592177 0.09726056 -0.01736306
0.010200902 -0.06577632 -0.09512239 -0.08804333 -0.043253474 0.080498286 0.09488908 -0.08560048
-0.027653126 -0.04115931 0.0716413 0.044637993 -0.03572141 0.0023978238 -0.044855118 -0.05186767
-0.01920734 0.02490916 0.049793705 0.09265132 0.0019926736 -0.013367258 -0.066766806 0.08347596
0.0042481557 0.043382533 -0.09125403 -0.0054010088 0.017260795 0.020448014 -0.08976589 0.046756733
0.06688666 -0.06587514 -0.05394249 0.011766601 0.0767583 -0.063206784 0.09525738 0.09979893
0.039085772 0.050991062 -0.0018609934 -0.0321946 0.015699705 0.07914044 -0.055462204 -0.0014161973
-0.03637369 -0.023393342 -0.078262165 -0.030490141 -0.021925593 -0.05394363 0.011318684 -0.098344564
-0.08154567 0.019683054 0.026925718 0.10280712 -0.025583616 0.065056734 0.08435724 -0.03791544
00000000: df0a d1bc 44dc ab3d 56fb 44bd 37fc 6d3c
00000010: 219a 9aba c131 3e3d 60c2 353d cb6d 383d
00000020: f527 6d3c fad1 933d cc1b 8f3d 16ed ac3c
00000030: 7b33 673d 095b a4bc a04f 02bd 7c9a a0bc
00000040: 3073 673d d41a 6c3c b5f7 d0bd e329 b6bc
00000050: 78c9 243d f87d 0c3d 354d 0c3d 3291 14bd
00000060: 6585 f4bc bddb debc 5de8 08bc 434b d2bc
00000070: e954 1dbd b1ff c73d 11b3 3c3d 9694 d73c
00000080: eda2 99bd 158a 8f3c 62f6 883d 507b 483d
00000090: d052 903d 0d05 a3bc 9f58 8dbd 448f 58bd
000000a0: 7862 c3bd 38a8 023e 28c5 20bd 0288 403d
000000b0: 7707 8cbc 9b75 173d aa9f e33c dd9a 68bd
000000c0: c01e d33b ccbf ac3c 0ae0 ef3c ff13 b93c
000000d0: 97cc 7d3c a487 d83d e481 39bd 0ba3 063e
000000e0: c076 76bd 79ec f0bc 2921 943c b67f f23c
000000f0: 0055 be3d 4d6c 983d 4326 d83d 0c0b 273d
00000100: 763d 0dbd 71d2 99bc 5517 813c 5464 193d
00000110: 8947 9f3c 335f 2cbc c375 813b 11b4 183c
00000120: c380 1cbc 5109 8dbd 74cd 31bc 3fd6 bc3d
00000130: b8c2 dfbc 1053 e23c b555 17bd 546e 523d
00000140: d953 d5bc 3240 9abd 3849 b43b 8d43 d93c
00000150: c2a5 07ba 956b 48bc 79cf 80bc 47a6 bb3d
00000160: 121f 303c 2eec 383d df8c fe3d 75ee 533b
00000170: 8a18 94bd 147d 70bd 9f03 cfbc 38c2 c03c
00000180: b797 4a3d 73b6 de3c ad31 b3bb 4ccc 0d3d
00000190: 184b cabc 0b1d 373d 644f 2b3d f132 0639
000001a0: 23cb 8abd e3d2 fa3c 4ec0 90bd d695 443d
000001b0: 3a1e a4bc f2e6 773d 7aa5 c73c 90a4 7e3d
000001c0: cb1d ecbb d2cc 133d 6ce9 093d fce9 b8bc
000001d0: 8ddc c43d 82e3 b93d a52c 04bd 0b00 b6bd
000001e0: 88e4 7ebd 4090 073c 3e21 6cbd 725f 6c3a
000001f0: b636 673d 965a 283c 58b7 8d3c 1ac7 ed3d
00000200: 2c45 26bd 763a 8f3d 90fc 71bd 01a7 a7bd
00000210: 0a97 af3d 2688 7bbd 292b a9bd 2830 a53d
00000220: a4fa 8fbc 90b5 063c 861a d13d e917 17bd
00000230: 80ba 233d c0f6 ee3c d47b 02bd f659 593c
00000240: bf35 693d 3fea 813d 6dd4 71bd 39c5 8ebc
00000250: 99f9 70bd f222 443d 5427 abbb 0759 b53d
00000260: 3c00 abbd 8be2 843d ed41 75bc e165 973d
00000270: ab2d f53d 9ce1 883d 4054 513c c310 e93d
00000280: f96b 00bd 9ee8 533d 9630 1cbd 0b64 cf3d
00000290: 15bc 3ebd 6296 36bd 3aa3 593c e5f6 b9bc
000002a0: a340 1f3d c99b 0fbd 152d e13c 291d f83c
000002b0: 2b54 9bbc 49ee 00bd e907 1c3d 661d a83c
000002c0: 57c2 773d f160 7e3d 9be3 e7bd e6e8 873d
000002d0: 1265 a8bd 11b7 e0bd aebb 6c3d 3d37 8fbd
000002e0: 144d e63c a49e f0bb 8633 1e3d 6d8f 033e
000002f0: 59a9 2f3c 4b6b f23c 8b30 c73d fa3c 8ebc
00000300: af21 273c bcb5 86bd 87cf c2bd 1050 b4bd
00000310: 8e2a 31bd 49dc a43d 3555 c23d 4e4f afbd
00000320: cf88 e2bc aa96 28bd adb8 923d 54d6 363d
00000330: 9d50 12bd cf24 1d3b 00ba 37bd 3273 54bd
00000340: b658 9dbc 4b0e cc3c 7cf4 4b3d fabf bd3d
00000350: 8497 023b 5802 5bbc 09bd 88bd 72f5 aa3d
00000360: 1d34 8b3b e2b1 313d 65e3 babd f2fa b0bb
00000370: 8366 8d3c 9882 a73c 2ed7 b7bd fd83 3f3d
00000380: e0fb 883d 8ce9 86bd cdf2 5cbd b4c8 403c
00000390: 7533 9d3d 8f72 81bd 4d16 c33d 6263 cc3d
000003a0: 6718 203d 01dc 503d 94ec f3ba 7cde 03bd
000003b0: ab9c 803c 6214 a23d 562c 63bd b29f b9ba
000003c0: 94fc 14bd 65a3 bfbc ea47 a0bd 76c6 f9bc
000003d0: 4d9d b3bc fff3 5cbd 0072 393c e068 c9bd
000003e0: 6b01 a7bd 5b3e a13c 5393 dc3c 8a8c d23d
000003f0: bb94 d1bc 773c 853d 7dc3 ac3d 384d 1bbd

fc2.bias f4 [128]
0.030718984 -0.023312556 -0.023534216 -0.012375497 -0.042531308 0.069847144 0.0019456566 -0.019508777
0.0039434233 0.00822487 0.05933414 -0.03415195 -0.031834237 0.028776309 -0.00395327 0.046996307
0.020182678 0.060841244 -0.01799681 -0.025322428 0.009271914 -0.025875365 -0.062423736 0.015872445
-0.02338081 -0.009840315 -0.023329115 0.04929429 0.0023014867 0.009121252 -0.030282347 -0.023696944
-0.0394562 -0.010439533 -0.037549403 0.017844705 0.012349262 -0.012652905 0.012214369 -0.029444896
0.07416129 -0.008310465 0.01249191 -0.0042417487 -0.018846061 0.05792043 0.021876976 -0.01364245
0.011763061 0.049868923 0.01113485 -0.008674071 -0.0059534144 0.00100358 -0.024590477 0.06604083
0.02317253 0.025265796 0.05751799 0.009408422 0.006574113 0.03635855 0.015057082 0.07293112
-0.04073245 0.06417673 0.0016054864 0.013445883 0.02163623 0.018192481 0.012799967 0.060117546
0.024732854 0.032505978 -0.00686999 0.050551858 -0.05567103 0.065507196 0.03858366 0.08719522
-0.03180617 0.012041943 0.058386046 0.030672142 -0.018395498 -0.060636926 0.0337993 0.04657576
0.04324642 0.01834928 0.061796855 0.03479101 0.044181556 0.03737426 -0.020795528 0.051270552
-0.0200461 0.04523732 0.0044110646 -0.009693811 -0.040779743 0.056673463 0.047246877 0.005240536
0.06174919 0.030730031 -0.040530965 0.085108325 0.056407977 -0.0019348889 -0.015912697 -0.044500686
0.056697506 0.005582353 0.08491203 0.013432577 0.07285342 0.042843513 0.0624779 0.05495867
-0.04467514 0.033889007 -0.0025827603 0.07037976 -0.020030422 -0.028946588 -0.014667131 0.0011666263
00000000: 61a6 fb3c f9f9 bebc d4ca c0bc 99c2 4abc
00000010: 4f35 2ebd 050c 8f3d 6705 ff3a dfd0 9fbc
00000020: d537 813b 9bc1 063c 5b08 733d eae2 0bbd
00000030: 9e64 02bd 4bbc eb3c 6f8a 81bb 337f 403d
00000040: 2556 a53c ab34 793d 0c6e 93bc fb70 cfbc
00000050: 3ae9 173c 93f8 d3bc 08b0 7fbd ee06 823c
00000060: 1d89 bfbc 4639 21bc b31c bfbc cfe8 493d
00000070: 8ad4 163b 4e71 153c af12 f8bc 1820 c2bc
00000080: d39c 21bd 930a 2bbc 67cd 19bd 0f2f 923c
00000090: 8f54 4a3c 214e 4fbc c71e 483c 6c36 f1bc
000000a0: e0e1 973d 9e28 08bc deaa 4c3c 5efe 8abb
000000b0: 0e63 9abc f93d 6d3d 5837 b33c 9584 5fbc
000000c0: dbb9 403c 5b43 4c3d f26e 363c b11d 0ebc
000000d0: dc14 c3bb 8f8a 833a f871 c9bc 6a40 873d
000000e0: 51d4 bd3c 37fa ce3c fc97 6b3d c825 1a3c
000000f0: a86b d73b b4ec 143d fbb1 763c e95c 953d
00000100: 12d7 26bd 176f 833d 2f6f d23a 1f4c 5c3c
00000110: 773e b13c 6608 953c f4b6 513c d13d 763d
00000120: 8e9c ca3c fd24 053d a71d e1bb 770f 4f3d
00000130: 4e07 64bd a328 863d e609 1e3d 6893 b23d
00000140: 3047 02bd 924b 453c 3526 6f3d 2544 fb3c
00000150: 28b2 96bc 6d5e 78bd 2371 0a3d 39c6 3e3d
00000160: 2823 313d 3b51 963c b31e 7d3d 0581 0e3d
00000170: b8f7 343d c115 193d 625b aabc 1201 523d
00000180: b837 a4bc c54a 393d b18a 903b cad2 1ebc
00000190: a908 27bd 6f22 683d f185 413d cdb8 ab3b
000001a0: b8ec 7c3d 8cbd fb3c cc03 26bd 464d ae3d
000001b0: 0d0c 673d 199c fdba 585b 82bc 5a46 36bd
000001c0: a53b 683d 2cec b63b 5ce6 ad3d 5014 5c3c
000001d0: 2d34 953d ae7c 2f3d d4e8 7f3d 581c 613d
000001e0: 48fd 36bd 33cf 0a3d 8743 29bb 4323 903d
000001f0: d716 a4bc 6521 edbc 684e 70bc 7ce9 983a

fc3.weight f4 [4, 128]
0.024869544 0.025241964 -0.020223523 0.061082378 -0.0148900775 -0.00943844 0.014758511 0.0038878547
-0.0025723085 -0.005373378 0.0510295 0.053614315 0.014397546 0.035135377 0.0017710045 0.042840254
0.009507771 0.02785102 0.013529688 -0.010855593 0.0031530457 0.017407475 0.012219641 0.01027678
-0.039738517 0.013824467 -0.016452655 -0.017332 -0.009387097 0.032786373 0.025567878 0.006652648
-0.0032464436 0.0012942252 0.009539747 -0.02433851 -0.038629826 -0.019923298 -0.01289471 0.0428417
0.06708438 -0.018199481 0.009296696 0.025310433 0.02099447 0.05667343 0.032180272 -0.02697816
0.014916946 0.023487208 -0.032071516 0.00022036984 -0.018279485 0.035613842 -0.008791408 0.052899104
0.019320302 -0.019408623 -0.021816183 -0.014991711 0.042676672 -0.022746125 -0.013986862 0.056711666
0.005022187 0.0019793394 0.002579618 0.02720781 0.04539852 0.031288657 -0.0028375217 -0.02583905
-0.002037487 -0.101692475 -0.0013719702 -0.01707274 0.023687841 0.014079662 0.02209247 -0.0154615315
0.011360874 0.000617068 0.01248194 0.004567085 -0.008346717 0.0067828773 0.008936753 0.021547303
-0.0053719226 -0.0038456465 0.025276776 -0.006767354 -0.017244492 0.011133418 0.059796385 0.06463452
0.0043464596 0.03143289 8.1832215e-05 0.033755105 -0.012599267 -0.016725644 0.03469958 -0.028320739
-0.023700597 -0.018184133 -0.011426213 0.007770566 0.052364726 -0.04738963 0.01029087 0.012930451
0.022522075 0.014674133 -0.02700561 0.010777764 -0.0011478678 0.018438453 0.013488604 -0.010054093
-0.016374506 0.013441164 -0.029633192 -0.018823855 -0.03961045 -0.0064023435 0.029590167 0.035497513
-0.019954776 0.0095247505 0.0032762089 -0.004201199 0.032847926 0.0488421 -0.020741127 0.012058695
0.022904053 -0.015603596 -0.04217526 -0.0096982205 -0.026796898 0.015779223 0.05366098 -0.0075888275
-0.02729943 -0.026165754 0.05823346 0.03554466 0.02884234 0.015047376 0.026967274 0.07449388
0.05846185 -0.014676846 0.065049514 0.027979163 0.0066761794 -0.008606189 -0.036604304 0.014380056
0.02205208 -0.018394703 -0.027550206 0.04315023 0.046240885 0.06151274 0.051813964 -0.028154012
-0.045753352 0.039258055 0.0136958705 0.0026149398 0.011422563 -0.01567276 -0.027146684 0.021764234
-0.02949747 -0.03822248 0.020220354 0.023412442 0.010908756 -0.044285446 0.022826964 -0.048194706
-0.0030402539 0.045248732 0.05759826 0.044411305 -8.1509635e-05 0.0035484263 0.0013019686 -0.008940266
0.03348834 0.039127573 0.035438325 -0.047769435 0.015512398 -0.013703804 0.052667566 0.013274432
0.008183713 -0.017813457 0.008084694 0.045039214 0.01383856 0.037799798 -0.049941014 0.06157504
0.046260655 0.02626098 -0.017630214 0.014574204 -0.0090196645 0.018215507 0.011056148 0.017055154
0.040286575 0.038281746 -0.017986434 0.045478232 0.023817424 -0.016437385 -0.016261535 -0.027697196
-0.002760594 -0.0019189126 0.014655375 -0.033652045 0.018508678 0.046740387 0.011667865 0.07052736
0.050720606 -0.03628599 0.0075342166 -0.02542557 -0.025286207 -0.08342533 0.012907647 0.012672833
0.0020228499 -0.045354854 0.05415749 -0.034541145 -0.018152976 3.4464014e-05 0.023987805 0.05963485
0.035063885 -0.018907817 0.014738553 0.03730487 0.019438932 0.04157093 0.02598457 -0.0094422735
00000000: 37bb cb3c 3cc8 ce3c cdab a5bc 8431 7a3d
00000010: 83f5 73bc b0a3 1abc afcd 713c 61cb 7e3b
00000020: 2d94 28bb 2913 b0bb 4f04 513d af9a 5b3d
00000030: afe3 6b3c 1dea 0f3d 0d21 e83a 4379 2f3d
00000040: 7bc6 1b3c d327 e43c a0ab 5d3c a8db 31bc
00000050: 54a3 4e3b 1f9a 8e3c e434 483c f15f 283c
00000060: dbc4 22bd 0480 623c b8c7 86bc d7fb 8dbc
00000070: 57cc 19bc 014b 063d ba73 d13c 75fe d93b
00000080: 49c2 54bb fea2 a93a 994c 1c3c 8e61 c7bc
00000090: 4f3a 1ebd 2f36 a3bc 5544 53bc c77a 2f3d
000000a0: 8963 893d 1417 95bc 2b51 183c d357 cf3c
000000b0: 98fc ab3c 6622 683d 76cf 033d 4d01 ddbc
000000c0: 3566 743c 3f68 c03c 6c5d 03bd 1413 6739
000000d0: dcbe 95bc d2df 113d d609 10bc bbac 583d
000000e0: 9c45 9e3c d5fe 9ebc dab7 b2bc cb9f 75bc
000000f0: bccd 2e3d 1556 babc 2729 65bc 7e4a 683d
00000100: 2891 a43b ceb7 013b cf0e 293b eae2 de3c
00000110: ccf3 393d 8928 003d b7f5 39bb 6aac d3bc
00000120: 5c87 05bb 2544 d0bd aed3 b3ba 21dc 8bbc
00000130: 010d c23c 62ae 663c 45fb b43c 5d52 7dbc
00000140: f622 3a3c bcc2 213a 0d81 4c3c 7ca7 953b
00000150: abc0 08bc e642 de3b 756b 123c f883 b03c
00000160: f406 b0bb 3e07 7cbb 3e11 cf3c aec0 ddbb
00000170: 5244 8dbc f168 363c 0eed 743d 1a5f 843d
00000180: bf6c 8e3b c6bf 003d 569d ab38 cb42 0a3d
00000190: 286d 4ebc 3804 89bc 2621 0e3d e500 e8bc
000001a0: c127 c2bc e4f6 94bc 0335 3bbc 3ba0 fe3b
000001b0: 657c 563d a11b 42bd 0a9b 283c 3eda 533c
000001c0: 3780 b83c c66b 703c de3a ddbc 3895 303c
000001d0: 0d74 96ba 3d0c 973c 4eff 5c3c ecb9 24bc
000001e0: d423 86bc 5438 5c3c 4fc1 f2bc 7c34 9abc
000001f0: 913e 22bd c0ca d1bb 1467 f23c d765 113d
00000200: 3378 a3bc b30d 1c3c aab5 563b 36aa 89bb
00000210: 8c8b 063d a70e 483d 4ce9 a9bc d591 453c
00000220: 48a1 bb3c 3aa6 7fbc f7bf 2cbd 49e5 1ebc
00000230: 2b85 dbbc 6e43 813c 9ecb 5b3d b3ab f8bb
00000240: 0ea3 dfbc 9059 d6bc 3586 6e3d 4797 113d
00000250: c546 ec3c 4589 763c 79ea dc3c 3f90 983d
00000260: b175 6f3d 2777 70bc ae38 853d 8f34 e53c
00000270: dac3 da3b f900 0dbc 65ee 15bd 549a 6b3c
00000280: 90a6 b43c 7db0 96bc f8b0 e1bc 4cbe 303d
00000290: 1567 3d3d c8f4 7b3d e13a 543d 3ea3 e6bc
000002a0: de67 3bbd 0ecd 203d a564 603c 695f 2b3b
000002b0: b425 3b3c 2964 80bc b962 debc e84a b23c
000002c0: aea4 f1bc 2d8f 1cbd 28a5 a53c 73cb bf3c
000002d0: a4ba 323c a864 35bd 9dff ba3c d067 45bd
000002e0: ff3e 47bb bc56 393d 27ec 6b3d a1e8 353d
000002f0: 27f0 aab8 b78c 683b d1a6 aa3a 327a 12bc
00000300: 122b 093d 3c44 203d c727 113d e2a9 43bd
00000310: b727 7e3c ec85 60bc f2b9 573d 017d 593c
00000320: fb14 063c 87ed 91bc aa75 043c 0a7b 383d
00000330: 21bb 623c f6d3 1a3d f38e 4cbd 1c36 7c3d
00000340: d07b 3d3d 4421 d73c 3d6d 90bc a4c8 6e3c
00000350: 37c7 13bc b038 953c d924 353c 40b7 8b3c
00000360: 8903 253d 52cd 1c3d 4958 93bc 6247 3a3d
00000370: c21c c33c b2a7 86bc e936 85bc 3be5 e2bc
00000380: 15eb 34bb 0684 fbba 191d 703c bad6 09bd
00000390: 839f 973c d972 3f3d 932a 3f3c a670 903d
000003a0: 69c0 4f3d 9ea0 14bd 97e1 f63b 4949 d0bc
000003b0: 0525 cfbc e6da aabd 987a 533c b7a1 4f3c
000003c0: ca91 043b 03c6 39bd 3fd4 5d3d 047b 0dbd
000003d0: 8db5 94bc 748d 1038 1382 c43c ac43 743d
000003e0: 269f 0f3d 91e4 9abc f979 713c fecc 183d
000003f0: 653e 9f3c 4846 2a3d 98dd d43c c4b3 1abc

fc3.bias f4 [4]
0.035683416 -0.05661485 0.030439936 -0.061588243
00000000: c628 123d f9e4 67bd 2c5d f93c f443 7cbd
