savedmodels/checkpoint_1545158393_critic_episode142_score36.266.pth (torch_old, 169980 bytes, 5 tensors)

fcs1.weight f4 [256, 33]
0	0xbad2ec8f	-0.0016092228
1	0x3d823fa6	0.06359796
2	0x3d9a3443	0.075294994
3	0xbd463e67	-0.048399355
4	0xbd917f07	-0.07104307
5	0xbcedd78c	-0.029033445
6	0x3e063b61	0.13108589
7	0x3d050895	0.032478888
8	0x3d7df707	0.06200316
9	0x3d48c79d	0.04901849
10	0xbc3d8f4e	-0.011569811
11	0xbca997f4	-0.02070234
12	0xbc0cdae6	-0.008597111
13	0x3db0f268	0.08639985
14	0x3dc131ca	0.09433325
15	0xbbdd0e3b	-0.006746081
16	0x3da52518	0.08063716
17	0x3ce8c773	0.028415417
18	0xbceb3ebd	-0.02871644
19	0xbd16ef2a	-0.03684918
20	0xbd775c16	-0.060390554
21	0x3bb3cc11	0.005486973
22	0xbbce4bcf	-0.006295658
23	0x3ded8b37	0.11598819
24	0x3a8a214e	0.001053849
25	0x3d0841ea	0.033265986
26	0xbd2752b3	-0.040850352
27	0x3ccf0b6b	0.025274
28	0xbd3c5b6e	-0.04598563
29	0xbd4e6a80	-0.050394535
30	0xbdb11f73	-0.086485766
31	0x3d2599be	0.040429823
32	0x3cf37f5d	0.029723817
33	0x3c1218ae	0.008917017
34	0xbd81bc42	-0.063347355
35	0x3d68d8ae	0.056847267
36	0x3cfb552e	0.030680265
37	0x3d0b67ee	0.034034662
38	0x3d022431	0.031772796
39	0x3d199b91	0.037501875
40	0xbcb4c421	-0.022066178
41	0x3cab28ff	0.020893572
42	0xbc0d43ba	-0.008622104
43	0x3bdcd175	0.0067388364
44	0x3d02ea67	0.031961825
45	0x3d262190	0.04055935
46	0x3c7567a4	0.014978323
47	0x3d55615a	0.052094795
48	0x3d63d5ac	0.055623695
49	0x3cdcda1c	0.026959471
50	0x3d26ac2f	0.04069155
51	0x3ce5793f	0.028011916
52	0xbbd99cdf	-0.006641015
53	0xbc0ddd65	-0.008658742
54	0x3b8ea951	0.00435368
55	0x3d199aaa	0.037501015
56	0xbaa722a2	-0.001275141
57	0xbc8c0938	-0.01709424
58	0x3c9a27e4	0.01881785
59	0xbd824f96	-0.06362836
60	0xbdac4e01	-0.084133156
61	0x3d97ae9f	0.07406353
62	0x3ca3f630	0.020014852
63	0x3d8f85cf	0.07007944
64	0x3b9d9aa0	0.0048096925
65	0xbcb4e1b8	-0.022080287
66	0x3d7549f0	0.059884965
67	0xbd0b6c2b	-0.034038704
68	0x3d7f3372	0.06230492
69	0xbb02b751	-0.001994569
70	0x3d5d8221	0.05407918
71	0x3d36c7a2	0.04462398
72	0xbd274944	-0.040841356
73	0xbca3ef6a	-0.020011622
74	0xbd025f78	-0.031829327
75	0x3ca8e31a	0.020616103
76	0x3cb0c84b	0.021579882
77	0xbcd675d5	-0.026179234
78	0x3c458bb2	0.012057232
79	0xbd2c6b34	-0.042094424
80	0x3c611bc5	0.013739531
81	0x3c61fdb1	0.013793395
82	0x3cacbc24	0.021085806
83	0xbd563511	-0.0522967
84	0xbc11f25c	-0.008907881
85	0xbd81fcb1	-0.06347025
86	0xbd6528a2	-0.055946954
87	0x3d190872	0.03736157
88	0xbd193b74	-0.037410215
89	0xbc7e5fab	-0.015525739
90	0x3c90b3e9	0.017663913
91	0xbdc3c825	-0.09559659
92	0x3d53b103	0.051682483
93	0x3b23b80a	0.0024981522
94	0xbb9b6e2e	-0.004743359
95	0xbb512e40	-0.0031918436
96	0x3d846e09	0.064663
97	0xbd5e991e	-0.054345243
98	0x3e6c2355	0.23060353
99	0x3d85b1ec	0.065280765
100	0x3ba0482f	0.0048914175
101	0x3dc6c939	0.09706349
102	0x3d1ae59f	0.03781664
103	0xbca314c2	-0.019907359
104	0x3d207d56	0.03918203
105	0x3d0b5504	0.034016624
106	0xbc70c1fb	-0.014694686
107	0x3c41a416	0.011818906
108	0xbcaebcb7	-0.02133022
109	0x3c49f081	0.012325407
110	0x3cb523d0	0.022111803
111	0xbc846cc3	-0.016165143
112	0xbd2f73b3	-0.04283495
113	0x3d619854	0.055076912
114	0xbd8ff2b7	-0.07028716
115	0xbc8a1ae3	-0.016858524
116	0xbbf39d4e	-0.0074345237
117	0xbd554b5d	-0.052073825
118	0xbcb5d1aa	-0.022194702
119	0x3cfa6d76	0.030569773
120	0x3d21d6b3	0.039511394
121	0xbd2f1984	-0.042748943
122	0xbcfa0d6c	-0.030523978
123	0xbcef8c63	-0.029241746
124	0xbcc729be	-0.024311896
125	0x3c8fcfec	0.0175552
126	0x3c39f9cf	0.011351063
127	0xbd28c601	-0.041204456
128	0xbccaa0b8	-0.02473484
129	0x3dbb73df	0.0915296
130	0xbc33c680	-0.010972619
131	0x3d074760	0.033027053
132	0xbcff6240	-0.031174779
133	0x3c34c6f3	0.011033761
134	0x3d5f46f9	0.054511044
135	0xbc988764	-0.018619247
136	0xbd752953	-0.059853863
137	0x3d8bb4b2	0.06821574
138	0x3cebdb15	0.02879099
139	0x3cfc72d0	0.030816466
140	0xbdd6df40	-0.104918
141	0x3d7a7863	0.061149966
142	0xbccb487f	-0.024814842
143	0x3d02ea72	0.031961866
144	0x3c13d2a1	0.009022386
145	0xbcc49347	-0.023996009
146	0x3b4baeba	0.0031079487
147	0xbba9051b	-0.0051580793
148	0xbcb098bc	-0.021557204
149	0xbc53178e	-0.012884034
150	0x3afa44ee	0.0019094029
151	0xbc74a3ff	-0.014931678
152	0x3ac7cb63	0.0015243109
153	0x3d5c2682	0.05374766
154	0x3cb6c78a	0.022311945
155	0xbc641f6c	-0.013923507
156	0x3c424381	0.0118569145
157	0x3cac2230	0.021012396
158	0xbd0d32f6	-0.03447243
159	0x3d3c95c0	0.04604125
160	0xbd62ac97	-0.055340376
161	0x3c92d958	0.017925903
162	0xbd5b6a9c	-0.053568467
163	0x3c88a194	0.016678609
164	0xbe9d152b	-0.30680212
165	0xbdc14358	-0.09436673
166	0x3dbb459b	0.091441356
167	0xbbac7a1d	-0.0052635805
168	0xbca8c003	-0.02059937
169	0xbd1f850c	-0.038945243
170	0xbd6e4918	-0.058175176
171	0x3d2c35fb	0.042043667
172	0xbb301d80	-0.0026873052
173	0xbd04fc45	-0.032467145
174	0x3d4531c7	0.048143174
175	0xbc1ae711	-0.009454505
176	0x3bc31573	0.0059534847
177	0xbc89af03	-0.016807085
178	0x3e22a019	0.15881385
179	0xbe0592d3	-0.1304429
180	0xbce7a489	-0.028276699
181	0x3c0d5992	0.008627312
182	0x3c9d3904	0.019192226
183	0xbd3a6ef6	-0.045515977
184	0x3c0b0b4b	0.008486579
185	0xbb638713	-0.0034717962
186	0xbbd21956	-0.0064117117
187	0x3c33d77a	0.010976667
188	0x3cc647b1	0.024204107
189	0xbcfcd0fa	-0.030861367
190	0x3bd87eab	0.006606897
191	0xbdbc5f45	-0.09197859
192	0x3d80ca2b	0.062885605
193	0x3d213158	0.0393537
194	0x3d441aa4	0.04787697
195	0xbd7120e1	-0.058869246
196	0x3c1980c8	0.009369083
197	0x3d593dad	0.053037334
198	0x3d0a0ae5	0.033701796
199	0xbcb1a4e4	-0.021685071
200	0xbd4c6b36	-0.04990693
201	0xbbbb28ec	-0.0057116654
202	0xbd64b93c	-0.055840716
203	0x3d6367bf	0.05551886
204	0x3d63af2e	0.055586986
205	0x3d06b6fb	0.032889348
206	0xbd136b13	-0.035990786
207	0xbd60bc1d	-0.0548669
208	0xbb9e8c1f	-0.004838481
209	0xbd52acc7	-0.051434305
210	0x3c5e50a5	0.013569032
211	0x3d6d9a6b	0.058008593
212	0xbd4ee43d	-0.050510634
213	0xb9f56252	-0.00046803296
214	0x3bd3bcbd	0.0064617083
215	0x3cf2a70e	0.029620674
216	0x3c82476a	0.015903194
217	0x3c9d5b0a	0.01920845
218	0xbdb64eb9	-0.08901734
219	0x3cb570b6	0.022148471
220	0x3c20f679	0.009824389
221	0xbc42e75c	-0.011895981
222	0x3cdc8157	0.026917143
223	0xbc8c05b9	-0.017092573
224	0xbd1960d1	-0.037445847
225	0x3db6fe44	0.08935216
226	0x3c82f2ff	0.01598501
227	0xbd438164	-0.04773082
228	0xbdec6bfc	-0.11544034
229	0x3abe9d80	0.0014542788
230	0x3d96adbb	0.07357355
231	0xbd7c0f05	-0.06153776
232	0x3d1628d7	0.03666004
233	0x3e111428	0.14167845
234	0xbd155ed0	-0.036467373
235	0xbd9b46bf	-0.07581853
236	0xbd04ca65	-0.03241958
237	0x3d986fea	0.07443221
238	0x3d155831	0.03646106
239	0x3d8253b1	0.06363619
240	0xbc8bc30f	-0.017060785
241	0xbd7959d7	-0.060876694
242	0x3d2682f3	0.040652227
243	0xbcb0ab4f	-0.021566061
244	0x3d606897	0.054787245
245	0xbc39c309	-0.011338004
246	0xbd63e624	-0.0556394
247	0xbc0dc9d0	-0.008654073
248	0xbc141c7a	-0.0090399925
249	0x3c56820a	0.013092527
250	0x3c1f6305	0.009728198
251	0x3b922001	0.0044593816
252	0x3bbdf32a	0.0057968097
253	0x3ce2924c	0.02765765
254	0xbd315ca8	-0.043301255
255	0xbd9f7232	-0.07785453

fcs1.bias f4 [256]
0	0x3c21014a	0.0098269675
1	0x3e40ced0	0.18828893
2	0xbbf2271b	-0.0073899156
3	0x3e3f23bc	0.18665975
4	0xbca29257	-0.01984517
5	0xbe514ada	-0.2043871
6	0xbe60ac67	-0.21940766
7	0xbe2a3cef	-0.16624807
8	0x3d4287ed	0.04749291
9	0x3d6a9221	0.057268266
10	0xbd970a25	-0.07374982
11	0xbcef782c	-0.029232107
12	0x3da3163f	0.079632275
13	0xbd22557a	-0.039632298
14	0x3d818ae5	0.0632532
15	0xbcc6bf9f	-0.024261294
16	0xbe18f2ad	-0.14936323
17	0xbe0b4df1	-0.13603951
18	0x3dd8d4a3	0.10587432
19	0xbe1a7ff2	-0.1508787
20	0x3c47b6ff	0.012189626
21	0xbc09b682	-0.00840533
22	0x3d97f7e5	0.07420329
23	0x3cc42618	0.023943946
24	0xbd389d32	-0.045071788
25	0xbd87bcf5	-0.066278376
26	0x3d5dd890	0.05416161
27	0xbd920066	-0.07128982
28	0x3d548292	0.051882334
29	0x3cf9afec	0.030479394
30	0x3da0c7ba	0.07850595
31	0xbd5145c9	-0.051091943
32	0xbe259c51	-0.16172911
33	0xbdafde15	-0.08587281
34	0x3db81e97	0.089902095
35	0xbd9bf47b	-0.0761499
36	0x3e231f98	0.15930021
37	0x3dac21f8	0.084049165
38	0xbe05b9c3	-0.13059144
39	0x3d55f6ae	0.052237205
40	0xbddf566d	-0.10905156
41	0xbe130a1c	-0.14359325
42	0x3d8163a3	0.06317832
43	0xbe1585ef	-0.14601873
44	0xbd3b25f4	-0.04569049
45	0xbe355f1a	-0.1771206
46	0x3dacb0af	0.08432137
47	0x3d8d28b8	0.06892532
48	0x3dfbfc09	0.12303931
49	0xbdf9bc5e	-0.12194131
50	0xbdea8cec	-0.1145266
51	0x3cc3fab0	0.023923248
52	0xbe16678e	-0.1468794
53	0xbda0104d	-0.07815609
54	0xbe48f0c0	-0.19623089
55	0x3de488e6	0.11158924
56	0xbd94108f	-0.07229721
57	0xbd85dc69	-0.065361805
58	0x3d63df31	0.055632774
59	0x3d3bbbd8	0.04583344
60	0xbe061d23	-0.13097052
61	0x3dd9e148	0.10638672
62	0xbe4047ac	-0.1877734
63	0xbd8009e4	-0.062518865
64	0xbe03e7a5	-0.12881334
65	0xbe069541	-0.13142873
66	0x3d45b71f	0.04827034
67	0x3e1331cd	0.14374466
68	0x3d670dfd	0.056409825
69	0xbccd6941	-0.025074603
70	0x3d5b2733	0.05350418
71	0x3e050d1c	0.12993282
72	0xbd3bc349	-0.045840535
73	0xbe055425	-0.1302038
74	0x3c567e63	0.013091656
75	0x3d7b19fc	0.061304078
76	0x3d841d74	0.0645093
77	0xbdc000b9	-0.09375138
78	0x3e4abaf8	0.19797885
79	0xbdf902e9	-0.12158758
80	0x38f24a0f	0.00011553254
81	0x3de51cd0	0.11187136
82	0xbd952e12	-0.07284178
83	0x3d8a7f68	0.06762582
84	0x3de1d87c	0.11027619
85	0xbd90c6b2	-0.07069148
86	0x3e07bb26	0.13254985
87	0x3d89869a	0.06715126
88	0x3dcf9a7a	0.10136886
89	0x3e064a7a	0.13114348
90	0x3de2b3bf	0.1106944
91	0x3d0f2594	0.034947947
92	0x3e060c42	0.13090613
93	0xbe5ee262	-0.21766046
94	0xbe71734a	-0.23579136
95	0x3b8abaf6	0.0042337133
96	0x3e49ebdc	0.1971888
97	0xbde63e85	-0.112423934
98	0x3e34b29a	0.17646256
99	0xbd93d8b5	-0.07219068
100	0xbc22c5f3	-0.00993489
101	0xbdcc2a4a	-0.099690035
102	0x3b067141	0.0020514282
103	0xbdb7cd37	-0.089746885
104	0xbdfdda06	-0.123951
105	0x3d23dc33	0.04000492
106	0xbcf433ff	-0.02980995
107	0x3d1bfdc4	0.038083807
108	0x3d78f597	0.060781088
109	0xbdd952d6	-0.10611503
110	0x3da913e3	0.08255746
111	0x3e4c41bf	0.19946955
112	0xbdc49c05	-0.09600071
113	0x3e018eed	0.12652178
114	0x3d976dcf	0.07393991
115	0xbe229a6b	-0.15879218
116	0x3ccc5b30	0.024945825
117	0xbe3fd23d	-0.18732543
118	0xbc438211	-0.011932866
119	0xbe0c1e5a	-0.13683453
120	0x3e068583	0.13136868
121	0x3cc090fc	0.023506634
122	0x3e100ba8	0.14066947
123	0xbd5b74b5	-0.053578097
124	0xbe11c503	-0.1423531
125	0x3ddfa65e	0.10920404
126	0x3c94ae0a	0.018149395
127	0x3d6e6b33	0.058207702
128	0x3a2d487a	0.0006610226
129	0x3db1b2ce	0.086766824
130	0xbdd58b81	-0.10426999
131	0xbe63153f	-0.22176073
132	0x3c48d3dc	0.012257542
133	0x3dd7cdb1	0.105372794
134	0xbc263d93	-0.010146516
135	0xbc7918c3	-0.015203658
136	0xbe30a317	-0.17249714
137	0x3d59fd73	0.053220224
138	0xbe6ce4be	-0.23134133
139	0xbe00101b	-0.12506144
140	0x3dcbd1fa	0.09952159
141	0xbe4afa7c	-0.19822115
142	0xbe08d317	-0.13361774
143	0xbe20c178	-0.15698802
144	0x3dfbc29c	0.12292978
145	0xbe0f477b	-0.13992111
146	0xbd11efd0	-0.035629094
147	0x3b9fb08a	0.00487334
148	0x3d888c77	0.066674165
149	0x3ded7435	0.1159443
150	0x3d27d272	0.04097218
151	0x3cb15e0f	0.021651296
152	0xbdeae3d3	-0.11469235
153	0x3dd1c599	0.10242767
154	0x3e2a88d2	0.16653755
155	0xbaa0916d	-0.0012250372
156	0x3ddaa296	0.10675542
157	0xbdafa848	-0.08577019
158	0xbc4690a9	-0.012119451
159	0xbdbb53ff	-0.0914688
160	0x3d94932d	0.07254634
161	0xbd9e5616	-0.07731263
162	0xbda8fa99	-0.08250923
163	0xbe43bee8	-0.19115794
164	0xbce15810	-0.027507812
165	0x3d32fd20	0.04369843
166	0x3e02ce8e	0.12774107
167	0x3bdf26f0	0.0068100616
168	0xbcc54ea9	-0.02408536
169	0x3d53d6be	0.051718466
170	0x3c9f8e9c	0.019477181
171	0x3e2d2ac6	0.16910848
172	0x3e45eeba	0.19329348
173	0x3e2b9158	0.16754663
174	0x3cd103f3	0.025514578
175	0x3d0d3c9b	0.034481626
176	0x3e1083ce	0.1411278
177	0xbcb5cda2	-0.02219278
178	0x3e368add	0.1782641
179	0xbdf034b4	-0.11728802
180	0x3b41a25a	0.0029546232
181	0x3d04617d	0.032319535
182	0xbe02b1b1	-0.12763096
183	0xbd445f5d	-0.047942508
184	0xbca3db24	-0.020001955
185	0xbd00eaf0	-0.031474054
186	0xbd77764b	-0.060415547
187	0xbc4203f8	-0.011841767
188	0xbc7a34ff	-0.015271424
189	0x3e5fb256	0.21845374
190	0xbd687882	-0.05675555
191	0x3e0f8155	0.1401418
192	0xbd17d305	-0.03706648
193	0x3e2cf695	0.16890939
194	0x3e409ca8	0.1880976
195	0xbd3d2c2d	-0.046184707
196	0xbcb59db9	-0.022169935
197	0xbdfbfcef	-0.12304103
198	0x3a99a109	0.0011720966
199	0xbe0f2633	-0.13979416
200	0xbdc86d12	-0.097864285
201	0x3c4f2ba0	0.012644678
202	0x3cc6c132	0.024262045
203	0xbdbd0117	-0.092287235
204	0x3df704cf	0.12061464
205	0x3d6495f7	0.05580708
206	0xbda4ebdb	-0.08052798
207	0x3dbf0c17	0.09328478
208	0xbe22057a	-0.15822402
209	0xbc7135ab	-0.014722268
210	0x3e5c61f1	0.21521737
211	0x3da40856	0.080094025
212	0x3d817367	0.063208394
213	0x3cbc541e	0.022989329
214	0xbd2fbaa3	-0.0429026
215	0x3e0fe76b	0.14053123
216	0x3bf77cbb	0.007552711
217	0x3d1104a3	0.035404813
218	0x3cdd57f9	0.027019488
219	0xbc9f0fae	-0.019416656
220	0x3d641382	0.055682667
221	0xbdfee5b7	-0.124461584
222	0xbe05bace	-0.13059542
223	0xbe2e3fae	-0.1701648
224	0x3e3ee3ec	0.18641633
225	0xbda8cc86	-0.08242135
226	0xbe1df6fb	-0.15426247
227	0x3d1fd47e	0.039021008
228	0xbdaefc98	-0.08544272
229	0x3d778875	0.06043287
230	0xbd74abca	-0.059734143
231	0x3d8cd3ec	0.068763584
232	0xbe41332d	-0.18867178
233	0xbe45dc93	-0.19322424
234	0x3db1960b	0.086711966
235	0xbd9bed8c	-0.07613668
236	0xbd87ea80	-0.06636524
237	0x3d28bac6	0.041193746
238	0x3c8bdea1	0.017073931
239	0xbdb85ad0	-0.09001696
240	0x3d89868b	0.06715115
241	0xbddfb5bc	-0.10923335
242	0x3e11247a	0.14174071
243	0xbd7a99e0	-0.061181903
244	0x3d35564f	0.044271763
245	0x3e24b6c0	0.16085339
246	0x3def45c0	0.11683226
247	0x3dcb511c	0.0992758
248	0x3da97e1b	0.08276006
249	0xbdf9aa8f	-0.121907346
250	0x3d9dbb38	0.07701725
251	0xbdc5b55e	-0.09653734
252	0x3e116f37	0.14202581
253	0xbd8f3541	-0.06992579
254	0x3da26317	0.07929056
255	0x3cbcd3ff	0.023050306

fc2.weight f4 [128, 260]
0	0x3cbda63c	0.023150556
1	0x3c16e047	0.009208745
2	0x3dc188f7	0.09449952
3	0xbb02fd84	-0.0019987533
4	0x3ddd20af	0.107972495
5	0xbe8c5b56	-0.27413434
6	0xbd8edc5b	-0.06975623
7	0x3daccba9	0.084372826
8	0xbc81be41	-0.01583779
9	0xbd9af1c1	-0.07565642
10	0x3cf2460b	0.029574415
11	0x3bfdcff9	0.0077457395
12	0xbd162b8d	-0.036662627
13	0x3d7ac7e0	0.061225772
14	0xbd1c8c5b	-0.03821979
15	0x3bcdbb52	0.006278434
16	0xbc6a162e	-0.014287515
17	0xbd7734c6	-0.060353063
18	0x3c1c2e92	0.009532588
19	0x3df4502f	0.11929356
20	0x3da2dc4a	0.07952173
21	0xbd25820c	-0.040407225
22	0x3d2c96a0	0.042135835
23	0xbe33db92	-0.17564228
24	0x3d2d696b	0.042336863
25	0xbb56af37	-0.0032758245
26	0x3d9437b1	0.07237185
27	0xbe8410ba	-0.2579401
28	0x3d991e32	0.074764624
29	0xbd087531	-0.033314887
30	0x3d2fa6a2	0.042883523
31	0x3d2276cf	0.039664086
32	0x3c3056fb	0.010762925
33	0x3ce2b6ec	0.027675115
34	0x3ca09723	0.019603318
35	0xbc547987	-0.0129684275
36	0xbc218e8e	-0.009860648
37	0xbd2141ec	-0.03936951
38	0x3d9bc571	0.07606018
39	0xbd246d5d	-0.04014336
40	0xbda5cad8	-0.0809533
41	0xbd4583a7	-0.048221257
42	0xbcbd8f91	-0.023139747
43	0xbc624153	-0.01380952
44	0xbb702d3d	-0.0036648058
45	0x3d8a4477	0.0675134
46	0x3d184a0b	0.037179988
47	0xbd3277f9	-0.043571446
48	0xbd900782	-0.07032682
49	0x3aa93179	0.0012908421
50	0x3ce28989	0.027653472
51	0x3dac7c83	0.08422186
52	0x3d7aa7f9	0.061195347
53	0xbd94c00e	-0.07263194
54	0xbbd58fec	-0.006517401
55	0xbd807e6e	-0.062741145
56	0xbd9f8ccf	-0.07790529
57	0x3d80b3f4	0.06284323
58	0xbda0a3f1	-0.07843769
59	0x3d1c9fb0	0.038238227
60	0xbca27615	-0.019831697
61	0x3ded8b80	0.11598873
62	0x3d587687	0.05284741
63	0x3d698832	0.05701465
64	0x3d0ca911	0.03434092
65	0xbc2fee19	-0.010737919
66	0xbd5211ad	-0.05128639
67	0x3d9ad7b2	0.07560672
68	0xbdaf4aea	-0.085592106
69	0xbdf3ecd1	-0.119104035
70	0xbdc9418e	-0.09826957
71	0x3d375f02	0.04476834
72	0xbad2b1fc	-0.0016074772
73	0x3d91dd0f	0.07122242
74	0xbd840c85	-0.064477004
75	0xbd53f0b9	-0.051743243
76	0xbc58a3ce	-0.013222648
77	0x3d394586	0.04523232
78	0x3d5f23ab	0.054477375
79	0xbd507b4d	-0.05089884
80	0xbd94721a	-0.07248326
81	0xbc555fcd	-0.013023329
82	0xbcced0db	-0.025246074
83	0xbdee5569	-0.116373844
84	0xbda8f3a3	-0.08249595
85	0x3d83394c	0.06407413
86	0x3d057db0	0.032590568
87	0xbccb2cef	-0.0248017
88	0xbd39ed85	-0.045392532
89	0xbe1099c1	-0.14121152
90	0x3dddfdf7	0.108394556
91	0xbe500896	-0.20315775
92	0xbc5afd81	-0.013366104
93	0xbe4e6af0	-0.20157981
94	0x3d4c230c	0.04983811
95	0xbbba2526	-0.005680698
96	0x3c892042	0.016739015
97	0xbd94808d	-0.072510816
98	0x3d423c08	0.04742053
99	0x3d5d0269	0.053957377
100	0xbdd1687f	-0.10225009
101	0xbd5b99d9	-0.053613517
102	0xba40cd56	-0.0007354816
103	0x3cdc13af	0.026864855
104	0xbd823c54	-0.06359163
105	0x3dc4c454	0.09607759
106	0x3dd57f74	0.104247004
107	0x3d3df6b3	0.04637785
108	0x3dafc859	0.08583135
109	0x3c9dcc55	0.019262472
110	0xbd59b0ea	-0.053147234
111	0x3d2c5747	0.04207542
112	0x3d9226bc	0.07136294
113	0x3c055f35	0.008140375
114	0xbd4db33f	-0.05021977
115	0xbdcedc92	-0.10100664
116	0xbd76e105	-0.06027319
117	0xbdc3f2ba	-0.09567781
118	0xbc5833fc	-0.013195988
119	0xbcc276e9	-0.023738341
120	0xbc0a3489	-0.008435377
121	0x3bcff65b	0.0063465065
122	0xbd06e0fb	-0.0329294
123	0xbd5a0c0a	-0.053234138
124	0x3d516171	0.051118318
125	0xbc8c076d	-0.017093385
126	0x3dc38c74	0.09548274
127	0x3d84a4be	0.064767346
128	0x3d887a94	0.06664005
129	0x3dc1b2df	0.09457945
130	0xbd4d89d5	-0.050180275
131	0x3dc37c33	0.095451735
132	0x3e000676	0.12502465
133	0xbda898a4	-0.08232239
134	0xbe4d4c59	-0.20048656
135	0x3d90cb1c	0.0706999
136	0x3d7d68f4	0.06186767
137	0x3c839c31	0.016065689
138	0x3ceff154	0.029289879
139	0x3d2860b5	0.041107852
140	0xbd366087	-0.04452565
141	0xbe1e740e	-0.15473959
142	0xbd2c2e5a	-0.04203639
143	0xbc87c22b	-0.016572079
144	0x3d89416b	0.067019306
145	0xbcce7056	-0.02520005
146	0x3b322f3f	0.0027188805
147	0x3d10cbbb	0.035350543
148	0xbe063ff8	-0.1311034
149	0xbbd8a7f8	-0.0066118203
150	0xbd7f253c	-0.06229137
151	0x3d539d30	0.051663578
152	0xbd02ff37	-0.031981673
153	0x3e0c042c	0.13673466
154	0x3d06aead	0.032881428
155	0x3d4e3413	0.05034263
156	0xbdeed0d5	-0.11660925
157	0xbcf02a74	-0.029317118
158	0x3d94985f	0.07255625
159	0x3dc037f7	0.093856744
160	0xbae991bc	-0.0017819921
161	0x3e1894a5	0.14900453
162	0xbd376f3d	-0.04478382
163	0xbdd0a2d7	-0.10187309
164	0x3d3a1faa	0.045440353
165	0xbde62b01	-0.11238671
166	0x3d335cae	0.043789558
167	0x3d8a5b09	0.06755645
168	0x3da60f82	0.08108427
169	0xbd943f5d	-0.07238648
170	0x3db1bc62	0.08678509
171	0xbd83d004	-0.0643616
172	0xbcb3bfa3	-0.021941965
173	0xbbee4178	-0.007270988
174	0x3d320d79	0.04346988
175	0xbd8606be	-0.06544255
176	0xbcc0c668	-0.023532107
177	0xbc8701de	-0.016480383
178	0x3c423c12	0.011855142
179	0xbd76b04a	-0.060226716
180	0xbd3e2dde	-0.04643046
181	0x3d2a99ad	0.041650463
182	0xbd70a21b	-0.058748346
183	0x3d932049	0.07183892
184	0xbd7bc569	-0.061467562
185	0xbdfbdf5f	-0.12298464
186	0xbdbcc171	-0.092165835
187	0x3d9969b3	0.07490864
188	0x3d01b7ad	0.031669308
189	0x3d9f16d2	0.077680245
190	0xbc1b9012	-0.009494798
191	0xbc3bbef8	-0.011459105
192	0xbd884e74	-0.06655589
193	0x3e11a5fb	0.14223473
194	0x3b9683c0	0.0045933425
195	0xbc5163b0	-0.012780115
196	0x3deab271	0.11459816
197	0xbdf550cd	-0.11978302
198	0x3d5fbaf3	0.054621648
199	0x3d27f349	0.0410035
200	0x3c9e6ffd	0.01934051
201	0x3d388d86	0.045056842
202	0xbc7ae362	-0.015313001
203	0x3d8aceb4	0.06777707
204	0xbd1fae7b	-0.038984757
205	0x3d4784dc	0.04871069
206	0x3bd26ab4	0.0064214114
207	0x3c8fc51e	0.017550047
208	0xbda63af3	-0.081167124
209	0x3cb2a452	0.02180687
210	0xbc1f4eab	-0.009723346
211	0x3bb8f1d9	0.005644065
212	0x3dbe63f9	0.09296412
213	0xbd3e0085	-0.046387214
214	0x3d8cacd1	0.068688996
215	0x3c9128e7	0.0177197
216	0x3cbe16e2	0.02320427
217	0xbdbe117f	-0.09280681
218	0xbdccf3a7	-0.100074105
219	0xbdc1b7b6	-0.09458868
220	0x3c106eec	0.008815508
221	0x3dddbf0f	0.10827457
222	0xbd8fe9cc	-0.07027015
223	0x3d1ebbd3	0.038753342
224	0x3c9795ed	0.018504107
225	0xbe059477	-0.13044916
226	0x3ba1d0d8	0.004938226
227	0x3cd1e779	0.02562307
228	0xbd4ed50e	-0.050496154
229	0x3cadd3e1	0.021219196
230	0x3d7b5c9d	0.06136762
231	0x3d214031	0.03936786
232	0x3ce724af	0.028215734
233	0x3d11e1ab	0.035615604
234	0xbda2a5b3	-0.07941761
235	0xbda09719	-0.078413196
236	0x3da2a495	0.07941548
237	0xbd111dfd	-0.03542899
238	0xbe31a543	-0.17348199
239	0x3d2d4be2	0.042308696
240	0xbe32cf42	-0.17461875
241	0x3d9ed74f	0.077559106
242	0xbd128bc9	-0.03577784
243	0xbde71227	-0.11282759
244	0x3cb3ef4b	0.02196469
245	0x3d272fc7	0.04081705
246	0xbd3ca861	-0.046059016
247	0x3c0c0ec6	0.008548444
248	0x3d41f11e	0.047349088
249	0x3d900fae	0.07034241
250	0xbd45531a	-0.048174955
251	0x3d6ebf13	0.05828769
252	0x3ca517af	0.020152895
253	0xbc20a382	-0.009804608
254	0xbd45d2e6	-0.04829683
255	0xbcaf4edd	-0.02139991

fc2.bias f4 [128]
0	0x3caf16f9	0.021373259
1	0x3bb9bac8	0.005668018
2	0x3db6c6de	0.0892465
3	0xbd221c07	-0.03957751
4	0x3d051cfb	0.03249834
5	0x3de555af	0.111979835
6	0xbd392d54	-0.045209244
7	0x3bff59bc	0.0077926796
8	0x3cc34512	0.023836646
9	0x3c5fd047	0.013660497
10	0x3d92c4b3	0.07166424
11	0x3d9aeb8c	0.07564458
12	0x3df76627	0.12080031
13	0xbdc1d1a6	-0.094638154
14	0xbd14c400	-0.036319733
15	0xbd98a19b	-0.07452699
16	0x3d874446	0.06604819
17	0xbd9ca21d	-0.07648108
18	0x3d24606b	0.040131014
19	0x3da59765	0.08085517
20	0x3e22c3e2	0.15895036
21	0x3dc1a644	0.09455541
22	0xbd44dfe9	-0.0480651
23	0xbd8c7367	-0.06857949
24	0x3dca576b	0.09879955
25	0xbc023c7f	-0.007948994
26	0x3dd03fad	0.10168395
27	0xbd3c9aa7	-0.046045925
28	0x3e1763fd	0.14784236
29	0xbd66fcd9	-0.056393478
30	0x3dc1024b	0.094242655
31	0x3d10d0e2	0.035355456
32	0x3d88022d	0.0664104
33	0xbd82065c	-0.06348869
34	0x3d8dd5b2	0.06925525
35	0x3c5c2f32	0.013438987
36	0x3c85b04d	0.016319418
37	0x3ca2518e	0.019814279
38	0x3dfac977	0.122454576
39	0x3bcc8912	0.006241926
40	0x3cc24480	0.023714304
41	0x3b6d17e1	0.0036177563
42	0x3cef2615	0.029192964
43	0x3d6232fc	0.055224404
44	0xbd6977fb	-0.056999188
45	0x3e176716	0.14785418
46	0x3d1f72d5	0.03892787
47	0xbcebc45d	-0.028780157
48	0x3d2e64d9	0.042576645
49	0xbae4593d	-0.0017421615
50	0xbd8b8b34	-0.0681366
51	0xbdbeedc5	-0.09322695
52	0x3d8f7119	0.070039935
53	0xbd0ed7cc	-0.03487377
54	0xbd2aad3c	-0.041669115
55	0xbdb2b227	-0.08725386
56	0x3dc3d4e7	0.09562092
57	0xbca58294	-0.020203866
58	0xbd0e7974	-0.034783795
59	0xbd16c93d	-0.03681301
60	0xbdbe6e72	-0.092984095
61	0x3d2c8ba2	0.04212535
62	0x3db244a8	0.087045014
63	0x3e015c33	0.12632827
64	0xbc743959	-0.014906251
65	0xbd11fac2	-0.035639532
66	0x3adc9be7	0.001683113
67	0x3daba6f7	0.083814554
68	0xbcd49339	-0.025949107
69	0x3dfb6a73	0.12276163
70	0xbc35d77f	-0.011098742
71	0xbd1fdd9e	-0.03902971
72	0x3d733d6f	0.05938476
73	0x3d222536	0.03958627
74	0x3cbbf995	0.022946158
75	0x3dd92cf3	0.106042765
76	0x3dd022c1	0.10162879
77	0xbdae1dd5	-0.08501784
78	0xbd1003ef	-0.03516
79	0xbc89fe4a	-0.016844887
80	0x3d48d184	0.049027935
81	0x3daedb10	0.085378766
82	0xbd760528	-0.06006351
83	0x3d13520a	0.03596691
84	0x3c7ad3f7	0.015309325
85	0x3e0e4d9e	0.13896796
86	0xbc964fbf	-0.018348573
87	0x3d8a8c4f	0.06765043
88	0x3e110d8b	0.14165322
89	0x3e34b746	0.17648038
90	0x3e280356	0.16407523
91	0x3d8720ed	0.06598077
92	0xbcc06296	-0.02348451
93	0x3de1f6ed	0.110334255
94	0x3c37abfe	0.01121044
95	0x3cf8ae7b	0.030356636
96	0xbda31beb	-0.07964309
97	0xbd495817	-0.049156275
98	0x3e14fac7	0.14548789
99	0xbd71a205	-0.058992404
100	0xbda9fcb2	-0.08300151
101	0x3d29e2ba	0.04147599
102	0xbd15a767	-0.0365366
103	0x3dcde803	0.10054018
104	0x3c5107f9	0.0127582485
105	0xbb8f37e0	-0.0043706745
106	0x3cf5ff1a	0.030028868
107	0xbdb773e0	-0.08957648
108	0x3d143147	0.036179807
109	0x3ca636bf	0.020289777
110	0x3cfff592	0.031245027
111	0x3b25cbbf	0.0025298444
112	0xbc3645d2	-0.011125045
113	0xbd880f18	-0.06643504
114	0x3d97cd5c	0.07412216
115	0xbce88f23	-0.028388565
116	0x3c2f83bf	0.010712563
117	0x3d4ec7a4	0.05048336
118	0xbc7e5db9	-0.015525275
119	0xbd2efcda	-0.042721607
120	0xbda3b225	-0.07992963
121	0xbd286e33	-0.04112072
122	0x3d771e7a	0.0603318
123	0x3d3c54a3	0.045979153
124	0xbd05c10c	-0.032654807
125	0xbdb99f38	-0.09063572
126	0xbd336ab5	-0.043802936
127	0x3de1dfa6	0.11028986

fc3.weight f4 [1, 128]
0	0x3da9b287	0.082860045
1	0xbe3c977d	-0.18417163
2	0x3e2b9988	0.16757786
3	0xbd49b80c	-0.049247786
4	0x3d73211b	0.059357744
5	0x3d940c61	0.072289236
6	0x3daac0bc	0.083375424
7	0x3db20ce7	0.08693867
8	0x3d55dd84	0.052213207
9	0xbe2ee67c	-0.1708011
10	0x3d374fde	0.0447539
11	0x3dfc5f24	0.12322834
12	0x3dabb30d	0.083837606
13	0xbd083cbb	-0.033261042
14	0xbe876dc3	-0.2645093
15	0xbdb92fec	-0.090423435
16	0x3d8bd3b5	0.06827489
17	0xbdc8bca6	-0.09801607
18	0x3d23cbe4	0.039989367
19	0x3e3adc3e	0.18248078
20	0x3d85981b	0.065231524
21	0x3dae83f0	0.08521259
22	0xbdf6790c	-0.120348066
23	0xbde3ce4d	-0.11123333
24	0x3d801ead	0.06255851
25	0xbd8775b7	-0.06614249
26	0x3dda522d	0.10660205
27	0xbdd0b4b6	-0.10190718
28	0x3da16c48	0.07881981
29	0xbe8cbaf1	-0.27486375
30	0x3d6dc65c	0.0580505
31	0xbdfa272d	-0.122145034
32	0x3d518016	0.051147543
33	0xbe209b9b	-0.15684359
34	0x3d7508f4	0.05982299
35	0x3e15931a	0.14606896
36	0xbd9555d5	-0.07291762
37	0x3de8f1c1	0.11374236
38	0x3d600160	0.05468881
39	0xbe58011d	-0.21094175
40	0x3d37e485	0.044895668
41	0xbe565b35	-0.2093323
42	0x3de8f209	0.113742895
43	0x3d64ee99	0.055891607
44	0xbdc7bd42	-0.09752895
45	0x3dfd7347	0.12375503
46	0x3e08e58f	0.1336882
47	0xbd9fd267	-0.07803803
48	0x3dd24f01	0.10268975
49	0xbe31acd9	-0.17351092
50	0xbe50d242	-0.20392707
51	0xbcacddf9	-0.021101939
52	0x3d50f8df	0.051018592
53	0xbd87f47b	-0.06638428
54	0xbdd94aa8	-0.10609943
55	0xbdefaaf0	-0.117025256
56	0x3dc18003	0.094482444
57	0xbdbd4a13	-0.09242644
58	0xbe4b7de7	-0.19872247
59	0xbdf55369	-0.119788
60	0xbd009140	-0.03138852
61	0x3d8fb54d	0.07017002
62	0x3d2497ff	0.040184017
63	0x3d4134bc	0.047169432
64	0xbdc1eab7	-0.094685964
65	0xbd9a4229	-0.0753215
66	0xbd89b6ff	-0.06724357
67	0x3d81b1c7	0.063327365
68	0xbe1a5f4b	-0.15075414
69	0x3d932efd	0.07186697
70	0xbd40ec1d	-0.047100175
71	0xbe6e65dc	-0.23281044
72	0x3e012615	0.12612183
73	0x3d50787b	0.05089615
74	0x3d4e69a2	0.050393708
75	0x3d7e824d	0.062135983
76	0x3d04bbac	0.03240554
77	0xbd336599	-0.043798063
78	0x3d60cf5b	0.05488525
79	0x3e0bff31	0.13671567
80	0x3d852008	0.0650025
81	0x3d66bd8e	0.056333117
82	0xbde0aac9	-0.10970075
83	0x3d5b7a49	0.053583417
84	0x3d7c44de	0.061589114
85	0x3d31a115	0.04336651
86	0xbd2deac3	-0.042460214
87	0x3daa3c2c	0.08312258
88	0x3d8bb648	0.06821877
89	0x3d703236	0.058641635
90	0x3da0cb03	0.078512214
91	0x3d43fc42	0.047847994
92	0xbe4fd4b8	-0.2029599
93	0x3db35993	0.08757319
94	0x3d7d7727	0.06188121
95	0x3d3f5048	0.04670742
96	0xbd313ff9	-0.0432739
97	0xbd81dbfb	-0.06340786
98	0x3ddd7953	0.108141564
99	0xbe179f40	-0.14806843
100	0xbe335e10	-0.17516351
101	0x3d8ad72f	0.06779324
102	0xbe4005b5	-0.18752177
103	0x3d543f09	0.051817928
104	0x3d8e942a	0.06961854
105	0xbd9fc146	-0.07800536
106	0x3da82261	0.08209682
107	0xbd89bcaa	-0.06725438
108	0x3d9a8655	0.07545153
109	0xbddd79fa	-0.10814281
110	0x3d10e4f9	0.035374615
111	0xbdb22218	-0.08697909
112	0xbde93074	-0.11386195
113	0xbd8b1532	-0.06791152
114	0x3d8f283f	0.06990098
115	0xbde89ad0	-0.11357653
116	0xbe09a5bc	-0.13442129
117	0x3dfa4000	0.12219238
118	0x3d81fd43	0.06347134
119	0x3c54d491	0.012990133
120	0xbe26138d	-0.16218396
121	0xbd41a844	-0.04727961
122	0x3daaab06	0.083334014
123	0x3d5a94a4	0.05336441
124	0xbe014ab4	-0.12626153
125	0xbe0c9210	-0.13727593
126	0x3d68da02	0.056848533
127	0x3d9062cb	0.07050093
