savedmodels/checkpoint_1545155274_critic_episode3_score1.273.pth (torch_old, 169980 bytes, 5 tensors)

fcs1.weight f4 [256, 33]
0.06020195 -0.024756674 0.024122113 -0.030474572 0.0491555 -0.06616676 0.005611613 -0.017244374
0.015585579 0.014224809 0.030882623 -0.031281434 -0.024517093 0.05719175 -0.038660537 -0.018112058
0.046342984 -0.050037596 -0.020042203 0.04495118 0.008203695 0.030289255 0.0014133328 0.01576055
-0.02984784 0.06333698 -0.02170421 -0.050148528 -0.02613066 -0.050394535 -0.0110633485 0.040429823
-0.01701078 -0.011112972 -0.053160515 0.045017935 0.012797164 0.028431514 0.053753912 0.047262236
-0.058548994 0.07625321 0.015087882 0.033085596 0.047899228 0.02182741 0.033047285 0.05108913
0.04423619 0.024716439 0.03415055 0.044915713 -0.014902535 -0.025596123 -0.02441895 0.057175674
-0.0075135524 -0.034896784 -0.043123417 -0.037371382 -0.05662483 0.056794964 0.020014852 0.04257115
0.0048096925 -0.01500257 0.00094871793 -0.018507289 0.0013326306 0.017776499 0.028231699 -0.0017888264
-0.073023744 -0.029385664 -0.019525237 0.0035299212 0.010553915 -0.04321596 0.052905314 -0.011809382
0.030319799 -0.06446942 0.04064684 -0.002713933 0.02447782 -0.02424939 -0.017486166 0.03458022
-0.023741724 -0.028733497 -0.02588592 -0.029007744 0.043631643 0.034329336 -0.048011202 -0.0031918436
0.032832377 -0.054345243 0.06708754 0.04736239 -0.007435119 0.04534318 0.030102922 -0.04943076
0.010030932 0.06375461 -0.008808297 0.0061153295 -0.008455848 -0.015297506 0.0065900227 -0.004305858
-0.043550644 0.03583246 -0.048986077 -0.021745877 0.01377994 -0.053868566 0.0076159695 0.056108773
0.050806295 -0.058453985 -0.027272237 -0.031578645 0.032117274 0.023310363 0.04907194 -0.012531816
-0.02473484 0.053807322 -0.010972619 0.07536045 0.02920109 -0.0039642076 0.016046127 -0.03948805
-0.02620627 0.011806191 0.06338353 0.035233136 -0.043963596 0.049212225 -0.014381358 0.051985476
0.0062569533 0.019077886 0.007381074 -0.035262775 -0.040699817 -0.0592023 -6.536249e-05 0.024593325
0.037361186 0.027354922 0.030255089 0.019743111 0.031275585 0.042327173 0.010912406 0.042341065
-0.05017877 0.017925903 -0.049868505 0.016678609 0.03807281 0.010482231 -0.0494574 -0.053195342
0.03646331 0.0023868086 -0.04910212 -0.0027660127 0.023498084 -0.06952805 0.018806277 0.022983124
-0.050847415 0.038543887 0.041306775 -0.093124755 -0.010008971 -0.0152552 0.042043988 -0.018516624
-0.02567615 0.0069652703 -0.020285739 -0.025232878 -0.0017723759 -0.015601399 0.017462786 -0.044263486
0.021304503 0.037105095 0.04787697 -0.017288163 0.009369083 0.0095974635 0.012369539 -0.036720194
-0.043352876 -0.043183282 0.014723748 0.02284924 0.057606556 -0.04523483 0.025242558 -0.044400264
-0.006306238 0.025396328 0.07568164 0.00026312494 0.0025834574 -0.005362482 0.053533074 0.033266798
0.015836062 0.05369115 -0.03211717 -0.017585853 0.03866836 0.0013715703 0.040767662 -0.0070918556
-0.047039248 0.039804015 0.035995193 -0.04773082 -0.06589228 0.0014542788 0.05271229 -0.036837418
-0.02357108 0.02396473 -0.043608475 -0.07467627 -0.026718069 0.05263401 0.070955835 0.01607648
0.07387086 -0.019087322 0.043240484 -0.052767742 0.007301782 -0.027831482 -0.04713892 -0.023485834
-0.048288483 0.035282474 0.00779091 -0.023043668 -0.07107127 0.036708266 0.049465876 -0.06321912
00000000: 5296 763d 82ce cabc bd9b c53c cfa5 f9bc
00000010: 4757 493d 7082 87bd 9fe1 b73b 1344 8dbc
00000020: a85a 7f3c 2c0f 693c 8efd fc3c f620 00bd
00000030: 12d8 c8bc e541 6a3d 835a 1ebd bd5f 94bc
00000040: 24d2 3d3d 39f4 4cbd 8c2f a4bc bb1e 383d
00000050: ca68 063c 2c21 f83c 943f b93a 451c 813c
00000060: 7583 f4bc d2b6 813d 07cd b1bc 8b68 4dbd
00000070: f70f d6bc 806a 4ebd 0c43 35bc be99 253d
00000080: 315a 8bbc 2f13 36bc d7be 59bd ba64 383d
00000090: 32ab 513c 35e9 e83c 102d 5c3d 0c96 413d
000000a0: 12d1 6fbd a52a 9c3d 2a33 773c c384 073d
000000b0: fb31 443d 66cf b23c 975c 073d d642 513d
000000c0: 0231 353d 217a ca3c 72e1 0b3d 8af9 373d
000000d0: c329 74bc f6ae d1bc 400a c8bc 0a31 6a3d
000000e0: 3f34 f6bb eeef 0ebd 2ea2 30bd bc12 19bd
000000f0: 70ef 67bd d6a1 683d 30f6 a33c 165f 2e3d
00000100: a09a 9d3b 57cd 75bc 62b3 783a 999c 97bc
00000110: aaab ae3a 05a0 913c 2a46 e73c 0e77 eaba
00000120: 798d 95bd 34ba f0bc 64f3 9fbc 4056 673b
00000130: 54ea 2c3c 3803 31bd 3eb3 583d 237c 41bc
00000140: 3a61 f83c 8b08 84bd 4d7d 263d 3ddc 31bb
00000150: b685 c83c a8a6 c6bc 263f 8fbc fda3 0d3d
00000160: 017e c2bc 8362 ebbc b50e d4bc a6a1 edbc
00000170: 18b7 323d eb9c 0c3d 65a7 44bd 402e 51bb
00000180: 3e7b 063d 1e99 5ebd 3165 893d 11ff 413d
00000190: 4ca2 f3bb c5b9 393d 679a f63c e977 4abd
000001a0: c758 243c c791 823d ad50 10bc 1a63 c83b
000001b0: 668a 0abc 64a2 7abc 1ef1 d73b 2818 8dbb
000001c0: 2962 32bd 0fc5 123d a0a5 48bd 6924 b2bc
000001d0: 42c5 613c 49a5 5cbd 628f f93b 50d2 653d
000001e0: 431a 503d 726d 6fbd 076a dfbc 9c58 01bd
000001f0: 678d 033d 60f5 be3c a9ff 483d 3f52 4dbc
00000200: b8a0 cabc 1165 5c3d 80c6 33bc 9456 9a3d
00000210: 2037 ef3c 2fe6 81bb 2b73 833c 39be 21bd
00000220: 88ae d6bc c16e 413c 39cf 813d 9f50 103d
00000230: 2c13 34bd c292 493d ca9f 6bbc b9ee 543d
00000240: 2107 cd3b 3a49 9c3c f0dc f13b b36f 10bd
00000250: dab4 26bd 1c7e 72bd 3813 89b8 f177 c93c
00000260: 0b08 193d 6e17 e03c 85d9 f73c 4ebc a13c
00000270: d41a 003d 425f 2d3d f3c9 323c d36d 2d3d
00000280: 4188 4dbd 58d9 923c eb42 4cbd 94a1 883c
00000290: 3cf2 1b3d aabd 2b3c d893 4abd 5ce3 59bd
000002a0: 8d5a 153d 016c 1c3b 4e1f 49bd fe45 35bb
000002b0: 0e7f c03c b964 8ebd 9f0f 9a3c 1b47 bc3c
000002c0: 6145 50bd 32e0 1d3d 4b31 293d 31b8 bebd
000002d0: abfc 23bc f2f0 79bc 5136 2c3d 2db0 97bc
000002e0: ca56 d2bc ec3c e43b 472e a6bc 2eb5 cebc
000002f0: 114f e8ba 039d 7fbc 1e0e 8f3c a14d 35bd
00000300: c886 ae3c 83fb 173d a41a 443d e89f 8dbc
00000310: c880 193c ae3e 1d3c 9ba9 4a3c ea67 16bd
00000320: c992 31bd f4e0 30bd e03b 713c 542e bb3c
00000330: daf4 6b3d 2848 39bd 7bc9 ce3c 0ddd 35bd
00000340: 8fa4 cebb f60b d03c fafe 9a3d 08f4 8939
00000350: 394f 293b c2b7 afbb 7f45 5b3d c442 083d
00000360: a1ba 813c 40eb 5b3d 4b8d 03bd 3510 90bc
00000370: b762 1e3d 43c6 b33a fefb 263d cc62 e8bb
00000380: 3aac 40bd 8909 233d b26f 133d 6481 43bd
00000390: 88f2 86bd 809d be3a d8e8 573d d5e2 16bd
000003a0: 2318 c1bc ae51 c43c cd9e 32bd dfef 98bd
000003b0: dadf dabc c296 573d 4b51 913d d2b2 833c
000003c0: 9b49 973d 045d 9cbc ef1c 313d fd22 58bd
000003d0: c943 ef3b d9fe e3bc bd14 41bd 5d65 c0bc
000003e0: 25ca 45bd 5b84 103d e44a ff3b 13c6 bcbc
000003f0: d08d 91bd 685b 163d bb9c 4a3d 0779 81bd

fcs1.bias f4 [256]
0.08524998 0.16077995 -0.039221015 0.14893864 -0.016144566 -0.1628108 -0.16986243 -0.08662676
-0.0063961316 0.13526247 -0.079013936 -0.0333182 0.11466136 -0.04259056 0.073752515 -0.018253237
-0.050670832 -0.11681354 0.17201269 -0.09285717 0.019702608 0.057050463 0.03083387 -0.0066158683
-0.031298373 -0.07547276 0.06925401 -0.051995497 0.059477754 0.10540383 0.060079943 -0.07593546
-0.12654296 -0.06821902 0.052597534 0.018548893 0.17107254 0.121213175 -0.07913022 0.10781302
-0.10248397 -0.045567956 0.120984666 -0.12838724 -0.054278977 -0.14425012 0.07376686 0.12692368
0.15313195 -0.05447531 -0.1381969 0.07158571 -0.10546572 -0.058176868 -0.1394182 0.12186699
-0.021470424 0.010350653 -0.0046311575 0.023596553 -0.08445 0.18826614 -0.16605571 -0.017697113
-0.09583643 -0.10805598 0.093887955 0.124393314 0.076741725 0.051220495 0.11565798 0.08532561
-0.061743814 -0.0785837 0.04260251 0.095258765 0.10917923 0.0030732956 0.17845613 -0.11909236
0.06442013 0.14761578 0.0067439694 0.099549375 0.13707982 -0.13451315 0.11893985 0.08372092
0.08078042 0.09102855 0.1087717 0.044096462 0.08806202 -0.15496461 -0.17701915 0.092694186
0.15848246 -0.0376508 0.14056435 -0.021754585 0.093963385 -0.015176835 0.08159989 -0.05198709
-0.122783564 0.09507672 -0.07364138 0.13815126 0.02541974 -0.07953342 0.17331791 0.15805721
-0.09261741 0.0660101 0.043062467 -0.11955291 0.024259936 -0.15027021 0.017863754 -0.15569836
0.14261882 0.07154073 0.14127551 0.051293127 -0.07965647 0.0828882 0.06392134 0.0980964
-0.021249186 0.16724543 -0.08372603 -0.16178147 0.062310513 0.14610298 0.023596555 -0.04722168
-0.14897427 0.11938038 -0.16669399 -0.08407197 0.11121023 -0.1027631 -0.10815102 -0.094997585
0.08257923 -0.0696597 -0.022115052 -0.019066073 0.08752619 0.14646071 0.009046207 0.00766308
-0.028456684 0.08645864 0.12099027 0.048966847 0.10276295 -0.058911204 -0.0050545027 -0.14152837
0.07295432 -0.10808099 -0.022325678 -0.15239063 0.027308665 0.06660449 0.10603722 -0.039653074
-0.006707581 0.16209438 -0.004826899 0.116242915 0.18506354 0.15803465 0.08661443 0.10990313
0.15766881 -0.02805686 0.12924805 -0.07570963 -0.060090058 0.0780918 -0.112343185 -0.07453072
0.0143754175 0.016097104 0.00193771 -0.034238163 0.04066093 0.15274909 -0.06182094 0.092907295
0.04048791 0.10918477 0.14213128 -0.01995225 -0.03509568 -0.05344975 -0.04566773 -0.082152314
-0.030946609 0.094927765 0.055574816 -0.07434692 0.098673806 0.0070584435 0.0038189546 0.07399183
-0.08039649 -0.026320742 0.13114126 0.09504391 0.08820622 -0.016365891 0.014941245 0.11186539
0.035009842 0.09777982 0.08372098 0.071681924 0.07315935 -0.108278506 -0.14798251 -0.13658455
0.13395247 -0.097429976 -0.13392363 0.030045858 -0.039583202 0.07260173 -0.052458026 0.13184784
-0.13806067 -0.18324603 0.13494782 -0.080379814 0.038512982 0.058972936 0.017069615 -0.09023167
0.016866522 -0.108852156 0.13302219 0.02789955 0.10706695 0.12982474 0.07027253 0.061975673
0.098800026 -0.09829599 0.11724898 -0.039100915 0.13873129 -0.0088175945 0.08911886 0.12773426
00000000: 8b97 ae3d 80a3 243e 37a6 20bd 5f83 183e
00000010: 9c41 84bc e0b7 26be 6bf0 2dbe 5f69 b1bd
00000020: a496 d1bb 3f82 0a3e 0fd2 a1bd aa78 08bd
00000030: 93d3 ea3d 7073 2ebd 8f0b 973d d087 95bc
00000040: 388c 4fbd f03b efbd 1824 303e e62b bebd
00000050: 5d67 a13c bfad 693d 5097 fc3c edc9 d8bb
00000060: b932 00bd 7691 9abd 0cd5 8d3d 3bf9 54bd
00000070: f29e 733d f7dd d73d 6316 763d 0d84 9bbd
00000080: 7a94 01be 6ab6 8bbd 8370 573d d9f3 973c
00000090: a42d 2f3e 9d3e f83d 060f a2bd 13cd dc3d
000000a0: 1ee3 d1bd 77a5 3abd cfc6 f73d f277 03be
000000b0: a253 5ebd 4eb6 13be 1413 973d 48f8 013e
000000c0: 9fce 1c3e 8121 5fbd 7d83 0dbe 879b 923d
000000d0: 69fe d7bd de4a 6ebd a5c3 0ebe 6795 f93d
000000e0: bee2 afbc c995 293c f7c0 97bb 8f4d c13c
000000f0: 1ff4 acbd d7c8 403e 820a 2abe 89f9 90bc
00000100: e445 c4bd 744c ddbd 5448 c03d ecc1 fe3d
00000110: c42a 9d3d 95cc 513d 17de ec3d 32bf ae3d
00000120: 15e7 7cbd 7ef0 a0bd f87f 2e3d 0717 c33d
00000130: 5c99 df3d 5869 493b 34bd 363e b2e6 f3bd
00000140: b3ee 833d 9728 173e 84fc dc3b 8be0 cb3d
00000150: a75e 0c3e d1bd 09be bc96 f33d e075 ab3d
00000160: 3470 a53d 2d6d ba3d b2c3 de3d 7e9e 343d
00000170: dc59 b43d 0baf 1ebe 8244 35be 73d6 bd3d
00000180: 3a49 223e ba37 1abd 1af0 0f3e ac36 b2bc
00000190: e06f c03d 42a8 78bc d81d a73d 6af0 54bd
000001a0: f375 fbbd 95b7 c23d 4bd1 96bd 8677 0d3e
000001b0: 0f3d d03c 6be2 a2bd 407a 313e c0d9 213e
000001c0: 32ae bdbd 4e30 873d 4562 303d 28d8 f4bd
000001d0: c6bc c63c 6fe0 19be 0257 923c 646f 1fbe
000001e0: ab0a 123e f283 923d 87aa 103e be18 523d
000001f0: ee22 a3bd 4ac1 a93d 31e9 823d c4e6 c83d
00000200: c612 aebc 6342 2b3e 8e78 abbd 0baa 25be
00000210: 4f39 7f3d 059c 153e 904d c13c 856b 41bd
00000220: b68c 18be b37d f43d d4b1 2abe ed2d acbd
00000230: 30c2 e33d 7675 d2bd 487e ddbd 188e c2bd
00000240: 4d1f a93d bfa9 8ebd a02a b5bc 7430 9cbc
00000250: ee40 b33d ccf9 153e 8b36 143c 931a fb3b
00000260: fe1d e9bc 3a11 b13d bfc9 f73d 7691 483d
00000270: 6275 d23d e04c 71bd 3ea0 a5bb d0ec 10be
00000280: 1369 953d 9159 ddbd 57e4 b6bc 4a0c 1cbe
00000290: 6cb6 df3c ef67 883d 0b2a d93d 436b 22bd
000002a0: 45cb dbbb 12fc 253e f72a 9ebb c410 ee3d
000002b0: 4c81 3d3e d6d3 213e e862 b13d e414 e13d
000002c0: ef73 213e 80d7 e5bc 9a59 043e a70d 9bbd
000002d0: fe20 76bd 98ee 9f3d 2f14 e6bd 90a3 98bd
000002e0: df86 6b3c 13de 833c c2fa fd3a 513d 0cbd
000002f0: 138c 263d 426a 1c3e f437 7dbd 2e46 be3d
00000300: a7d6 253d 449c df3d dd8a 113e e772 a3bc
00000310: 7dc0 0fbd 20ee 5abd 160e 3bbd 793f a8bd
00000320: be83 fdbc 7d69 c23d 6ba2 633d 3343 98bd
00000330: 7e15 ca3d 844a e73b 6d47 7a3b 0789 973d
00000340: eaa6 a4bd 999e d7bc e549 063e 62a6 c23d
00000350: 76a5 b43d c311 86bc 20cc 743c ae19 e53d
00000360: 7b66 0f3d c940 c83d e875 ab3d f9cd 923d
00000370: 92d4 953d 1fc1 ddbd ba88 17be d2dc 0bbe
00000380: d62a 093e 5e89 c7bd 4723 09be bb22 f63c
00000390: ff21 22bd 37b0 943d 3ade 56bd 1f03 073e
000003a0: c75f 0dbe d9a4 3bbe c32f 0a3e 2c9e a4bd
000003b0: cabf 1d3d 9b8d 713d 94d5 8b3c 62cb b8bd
000003c0: a92b 8a3c e1ed debd f836 083e 998d e43c
000003d0: eb45 db3d c7f0 043e 0beb 8f3d 34da 7d3d
000003e0: ab57 ca3d 684f c9bd 3c20 f03d 4828 20bd
000003f0: 930f 0e3e ac77 10bc f383 b63d c5cc 023e

fc2.weight f4 [128, 260]
0.029146243 0.0149876755 0.09330543 -0.042884897 0.07757092 -0.0767545 -0.071373254 0.0662583
-0.06355635 -0.080751106 0.0922746 -0.01585158 0.014399954 0.07373967 -0.053103033 0.011522475
0.022698166 -0.03447345 0.038599443 0.0539365 0.07680159 -0.058873147 0.0006046534 -0.061031166
0.034427326 -0.026913624 0.051026564 -0.10061762 0.07740802 -0.049334817 0.07953345 0.057514288
0.014561991 0.016760016 0.08580552 -0.05307301 0.034919493 -0.02795577 0.069405906 -0.05083072
-0.07510654 0.0015171544 -0.06273857 0.04154516 -0.024581345 0.0048887623 0.04982979 -0.05176941
-0.04978656 -0.0031447308 0.0026892012 0.034567524 0.023658179 -0.08180142 0.06653041 -0.08605058
-0.08806353 0.083667725 -0.082047395 0.02805635 0.020470303 0.058406837 0.075774945 0.026626617
0.033086978 0.07354678 -0.030214405 0.06310161 -0.052382153 -0.08601171 -0.06830297 -0.038317185
0.011349112 0.08046486 -0.081469685 -0.021821627 -0.034548037 0.075194106 0.053222768 -0.029507682
-0.021646747 -0.05164292 -0.057745308 -0.02163493 -0.004007585 0.05117117 0.061565988 -0.011909689
-0.05089015 -0.07263751 0.065231 -0.004476258 0.027702373 -0.07236443 0.029066408 0.011116773
0.022544727 -0.06077049 0.027719572 0.073511206 -0.04323201 -0.06685901 0.0104807755 0.011153782
-0.07992493 0.08641327 0.08953419 0.07802909 0.06689218 0.019583348 -0.03940112 0.048466608
0.059778173 -0.031728856 0.022661181 -0.05046584 -0.0435284 -0.08218097 -0.009148986 -0.023364604
-0.035540342 0.018154074 -0.05854197 -0.07750414 0.016465167 0.0021895394 0.076063715 -0.029342761
0.05127011 0.067344025 -0.049492657 0.07708587 0.048500236 -0.08465938 -0.012682378 0.057859328
0.05602792 0.02544248 -0.03203055 0.065743215 -0.00080716895 -0.03928235 -0.007603902 0.020241274
0.03995594 -0.044064496 -0.0026744024 -0.00040380796 -0.00021585685 -0.046094816 -0.02918509 0.06840411
-0.022614762 0.08553451 0.0770883 0.038729858 -0.062582105 0.035437565 0.09081424 0.07496771
-0.051884662 0.07442632 -0.043533344 0.02375322 0.06408276 -0.071551085 0.080644906 0.07423996
0.06089095 -0.06291024 0.074215874 -0.078433074 -0.040915318 -0.03937859 0.06256914 -0.047712952
-0.04335066 -0.053035583 -0.0053453986 0.04931159 -0.08091127 0.017351316 -0.027810315 0.08436107
-0.062452078 -0.042626966 -0.012266552 0.032390706 0.061408643 0.03985177 -0.042562872 -0.025899397
-0.043778915 0.08037364 -0.027771963 0.009988381 0.061863292 -0.0746313 0.0811933 -0.026146514
-0.033102416 0.03181752 -0.006047066 -0.014852683 -0.062195245 0.016460782 0.008759596 -0.039590042
-0.06211127 -0.0013160913 0.027103268 0.013264788 0.04716793 -0.015969507 0.026331555 -0.06528101
0.005016323 0.009529875 -0.013061721 -0.012380585 -0.0038909996 0.072031364 -0.082136266 -0.1127673
0.0341512 -0.07198303 -0.06109264 0.08099232 -0.04725742 0.018263323 0.055221427 0.066468194
-0.06581691 0.011727096 0.0371836 -0.08881692 0.059901223 -0.043871906 -0.04019207 0.08033605
-0.06708392 0.08313956 -0.01362705 -0.028227191 0.08288273 0.024114197 -0.06586329 -0.04931148
-0.015795471 0.047323994 -0.039760005 0.029079515 0.05627656 0.018238533 -0.034548067 -0.06197639
00000000: 1ac4 ee3c de8e 753c eb16 bf3d 13a8 2fbd
00000010: 81dd 9e3d 7731 9dbd 242c 92bd 6eb2 873d
00000020: d529 82bd d660 a5bd 77fa bc3d 2cdb 81bc
00000030: c9ed 6b3c d304 973d 9182 59bd c3c8 3c3c
00000040: 81f1 b93c 0834 0dbd 731a 1e3d 85ec 5c3d
00000050: 274a 9d3d f824 71bd 9a81 1e3a d1fb 79bd
00000060: ab03 0d3d f679 dcbc 3b01 513d 9c10 cebd
00000070: 1988 9e3d 4e13 4abd 6fe2 a23d 1a94 6b3d
00000080: 6b95 6e3c 4d4c 893c ceba af3d 1663 59bd
00000090: be07 0f3d 8003 e5bc af24 8e3d e033 50bd
000000a0: 75d1 99bd 41db c63a 147d 80bd 422b 2a3d
000000b0: d15e c9bc e931 a03b 521a 4c3d 290c 54bd
000000c0: feec 4bbd d417 4ebb 4f3d 303b ad96 0d3d
000000d0: ccce c13c 8187 a7bd 1841 883d 493b b0bd
000000e0: a75a b4bd fc59 ab3d 7708 a8bd 6ed6 e53c
000000f0: 56b1 a73c 023c 6f3d e52f 9b3d 1020 da3c
00000100: 3686 073d b29f 963d 3384 f7bc 6b3b 813d
00000110: ab8e 56bd e826 b0bd 6de2 8bbd 7bf2 1cbd
00000120: a0f1 393c c3ca a43d 94d9 a6bd 45c3 b2bc
00000130: 3e82 0dbd 5eff 993d 1e00 5a3d 18ba f1bc
00000140: 8554 b1bc 8787 53bd 5886 6cbd bd3b b1bc
00000150: 0f52 83bb dc98 513d 9e2c 7c3d db20 43bc
00000160: 3172 50bd fac2 94bd d597 853d 93ad 92bb
00000170: 16f0 e23c cd33 94bd ad1c ee3c 2023 363c
00000180: b8af b83c 7aea 78bd 2814 e33c 0b8d 963d
00000190: 0c14 31bd 60ed 88bd 8fb7 2b3c 5abe 363c
000001a0: afaf a3bd 71f9 b03d b45d b73d b7cd 9f3d
000001b0: c4fe 883d 426d a03c 1263 21bd ec84 463d
000001c0: f5d9 743d 1ef6 01bd f1a3 b93c 45b5 4ebd
000001d0: d64a 32bd 7f4e a8bd a1e5 15bc 2067 bfbc
000001e0: c092 11bd dab7 943c b4c9 6fbd 7eba 9ebd
000001f0: f5e1 863c 607e 0f3b 4bc7 9b3d 3b60 f0bc
00000200: 9b00 523d aaeb 893d d0b8 4abd 32df 9d3d
00000210: 2fa8 463d e661 adbd c0c9 4fbc e7fd 6c3d
00000220: 887d 653d bf6c d03c 7732 03bd 61a4 863d
00000230: 3198 53ba 88e6 20bd 272a f9bb 07d1 a53c
00000240: d7a8 233d f97c 34bd 0745 2fbb 30b6 d3b9
00000250: a257 62b9 ebcd 3cbd 9215 efbc 7417 8c3d
00000260: 9842 b9bc b82c af3d 78e0 9d3d 33a3 1e3d
00000270: 0c2b 80bd fb26 113d d1fc b93d ac88 993d
00000280: 0385 54bd d46c 983d 0550 32bd 1d96 c23c
00000290: d23d 833d 6089 92bd 2829 a53d 1f0b 983d
000002a0: ca68 793d 15d7 80bd 7efe 973d 85a1 a0bd
000002b0: d296 27bd 724b 21bd 4024 803d a86e 43bd
000002c0: 7690 31bd d73b 59bd 7428 afbb f3fa 493d
000002d0: cfb4 a5bd 5924 8e3c 75d2 e3bc 7fc5 ac3d
000002e0: c0cd 7fbd 9d99 2ebd a6f9 48bc 1eac 043d
000002f0: a187 7b3d 9c3b 233d 6856 2ebd f92a d4bc
00000300: 8551 33bd ef9a a43d 0782 e3bc 4ea6 233c
00000310: 5d64 7d3d 4cd8 98bd ac48 a63d 3731 d6bc
00000320: 6696 07bd 1653 023d 7726 c6bb ab58 73bc
00000330: 71c0 7ebd c3d8 863c 6984 0f3c 2b29 22bd
00000340: 6368 7ebd b280 acba ac07 de3c 8e54 593c
00000350: 2933 413d 7cd2 82bc 46b5 d73c 0db2 85bd
00000360: f85f a43b 3123 1c3c d400 56bc f0d7 4abc
00000370: 2400 7fbb 2e85 933d 0f37 a8bd 8bf2 e6bd
00000380: 21e2 0b3d d76b 93bd 473c 7abd 4ddf a53d
00000390: ff90 41bd f79c 953c dd2f 623d 7a20 883d
000003a0: 04cb 86bd 0123 403c d54d 183d a5e5 b5bd
000003b0: fc5a 753d 07b3 33bd 71a0 24bd 3a87 a43d
000003c0: 4b63 89bd 1345 aa3d fe43 5fbc b63c e7bc
000003d0: 6cbe a93d 238b c53c 55e3 86bd d6fa 49bd
000003e0: 8165 81bc ced6 413d 63db 22bd 2a38 ee3c
000003f0: 4082 663d fa68 953c 4682 0dbd f5da 7dbd

fc2.bias f4 [128]
-0.043191098 0.038009968 -0.006581325 -0.03653506 0.0124862185 -0.008247151 -0.07119643 -0.033919282
-0.014245735 0.044841815 -0.001924382 0.03741116 0.02341477 -0.05367053 -0.0125305075 -0.03954473
0.039091974 -0.02995594 -0.043041162 -0.009729798 0.027967304 0.04154844 -0.02332903 -0.032828752
0.05525908 0.028194059 0.046514973 -0.036924534 0.02277162 -0.025520315 -0.0032284725 0.04132804
-0.0058777933 -0.021287488 0.012341667 -0.03888399 0.026536353 -0.030760111 0.051160987 0.04036273
-0.013970895 0.02394824 -0.016424842 -0.055488832 -0.023651956 0.05387101 0.001417407 0.015164553
0.029120684 0.03474819 -0.050366588 -0.05690983 -0.00605922 -0.021760616 -0.01677212 -0.03325253
0.026058616 0.02560862 0.008294045 0.0060641295 -0.04801293 -0.019125389 0.051155165 0.039475106
0.015049189 0.00044094544 0.045039643 0.008179394 0.000768936 0.04766422 0.04528689 -0.02563744
0.028870095 -0.033551812 -0.036561836 0.04027061 0.019292574 -0.06390464 -0.027973533 -0.056580424
0.02053855 -0.0053477245 -0.0209421 -0.020571237 -0.034832 0.047908504 0.018232312 0.044806994
0.035236567 0.051519036 0.0461319 0.016013818 -0.010263969 0.046163883 -0.0376887 -0.023157017
-0.05827707 -0.01682157 0.044113986 -0.019217992 -0.048266158 0.0020737369 -0.017844893 0.031698905
-0.05235231 0.02637042 -0.018868238 -0.048016146 -0.030215634 0.03610686 -0.021187209 0.039568327
0.0032110196 -0.029414447 0.042830646 0.013136046 0.021534609 -0.026947888 -0.03549349 -0.027989902
-0.040533263 0.0065254164 0.030276557 -0.025611863 0.0071121827 -0.05908399 -0.047198355 0.049997456
00000000: 26e9 30bd 57b0 1b3d 28a8 d7bb c9a5 15bd
00000010: ff92 4c3c 0f1f 07bc 6fcf 91bd f2ee 0abd
00000020: f166 69bc 0dac 373d 8c3b fcba 723c 193d
00000030: 55d0 bf3c a1d5 5bbd c24c 4dbc a8f9 21bd
00000040: e81e 203d 2966 f5bc ee4b 30bd bb69 1fbc
00000050: b01b e53c b22e 2a3d 861c bfbc 7177 06bd
00000060: 5857 623d 3af7 e63c 7c86 3e3d 2e3e 17bd
00000070: 8c8b ba3c fb0f d1bc c894 53bb 9747 293d
00000080: 819a c0bb 1963 aebc b434 4a3c d244 1fbd
00000090: c462 d93c a1fc fbbc 2f8e 513d 6453 253d
000000a0: 2ee6 64bc 192f c43c 648d 86bc 4248 63bd
000000b0: bfc1 c1bc d9a7 5c3d 49c8 b93a bf74 783c
000000c0: 808e ee3c 1e54 0e3d 324d 4ebd 481a 69bd
000000d0: 6c8c c6bb 5243 b2bc af65 89bc ce33 08bd
000000e0: e178 d53c 2bc9 d13c bfe3 073c 9bb5 c63b
000000f0: 35a9 44bd d9ac 9cbc 1488 513d a6b0 213d
00000100: e090 763c b22e e739 7d7b 383d dd02 063c
00000110: 6c92 493a 8f3b 433d bf7e 393d 9c05 d2bc
00000120: fa80 ec3c a06d 09bd ddc1 15bd ccf2 243d
00000130: 760b 9e3c 70e0 82bd c028 e5bc e0c0 67bd
00000140: 7640 a83c f73b afbb c48e abbc 0385 a8bc
00000150: 00ac 0ebd b53b 443d ee5b 953c 8a87 373d
00000160: 3854 103d a005 533d cef4 3c3d 692f 833c
00000170: 352a 28bc 5716 3d3d 775f 1abd c9b3 bdbc
00000180: f0b3 6ebd 64cd 89bc deb0 343d 0d6f 9dbc
00000190: bcb2 45bd 88e7 073b 742f 92bc b6d6 013d
000001a0: 606f 56bd c706 d83c 9091 9abc 94ac 44bd
000001b0: c786 f7bc c9e4 133d cc90 adbc 6612 223d
000001c0: f86f 523b 91f6 f0bc 306f 2f3d 9238 573c
000001d0: 5969 b03c d1c1 dcbc 9f61 11bd 144b e5bc
000001e0: 3506 26bd 29d3 d53b 8b06 f83c f8cf d1bc
000001f0: 500d e93b 0e02 72bd 1053 41bd 22ca 4c3d

fc3.weight f4 [1, 128]
0.0076464675 0.0076708486 0.012244762 -0.0075065233 -0.005234983 0.0047027026 -0.002217982 0.013990076
0.007889298 -0.0063591395 -0.0034215457 -0.0029005075 -0.0010127795 -0.006114846 -0.0048623616 -0.005769107
-0.0053419285 0.0042327447 0.0052329293 -0.0060607893 0.0020174414 0.022154916 -0.0041906605 -0.009233517
0.007465236 -0.0013722233 0.007233992 -0.007818083 -0.010007022 -0.00606033 0.0033352477 0.0032643478
0.0070205643 -0.0060861334 -0.0050798496 0.03298445 0.0054567633 0.04665138 0.0014144531 -0.0072969785
0.0018824848 -0.0040585017 0.007647404 -0.004874644 -0.011463121 0.014258237 0.011620607 -0.006617748
0.0036447803 -0.004087918 -0.004545372 -0.00706917 -0.008669709 -0.0045182076 -0.025541255 -0.004510493
0.0037844193 -0.0030544314 -0.0013055014 -0.0026920263 0.016732266 -0.0056134523 0.0071686287 0.00607585
-0.0021430443 0.0090619875 0.04988949 0.0017399612 -0.003919278 0.013230303 -0.004338694 -0.021083692
0.03631344 0.0064566196 -0.0040206052 0.004322262 0.0029857901 -0.0095617995 0.013305789 -0.022599546
0.0039610495 0.004210393 -0.007625719 0.0014791912 -0.0045173797 0.0046716826 0.015106576 -0.0039164154
0.006966733 0.0041695833 -0.0060369708 -0.0050455043 -0.013993479 -0.011358821 0.0021651008 0.007945315
-0.0026770073 0.02202559 0.010948599 -0.0052319923 0.047480457 0.04382975 -0.0024620048 0.0022201228
0.0024899163 -0.0078104823 -0.012160968 -0.013746014 0.0027180407 -0.0009726861 0.005333754 -0.001399865
-0.011563422 -0.008464742 -0.000963102 -0.008019529 -0.0045461915 0.00327082 -0.00013151961 -0.0037253234
-0.0035605682 0.0069044437 -0.005414496 0.008014151 0.005056666 -0.00279084 -0.0012240247 -0.007381786
00000000: 388f fa3b be5b fb3b 419e 483c 48f9 f5bb
00000010: 388a abbb 2119 9a3b 905b 11bb a236 653c
00000020: 1d42 013c 5460 d0bb 033c 60bb 7116 3ebb
00000030: 3ebf 84ba 0c5f c8bb 7254 9fbb c70a bdbb
00000040: 580b afbb d6b2 8a3b fe78 ab3b 9699 c6bb
00000050: 0d37 043b 3a7e b53c cf51 89bb 2d48 17bc
00000060: f09e f43b 2cdc b3ba 200b ed3b 6b17 00bc
00000070: 7ef4 23bc bc95 c6bb 2c94 5a3b abee 553b
00000080: c30c e63b 306e c7bb de74 a6bb b41a 073d
00000090: a6ce b23b 8415 3f3d 2c65 b93a 7e1b efbb
000000a0: b5bd f63a 2efd 84bb 1397 fa3b 7abb 9fbb
000000b0: d0cf 3bbc 619b 693c 5c64 3e3c b2d9 d8bb
000000c0: 44dd 6e3b f1f3 85bb 58f1 94bb 7fa4 e7bb
000000d0: 650b 0ebc 790d 94bb e53b d1bc c2cc 93bb
000000e0: 0504 783b db2c 48bb 5c1d abba b56c 30bb
000000f0: 1b12 893c 0df1 b7bb d1e6 ea3b ed17 c73b
00000100: 5172 0cbb bb78 143c ec58 4c3d 690f e43a
00000110: 496d 80bb eac3 583c 9a2b 8ebb b5b7 acbc
00000120: 67bd 143d 0d92 d33b 48bf 83bb c3a1 8d3b
00000130: 3fad 433b 18a9 1cbc 8600 5a3c af22 b9bc
00000140: b1cb 813b 56f7 893b 2be1 f9bb 6ce1 c13a
00000150: 8706 94bb ea14 993b 9281 773c 4655 80bb
00000160: 3149 e43b 00a1 883b c8d1 c5bb c254 a5bb
00000170: e844 65bc 591a 3abc 5de4 0d3b 112d 023c
00000180: bb70 2fbb 036f b43c c161 333c 2271 abbb
00000190: de7a 423d d386 333d 9659 21bb 7b7f 113b
000001a0: dd2d 233b 13ef ffbb cc3e 47bc f636 61bc
000001b0: 2821 323b dcfb 7eba c5c6 ae3b ad7b b7ba
000001c0: 8274 3dbc b4af 0abc ae78 7cba 5864 03bc
000001d0: 38f8 94bb 415b 563b 87e8 09b9 8e24 74bb
000001e0: 6c58 69bb ac3e e23b 166c b1bb c94d 033c
000001f0: 64b2 a53b 87e6 36bb 746f a0ba e9e2 f1bb
