savedmodels/checkpoint_1545158393_critic_episode128_score34.436.pth (torch_old, 169980 bytes, 5 tensors)

fcs1.weight f4 [256, 33]
-0.013875577 0.051942784 0.06797251 -0.033242207 -0.080961995 -0.047577538 0.12071423 0.043177232
0.07304827 0.051596895 -0.016578576 -0.023873998 -0.026406536 0.087889396 0.08660565 -0.014449473
0.08057025 0.011118563 -0.041046266 -0.0049867625 -0.039291043 -0.018925196 -0.0236893 0.12040664
-0.0037056939 0.044419777 -0.035207056 0.008885036 -0.051171474 -0.050394535 -0.07009678 0.040429823
0.022453772 0.013601029 -0.06529969 0.053099927 0.032591097 0.038065147 0.028947141 0.033010505
-0.025954513 0.022561206 -0.012694963 0.006654795 0.022980312 0.04406907 0.020877426 0.051106658
0.054465786 0.018396446 0.03695366 0.040207215 -0.0070561715 -0.011389269 0.016851593 0.038053755
0.0005167775 -0.019222412 0.01634534 -0.058586903 -0.08489724 0.07371234 0.020014852 0.070843525
0.0048096925 -0.01844334 0.048006985 -0.036008157 0.04862332 -0.0057935524 0.03434757 0.046864834
-0.055829424 -0.023050517 -0.021546721 0.0064824424 0.010757166 -0.021768019 0.022325233 -0.047871947
0.016432352 -0.0022587364 0.021791102 -0.029858576 -0.016849771 -0.053730153 -0.072156586 0.012363049
-0.04049924 -0.020402614 0.010028274 -0.09858307 0.05847301 0.0063766106 -0.028304305 -0.0031918436
0.060784783 -0.054345243 0.22316858 0.06543011 0.0032693262 0.08945124 0.03748913 -0.017712621
0.037786257 0.026863838 -0.016145665 0.0139543 -0.02553034 0.0062734345 0.028304579 -0.009375749
-0.04352467 0.052317474 -0.07555053 -0.018501205 -0.020118942 -0.06885618 -0.011558862 0.024269154
0.035841532 -0.050039664 -0.03196767 -0.0336267 -0.01786044 0.017098146 0.010060934 -0.048665076
-0.02473484 0.092819236 -0.010972619 0.039359268 -0.029067433 0.010536706 0.050471142 -0.016411677
-0.0541347 0.06270625 0.023724152 0.029457958 -0.1091585 0.064349756 -0.022314962 0.02951208
0.010484256 -0.014275678 0.00048702824 -0.0069716945 -0.012584498 -0.023405008 -0.010861176 -0.027527496
-0.0057110735 0.037984982 0.03130445 -0.025527313 0.022753209 0.013812208 -0.022311764 0.042334605
-0.059825256 0.017925903 -0.049861822 0.016678609 -0.296212 -0.087098114 0.087971404 -0.0069690775
-0.016227243 -0.028539788 -0.019011948 0.043810274 -0.008982279 -0.049856402 0.042846758 -0.016612899
0.008644528 -0.001584203 0.16164534 -0.13132086 -0.025656983 0.02678626 0.0012168081 -0.031796165
0.021688238 0.0017485658 -0.0015591155 0.008267059 0.015136297 -0.033806015 0.003177317 -0.08742705
0.05732717 0.03260336 0.04787697 -0.053310838 0.009369083 0.046111967 0.021363331 -0.024649607
-0.04753111 -0.0055918554 -0.069683254 0.09830996 0.05716734 0.03635916 -0.020721553 -0.046153106
0.0014600029 -0.04984755 0.014844225 0.044898514 -0.053568527 -0.009395938 0.00030130328 0.052084256
0.0053319735 0.017429044 -0.07460869 0.006320255 0.018251033 -0.03154069 0.031250723 -0.017414879
-0.046347402 0.087245464 0.010333 -0.04773082 -0.11333364 0.0014542788 0.076627344 -0.06762127
0.035012234 0.12120727 -0.031351645 -0.07972937 -0.046452347 0.05459846 0.042014245 0.082885824
-0.02155252 -0.06692795 0.04066286 -0.027758244 0.04290961 -0.0054972963 -0.07227951 -0.0046270792
-0.037504293 0.020043222 0.02582134 0.015609933 0.04284176 0.010406804 -0.04190201 -0.07509845
00000000: 6356 63bc f5c1 543d 2c35 8b3d fb28 08bd
00000010: 67cf a5bd aae0 42bd 0639 f73d 9cda 303d
00000020: 559a 953d 4457 533d cbcf 87bc 6793 c3bc
00000030: 8552 d8bc 5bff b33d 4e5e b13d 7bbd 6cbc
00000040: 0402 a53d a22a 363c 2120 28bd ff67 a3bb
00000050: a5ef 20bd 0309 9bbc 1010 c2bc c297 f63d
00000060: 3adb 72bb 83f1 353d 4635 10bd 8b92 113c
00000070: 2e99 51bd 806a 4ebd e78e 8fbd be99 253d
00000080: f9f0 b73c dad6 5e3c d8bb 85bd 4f7f 593d
00000090: 3e7e 053d 33ea 1b3d 8e22 ed3c 0636 073d
000000a0: 8f9e d4bc 47d2 b83c 89fe 4fbc 7710 da3b
000000b0: 3541 bc3c c581 343d 2307 ab3c 3755 513d
000000c0: 8417 5f3d 25b4 963c b95c 173d 52b0 243d
000000d0: 7537 e7bb 0e9a 3abc 5a0c 8a3c 41de 1b3d
000000e0: 5a78 073a 5278 9dbc aae6 853c d2f8 6fbd
000000f0: 9bde adbd 7ff6 963d 30f6 a33c 6916 913d
00000100: a09a 9d3b 7d16 97bc f9a2 443d 4a7d 13bd
00000110: 3f29 473d d7d7 bdbb 0ab0 0c3d 57f5 3f3d
00000120: 65ad 64bd 70d4 bcbc c082 b0bc ab6a d43b
00000130: d33e 303c d852 b2bc 68e3 b63c 6015 44bd
00000140: 249d 863c 4f07 14bb 4183 b23c f999 f4bc
00000150: 8808 8abc 2614 5cbd d5c6 93bd 638e 4a3c
00000160: 88e2 25bd 6223 a7bc a14d 243c ece5 c9bd
00000170: 6581 6f3d e3f2 d03b 6ede e7bc 402e 51bb
00000180: 77f9 783d 1e99 5ebd 4e86 643e 3900 863d
00000190: 3142 563b 3632 b73d 348e 193d 0f1a 91bc
000001a0: c3c5 1a3d 8d11 dc3c ea43 84bc 94a0 643c
000001b0: 0125 d1bc 6291 cd3b 01df e73c be9c 19bc
000001c0: ed46 32bd d94a 563d 3cba 9abd d78f 97bc
000001d0: 7bd0 a4bc 7804 8dbd 6261 3dbc 1bd0 c63c
000001e0: 92ce 123d 64f6 4cbd 88f0 02bd 27bc 09bd
000001f0: 0f50 92bc 6911 8c3c 9ed6 243c 0855 47bd
00000200: b8a0 cabc 0318 be3d 80c6 33bc 2f37 213d
00000210: d31e eebc 26a2 2c3c d4ba 4e3d c871 86bc
00000220: 59bc 5dbd 226c 803d 2759 c23c d151 f13c
00000230: 7e8e dfbd cec9 833d decd b6bc 51c3 f13c
00000240: 28c6 2b3c 89e4 69bc d357 ff39 d072 e4bb
00000250: 362f 4ebc dcbb bfbc 13f3 31bc 5881 e1bc
00000260: f523 bbbb 2496 1b3d 1839 003d a81e d1bc
00000270: f064 ba3c 994c 623c 29c7 b6bc 0d67 2d3d
00000280: 540b 75bd 58d9 923c e93b 4cbd 94a1 883c
00000290: 19a9 97be 7f60 b2bd 5a2a b43d dc5c e4bb
000002a0: ffee 84bc 46cc e9bc f2be 9bbc 6772 333d
000002b0: 692a 13bc 3a36 4cbd 1580 2f3d c617 88bc
000002c0: c7a1 0d3c 08a5 cfba 5b86 253e fa78 06be
000002d0: 982e d2bc dc6e db3c 4e7d 9f3a b23c 02bd
000002e0: 88ab b13c 2230 e53a 3c5b ccba 8f72 073c
000002f0: 3bfe 773c 2d78 0abd 893a 503b f40c b3bd
00000300: e5cf 6a3d 1a8b 053d a41a 443d 775c 5abd
00000310: c880 193c e7df 3c3d 2702 af3c f9ed c9bc
00000320: fbaf 42bd e23b b7bb 18b6 8ebd bb56 c93d
00000330: 4d28 6a3d 58ed 143d 3fc0 a9bc 0a0b 3dbd
00000340: 915d bf3a f22c 4cbd 3135 733c 81e7 373d
00000350: ac6a 5bbd 6cf1 19bc 3ef8 9d39 4d56 553d
00000360: d6b7 ae3b 5bc7 8e3c 71cc 98bd 241a cf3b
00000370: 3183 953c d030 01bd c200 003d a6a9 8ebc
00000380: c6d6 3dbd c0ad b23d be4b 293c 6481 43bd
00000390: 781b e8bd 809d be3a ccee 9c3d 057d 8abd
000003a0: fd68 0f3d 843b f83d 956a 00bd 2749 a3bd
000003b0: d144 3ebd a3a2 5f3d 2117 2c3d 0bc0 a93d
000003c0: e98e b0bc 8511 89bd 198e 263d 4265 e3bc
000003d0: fdc1 2f3d aa22 b4bb 4807 94bd c19e 97bb
000003e0: 1a9e 19bd af31 a43c 4687 d33c cec0 7f3c
000003f0: d77a 2f3d 4d81 2a3c 71a1 2bbd 37cd 99bd

fcs1.bias f4 [256]
0.02621605 0.18905345 -0.01126842 0.18795018 -0.016138548 -0.19883025 -0.21730153 -0.1607979
0.043916736 0.076719776 -0.068299815 -0.016974013 0.09036742 -0.041894272 0.06539027 -0.016298734
-0.1424137 -0.1327626 0.109575175 -0.14202794 0.0073217284 -0.0056483606 0.06819756 0.026804443
-0.043656647 -0.05699538 0.054150395 -0.070512 0.061544254 0.030334422 0.0753884 -0.04638019
-0.15117633 -0.08650301 0.08619093 -0.06751892 0.16025339 0.096859194 -0.1262563 0.05859916
-0.099421054 -0.13128757 0.059802923 -0.14560609 -0.046670932 -0.17236447 0.08204335 0.079430185
0.123620145 -0.113810256 -0.116966136 0.028434308 -0.14497952 -0.07561595 -0.16770095 0.10595545
-0.069479845 -0.062005013 0.053187322 0.042493846 -0.12517989 0.10806296 -0.17109057 -0.053551648
-0.13742042 -0.12514175 0.057300482 0.14062785 0.058580913 -0.031441465 0.05835951 0.12925516
-0.04456717 -0.1270992 0.017311377 0.06870439 0.060079698 -0.09736517 0.19749959 -0.12122761
0.00377819 0.11469836 -0.06793762 0.06152432 0.108845145 -0.077265754 0.1335142 0.06399296
0.099712156 0.12600675 0.113605484 0.042260934 0.13192031 -0.21610796 -0.24077232 0.0050551505
0.19491288 -0.1104406 0.1722044 -0.0712044 0.0125560695 -0.09571011 -0.00019271004 -0.096041426
-0.12660608 0.04211339 -0.03305515 0.035522606 0.058771603 -0.09613541 0.089921005 0.196082
-0.092799336 0.12672327 0.07227691 -0.15425041 0.022890665 -0.18921885 -0.0095513975 -0.1383877
0.13145925 0.02773065 0.13804097 -0.048932746 -0.12813284 0.10492353 0.020776115 0.050463226
0.0005060493 0.08632953 -0.09540947 -0.21984448 0.01069701 0.09928973 -0.016616851 -0.01723491
-0.16637564 0.053152863 -0.22947681 -0.118649356 0.09752871 -0.20127697 -0.13056299 -0.15063061
0.12081692 -0.14083552 -0.03311798 0.0008005302 0.07061964 0.12946682 0.037876863 0.013935584
-0.11350195 0.094707675 0.16355085 0.0053651626 0.10692608 -0.083548 -0.017742341 -0.09525988
0.07571058 -0.07592656 -0.08352228 -0.18646458 -0.034521133 0.045185324 0.12848784 0.0060374485
-0.026367048 0.06256369 0.021035023 0.16671027 0.19289964 0.16228913 0.0306587 0.042516213
0.14966872 -0.017776413 0.17268005 -0.11657842 -0.0011621774 0.038100284 -0.12559207 -0.05359393
-0.013318145 -0.02489516 -0.060093243 -0.013529771 -0.007902679 0.2201233 -0.06567355 0.13098146
-0.034046896 0.16303337 0.18327832 -0.041643307 -0.017575888 -0.12753211 -0.0032512222 -0.13454783
-0.10334153 0.025024706 0.028786307 -0.09048876 0.123651505 0.050909303 -0.08059282 0.09270914
-0.14899738 -0.010813544 0.21033439 0.08208458 0.06256767 0.022110611 -0.03692453 0.13591883
0.007580538 0.031237574 0.028248036 -0.017563976 0.062511384 -0.12109475 -0.1308888 -0.16669399
0.18676044 -0.07841201 -0.15670386 0.033365533 -0.0838738 0.061056532 -0.061988547 0.06563502
-0.18010204 -0.19424318 0.0900317 -0.0728141 -0.03294612 0.03673914 0.015084056 -0.091859974
0.06661576 -0.11366287 0.14038815 -0.06060208 0.046759207 0.15740569 0.1153174 0.09356527
0.0842285 -0.11710734 0.07856224 -0.08984701 0.14539222 -0.06862205 0.08163777 0.027290104
00000000: 0bc3 d63c 3a97 413e 2e9f 38bc 0376 403e
00000010: fd34 84bc 289a 4bbe 4b84 5ebe 34a8 24be
00000020: 09e2 333d 421f 9d3d c6e0 8bbd 160d 8bbc
00000030: 8e12 b93d 5499 2bbd 55eb 853d ec84 85bc
00000040: e6d4 11be ebf2 07be f368 e03d c66f 11be
00000050: 1ceb ef3b e215 b9bb 2aab 8b3d fe94 db3c
00000060: 50d1 32bd fd73 69bd cecc 5d3d 9868 90bd
00000070: d415 7c3d e57f f83c 3c65 9a3d 27f9 3dbd
00000080: f8cd 1abe 7d28 b1bd df84 b03d 5c47 8abd
00000090: 7719 243e 1d5e c63d 5549 01be ac05 703d
000000a0: 449d cbbd 4070 06be e9f3 743d c319 15be
000000b0: 052a 3fbd 5080 30be 5806 a83d 4bac a23d
000000c0: 8f2c fd3d 5a15 e9bd f18b efbd 11ef e83c
000000d0: 8375 14be 89dc 9abd ccb9 2bbe 2cff d83d
000000e0: 734b 8ebd f8f8 7dbd f3da 593d 070e 2e3d
000000f0: 282f 00be 1d50 dd3d 5e32 2fbe f958 5bbd
00000100: f0b7 0cbe 2925 00be e9b3 6a3d bf00 103e
00000110: 8af2 6f3d c4c8 00bd 620a 6f3d 775b 043e
00000120: 118c 36bd 4b26 02be 97d0 8d3c e3b4 8c3d
00000130: 2116 763d 6467 c7bd 553d 4a3e 2e46 f8bd
00000140: 829b 773b f9e6 ea3d e122 8bbd ed00 7c3d
00000150: 34ea de3d 823d 9ebd f2b7 083e be0e 833d
00000160: e335 cc3d ea07 013e fea9 e83d cd19 2d3d
00000170: 1e16 073e 684b 5dbe 058d 76be ada5 a53b
00000180: 3e97 473e ae2e e2bd 5a56 303e 9dd3 91bd
00000190: f9b7 4d3c aa03 c4bd 3512 4ab9 5eb1 c4bd
000001a0: 06a5 01be 177f 2c3d d664 07bd 2780 113d
000001b0: 7eba 703d a4e2 c4bd 8128 b83d b8c9 483e
000001c0: 940d bebd bfc3 013e eb05 943d d2f3 1dbe
000001d0: 3485 bb3c 96c2 41be 777d 1cbc 81b5 0dbe
000001e0: 419d 063e 632b e33c 9d5a 0d3e b46d 48bd
000001f0: 4135 03be 26e2 d63d ac32 aa3c 87b2 4e3d
00000200: 65a8 043a 89cd b03d 0a66 c3bd e91e 61be
00000210: 8342 2f3c 6a58 cb3d 1020 88bc 3a30 8dbc
00000220: 605e 2abe d1b6 593d f8fb 6abe 6ffe f2bd
00000230: 22bd c73d 8d1b 4ebe 4eb2 05be e93e 1abe
00000240: dd6e f73d 3037 10be b8a6 07bd acda 513a
00000250: 08a1 903d f392 043e c524 1b3d 1352 643c
00000260: b673 e8bd 19f6 c13d e079 273e 3fce af3b
00000270: 10fc da3d 371b abbd 6358 91bc 9d17 c3bd
00000280: 260e 9b3d 627f 9bbd bb0d abbd 92f0 3ebe
00000290: 0866 0dbd 3f14 393d 5192 033e cad5 c53b
000002a0: b5ff d7bc 6421 803d a451 ac3c 19b6 2a3e
000002b0: 7c87 453e 1f2f 263e f427 fb3c 7b25 2e3d
000002c0: c242 193e d79f 91bc 0ad3 303e abc0 eebd
000002d0: 3454 98ba 0b0f 1c3d 359b 00be 4f85 5bbd
000002e0: 5934 5abc eff0 cbbc 5524 76bd f9ab 5dbc
000002f0: 3d7a 01bc 0168 613e db7f 86bd 0120 063e
00000300: c274 0bbd 38f2 263e 50ad 3b3e 2c92 2abd
00000310: 4ffb 8fbc c797 02be 7512 55bb e8c6 09be
00000320: b9a4 d3bd 9d00 cd3c 43d1 eb3c 2c52 b9bd
00000330: 003d fd3d 4686 503d d90d a5bd 4ade bd3d
00000340: c592 18be 4a2b 31bc e661 573e f61b a83d
00000350: 7b23 803d 5021 b53c 2d3e 17bd 4e2e 0b3e
00000360: 2966 f83b f1e5 ff3c 6d68 e73c 54e2 8fbc
00000370: f805 803d 8600 f8bd b707 06be d4b1 2abe
00000380: 213e 3f3e 7a96 a0bd fa76 20be 4caa 083d
00000390: 07c6 abbd 6a16 7a3d b4e7 7dbd a76b 863d
000003a0: ab6c 38be afe7 46be 8a62 b83d 8f1f 95bd
000003b0: 83f2 06bd c87b 163d 1e23 773c 1521 bcbd
000003c0: d86d 883d 14c8 e8bd e9c1 0f3e e339 78bd
000003d0: 9586 3f3d f52e 213e 872b ec3d 269f bf3d
000003e0: fe7f ac3d f9d5 efbd 3de5 a03d b601 b8bd
000003f0: b3e1 143e b889 8cbd b431 a73d 7f8f df3c

fc2.weight f4 [128, 260]
0.025858816 0.0037795962 0.09524045 -0.0032386924 0.1065794 -0.2963246 -0.08465673 0.086081006
-0.01853977 -0.08763176 0.041398387 0.0069332276 -0.041439757 0.06386793 -0.035649814 0.007315339
-0.007393526 -0.063181184 0.016494747 0.12587684 0.08118379 -0.026349014 0.039459307 -0.1742208
0.03947132 -0.0075112525 0.06298385 -0.25241217 0.066180944 -0.040667318 0.04496877 0.04039262
0.019171366 0.023845688 0.014479986 -0.012064745 -0.012650628 -0.047094237 0.06607591 -0.042117245
-0.0876394 -0.057159286 -0.020391257 -0.009905994 -0.0055934684 0.055339374 0.035406984 -0.04004556
-0.06445842 0.0039158054 0.028629664 0.077462256 0.04483221 -0.076819204 0.004969363 -0.06452487
-0.06571342 0.056211486 -0.07860834 0.035849884 -0.0025222846 0.11470324 0.053379547 0.055524834
0.038941383 -0.039249763 -0.045673326 0.07481715 -0.09115247 -0.11184 -0.08660871 0.044453323
-0.01518537 0.06705634 -0.06581981 -0.0645153 -0.028824596 0.048174903 0.05250828 -0.049828086
-0.069705516 -0.011426949 -0.038562257 -0.1198984 -0.073831916 0.06353912 0.0372833 -0.030747112
-0.049192917 -0.14478664 0.10944361 -0.2087103 -0.012639595 -0.21810181 0.04970212 -0.0097148325
0.018089794 -0.08942504 0.047829296 0.055538584 -0.09763011 -0.05497196 -0.008863119 0.023187937
-0.06555613 0.10516634 0.10096894 0.035108186 0.087449424 0.017731091 -0.04582033 0.040225275
0.07275858 0.007081315 -0.04810337 -0.10531403 -0.058841918 -0.09837281 -0.011629034 -0.022441445
-0.0159846 0.003134387 -0.039269455 -0.07577494 0.04630907 -0.015219867 0.09746389 0.054228242
0.066443205 0.06868418 -0.04275114 0.09472513 0.11321852 -0.07879822 -0.20344542 0.06774563
0.06283681 0.025952157 0.025779426 0.025738718 -0.04976953 -0.15850197 -0.03836151 -0.04837442
0.0659229 -0.01665394 -0.0037653337 0.039050326 -0.13324124 -0.007201849 -0.05957893 0.047068015
-0.027691288 0.13562272 0.02274782 0.05613451 -0.12760164 -0.03651308 0.06824365 0.092719726
-0.0013719888 0.14780411 -0.043562487 -0.0947702 0.04761545 -0.11966654 0.043983944 0.06833979
0.08243809 -0.08171071 0.09015236 -0.06536553 -0.020350795 -0.014906419 0.03916929 -0.06629131
-0.011477573 -0.013903259 0.010562484 -0.06635999 -0.050078984 0.03712394 -0.050190892 0.07510952
-0.05807144 -0.12322907 -0.097106345 0.07034632 0.04165392 0.07509558 -0.008273745 -0.013824899
-0.06641063 0.13875246 0.0005351108 -0.0052354075 0.114320874 -0.1242169 0.05971854 0.05950926
0.015227709 0.035326418 -0.019074967 0.071071364 -0.046247706 0.049569238 0.009769655 0.012227095
-0.07421267 0.021839716 -0.010486109 0.0016681924 0.09188675 -0.050100125 0.054243214 0.01572064
0.026565658 -0.09237555 -0.087588735 -0.100808814 0.0070109996 0.09980794 -0.07114558 0.008536823
0.017966028 -0.12894475 0.0051225647 0.005575655 -0.067702994 0.022658994 0.06414534 0.043463707
0.01666045 0.01858164 -0.07705083 -0.07947393 0.079623915 -0.03440363 -0.18581131 0.044638585
-0.17100808 0.07951522 -0.0402995 -0.11526058 -0.00036539556 0.031210264 -0.04632714 0.0074926373
0.04029216 0.062843 -0.045913387 0.06372076 0.017869325 -0.0041493266 -0.046441097 -0.021388154
00000000: ded5 d33c 1ab3 773b 6d0d c33d 3e40 54bb
00000010: 4d46 da3d dcb7 97be 8260 adbd 3d4b b03d
00000020: b7e0 97bc 4878 b3bd 5b91 293d 2130 e33b
00000030: bcbc 29bd 30cd 823d 8a05 12bd 83b5 ef3b
00000040: 6445 f2bb 2365 81bd fe1f 873c dce5 003e
00000050: b043 a63d e3d9 d7bc 15a0 213d f066 32be
00000060: aeac 213d f420 f6bb adfd 803d 2b3c 81be
00000070: e089 873d c692 26bd 2c31 383d bb72 253d
00000080: 450d 9d3c 0858 c33c 773d 6d3c 35ab 45bc
00000090: 9444 4fbc e3e5 40bd cf52 873d 2283 2cbd
000000a0: 497c b3bd db1f 6abd 910b a7bc c04c 22bc
000000b0: 6a49 b7bb 8aab 623d ea06 113d d006 24bd
000000c0: c702 84bd 2850 803b c288 ea3c 88a4 9e3d
000000d0: fba1 373d 6353 9dbd 0ad6 a23b 9d25 84bd
000000e0: c294 86bd 043e 663d 69fd a0bd 54d7 123d
000000f0: ea4c 25bb 88e9 ea3d 83a4 5a3d 026e 633d
00000100: 0081 1f3d 5cc4 20bd f413 3bbd bc39 993d
00000110: 25ae babd 5f0c e5bd e85f b1bd b014 363d
00000120: 0fcc 78bc d654 893d 89cc 86bd 9920 84bd
00000130: 8f21 ecbc 0c53 453d ec12 573d 8918 4cbd
00000140: c4c1 8ebd 1938 3bbc 75f3 1dbd 4b8d f5bd
00000150: 3035 97bd cc20 823d 60b6 183d 5ee1 fbbc
00000160: 837e 49bd f342 14be f923 e03d 27b8 55be
00000170: 4e16 4fbc 1556 5fbe 7394 4b3d f62a 1fbc
00000180: 0c31 943c 7a24 b7bd a7e8 433d 6d7c 633d
00000190: 4cf2 c7bd 472a 61bd 9e36 11bc a1f4 bd3c
000001a0: 4b42 86bd 7361 d73d cec8 ce3d 9acd 0f3d
000001b0: af18 b33d cb40 913c 19ae 3bbd 42c3 243d
000001c0: 7302 953d 600a e83b 0a08 45bd e2ae d7bd
000001d0: 3904 71bd af77 c9bd b487 3ebc 1fd7 b7bc
000001e0: 23f2 82bc 4a6a 4d3b 02d9 20bd e42f 9bbd
000001f0: 94ae 3d3d c05c 79bc 269b c73d 6f1e 5e3d
00000200: 6013 883d 4baa 8c3d d21b 2fbd 40ff c13d
00000210: 1ddf e73d f660 a1bd ff53 50be 39be 8a3d
00000220: 96b0 803d 9e99 d43c 602f d33c 01da d23c
00000230: 22db 4bbd 574e 22be f520 1dbd 4124 46bd
00000240: 9602 873d d86d 88bc d1c3 76bb 3cf3 1f3d
00000250: 6470 08be 7dfd ebbb 0909 74bd 64ca 403d
00000260: d7d8 e2bc afe0 0a3e a359 ba3c 4ded 653d
00000270: 01aa 02be bd8e 15bd 54c3 8b3d d7e3 bd3d
00000280: 4ed4 b3ba f659 173e 946e 32bd e116 c2bd
00000290: 6b08 433d bb13 f5bd 8228 343d bbf5 8b3d
000002a0: 4dd5 a83d f257 a7bd cda1 b83d 5dde 85bd
000002b0: b6b6 a6bc 0e3a 74bc fa6f 203d bdc3 87bd
000002c0: 6e0c 3cbc 7fca 63bc 450e 2d3c bfe7 87bd
000002d0: 9f1f 4dbd 460f 183d f794 4dbd 05d3 993d
000002e0: 51dc 6dbd 865f fcbd b1df c6bd bb11 903d
000002f0: 4d9d 2a3d b6cb 993d 9a8e 07bc d481 62bc
00000300: 4c02 88bd 2015 0e3e ae46 0c3a c88d abbb
00000310: 1021 ea3d 6e65 febd 6e9b 743d fbbf 733d
00000320: a47d 793c 6fb2 103d 1b43 9cbc dd8d 913d
00000330: 3c6e 3dbd 1d09 4b3d e710 203c 2754 483c
00000340: d0fc 97bd 34e9 b23c eecd 2bbc 40a7 da3a
00000350: 1f2f bc3d ca35 4dbd 222e 5e3d 92c8 803c
00000360: 39a0 d93c 642f bdbd b961 b3bd da74 cebd
00000370: 87bc e53b 1b68 cc3d c6b4 91bd 08de 0b3c
00000380: 7e2d 933c 180a 04be 30db a73b fcb3 b63b
00000390: dea7 8abd 5b9f b93c a25e 833d 0007 323d
000003a0: 7f7b 883c 8638 983c d3cc 9dbd 3ac3 a2bd
000003b0: dd11 a33d d2ea 0cbd 5245 3ebe f3d6 363d
000003c0: be1c 2fbe e0d8 a23d 1711 25bd bd0d ecbd
000003d0: 9092 bfb9 abac ff3c 87c1 3dbd cc84 f53b
000003e0: 6409 253d d5b3 803d ad0f 3cbd 0880 823d
000003f0: b162 923c 13f7 87bb 0539 3ebd 3636 afbc

fc2.bias f4 [128]
0.015073865 0.0033741721 0.08124971 -0.03957751 0.035481967 0.10426611 -0.041002326 0.0045166356
0.02240907 0.011535583 0.06463119 0.07012324 0.11299181 -0.089920245 -0.036223598 -0.0719499
0.067840286 -0.07457526 0.037103612 0.07485242 0.1512973 0.089109875 -0.04558582 -0.06506825
0.09288968 -0.007187613 0.09669953 -0.042799395 0.14010823 -0.049488463 0.090014994 0.036626466
0.06468466 -0.05689325 0.06600565 0.008410992 0.0137809515 0.020459423 0.116265655 0.008797107
0.019404406 -0.0023222337 0.026557067 0.048482984 -0.053913463 0.14179164 0.037869975 -0.02890098
0.04936864 -0.0071875737 -0.072361454 -0.08485252 0.066366404 -0.03343379 -0.0396869 -0.08979788
0.08988355 -0.011088694 -0.041163277 -0.033638872 -0.08959097 0.039480537 0.083600715 0.12090837
-0.018112902 -0.035716865 0.009736078 0.07657477 -0.020389274 0.1173171 -0.010293713 -0.041470878
0.061441008 0.032917026 0.020348499 0.10720747 0.094416216 -0.08336623 -0.03065244 -0.021561267
0.048005246 0.08272133 -0.052996226 0.030718662 0.011952998 0.13550666 -0.017846804 0.06738415
0.13395287 0.16889386 0.1563075 0.063609906 -0.025252726 0.10610588 0.006335813 0.025180893
-0.07964309 -0.04552458 0.13820319 -0.05630215 -0.07833174 0.037604775 -0.039711628 0.09432535
0.009587116 -0.0042215185 0.02525567 -0.08489463 0.0306844 0.019265158 0.030014371 0.0019218109
-0.009798607 -0.06421675 0.07204037 -0.031964432 0.00565616 0.044656623 -0.02037085 -0.042721607
-0.08201268 -0.040637452 0.061131466 0.039225094 -0.029992336 -0.09486693 -0.048490733 0.10656603
00000000: 5ff8 763c 3721 5d3b 3f66 a63d 071c 22bd
00000010: 8a55 113d 7889 d53d 0ef2 27bd 4900 943b
00000020: 3a93 b73c beff 3c3c 5b5d 843d c69c 8f3d
00000030: 4068 e73d 1b28 b8bd 325f 14bd 785a 93bd
00000040: d9ef 8a3d eaba 98bd f5f9 173d 3a4c 993d
00000050: aeed 1a3e 3d7f b63d 32b8 3abd 8142 85bd
00000060: f23c be3d 1186 ebbb 670a c63d 6b4e 2fbd
00000070: 8878 0f3e 6ab4 4abd c859 b83d a205 163d
00000080: 6479 843d e608 69bd f82d 873d 42ce 093c
00000090: 80c9 613c 859a a73c b01c ee3d be21 103c
000000a0: fdf5 9e3c 9e30 18bb 358e d93c 1896 463d
000000b0: 5dd4 5cbd d431 113e 8c1d 1b3d bfc1 ecbc
000000c0: c536 4a3d bd85 ebbb 3e32 94bd 28c7 adbd
000000d0: 1ceb 873d dff1 08bd bb8e 22bd f3e7 b7bd
000000e0: de14 b83d 5bad 35bc d39a 28bd eac8 09bd
000000f0: 787b b7bd 58b6 213d da36 ab3d cf9e f73d
00000100: 8261 94bc d94b 12bd 1284 1f3c 3cd3 9c3d
00000110: 6807 a7bc f343 f03d f6a6 28bc 5edd 29bd
00000120: 91a9 7b3d 01d4 063d e5b1 a63c 978f db3d
00000130: 4a5d c13d eabb aabd d31a fbbc 41a1 b0bc
00000140: 26a1 443d cd69 a93d 9212 59bd b4a5 fb3c
00000150: 82d6 433c 42c2 0a3e 7633 92bc b400 8a3d
00000160: f12a 093e 83f2 2c3e 130f 203e e945 823d
00000170: cede cebc 0a4e d93d a79c cf3b 2948 ce3c
00000180: eb1b a3bd fb77 3abd 2385 0d3e 159d 66bd
00000190: 646c a0bd 7707 1a3d a9a8 22bd a62d c13d
000001a0: 4713 1d3c aa54 8abb fbe4 ce3c 3cdd adbd
000001b0: da5d fb3c f7d1 9d3c b3e0 f53c 46e5 fb3a
000001c0: 568a 20bc 1284 83bd e789 933d 23ed 02bd
000001d0: 4f57 b93b dde9 363d c5e0 a6bc dafc 2ebd
000001e0: 44f6 a7bd 7573 26bd fd64 7a3d 7eaa 203d
000001f0: 7db2 f5bc 9849 c2bd 389e 46bd 4a3f da3d

fc3.weight f4 [1, 128]
0.08410743 -0.17363608 0.16765371 -0.049247786 0.061623316 0.07089961 0.07896155 0.08891792
0.05504414 -0.16226994 0.045109607 0.13461693 0.0832389 -0.01821586 -0.22589962 -0.099422045
0.06982967 -0.1001568 0.040323514 0.18301712 0.0631673 0.08780115 -0.10748382 -0.096722126
0.07261528 -0.07608833 0.10826038 -0.08521714 0.07797316 -0.26444823 0.056798633 -0.112840906
0.051204596 -0.13416378 0.0648528 0.14876534 -0.071827844 0.11746361 0.055658218 -0.22207823
0.051028967 -0.22859268 0.118128136 0.055541486 -0.09383862 0.12275496 0.13423315 -0.08522903
0.09581849 -0.16126162 -0.19781244 -0.03769458 0.051560584 -0.07448177 -0.1011192 -0.08136217
0.09340377 -0.09793114 -0.19751096 -0.122959286 -0.043832682 0.07499178 0.049957763 0.048420437
-0.092955105 -0.07222277 -0.06844459 0.06276821 -0.15370461 0.07203342 -0.05308984 -0.22854434
0.12989533 0.053238165 0.051826514 0.0598303 0.034166314 -0.049254127 0.059110865 0.14586136
0.06828081 0.05717395 -0.11184878 0.05292962 0.06401408 0.042958193 -0.040977005 0.08308742
0.066891186 0.056989256 0.07657631 0.054402072 -0.20044596 0.08983381 0.06290075 0.0480806
-0.0432739 -0.060347646 0.107321866 -0.14345393 -0.18539484 0.07216282 -0.17464255 0.051224776
0.06878047 -0.08430953 0.08578363 -0.06913808 0.074698344 -0.07891721 0.03560455 -0.08801316
-0.10563684 -0.054203443 0.079609215 -0.09250544 -0.13930936 0.12255146 0.07006562 0.012990133
-0.13929509 -0.0486528 0.08277532 0.05405569 -0.11262225 -0.13144839 0.059978493 0.070565775
00000000: 8440 ac3d a8cd 31be 6aad 2b3e 0cb8 49bd
00000010: bb68 7c3d d133 913d 98b6 a13d 991a b63d
00000020: f775 613d 172a 26be dac4 383d 05d9 093e
00000030: 2879 aa3d 6d39 95bc 3b52 67be c99d cbbd
00000040: dc02 8f3d 021f cdbd 452a 253d d768 3b3e
00000050: db5d 813d 17d1 b33d 7a20 dcbd 4016 c6bd
00000060: 52b7 943d 33d4 9bbd 9eb7 dd3d 5386 aebd
00000070: 64b0 9f3d c265 87be afa5 683d 2219 e7bd
00000080: e9bb 513d 3b62 09be 8bd1 843d f155 183e
00000090: 7a1a 93bd c390 f03d dff9 633d 7a68 63be
000000a0: c003 513d 3314 6abe 2aed f13d 787f 633d
000000b0: 762e c0bd f466 fb3d 6a74 093e 8f8c aebd
000000c0: 7c3c c43d c421 25be 588f 4abe a265 1abd
000000d0: 3131 533d e689 98bd 9517 cfbd 36a1 a6bd
000000e0: 7a4a bf3d 1f90 c8bd 5040 4abe 14d2 fbbd
000000f0: e689 33bd 4a95 993d 83a0 4c3d 8254 463d
00000100: 3f5f bebd 88e9 93bd ad2c 8cbd 9f8c 803d
00000110: be64 1dbe 4286 933d bb74 59bd 8707 6abe
00000120: 4803 053e 4310 5a3d 0a48 543d 9e10 753d
00000130: faf1 0b3d b2be 49bd 3c1e 723d ae5c 153e
00000140: cfd6 8b3d 3b2f 6a3d f910 e5bd bbcc 583d
00000150: d019 833d eef4 2f3d 81d7 27bd bd29 aa3d
00000160: 3ffe 883d 916d 693d 0ad4 9c3d b5d4 5e3d
00000170: b541 4dbe cafa b73d 1cd2 803d 2af0 443d
00000180: f93f 31bd 182f 77bd 91cb db3d 96e5 12be
00000190: 25d8 3dbe 1aca 933d 7fd5 32be 12d1 513d
000001a0: c6dc 8c3d 7aaa acbd 54af af3d 4498 8dbd
000001b0: 72fb 983d 599f a1bd 14d6 113d 3e40 b4bd
000001c0: 2158 d8bd 6e04 5ebd 280a a33d 7e73 bdbd
000001d0: 1da7 0ebe 43fc fa3d 907e 8f3d 91d4 543c
000001e0: 5fa3 0ebe 2948 47bd 1b86 a93d 8069 5d3d
000001f0: 7fa6 e6bd 689a 06be 02ac 753d ca84 903d
