savedmodels/checkpoint_1545158393_critic_episode114_score30.091.pth (torch_old, 169980 bytes, 5 tensors)

fcs1.weight f4 [256, 33]
0	0xbc759c5f	-0.014990895
1	0x3d19014b	0.03735475
2	0x3d443a55	0.047907192
3	0xbce1c6c7	-0.027560605
4	0xbdad39ed	-0.08458314
5	0xbd62bc05	-0.05535509
6	0x3dd37b00	0.10326195
7	0x3d7c9de4	0.061674014
8	0x3d88528d	0.0665637
9	0x3d80e338	0.062933385
10	0xbb4575d1	-0.0030130039
11	0xbc4f570f	-0.012655034
12	0xbd14c668	-0.036322027
13	0x3da635f4	0.081157595
14	0x3d9b039f	0.0756905
15	0xbd0c0d85	-0.03419258
16	0x3d8bfcba	0.06835313
17	0xbd0c1a7c	-0.034204945
18	0xbd387fc9	-0.04504374
19	0x3cbd9b12	0.023145232
20	0xbc87b7f0	-0.0165672
21	0x3bca58b5	0.0061751255
22	0xbb672236	-0.0035268194
23	0x3e003bd5	0.12522824
24	0xbca2e4a3	-0.019884413
25	0x3cff094b	0.03113236
26	0xbd47345f	-0.04863393
27	0x3849bda0	4.8098736e-05
28	0xbd7331b4	-0.059373572
29	0xbd4e6a80	-0.050394535
30	0xbd7aeb7c	-0.06125973
31	0x3d2599be	0.040429823
32	0x3d10f4d2	0.03538973
33	0x3c4eeb1d	0.012629298
34	0xbd8194ba	-0.063271955
35	0x3d524815	0.051338274
36	0x3cea78e4	0.028622098
37	0x3d1e0c8c	0.038586184
38	0x3d1b8b19	0.03797445
39	0x3ceab0e2	0.028648797
40	0xbcf7269b	-0.030169776
41	0x3cc924fc	0.024553768
42	0xbc5e7d6e	-0.013579709
43	0x3bd79e05	0.0065801167
44	0x3ce81d73	0.028334355
45	0x3d366604	0.044530883
46	0x3cabe5b2	0.02098355
47	0x3d61d255	0.05513223
48	0x3d65b8f6	0.056084596
49	0x3cf819de	0.030285772
50	0x3cf27b3d	0.02959978
51	0x3d5c3efe	0.05377101
52	0xbc493030	-0.012279555
53	0xbc6e155a	-0.014531458
54	0x3c574eb0	0.013141319
55	0x3d41ea25	0.04734244
56	0xbbc94d09	-0.0061432165
57	0xbcb18bb2	-0.021673057
58	0x3c6bedff	0.014400004
59	0xbd6da537	-0.05801889
60	0xbda489ce	-0.08034097
61	0x3d9681c6	0.07348971
62	0x3ca3f630	0.020014852
63	0x3d87c19c	0.06628725
64	0x3b9d9aa0	0.0048096925
65	0xbc8e06af	-0.017337171
66	0x3d49c6bc	0.049261793
67	0xbd374c9a	-0.044750787
68	0x3d38c589	0.04511026
69	0xbb054484	-0.0020335028
70	0x3d024cbc	0.03181146
71	0x3d65038a	0.05591158
72	0xbd57b7a6	-0.052665375
73	0xbd2bbe00	-0.041929245
74	0xbc079994	-0.008276362
75	0x3ce78bf7	0.028264983
76	0x3d08ca3f	0.033396002
77	0xbcf0136e	-0.02930614
78	0x3cda5bfe	0.026655193
79	0xbd37d9ef	-0.044885572
80	0x3bc9574f	0.006144441
81	0xbbe7147e	-0.0070520034
82	0x3d08f013	0.033432078
83	0xbcb3a5a0	-0.021929562
84	0xbaa21d0b	-0.0012368275
85	0xbd0f68b5	-0.035011966
86	0xbd5cb341	-0.053881887
87	0x3bdcf500	0.0067430735
88	0xbd48a428	-0.048984677
89	0xbc93f19b	-0.018059542
90	0x3ba70aad	0.005097708
91	0xbdc7af33	-0.097502135
92	0x3d792531	0.060826484
93	0xb8ef05d4	-0.00011397494
94	0xbce28afb	-0.027654162
95	0xbb512e40	-0.0031918436
96	0x3d89c7a6	0.06727533
97	0xbd5e991e	-0.054345243
98	0x3e627dab	0.22118251
99	0x3d8919cf	0.06694376
100	0x3b41a34e	0.00295468
101	0x3db54427	0.0885089
102	0x3d034d82	0.03205634
103	0xbc863314	-0.016381778
104	0x3d118755	0.035529453
105	0x3d023be4	0.031795397
106	0xbcd2fa2d	-0.025754059
107	0x3c578861	0.013155074
108	0xbc98470d	-0.018588567
109	0x3c41906b	0.011814217
110	0x3cb2f47c	0.021845095
111	0x38cf2092	9.876596e-05
112	0xbd25b6aa	-0.040457405
113	0x3d4a5c01	0.049404148
114	0xbd9f3ede	-0.07775663
115	0xbc87ec08	-0.01659204
116	0xbcc6befb	-0.024260988
117	0xbd715e34	-0.05892773
118	0xbc7d93a1	-0.015477092
119	0x3cc140f6	0.023590546
120	0x3d0c6097	0.034271803
121	0xbd5f2941	-0.054482702
122	0xbcfbfda4	-0.030760594
123	0xbd1bff85	-0.03808548
124	0xbc1bafcb	-0.0095023615
125	0x3ca60d32	0.020269964
126	0x3c308bac	0.010775488
127	0xbd44ffbc	-0.04809545
128	0xbccaa0b8	-0.02473484
129	0x3dbca17d	0.09210489
130	0xbc33c680	-0.010972619
131	0x3d5ac9e4	0.053415194
132	0xbcacec8d	-0.02110889
133	0x3c1757d9	0.009237253
134	0x3d5966ed	0.053076673
135	0xbca5f9bb	-0.020260682
136	0xbd490753	-0.04907925
137	0x3d91d62a	0.07120927
138	0x3cfd6bfc	0.03093528
139	0x3cc37343	0.023858672
140	0xbddf54cd	-0.10904846
141	0x3d89d9bd	0.067309834
142	0xbca6a424	-0.02034194
143	0x3ce83b90	0.028348714
144	0x3c3330e1	0.010936947
145	0xbc543c84	-0.012953881
146	0xbbac16ef	-0.0052517573
147	0xbbabb1eb	-0.0052397153
148	0xbcd16025	-0.02555854
149	0xbca95673	-0.020671105
150	0x39bc1885	0.00035876423
151	0xbcd420ef	-0.02589461
152	0x3bac8738	0.005265143
153	0x3ccc36c3	0.024928456
154	0x3ce678ba	0.028133739
155	0xbcbec2c2	-0.023286227
156	0x3c0a5d4a	0.008445093
157	0x3c8bdcfa	0.017073143
158	0xbcb54c79	-0.022131192
159	0x3d34da1c	0.044153318
160	0xbd6ceb70	-0.05784172
161	0x3c92d958	0.017925903
162	0xbd53aef8	-0.051680535
163	0x3c88a194	0.016678609
164	0xbe92d1b2	-0.2867561
165	0xbdc26368	-0.094916165
166	0x3db47b9b	0.08812638
167	0xbb8cabc6	-0.004292938
168	0xbc95bdce	-0.018278982
169	0xbd18ba78	-0.037287205
170	0xbcdd242b	-0.026994785
171	0x3d482590	0.048863947
172	0xbbe0e032	-0.0068626637
173	0xbd8e8c90	-0.06960404
174	0x3d00c48a	0.031437434
175	0xbc996a6b	-0.018727502
176	0xb9fe3b98	-0.00048491056
177	0xbaafdad3	-0.0013416655
178	0x3e1f8f1a	0.15581933
179	0xbdfed635	-0.124432005
180	0xbcd1def1	-0.025619002
181	0x3b524357	0.0032083595
182	0xbcdb3ae6	-0.026761483
183	0xbd374f13	-0.044753145
184	0x3cb31955	0.021862665
185	0xba5c05c0	-0.0008393191
186	0xba648331	-0.0008717059
187	0x3c32fb68	0.010924198
188	0x3cac1bcf	0.021009354
189	0xbd37db85	-0.044887085
190	0xbbfb18ba	-0.0076628597
191	0xbdb68cd7	-0.08913582
192	0x3d6d311a	0.057908155
193	0x3ccf115a	0.025276829
194	0x3d441aa4	0.04787697
195	0xbd5cbdac	-0.053891823
196	0x3c1980c8	0.009369083
197	0x3d727cb2	0.05920095
198	0x3cdc5c48	0.026899472
199	0xbc9ec578	-0.01938127
200	0xbd26d5e5	-0.04073133
201	0xbbef39af	-0.0073005776
202	0xbd854cee	-0.06508814
203	0x3dd8b5b7	0.10581534
204	0x3d714512	0.05890376
205	0x3c2f66fb	0.010705705
206	0xbc1eb82b	-0.009687464
207	0xbd1167c0	-0.035499334
208	0x3c428c8e	0.011874331
209	0xbd511c54	-0.051052406
210	0x3d01353d	0.031544913
211	0x3d47d5fa	0.04878805
212	0xbd35225b	-0.044222217
213	0xbb73dab1	-0.0037209208
214	0x3d2d15c6	0.042257093
215	0x3d1eab92	0.03873784
216	0x3a8fb24f	0.0010963174
217	0x3c911742	0.017711286
218	0xbd92be7f	-0.071652405
219	0x3a723654	0.0009239663
220	0x3cf1eb8d	0.029531265
221	0xbcf9b9e2	-0.030484144
222	0x3cf02f9f	0.029319583
223	0xbc829a08	-0.015942588
224	0xbd2170d1	-0.03941423
225	0x3db89235	0.09012262
226	0x3c139b56	0.009009203
227	0xbd438164	-0.04773082
228	0xbdedffed	-0.116210796
229	0x3abe9d80	0.0014542788
230	0x3da921ee	0.08258425
231	0xbd7c045d	-0.0615276
232	0x3ca15de8	0.019698098
233	0x3e044736	0.1291779
234	0xbc61b399	-0.01377573
235	0xbd98d6b5	-0.07462827
236	0xbcf0c32a	-0.029389936
237	0x3d603f1e	0.054747693
238	0x3d018448	0.031620294
239	0x3db7c83a	0.08973737
240	0xbcf4deff	-0.02989149
241	0xbd9eaf5b	-0.0774829
242	0x3d590cbf	0.05299067
243	0xbcec21ed	-0.02882477
244	0x3d547de5	0.051877875
245	0xbcd4242e	-0.025896158
246	0xbd8e1d5b	-0.06939193
247	0xbc526b21	-0.012842924
248	0xbd04667c	-0.0323243
249	0x3bf06b3e	0.007337003
250	0x3d1cd868	0.03829232
251	0xbc6a9783	-0.01431835
252	0x3bc48ad5	0.0059979954
253	0x3b8eca6f	0.004357628
254	0xbc8e19f6	-0.017346364
255	0xbddf77fd	-0.10911558

fcs1.bias f4 [256]
0	0x3d0f93d5	0.035053093
1	0x3e3cecdc	0.1844973
2	0xbb9c8f24	-0.004777806
3	0x3e3fba75	0.18723471
4	0xbc931af7	-0.017957194
5	0xbe4c328c	-0.19941157
6	0xbe6176a9	-0.22017922
7	0xbe18afc3	-0.14910798
8	0x3d21ec2e	0.03953188
9	0x3db62575	0.08893863
10	0xbd9794bd	-0.074014165
11	0xbc2c2a8a	-0.010508189
12	0x3dc79405	0.09745029
13	0xbd3cf929	-0.046136055
14	0x3d9041ca	0.07043798
15	0xbc63d6e5	-0.013906215
16	0xbe057ed4	-0.13036662
17	0xbe0aba62	-0.13547662
18	0x3ddef38b	0.10886296
19	0xbe1041ba	-0.14087573
20	0x3c7cb571	0.015424118
21	0x3bb5dbf4	0.005549902
22	0x3d87886d	0.06617818
23	0x3cc00f63	0.023444837
24	0xbd3c9ec7	-0.04604986
25	0xbd71cc5e	-0.05903279
26	0x3d812008	0.063049376
27	0xbd84035e	-0.06445955
28	0x3d54b853	0.051933598
29	0x3d224dd4	0.039625004
30	0x3d9754ce	0.07389222
31	0xbd4a1f86	-0.04934647
32	0xbe1816b7	-0.14852415
33	0xbdacd3f1	-0.08438862
34	0x3dabcc8a	0.08388622
35	0xbd84893c	-0.06471488
36	0x3e32d502	0.17464069
37	0x3dd6379c	0.104598254
38	0xbdf15e58	-0.11785573
39	0x3d54c980	0.051949978
40	0xbdb89b78	-0.09014028
41	0xbdf59716	-0.11991708
42	0x3d7a8215	0.061159212
43	0xbe162b68	-0.14664996
44	0xbd4ac939	-0.049508307
45	0xbe2d7281	-0.16938211
46	0x3dacd7e2	0.08439614
47	0x3dc14e01	0.09438706
48	0x3df9a8f7	0.121904306
49	0xbdc7528d	-0.09732542
50	0xbdef1b7b	-0.11675163
51	0x3cb3549f	0.021890936
52	0xbe13a515	-0.14418443
53	0xbd9592d3	-0.07303395
54	0xbe324ca5	-0.1741205
55	0x3de4c8b9	0.11171097
56	0xbd9f9349	-0.07791764
57	0xbd64a8e5	-0.055825133
58	0x3d4a64e6	0.04941263
59	0x3d1006d6	0.03516277
60	0xbe0455e4	-0.1292339
61	0x3dd9749a	0.10617943
62	0xbe2f4717	-0.17116962
63	0xbd59d3e0	-0.053180575
64	0xbe1458fd	-0.14487071
65	0xbdfd59d5	-0.1237065
66	0x3d565656	0.05232843
67	0x3e076b4a	0.13224521
68	0x3d7f8f05	0.062392253
69	0xbcb5715d	-0.022148782
70	0x3d95175d	0.07279847
71	0x3dfeead8	0.12447137
72	0xbd37af16	-0.04484471
73	0xbe029262	-0.12751153
74	0x3c0d982b	0.008642237
75	0x3d8b0a70	0.067891
76	0x3d6d70da	0.05796895
77	0xbdbdc7da	-0.09266634
78	0x3e41fb5e	0.18943545
79	0xbdfba7c9	-0.12287862
80	0x3c011c2c	0.007880252
81	0x3debc94f	0.11513006
82	0xbd86edc8	-0.06588322
83	0x3d905d9d	0.07049105
84	0x3df476cf	0.119367234
85	0xbda98228	-0.082767785
86	0x3e054be8	0.13017237
87	0x3d75f3fa	0.060047127
88	0x3dde02f8	0.1084041
89	0x3df8df2d	0.121519424
90	0x3de063a4	0.10956505
91	0x3d357a7e	0.04430627
92	0x3e01c785	0.12673767
93	0xbe58cfc7	-0.21173011
94	0xbe70a06f	-0.234987
95	0x3c829e37	0.015944583
96	0x3e41d6cf	0.18929599
97	0xbdd318ed	-0.103074886
98	0x3e2d0e55	0.16899998
99	0xbd7784e0	-0.060429454
100	0x3c128b7e	0.00894439
101	0xbdbc62e8	-0.09198552
102	0x3b56f87f	0.0032801924
103	0xbdbba9f6	-0.09163277
104	0xbe039149	-0.1284839
105	0x3d62916b	0.055314463
106	0xbd0be115	-0.0341502
107	0x3d46a948	0.048501283
108	0x3d66ad4d	0.056317616
109	0xbdb5a623	-0.08869579
110	0x3dc81bc2	0.097709194
111	0x3e437081	0.19085886
112	0xbdbe4405	-0.092903174
113	0x3e01b441	0.12666418
114	0x3d8f5c3c	0.07000014
115	0xbe1edb3e	-0.15513322
116	0x3c9020b2	0.017593715
117	0xbe35ec75	-0.17765982
118	0xbc092ce4	-0.008372519
119	0xbe0eb7ce	-0.13937303
120	0x3e03112a	0.12799516
121	0x3d0b0e5c	0.03394924
122	0x3e0ba275	0.13636191
123	0xbd3cd07b	-0.04609726
124	0xbe0b98cb	-0.13632505
125	0x3dd51f4a	0.104063585
126	0x3cb248bc	0.021763198
127	0x3d479045	0.04872157
128	0xbb8fde97	-0.0043905484
129	0x3dc9ce33	0.098537825
130	0xbdc4ddf8	-0.0961265
131	0xbe65fc4c	-0.22459525
132	0x3c3baf8b	0.011455427
133	0x3dcf03f9	0.101081796
134	0xbc86f4f9	-0.016474234
135	0xbcbbd0ab	-0.02292665
136	0xbe23fab5	-0.16013606
137	0x3d7af422	0.06126798
138	0xbe6585e5	-0.22414358
139	0xbdeb1608	-0.114788115
140	0x3db9be88	0.09069544
141	0xbe4536d5	-0.19259198
142	0xbdfe1440	-0.12406206
143	0xbe19f507	-0.15034877
144	0x3df30982	0.11867048
145	0xbe10add6	-0.14128813
146	0xbcf525b4	-0.029925205
147	0x391ff828	0.00015255867
148	0x3d80873b	0.06275793
149	0x3e0a6367	0.13514481
150	0x3d20a7e7	0.039222624
151	0x3c230d6d	0.009951931
152	0xbde509ac	-0.111834854
153	0x3dc3dc85	0.09563545
154	0x3e25e316	0.16199908
155	0x3c5059ba	0.012716705
156	0x3dd067e5	0.10176066
157	0xbda0997b	-0.07841774
158	0xbc60cd44	-0.013720814
159	0xbdc2657a	-0.09492011
160	0x3da24507	0.07923322
161	0xbda07391	-0.078345425
162	0xbd9db5d8	-0.077006996
163	0xbe3fd140	-0.18732166
164	0xbce8c2ff	-0.028413294
165	0x3d428459	0.047489498
166	0x3e00ef76	0.12591347
167	0x3bdc648e	0.0067258542
168	0xbcccd604	-0.025004394
169	0x3d9709d4	0.073749214
170	0x3c77559a	0.015096093
171	0x3e29c750	0.16579938
172	0x3e435514	0.19075423
173	0x3e22023e	0.15821168
174	0x3d05907c	0.032608494
175	0x3d2dfe36	0.042478763
176	0x3e1fb824	0.15597588
177	0xbc7ebf30	-0.015548512
178	0x3e2e7472	0.17036608
179	0xbde9434b	-0.11389788
180	0xbb17a3fe	-0.0023138518
181	0x3d2dd2c0	0.042437315
182	0xbde5c993	-0.11220088
183	0xbd54c68b	-0.051947158
184	0xbc92ba68	-0.017911151
185	0xbcc50abc	-0.02405297
186	0xbd72f0f6	-0.05931183
187	0xbc2e2071	-0.010627852
188	0xbb5db5b7	-0.0033830234
189	0x3e5bddd0	0.21471334
190	0xbd83e116	-0.06439416
191	0x3e035516	0.12825426
192	0xbcc20769	-0.023685174
193	0x3e222f90	0.15838456
194	0x3e36ba3b	0.17844479
195	0xbd1dddf1	-0.038541738
196	0xbcab78df	-0.02093166
197	0xbdfecde1	-0.12441612
198	0x3a7e8f5e	0.00097106944
199	0xbe0e8f8c	-0.13921946
200	0xbdc4ad0f	-0.09603321
201	0x3d2841b7	0.041078296
202	0x3d02e160	0.031953216
203	0xbdbcbeae	-0.09216057
204	0x3e00bf3b	0.12572949
205	0x3d44846a	0.047977842
206	0xbd9ca560	-0.0764873
207	0x3db613f3	0.08890524
208	0xbe0bddc6	-0.13658819
209	0xbc3f9f65	-0.011695717
210	0x3e539a30	0.20664287
211	0x3da01f55	0.07818476
212	0x3d71140a	0.058857
213	0x3cac87c3	0.02106083
214	0xbd012d73	-0.031537484
215	0x3e07cd60	0.13261938
216	0x3bafaa3d	0.00536087
217	0x3d02142b	0.031757515
218	0x3d1f2143	0.03885008
219	0xbc4f4eae	-0.012653036
220	0x3d8d6d32	0.06905593
221	0xbdfabe02	-0.12243272
222	0xbe08f75f	-0.13375615
223	0xbe2c62c2	-0.16834548
224	0x3e364e21	0.17803241
225	0xbd9cbc63	-0.076531194
226	0xbe256c80	-0.1615467
227	0x3d2075c7	0.03917482
228	0xbd867f23	-0.06567218
229	0x3d7dc76d	0.061957765
230	0xbd8d02fa	-0.06885333
231	0x3d95bd22	0.07311465
232	0xbe3990b6	-0.18121609
233	0xbe4314e9	-0.19050945
234	0x3db62abe	0.08894871
235	0xbd80bd32	-0.06286086
236	0xbc957d8d	-0.018248344
237	0x3d0999e7	0.03359404
238	0x3c62bd28	0.013839044
239	0xbdb26f64	-0.08712652
240	0x3d80d0ce	0.06289826
241	0xbdddca04	-0.10829547
242	0x3e0be1e2	0.13660386
243	0xbd7600e4	-0.060059443
244	0x3d89e2dd	0.06732724
245	0x3e21ac26	0.15788326
246	0x3de03b5d	0.10948823
247	0x3db30af6	0.08742325
248	0x3dae098f	0.08497917
249	0xbde2763b	-0.11057707
250	0x3da19af5	0.07890884
251	0xbd9ec7be	-0.077529415
252	0x3e0cd73a	0.13753977
253	0xbd8f46f4	-0.06995955
254	0x3da54b55	0.08071009
255	0x3cff08cc	0.031132124

fc2.weight f4 [128, 260]
0	0x3ce5321d	0.027977997
1	0x3b34b53d	0.0027573847
2	0x3dbf4130	0.093386054
3	0xbb79eab9	-0.003813429
4	0x3dd816ea	0.105512455
5	0xbe9316f2	-0.28728443
6	0xbda8bdd1	-0.082393296
7	0x3db895f5	0.09012977
8	0xbcae7b15	-0.021298924
9	0xbda6276d	-0.081129886
10	0x3d325129	0.04353443
11	0x3ba00e8f	0.004884548
12	0xbd761707	-0.060080554
13	0x3d742626	0.059606694
14	0xbd1acadc	-0.037791118
15	0x3bede818	0.0072603337
16	0xbbbdf417	-0.00579692
17	0xbd94a7cc	-0.07258567
18	0x3c75388a	0.014967093
19	0x3dff6ee6	0.12472324
20	0x3d9be805	0.076126136
21	0xbcc84c1a	-0.02445035
22	0x3d17563b	0.03694747
23	0xbe3a4e6a	-0.18193975
24	0x3d0f7b95	0.035029966
25	0xbc15bc10	-0.009139076
26	0x3d92c031	0.07165564
27	0xbe8858a4	-0.26630127
28	0x3d87febd	0.06640384
29	0xbd416f2f	-0.047225174
30	0x3d2dc51c	0.042424306
31	0x3d213f2c	0.039366886
32	0xbbee453c	-0.007271437
33	0x3c8005b4	0.01562772
34	0x3c57f545	0.013181035
35	0xbc84f9ec	-0.016232453
36	0xbc510800	-0.012758255
37	0xbd34a294	-0.04410036
38	0x3d7065e3	0.058690917
39	0xbd5ab512	-0.05339534
40	0xbdbe6332	-0.09296264
41	0xbd5c431e	-0.053774945
42	0xbb62f142	-0.0034628664
43	0xbc57e97b	-0.013178225
44	0xbbf6b2cf	-0.00752864
45	0x3d645176	0.05574175
46	0x3d0abff5	0.03387447
47	0xbd3df6a0	-0.046377778
48	0xbd860388	-0.06543642
49	0x39dac18f	0.00041724413
50	0x3c28ea4a	0.010309765
51	0x3d90115b	0.0703456
52	0x3d2ea28a	0.042635478
53	0xbda4e076	-0.08050625
54	0xbbaed14c	-0.0053350087
55	0xbd873f73	-0.06603899
56	0xbd8957c2	-0.067061916
57	0x3d9472c4	0.07248452
58	0xbda50a3b	-0.08058592
59	0x3d0e5e31	0.034757797
60	0x3b928519	0.004471433
61	0x3dec11c8	0.11526829
62	0x3d5de99e	0.054177873
63	0x3d6a40b8	0.057190627
64	0x3d693f00	0.056944847
65	0xbd1d80d1	-0.038452927
66	0xbcf3e990	-0.029774457
67	0x3d90927c	0.0705919
68	0xbdaf2edf	-0.08553862
69	0xbddd14e1	-0.10794998
70	0xbdad7e0c	-0.08471307
71	0x3d346165	0.044038195
72	0xbc5cad2f	-0.013469025
73	0x3d932897	0.07185476
74	0xbd939e57	-0.07207935
75	0xbd6570c5	-0.05601575
76	0xbcfe82a7	-0.03106816
77	0x3d3933ce	0.04521542
78	0x3d45d1ed	0.048295904
79	0xbd88c406	-0.066780135
80	0xbd9f295c	-0.077715605
81	0xbc8b04d6	-0.01697008
82	0xbd15734c	-0.03648691
83	0xbdb9a2a1	-0.09064222
84	0xbd99b9cd	-0.07506142
85	0x3d763545	0.060109396
86	0x3cd6cbab	0.026220163
87	0xbcf12ff3	-0.02944181
88	0xbd3ea4be	-0.04654383
89	0xbe11d190	-0.14240098
90	0x3ddd80ab	0.10815557
91	0xbe52dac2	-0.20591262
92	0xbc2befb3	-0.0104941605
93	0xbe5f6eb6	-0.21819577
94	0x3d4ba44c	0.049717233
95	0xbc39b86b	-0.011335473
96	0x3cabfb4b	0.02099385
97	0xbdb028df	-0.086015455
98	0x3d30fc94	0.043209627
99	0x3d720e8d	0.059095908
100	0xbdb8cca0	-0.09023404
101	0xbd3fb310	-0.046801627
102	0xbbf88b6a	-0.007584979
103	0x3c99ad53	0.018759405
104	0xbd8cd2e6	-0.06876163
105	0x3dd2647b	0.102730714
106	0x3dc780fc	0.09741399
107	0x3d237316	0.039904676
108	0x3dab9e7d	0.083798386
109	0x3c7c53da	0.015400851
110	0xbd2bddd4	-0.0419596
111	0x3d222cb2	0.039593406
112	0x3d8f4ce8	0.069970906
113	0x3b608025	0.0034256068
114	0xbd4c2744	-0.049842134
115	0xbdda1811	-0.106491216
116	0xbd81865b	-0.063244544
117	0xbdc57f7b	-0.096434556
118	0xbc6b6e95	-0.0143696265
119	0xbcb895a0	-0.022532284
120	0xbc5e8260	-0.0135808885
121	0x39e4444b	0.0004353843
122	0xbd384044	-0.044983163
123	0xbd8e8ed5	-0.06960837
124	0x3d35df6d	0.04440253
125	0xbc9c8ad0	-0.01910916
126	0x3dd4e83d	0.103958584
127	0x3d4913f4	0.049091294
128	0x3d869ee6	0.06573276
129	0x3d95c16a	0.073122814
130	0xbcf66ead	-0.030082071
131	0x3db808f0	0.0898608
132	0x3dd9bd94	0.10631862
133	0xbd9566c7	-0.07294994
134	0xbe4b9105	-0.1987954
135	0x3d86327a	0.065525964
136	0x3d651d65	0.055936236
137	0x3d102dce	0.035199933
138	0x3cd84ff6	0.026405316
139	0x3cef8210	0.029236823
140	0xbd21d7d7	-0.03951248
141	0xbe0ed7cc	-0.13949507
142	0xbc78e59a	-0.01519146
143	0xbd668ba2	-0.056285508
144	0x3d83df19	0.06439037
145	0xbc95df50	-0.01829496
146	0xbc2d4d39	-0.010577493
147	0x3d1172e0	0.035509944
148	0xbe10b2fe	-0.1413078
149	0xbb87f8d8	-0.0041495375
150	0xbd933f6a	-0.0718983
151	0x3d2f2780	0.04276228
152	0xbd21569e	-0.039389245
153	0x3e098e00	0.13433075
154	0x3cb02213	0.021500623
155	0x3d6f706f	0.058456834
156	0xbdf22604	-0.11823657
157	0xbd14ffd2	-0.03637678
158	0x3d99848b	0.07495984
159	0x3dbe04b7	0.09278243
160	0xbcb4b91d	-0.022060925
161	0x3e184e35	0.14873584
162	0xbce2393a	-0.027615178
163	0xbdd7c636	-0.105358526
164	0x3d677bbe	0.056514494
165	0xbdefb472	-0.11704339
166	0x3d2e8aed	0.04261296
167	0x3d8b985e	0.06816171
168	0x3d9c69fc	0.076374024
169	0xbda2e1f1	-0.07953251
170	0x3dc5e922	0.09663607
171	0xbd87d96d	-0.066332676
172	0xbcccad76	-0.024985056
173	0xbcb784ad	-0.022402132
174	0x3d4790ad	0.048721958
175	0xbd439d25	-0.047757287
176	0xbc8df710	-0.017329723
177	0xbcc3200b	-0.02381899
178	0x3c157116	0.0091212
179	0xbd8d2b44	-0.06893018
180	0xbd5ba914	-0.053628042
181	0x3cbbc047	0.022918833
182	0xbd43c956	-0.04779943
183	0x3d93b456	0.07212131
184	0xbd5f39a0	-0.054498315
185	0xbe062d57	-0.13103233
186	0xbdd2ced3	-0.10293355
187	0x3d869b01	0.065725334
188	0x3d2e787d	0.042595375
189	0x3d93921a	0.07205601
190	0x3bbfa76e	0.0058488166
191	0xbc828e93	-0.015937125
192	0xbd948ebc	-0.07253787
193	0x3e08e9e5	0.13370474
194	0xbb56eadb	-0.0032793793
195	0xbbfd17a1	-0.007723764
196	0x3dd9b866	0.10630874
197	0xbdf9a4b7	-0.1218962
198	0x3d6daf8f	0.058028754
199	0x3d0bc10e	0.03411966
200	0x3b8c6c8f	0.004285402
201	0x3cf28a0e	0.029606845
202	0xbc94801f	-0.0181275
203	0x3d9386f0	0.07203472
204	0xbd263f88	-0.040587932
205	0x3d4745bf	0.0486505
206	0x3c3286b2	0.010896372
207	0x3c33e01d	0.010978726
208	0xbd976c70	-0.0739373
209	0x3ca897f1	0.020580264
210	0xbc3e20e8	-0.011604525
211	0x3a194ba7	0.000584776
212	0x3db50182	0.08838178
213	0xbd43842c	-0.04773347
214	0x3d730733	0.059333038
215	0x3c145ca3	0.009055289
216	0x3cdaa0d4	0.026688017
217	0xbdb264cd	-0.087106325
218	0xbdcb08cd	-0.09913788
219	0xbde4a9e7	-0.11165219
220	0xbb497956	-0.0030742488
221	0x3dbc0df0	0.09182346
222	0xbd9fd058	-0.0780341
223	0xbc0418e3	-0.008062574
224	0x3c74daec	0.014944773
225	0xbe0001e5	-0.12500723
226	0x3a19f7ae	0.0005873394
227	0x3ba86ada	0.005139691
228	0xbd79488a	-0.060860194
229	0x3c83af8c	0.016074918
230	0x3d655bc8	0.055995733
231	0x3d30faa6	0.043207787
232	0x3c4c385c	0.012464609
233	0x3c00a6b1	0.007852242
234	0xbdac059a	-0.08399506
235	0xbdabc477	-0.08387082
236	0x3daed557	0.08536785
237	0xbd187045	-0.037216444
238	0xbe418038	-0.18896568
239	0x3d2e7510	0.04259211
240	0xbe316159	-0.17322291
241	0x3d9a3d3d	0.075312115
242	0xbd2588df	-0.040413734
243	0xbdd70a85	-0.10500053
244	0xbb37f76a	-0.0028071054
245	0x3cf8893b	0.030338874
246	0xbd4def89	-0.050277267
247	0x3bd52b22	0.006505386
248	0x3d077208	0.033067733
249	0x3d87cf47	0.06631332
250	0xbd3dc1d9	-0.046327446
251	0x3d5ea48d	0.054356147
252	0x3caaea71	0.020863743
253	0xbc7c71db	-0.015408005
254	0xbd478909	-0.04871467
255	0xbcbc0419	-0.022951173

fc2.bias f4 [128]
0	0x3bec2e9e	0.0072077056
1	0x3bdf5be8	0.006816376
2	0x3d93f8dc	0.072252005
3	0xbd221c07	-0.03957751
4	0x3d1e61e8	0.03866759
5	0x3dc31ee2	0.09527375
6	0xbd3230cc	-0.043503568
7	0x3ab1591a	0.0013530583
8	0x3c99160c	0.01868727
9	0x3c3c68f9	0.011499637
10	0x3d7d236a	0.06180135
11	0x3d85ee64	0.0653961
12	0x3dd4bcb2	0.10387553
13	0xbdaba1e1	-0.08380485
14	0xbd143ee5	-0.036192793
15	0xbd8e21b0	-0.06940019
16	0x3d88cc57	0.066796
17	0xbd94ccf1	-0.07265652
18	0x3d03c7ff	0.032173153
19	0x3d8d9dc5	0.06914858
20	0x3e11ca71	0.14237382
21	0x3dae8260	0.08520961
22	0xbd3111a4	-0.043229714
23	0xbd73ddb4	-0.059537604
24	0x3db379c1	0.08763457
25	0xba4ef545	-0.00078948244
26	0x3dbeef51	0.0932299
27	0xbd1d6f56	-0.038436256
28	0x3e063b93	0.13108663
29	0xbd55d0ba	-0.05220101
30	0x3da5c251	0.080937035
31	0x3d165b86	0.036708377
32	0x3d77237c	0.060336575
33	0xbd7a0abf	-0.061045405
34	0x3d77faad	0.060541797
35	0x3ba44c7d	0.005014001
36	0x3c4eed5e	0.012629835
37	0x3c89394d	0.016750956
38	0x3de0fb7f	0.10985469
39	0x3b8e5ffb	0.004344938
40	0x3c7a16b4	0.015264202
41	0x3a7f46d9	0.0009738035
42	0x3caedd8c	0.021345876
43	0x3d24a552	0.040196724
44	0xbd50beb0	-0.050963104
45	0x3e0886f7	0.13332735
46	0x3d114b1f	0.03547203
47	0xbcc9aef7	-0.024619563
48	0x3d3c4cdd	0.04597174
49	0xbb7fedff	-0.0039051769
50	0xbd9756bd	-0.07389591
51	0xbd9ea867	-0.07746964
52	0x3d849fc0	0.064757824
53	0xbcf80f44	-0.030280717
54	0xbd0b81d5	-0.034059364
55	0xbdac73da	-0.084205344
56	0x3dad1b2e	0.0845245
57	0xbb3930fd	-0.002825796
58	0xbd128428	-0.035770565
59	0xbd12d507	-0.03584769
60	0xbdb649ce	-0.08900796
61	0x3d043aa8	0.0322825
62	0x3da11cc6	0.07866816
63	0x3de419e1	0.111377485
64	0xbc716062	-0.014732452
65	0xbcffe15c	-0.03123539
66	0x3c46a72c	0.012124818
67	0x3d8b611f	0.06805634
68	0xbc94f912	-0.018185172
69	0x3de694e1	0.11258865
70	0xbbf29c39	-0.007403877
71	0xbd2ed738	-0.042685717
72	0x3d7000fc	0.05859469
73	0x3d006f42	0.031356104
74	0x3c81d8c6	0.015850436
75	0x3dd4632c	0.10370478
76	0x3db285b7	0.0871691
77	0xbda890a3	-0.08230712
78	0xbd0a5520	-0.033772588
79	0xbcb947f7	-0.022617323
80	0x3d2f3fa4	0.0427853
81	0x3da17810	0.07884228
82	0xbd57f3ca	-0.05272273
83	0x3cf610b8	0.030037269
84	0x3c33a944	0.010965649
85	0x3e0271d4	0.12738734
86	0xbc90a2e6	-0.017655801
87	0x3d81f636	0.06345789
88	0x3e001083	0.12506299
89	0x3e23e06a	0.16003576
90	0x3e16d91e	0.14731261
91	0x3d821d7a	0.063532785
92	0xbca2cc08	-0.01987268
93	0x3dd2c8b3	0.102921866
94	0x39a57320	0.00031557027
95	0x3ca556f3	0.020183062
96	0xbda31beb	-0.07964309
97	0xbd30ef57	-0.043197002
98	0x3e0496f3	0.12948208
99	0xbd5c5b48	-0.05379799
100	0xbd9c4a08	-0.07631308
101	0x3d0d79f2	0.034540124
102	0xbd2391fc	-0.039934143
103	0x3db16f25	0.08663777
104	0x3b3f7589	0.0029214344
105	0x3b175b2b	0.0023095112
106	0x3c920b76	0.01782773
107	0xbd98293b	-0.07429739
108	0x3cce4048	0.025177136
109	0x3cb1337d	0.021630997
110	0x3cd7404d	0.026275778
111	0x3b1a19f1	0.0023513997
112	0xbc0d5275	-0.008625616
113	0xbd71519a	-0.058915712
114	0x3d93ce48	0.072170794
115	0xbcf165f4	-0.02946756
116	0x3bc4440a	0.005989556
117	0x3d1efcf8	0.03881547
118	0xbcb38258	-0.021912739
119	0xbd2efcda	-0.042721607
120	0xbd966f4c	-0.07345447
121	0xbd19fe4e	-0.03759604
122	0x3d5dac73	0.05411954
123	0x3d08d30e	0.033404402
124	0xbce738b3	-0.028225278
125	0xbdb8dee9	-0.09026892
126	0xbd475d84	-0.048673168
127	0x3dc707da	0.097182944

fc3.weight f4 [1, 128]
0	0x3daa5350	0.08316672
1	0xbe36f3af	-0.17866395
2	0x3e29f0ee	0.16595814
3	0xbd49b80c	-0.049247786
4	0x3d51cecc	0.051222607
5	0x3d8d32f3	0.068944834
6	0x3dbdb7b7	0.092635565
7	0x3db7177b	0.089400254
8	0x3d62ce58	0.055372566
9	0xbe242785	-0.160307
10	0x3d3cb45e	0.04607045
11	0x3e0f1dd1	0.13976218
12	0x3da5ee04	0.081020385
13	0xbce636df	-0.028102336
14	0xbe610b4f	-0.2197697
15	0xbdd30eec	-0.103055805
16	0x3d99fae0	0.07518554
17	0xbdcb33db	-0.09922
18	0x3d2642be	0.040590994
19	0x3e3c9fc4	0.18420321
20	0x3d7b304a	0.06132535
21	0x3db72056	0.089417145
22	0xbdd0dc40	-0.10198259
23	0xbdc45e23	-0.09588268
24	0x3da812ff	0.08206748
25	0xbda0ed9a	-0.07857819
26	0x3dddf871	0.10838402
27	0xbda0eb88	-0.07857424
28	0x3d9c7fa8	0.07641536
29	0xbe702b8b	-0.2345411
30	0x3d620442	0.05517984
31	0xbe118fde	-0.14215037
32	0x3d47e9a9	0.04880682
33	0xbdfb71ef	-0.122775905
34	0x3d85b899	0.0652935
35	0x3e1e920a	0.15485397
36	0xbd8d4190	-0.06897271
37	0x3df8ae09	0.121425696
38	0x3d616cfb	0.055035572
39	0xbe627e97	-0.22118603
40	0x3d60d1b5	0.054887492
41	0xbe698fa9	-0.22808708
42	0x3df679ea	0.12034972
43	0x3d60be50	0.054868996
44	0xbdb50b4c	-0.08840045
45	0x3df804f7	0.12110322
46	0x3e12ea8b	0.14347284
47	0xbd9819ba	-0.07426782
48	0x3ddebccf	0.10875856
49	0xbe1ee944	-0.15518671
50	0xbe4a15e0	-0.19734907
51	0xbd2ae585	-0.041722793
52	0x3d56de59	0.05245814
53	0xbda07e4a	-0.07836588
54	0xbdbca312	-0.09210791
55	0xbd724671	-0.05914921
56	0x3dbc477c	0.09193322
57	0xbdfa37fb	-0.12217709
58	0xbe4573d3	-0.19282465
59	0xbdf5c483	-0.12000372
60	0xbd5aab7e	-0.053386204
61	0x3d9f49e0	0.077777624
62	0x3d5b38cd	0.053520966
63	0x3d423f6f	0.047423776
64	0xbda362f9	-0.07977862
65	0xbd5baa11	-0.053628985
66	0xbd94505c	-0.0724189
67	0x3d8268e8	0.063676655
68	0xbe1fcc85	-0.15605362
69	0x3d951825	0.07279996
70	0xbd3500fd	-0.044190396
71	0xbe53604c	-0.20642203
72	0x3dfbb9c2	0.1229129
73	0x3d635f98	0.055511087
74	0x3d58a851	0.052894894
75	0x3d704709	0.058661494
76	0x3d0ceb5a	0.034404136
77	0xbd4d10e5	-0.05006494
78	0x3d859da4	0.06524208
79	0x3e19994b	0.14999883
80	0x3d90a62b	0.07062944
81	0x3d6d97cb	0.05800609
82	0xbdf467c4	-0.11933854
83	0x3d5263fa	0.051364876
84	0x3d822d9a	0.06356354
85	0x3d299a83	0.04140712
86	0xbd253027	-0.040329125
87	0x3d9f7c20	0.07787347
88	0x3d85f4a2	0.06540801
89	0x3d60efbc	0.05491613
90	0x3d97db33	0.07414856
91	0x3d65cc1c	0.056102857
92	0xbe4fa859	-0.20279063
93	0x3dbabcdd	0.09118054
94	0x3d774569	0.06036893
95	0x3d4b079a	0.049567796
96	0xbd313ff9	-0.0432739
97	0xbd7d021a	-0.061769582
98	0x3dd7ec6e	0.10543142
99	0xbe009932	-0.1255844
100	0xbe4430f7	-0.19159304
101	0x3d93d6bb	0.07218691
102	0xbe319d2d	-0.17345114
103	0x3d55e7ee	0.05222314
104	0x3d87a1aa	0.06622632
105	0xbd93c7cf	-0.07215845
106	0x3dc1cdaa	0.094630554
107	0xbd59b1e0	-0.05314815
108	0x3d99ca45	0.07509283
109	0xbd8a5916	-0.06755273
110	0x3d19b23b	0.03752349
111	0xbd925492	-0.07145037
112	0xbdc4bc97	-0.09606283
113	0xbd716729	-0.05893627
114	0x3d996004	0.07489017
115	0xbda84285	-0.082158126
116	0xbdf0297c	-0.117266625
117	0x3dfa5a75	0.122242846
118	0x3d96146c	0.07328114
119	0x3c54d491	0.012990133
120	0xbe0c2244	-0.13684946
121	0xbd5ac40b	-0.053409617
122	0x3db62c8d	0.08895216
123	0x3d637b19	0.055537317
124	0xbdc6040b	-0.0966874
125	0xbe037704	-0.1283837
126	0x3d8a4826	0.067520425
127	0x3d94fa7a	0.07274337
