savedmodels/checkpoint_1545158393_actor_episode118_score31.435.pth (torch_old, 169478 bytes, 6 tensors)

fc1.weight f4 [256, 33]
-0.011829697 -0.024250887 -0.07634569 0.015823439 -0.020497689 0.1572986 -0.08991476 -0.014607469
0.00021715397 -0.06972241 -0.13400808 -0.029895427 -0.06035916 0.09192703 0.16783965 0.1637056
0.017532598 0.00013492526 -0.024999326 -0.04680641 -0.027672473 0.053519793 0.1502294 -0.06989835
0.053576812 -0.0619677 -0.07001179 0.071561724 -0.11611796 0.031534612 -0.038414955 0.028442599
-0.41872463 -0.1227667 -0.11848309 -0.042224552 0.097681865 0.10517211 0.060367733 0.01911084
0.013549708 0.073917694 -0.0066485326 -0.083464056 0.14978506 0.1018802 0.0030131289 0.09872884
-0.08262425 0.08507444 0.047117565 -0.021753239 -0.012114473 -0.0032284346 -0.0243337 -0.0004935804
0.015238242 -0.006405848 0.026142346 -0.07859832 -0.01729127 0.19842112 -0.058925427 0.028936373
0.051832296 -0.19760169 -0.1374475 -0.009051333 -0.004955728 0.07475582 0.061601266 -0.062823646
0.06500529 -0.06586202 0.050475057 -0.06419416 -0.074368745 0.0057888404 0.039182376 -0.0746743
0.05579405 0.03126627 0.1201202 0.027648417 0.0012258069 0.03057821 -0.04582349 0.049543258
0.08310433 -0.12924662 0.011198525 -0.01136107 -0.14290084 -0.028258521 -0.030883811 0.03277698
-0.0340247 -0.035798535 -0.14086951 0.013894556 -0.016405726 0.02219372 -0.06653121 0.02070017
0.061009 0.09951239 -0.103044264 -0.09882834 -0.014552104 -0.024016261 -0.10398989 0.0511504
-0.0563241 -0.17896467 0.022207221 0.054122556 0.07708862 0.043173444 -0.0068693743 -0.17405833
0.06643703 -0.035554882 -0.04121946 -0.042295646 -0.056057274 0.15174496 0.030149275 -0.058862578
-0.05549769 -0.00055848353 -0.044141024 0.14059827 0.0052955053 -0.063653424 0.06899505 -0.0032132117
0.050095826 -0.051602755 0.14243285 -0.031447373 -0.07466095 0.06864433 -0.017885678 -0.06238896
-0.0007371465 -0.025772555 0.12816371 -0.021666579 -0.0028993231 -0.009701105 0.15612735 0.024271421
-0.02883302 0.029410478 -0.02550204 0.027125625 0.1055114 -0.12742946 0.11663552 -0.19274856
0.0123730665 0.01118844 0.20439173 0.05973068 -0.43546867 0.0418166 0.13155475 -0.21209182
-0.026425315 0.10539711 0.0122614615 -0.07944548 0.10140652 0.0060985936 0.022588378 0.014941052
-0.031905886 -0.086037934 -0.02576502 -0.11421863 0.056150664 -0.056463405 -0.04458344 -0.081453666
-0.00052091904 -0.1586458 -0.077663414 -0.0019392915 0.024994273 -0.032034498 0.07458018 -0.09919105
0.03803106 0.13680127 0.023382619 -0.047205094 0.015905716 0.10998314 -0.09430962 0.0070954254
0.0021547133 0.06631458 0.03229342 0.04033465 0.13244797 -0.006489661 0.016456654 0.058656797
0.05593833 -0.005012221 -0.048961934 -0.08060082 0.086944625 -0.11344772 0.096809 0.09970934
0.0738713 0.051203147 0.12899958 -0.046294063 -0.104570515 0.036242034 0.03689565 -0.18192445
0.075752534 -0.0024367466 -0.028806716 0.0397287 -0.054277036 0.012115531 -0.23527616 0.021546585
0.093440205 0.0072860476 0.03359254 -0.005054777 -0.060405247 -0.009656327 0.07958879 -0.10613081
-0.016791802 0.06368272 0.02360273 -0.0007587997 0.21485037 0.001434364 -0.0968434 0.015729595
0.0014756249 0.018648788 0.057942472 -0.006424452 -0.06530209 -0.04698824 0.15153009 0.0035489514
00000000: 58d1 41bc cca9 c6bc 215b 9cbd 28a0 813c
00000010: c5ea a7bc e212 213e 3b25 b8bd 2a54 6fbc
00000020: d3b3 6339 9fca 8ebd 6a39 09be 41e7 f4bc
00000030: 2b3b 77bd 3d44 bc3d 28de 2b3e 71a2 273e
00000040: 86a0 8f3c b97a 0d39 63cb ccbc 14b8 3fbd
00000050: 62b1 e2bc 9237 5b3d bcd5 193e de26 8fbd
00000060: 5c73 5b3d d8d1 7dbd 5762 8fbd f48e 923d
00000070: 41cf edbd 702a 013d 0059 1dbd 7400 e93c
00000080: 1363 d6be 1c6d fbbd 43a7 f2bd a7f3 2cbd
00000090: 6e0d c83d 7a64 d73d 2844 773d 568e 9c3c
000000a0: 98ff 5d3c 2962 973d efdb d9bb 34ef aabd
000000b0: 4161 193e 91a6 d03d ea77 453b 5932 ca3d
000000c0: e736 a9bd 823b ae3d 59fe 403d d933 b2bc
000000d0: c87b 46bc 2594 53bb 7857 c7bc 9f63 01ba
000000e0: d2a9 793c 26e8 d1bb 7928 d63c 28f8 a0bd
000000f0: 6ca6 8dbc e82e 4b3e ca5b 71bd f90b ed3c
00000100: 1a4e 543d 1958 4abe 0abf 0cbe 0b4c 14bc
00000110: a963 a2bb 9419 993d 9c51 7c3d afa9 80bd
00000120: 7e21 853d abe2 86bd efbe 4e3d 3a78 83bd
00000130: a44e 98bd 50b0 bd3b b37d 203d d7ee 98bd
00000140: 4d88 643d 0f11 003d 9401 f63d ef7e e23c
00000150: 41ab a03a 277f fa3c 69b1 3bbd dfed 4a3d
00000160: 9a32 aa3d 3a59 04be 057a 373c c823 3abc
00000170: 9954 12be 6a7e e7bc 0c00 fdbc 2841 063d
00000180: 7c5d 0bbd 7ca1 12bd 1940 10be fea5 633c
00000190: 4d65 86bc 9bcf b53c 8441 88bd 6793 a93c
000001a0: 93e4 793d 27cd cb3d df08 d3bd 8366 cabd
000001b0: f36b 6ebc c0bd c4bc a7f8 d4bd 1583 513d
000001c0: 19b4 66bd 8442 37be ebeb b53c 9daf 5d3d
000001d0: a3e0 9d3d a3d6 303d 7d18 e1bb 593c 32be
000001e0: 2310 883d ffa1 11bd bdd5 28bd 333e 2dbd
000001f0: 509c 65bd 0863 1b3e 9dfb f63c e319 71bd
00000200: 8c51 63bd 3267 12ba 38cd 34bd fef8 0f3e
00000210: eb85 ad3b ba5c 82bd 474d 8d3d bf94 52bb
00000220: 4831 4d3d 695d 53bd ebd9 113e f6ce 00bd
00000230: d7e7 98bd 6695 8c3d fc84 92bc 918b 7fbd
00000240: 103d 41ba f720 d3bc 593d 033e 1c7e b1bc
00000250: 9202 3ebb 62f1 1ebc d9df 1f3e dcd4 c63c
00000260: 3a33 ecbc 3eee f03c a7e9 d0bc 8f36 de3c
00000270: 5c16 d83d de7c 02be 9ade ee3d e15f 45be
00000280: 67b8 4a3c b84f 373c 114c 513e 28a8 743d
00000290: c0f5 debe e247 2b3d 4ab6 063e 992e 59be
000002a0: e779 d8bc 71da d73d 4ce4 483c 50b4 a2bd
000002b0: 39ae cf3d b6d6 c73b 430b b93c 50cb 743c
000002c0: bfaf 02bd a834 b0bd 2a11 d3bc 75eb e9bd
000002d0: 3dfe 653d 2c46 67bd 209d 36bd 2ed1 a6bd
000002e0: 498e 08ba 0b74 22be ff0d 9fbd d32f feba
000002f0: cac0 cc3c 9b36 03bd 7ebd 983d ad24 cbbd
00000300: 75c6 1b3d a215 0c3e e88c bf3c 215a 41bd
00000310: b44c 823c d73e e13d 6725 c1bd be80 e83b
00000320: 1736 0d3b f0cf 873d 1b46 043d f235 253d
00000330: 71a0 073e 39a7 d4bb 1bd0 863c 1c42 703d
00000340: 971f 653d 8f3d a4bb 4f8c 48bd 0b12 a5bd
00000350: 0610 b23d 4757 e8bd cc43 c63d 6934 cc3d
00000360: d649 973d 64ba 513d 7718 043e d89e 3dbd
00000370: 1129 d6bd 8772 143d e51f 173d 674a 3abe
00000380: 2524 9b3d d3b1 1fbb 10fc ebbc 90ba 223d
00000390: 9951 5ebd 3880 463c 3cec 70be 7782 b03c
000003a0: 945d bf3d ccbf ee3b 5598 093d 8ba2 a5bb
000003b0: 7e6b 77bd 9235 1ebc 73ff a23d 1c5b d9bd
000003c0: f68e 89bc 166c 823d 835a c13c 30ea 46ba
000003d0: bc01 5c3e 4501 bc3a d555 c6bd 5adb 803c
000003e0: c169 c13a 58c5 983c 1655 6d3d 3684 d2bb
000003f0: 1abd 85bd be76 40bd b42a 1b3e 8695 683b

fc1.bias f4 [256]
0.047711164 0.20354672 -0.02534743 0.108163565 0.1499758 -0.20856397 -0.16059029 -0.11553722
0.05579274 0.08276113 -0.10411345 0.04980773 0.023187323 0.04382201 0.16747402 0.047847487
-0.10052877 -0.026017278 0.19133031 -0.058996428 0.01578946 0.14604695 -0.050959263 -0.04948726
0.097796716 -0.08772239 0.0107321935 0.050208624 0.024615778 0.13775691 0.10429589 -0.12546797
-0.19185038 0.053215757 -0.032379583 -0.0539951 0.18726781 0.09978951 -0.05262949 0.17461675
-0.02139953 -0.08552451 0.0055070384 -0.052504294 -0.107092395 -0.061873965 0.17284499 0.09821326
0.17341527 -0.09618963 -0.074666515 0.18132393 -0.07402478 -0.020701002 -0.110497184 0.15220053
-0.06728705 0.054092653 0.04244321 0.0037758795 -0.09719244 0.15128073 -0.06743048 0.01324614
-0.10479356 0.0063908617 0.13815063 0.1794023 0.040738456 -0.006939782 0.11867073 0.10952104
-0.060079616 -0.03329748 0.05921009 0.18924169 0.027799517 0.04406005 0.23642172 -0.10538585
0.008344811 0.1101961 0.019861536 -0.004528963 0.12668954 -0.12124852 0.1018666 0.06859393
0.17231523 0.07131804 0.14627275 -0.013430763 0.030361215 -0.06441253 -0.1828691 0.09164321
0.15221334 -0.034737967 0.096102245 0.011518531 0.10520843 -0.15732051 0.10019421 -0.067169994
-0.13821112 0.22954 -0.037198346 0.027146926 -0.00909013 -0.13747092 0.21052924 0.1188486
-0.052653927 -0.024597533 0.026100207 -0.039037567 0.06415748 -0.1428143 -0.049639326 -0.03706529
0.16124399 0.008924653 0.16242178 -0.062192127 -0.12503326 0.14722589 0.12590855 0.046272345
0.0059249057 0.17358579 -0.08240929 -0.17120497 0.11476505 0.15520288 0.08060188 -0.024408625
-0.15368834 0.05989027 -0.20940419 -0.16627406 0.17047063 -0.14750066 -0.16055873 -0.04824733
0.11713138 -0.11548245 0.056832314 0.007414742 0.082459606 0.15961683 0.07805147 -0.0014213593
0.0007188931 0.13767627 0.17332646 -0.04367231 0.0880473 0.006215045 0.083743714 -0.20287941
0.010779853 -0.12202514 -0.069415085 -0.259168 0.048283715 -0.1083089 0.022527674 -0.026999714
0.05663278 0.11262732 -0.07694349 0.12877747 0.28054655 0.12546922 0.072523504 0.13653632
0.21181299 -0.046696145 0.1509647 -0.10239113 -0.01076456 0.1631919 -0.056718163 0.026136208
0.04640672 0.17601153 -0.022725075 -0.0524299 0.10874217 0.07224702 -0.04348206 0.12015633
0.12542346 0.1669856 0.21521784 0.035149656 -0.07208805 -0.027429406 0.050613016 -0.015064637
-0.015184209 0.09293547 0.0201016 -0.03239605 -0.024160746 0.00057320483 0.13780372 0.0060355514
-0.071144335 -0.02628496 0.20792483 0.095546395 0.14882769 0.068760335 0.01719225 0.049710345
0.083319545 0.0750933 0.12174225 0.13849884 0.113466494 -0.073742576 -0.02432026 -0.23775822
0.17679703 -0.09822 -0.08270734 -0.04913364 0.025960933 0.010421564 -0.105384566 0.07671353
-0.17426662 -0.20405899 0.13517596 -0.004532641 0.063261606 -0.023429928 0.054543383 -0.09530815
-0.05327274 -0.14305174 0.10346765 0.0093828635 0.117941216 0.10059248 0.010562349 0.059109136
0.15124741 -0.060163923 0.22541885 -0.07452296 0.082013026 -0.042969834 0.07190676 0.10015455
00000000: c86c 433d 8d6e 503e 6aa5 cfbc dc84 dd3d
00000010: 4293 193e cb91 55be c871 24be c79e ecbd
00000020: ee86 643d ab7e a93d 6f39 d5bd 3103 4c3d
00000030: 57f3 bd3c b57e 333d 4f7e 2b3e bafb 433d
00000040: 07e2 cdbd 3022 d5bc 18ec 433e 3da6 71bd
00000050: e658 813c 558d 153e a9ba 50bd 27b3 4abd
00000060: a549 c83d cca7 b3bd 15d6 2f3c 8fa7 4d3d
00000070: 07a7 c93c 2610 0d3e 1599 d53d ad7a 00be
00000080: 6d74 44be c4f8 593d 74a0 04bd f729 5dbd
00000090: 22c3 3f3e 715e cc3d 0592 57bd bcce 323e
000000a0: 114e afbc 7927 afbd 6374 b43b be0e 57bd
000000b0: 4253 dbbd 8e6f 7dbd 47fe 303e 0924 c93d
000000c0: c693 313e 12ff c4bd c2ea 98bd fbac 393e
000000d0: 4e9a 97bd 2695 a9bc 594c e2bd 75da 1b3e
000000e0: cbcd 89bd 4290 5d3d eed8 2d3d bf74 773b
000000f0: d40c c7bd 56e9 1a3e fe18 8abd 5706 593c
00000100: 029e d6bd 6f6a d13b 5c77 0d3e 3db5 373e
00000110: 5edd 263d 1c67 e3bb a409 f33d 914c e03d
00000120: 0b16 76bd f062 08bd 4886 723d 93c8 413e
00000130: d0bb e33c 5078 343d 8918 723e 89d4 d7bd
00000140: adb8 083c 7eae e13d a9b4 a23c b267 94bb
00000150: e7ba 013e 2551 f8bd 709f d03d f97a 8c3d
00000160: 6773 303e 310f 923d 86c8 153e b40c 5cbc
00000170: 15b8 f83c b7ea 83bd 0a42 3bbe 6faf bb3d
00000180: d0dd 1b3e 6649 0ebd 41d1 c43d 38b8 3c3c
00000190: 8477 d73d a118 21be 9f32 cd3d 6c90 89bd
000001a0: 3787 0dbe 890c 6b3e 4b5d 18bd 3b63 de3c
000001b0: c5ee 14bc 2dc5 0cbe fa94 573e e566 f33d
000001c0: a5ab 57bd c480 c9bc 1ad0 d53c dbe5 1fbd
000001d0: ff64 833d e93d 12be 9b52 4bbd c6d1 17bd
000001e0: 251d 253e b538 123c e551 263e 2cbd 7ebd
000001f0: b808 00be 62c2 163e 2cee 003e 1288 3d3d
00000200: b625 c23b 79c0 313e 34c6 a8bd 5b50 2fbe
00000210: f009 eb3d 81ed 1e3e 9912 a53d 99f4 c7bc
00000220: 7a60 1dbe 804f 753d 0d6e 56be bf43 2abe
00000230: da8f 2e3e 6a0a 17be 8269 24be fe9e 45bd
00000240: 94e2 ef3d 1082 ecbd 00c9 683d 5df7 f23b
00000250: 95e0 a83d 9872 233e 73d9 9f3d e74c baba
00000260: 1974 3c3a 02fb 0c3e 7e7c 313e bce1 32bd
00000270: 2552 b43d 94a7 cb3b d381 ab3d 9fbf 4fbe
00000280: fb9d 303c 51e8 f9bd 7f29 8ebd abb1 84be
00000290: 25c5 453d 0ed1 ddbd f58b b83c 812e ddbc
000002a0: c6f7 673d 27a9 e63d 8c94 9dbd 3ede 033e
000002b0: cca3 8f3e 017b 003e 3487 943d 2dd0 0b3e
000002c0: 81e5 583e 7544 3fbd 7e96 1a3e 71b2 d1bd
000002d0: d65d 30bc c71b 273e 4e51 68bd 9a1b d63c
000002e0: f914 3e3d 5e3c 343e f029 babc bcc0 56bd
000002f0: 37b4 de3d 3ff6 933d 3f1a 32bd 8614 f63d
00000300: 026f 003e 46fe 2a3e 1162 5c3e 16f9 0f3d
00000310: e6a2 93bd a2b3 e0bc 984f 4f3d abd1 76bc
00000320: 30c7 78bc f454 be3d 1cac a43c b8b1 04bd
00000330: c2ec c5bc 2043 163a 6b1c 0d3e e0c5 c53b
00000340: 1fb4 91bd 8e53 d7bc 3fea 543e d4ad c33d
00000350: 4966 183e 38d2 8c3d c3d6 8c3c 139d 4b3d
00000360: 70a3 aa3d 84ca 993d 0054 f93d a4d2 0d3e
00000370: 1f61 e83d 5906 97bd 483b c7bc e476 73be
00000380: 480a 353e 9127 c9bd 7762 a9bd 5b40 49bd
00000390: 06ac d43c 35bf 2a3c ddd3 d7bd fc1b 9d3d
000003a0: f372 32be d7f4 50be 916b 0a3e 8c86 94bb
000003b0: 4d8f 813d 1ff0 bfbc e268 5f3d eb30 c3bd
000003c0: 8434 5abd 287c 12be d9e6 d33d 95ba 193c
000003d0: 2a8b f13d 6e03 ce3d b40d 2d3c 6c1c 723d
000003e0: 9ae0 1a3e 726e 76bd 33d4 663e 7e9f 98bd
000003f0: 72f6 a73d 2301 30bd da43 933d d41d cd3d

fc2.weight f4 [128, 256]
-0.09324955 0.12509827 -0.022800377 -0.0034138504 -0.16199513 -0.08006794 0.12239411 0.020383123
0.043097027 0.18362133 0.13283926 0.12862945 0.13794759 0.0055243946 -0.22748825 0.006246703
0.078077726 -0.024594514 -0.07447416 0.025388796 0.14368857 0.09559816 0.07302623 0.2076967
-0.20302078 -0.10115799 -0.00940809 -0.19427647 -0.06772537 0.11755189 -0.036132667 0.21948098
0.13477716 -0.012254462 -0.104877226 -0.017104037 0.054057658 -0.11939866 0.0039299005 0.08826666
-0.17079788 -0.39051276 0.04401147 0.04332193 -0.075267084 0.088377915 0.01562149 0.066297345
0.010416174 0.06555357 0.054570954 0.013554628 -0.16073388 -0.087136425 0.036439344 0.18541712
-0.110544674 -0.10286454 0.06872099 -0.0057438305 -0.07157836 0.07456387 0.0403456 0.07837833
0.17086613 -0.11763675 0.1211095 0.08615435 0.033708353 -0.03559249 0.08399181 0.048358716
0.045156635 0.20255654 -0.07105812 0.118237264 -0.07645781 0.10268185 0.07857021 0.11372709
-0.16345094 0.008611852 0.123239994 0.086019665 0.009077231 0.01274711 -0.01807177 0.17517395
0.016965851 -0.109498404 0.036918093 0.06254098 0.04273261 0.01970557 -0.11572531 -0.060377628
0.0033503743 0.07941235 0.036029242 0.04558243 -0.03546025 0.07893413 0.02069733 0.0524168
0.117815346 0.09867023 0.08585578 0.17018177 0.026216231 0.096576564 0.030915309 0.10256563
-0.025876282 0.12144722 0.018199092 0.031360425 0.11669823 0.052768216 -0.049986586 -0.0061098193
0.049836114 0.103161685 -0.0904996 0.003133147 -0.039708987 0.024250738 0.035519175 0.20514537
-0.095749475 -0.037477214 -0.004018597 0.07035334 0.04654627 -0.06929972 -0.09846025 0.16819891
0.1757091 0.2684078 0.07483443 0.0762827 -0.026868453 0.08877955 0.071264245 0.021978525
0.10117159 -0.17287004 -0.09881786 -0.10382278 -0.046935536 0.094903976 -0.09105869 -0.020623622
-0.15462786 0.22926453 0.02249266 0.054532006 -0.046028152 0.16957194 -0.013340988 0.15083902
-0.11271005 -0.032305952 -0.0259375 0.27548772 -0.08818133 0.20267387 -0.0032075872 0.065831654
-0.10139795 -0.0590078 -0.12617578 0.01942358 0.089789726 -0.13430116 0.05208294 0.064781494
0.13467047 0.14905205 0.19647416 0.12042997 -0.037330307 0.092574805 -0.0035638858 -0.15336399
-0.0022955276 -0.017145958 0.060484666 0.048609626 -0.037897408 0.0016578088 0.17049706 0.048643608
0.17963517 -0.022172777 -0.06134349 0.010582705 -0.051030066 -0.10463995 0.13096291 -0.20506205
-0.05052368 0.0072618793 0.07511857 0.070715144 0.20689896 0.10693763 -0.049898256 -0.1908477
-0.117932364 -0.013932923 -0.060837947 0.21812375 0.069166236 -0.040308647 -0.26644912 0.08845611
0.01255314 0.041257434 0.013494162 -0.026994934 0.06402738 0.1531266 -0.122898236 0.0017973494
0.08863884 -0.11687526 -0.02456786 0.1304682 0.033158973 -0.060953528 0.11090638 0.15172854
0.104061626 0.1836406 -0.13158335 0.14834121 0.07650064 -0.043918066 -0.09709186 0.06838978
0.11581569 -0.12714018 0.0010669278 -0.010624937 0.0039003855 -0.09797206 -0.08559107 -0.08562203
-0.017900553 -0.015830874 0.025656221 0.043427564 0.05687412 0.06367003 0.19196916 0.115923114
00000000: 9ff9 bebd c319 003e dbc7 babc e8ba 5fbb
00000010: 0de2 25be a9fa a3bd c3a9 fa3d 82fa a63c
00000020: 8286 303d 3b07 3c3e 0407 083e 70b7 033e
00000030: 2242 0d3e fb05 b53b aef2 68be 25b1 cc3b
00000040: 37e7 9f3d 6f7a c9bc e985 98bd 2afc cf3c
00000050: 1923 133e f8c8 c33d c78e 953d 72ae 543e
00000060: aee4 4fbe ec2b cfbd 6424 1abc 69f0 46be
00000070: 99b3 8abd 0cbf f03d d9ff 13bd 9fbf 603e
00000080: 0603 0a3e f0c6 48bc dfc9 d6bd c41d 8cbc
00000090: 906b 5d3d 4987 f4bd 65c6 803b 27c5 b43d
000000a0: a4e5 2ebe 4af1 c7be 5f45 343d 5672 313d
000000b0: a125 9abd 7bff b43d 47f1 7f3c e7c6 873d
000000c0: 9aa8 2a3c f340 863d cb85 5f3d 3b14 5e3c
000000d0: 6c97 24be 9574 b2bd 6c41 153d fcdd 3d3e
000000e0: 3f65 e2bd a5aa d2bd 97bd 8c3d be36 bcbb
000000f0: ad97 92bd f1b4 983d 6e41 253d d184 a03d
00000100: 88f7 2e3e 89eb f0bd 4208 f83d b171 b03d
00000110: c511 0a3d 6ec9 11bd e603 ac3d ca13 463d
00000120: 2af6 383d fb6a 4f3e eb86 91bd 6126 f23d
00000130: ea95 9cbd dd4a d23d 6be9 a03d c0e9 e83d
00000140: af5f 27be ba18 0d3c 4065 fc3d 142b b03d
00000150: abb8 143c 41d9 503c 400b 94bc cd60 333e
00000160: f8fb 8a3c b340 e0bd 6d37 173d 7c15 803d
00000170: 6408 2f3d 936d a13c 6401 edbd 884e 77bd
00000180: f491 5b3b f1a2 a23d 6693 133d a4b4 3a3d
00000190: c43e 11bd 38a8 a13d 728d a93c 00b3 563d
000001a0: 2c49 f13d 9e13 ca3d 28d5 af3d 2144 2e3e
000001b0: 6cc3 d63c efc9 c53d 1a42 fd3c ee0d d23d
000001c0: 7ffa d3bc 52b9 f83d 4316 953c ca73 003d
000001d0: 7bff ee3d 7c23 583d bcbe 4cbd e134 c8bb
000001e0: f420 4c3d 6f46 d33d db57 b9bd 7c55 4d3b
000001f0: e4a5 22bd 7ca9 c63c 8e7c 113d a111 523e
00000200: 4d18 c4bd b581 19bd 6fae 83bb 6915 903d
00000210: 4da7 3e3d 03ed 8dbd 87a5 c9bd 563c 2c3e
00000220: 16ed 333e bf6c 893e cb42 993d 1b3a 9c3d
00000230: 3b1b dcbc 0dd2 b53d fdf2 913d 4f0c b43c
00000240: 0d33 cf3d d804 31be 0561 cabd 0aa1 d4bd
00000250: 7a3f 40bd 045d c23d fa7c babd dff2 a8bc
00000260: c456 1ebe 52c4 6a3e 8742 b83c f45c 5f3d
00000270: 0488 3cbd 44a4 2d3e 2994 5abc 8b75 1a3e
00000280: 87d4 e6bd 3f53 04bd e17a d4bc ba0c 8d3e
00000290: 6a98 b4bd bd89 4f3e 6236 52bb bfd2 863d
000002a0: baa9 cfbd 2ab2 71bd 3934 01be 331e 9f3c
000002b0: ade3 b73d 3e86 09be ec54 553d 29ac 843d
000002c0: 0ee7 093e 1aa1 183e 8630 493e fda3 f63d
000002d0: aae7 18bd dc97 bd3d 1590 69bb 730b 1dbe
000002e0: 9070 16bb ae75 8cbc c5be 773d e31a 473d
000002f0: 503a 1bbd d54a d93a c896 2e3e 853e 473d
00000300: 48f2 373e afa3 b5bc 5043 7bbd 1563 2d3c
00000310: e704 51bd 784d d6bd 241b 063e c9fb 51be
00000320: ebf1 4ebd 0ff5 ed3b c4d7 993d 1ad3 903d
00000330: 52dd 533e 1e02 db3d 1d62 4cbd 946d 43be
00000340: 8686 f1bd ea46 64bc 3631 79bd d55b 5f3e
00000350: 07a7 8d3d ae1a 25bd 056c 88be 7a28 b53d
00000360: afab 4d3c 8efd 283d 9e16 5d3c 7b24 ddbc
00000370: c920 833d 38cd 1c3e 12b2 fbbd 0a95 eb3a
00000380: 4888 b53d 4c5c efbd 8942 c9bc 7599 053e
00000390: b4d1 073d 68aa 79bd e222 e33d ba5e 1b3e
000003a0: 431e d53d 480c 3c3e c9bd 06be c2e6 173e
000003b0: 5eac 9c3d 6ee3 33bd 19d8 c6bd f10f 8c3d
000003c0: c730 ed3d 0931 02be 28d8 8b3a 3714 2ebc
000003d0: 9c9d 7f3b 93a5 c8bd 5f4a afbd 9a5a afbd
000003e0: 2ea4 92bc c0af 81bc ff2c d23c 1ae1 313d
000003f0: d6f4 683d 6f65 823d 9093 443e 1969 ed3d

fc2.bias f4 [128]
0.048811313 0.02831925 -0.049943358 0.035372492 -0.058220077 0.036042638 -0.015478018 0.0082345605
-0.005513971 -0.007782692 0.038235255 -0.06741005 -0.018198736 0.02136803 -0.041694086 0.055066418
0.03164894 0.07763283 -0.03743145 -0.019607903 -0.031166477 -0.022939824 -0.049491428 -0.004290039
-0.029641028 -0.006428175 -0.04663417 0.040025845 0.01658763 -0.004867608 0.0030433503 -0.019452719
-0.054480992 -0.03425752 -0.061496034 -0.0069231465 -0.03301993 -0.046794344 -0.029655034 -0.0077870344
0.042141076 -0.026199976 0.03919787 -0.033313632 -0.019745404 0.055603568 0.03153568 -0.010221846
0.049621258 0.08480566 0.0024338216 -0.048365474 0.0068628015 -0.03813202 -0.019164804 0.08761263
-0.017575448 0.00017814273 0.07225538 -0.0020085159 0.022834353 0.04099811 0.02074896 0.076020926
-0.0892564 0.027295433 0.0043761637 0.0021021569 0.0060971836 0.05899474 0.018533152 0.065760724
0.035481535 0.059939977 -0.0063344645 0.0507114 -0.05218519 0.028484507 0.048189864 0.021125015
-0.034348357 0.0054149884 0.0507903 0.0026493238 -0.028911967 -0.033079676 0.010729524 0.03224613
0.02687193 0.035369594 0.075984515 0.01109273 -0.010061531 -0.04830788 -0.032389052 -0.0054434673
0.005836195 0.05976686 0.014556705 0.009587686 -0.049815733 0.024710868 -0.0102889 -0.023408018
0.04216282 0.020301852 -0.051747385 0.092171654 0.059536837 0.00011910432 -0.015337291 -0.05641225
0.07816877 -0.009634708 0.06717552 0.024821723 0.08723638 0.019151477 0.034451433 0.024232823
-0.08057677 0.03572052 -0.022862792 0.051914643 -0.05138787 -0.07584873 -0.030372065 -0.040803745
00000000: 5fee 473d c6fd e73c 6891 4cbd bfe2 103d
00000010: 2d78 6ebd 72a1 133d 8397 7dbc 40ea 063c
00000020: 8bae b4bb f405 ffbb 929c 1c3d 480e 8abd
00000030: 8415 95bc 020c af3c 6bc7 2abd 538d 613d
00000040: 52a2 013d f6fd 9e3d b851 19bd c1a0 a0bc
00000050: d750 ffbc 4cec bbbc 86b7 4abd 7593 8cbb
00000060: bed1 f2bc 71a3 d2bb 7903 3fbd 24f2 233d
00000070: c8e2 873c 7580 9fbb f272 473b 4f5b 9fbc
00000080: 7627 5fbd 9d51 0cbd 44e3 7bbd 90db e2bb
00000090: e83f 07bd 6dab 3fbd 1def f2bc 612a ffbb
000000a0: 1f9c 2c3d 55a1 d6bc f28d 203d e073 08bd
000000b0: 1dc1 a1bc 91c0 633d 8f2b 013d 8879 27bc
000000c0: a93f 4b3d 97ae ad3d c080 1f3b e01a 46bd
000000d0: 5ae1 e03b 5230 1cbd 82ff 9cbc 406e b33d
000000e0: 63fa 8fbc d3cb 3a39 a1fa 933d 4ea1 03bb
000000f0: 1c0f bb3c a2ed 273d b9f9 a93c dcb0 9b3d
00000100: 0fcc b6bd ac9a df3c ec65 8f3b 57c4 093b
00000110: e2ca c73b 78a4 713d d6d2 973c 8fad 863d
00000120: 1655 113d 9f83 753d 5791 cfbb c2b6 4f3d
00000130: 23c0 55bd 5758 e93c bc62 453d 5e0e ad3c
00000140: ddb0 0cbd 3770 b13b 7d09 503d 47a0 2d3b
00000150: cad8 ecbc 8e7e 07bd e3ca 2f3c 8514 043d
00000160: 8622 dc3c b5df 103d c59d 9b3d 48be 353c
00000170: 1fd9 24bc 7cde 45bd 62aa 04bd 1d5f b2bb
00000180: 8d3d bf3b 18ce 743d 3f7f 6e3c ab15 1d3c
00000190: 950b 4cbd 726e ca3c c692 28bc 2cc2 bfbc
000001a0: ecb2 2c3d 1250 a63c 11f5 53bd 7ec4 bc3d
000001b0: e6dc 733d a5c7 f938 4349 7bbc 8810 67bd
000001c0: f316 a03d e5da 1dbc 5293 893d ed56 cb3c
000001d0: fda8 b23d 8fe3 9c3c f21c 0d3d ea83 c63c
000001e0: 6f05 a5bd ae4f 123d c04a bbbc 73a4 543d
000001f0: 167c 52bd 9456 9bbd d6ce f8bc d421 27bd

fc3.weight f4 [4, 128]
0.2555879 -0.27286494 -0.18779594 0.122670084 -0.30149528 -0.1026211 0.1683259 0.22401744
0.071578994 -0.3926176 0.05654701 0.2333704 0.088934876 0.46344545 0.020949705 0.29057416
-0.024693863 0.030802565 0.2585921 0.0675741 0.12940888 0.11385973 -0.07478047 -0.03468135
0.06989184 -0.0076711583 -0.041877672 0.020227527 -0.18045601 0.25668725 0.050196122 0.061667528
-0.013408064 0.254247 0.24645446 -0.04308676 -0.12121843 -0.22748044 -0.060793485 0.121600844
-0.23342083 -0.31342804 -0.14347194 -0.1339394 0.29496303 -0.02135203 -0.023437561 -0.0651823
-0.029740455 -0.44103357 -0.12353409 0.41904712 -0.021762963 -0.28199032 -0.20466186 -0.31646436
0.4004943 -0.19512494 0.04680903 -0.42543685 0.1261799 -0.14308982 -0.025534421 0.23309553
0.3417979 0.123247996 -0.15788259 -0.10937403 0.30696246 0.20342013 -0.19947205 -0.04946973
0.0012776605 0.46602827 0.0018287865 0.122744314 0.31663278 -0.10682227 -0.07792532 -0.17860574
-0.16501352 0.22455078 0.40611455 0.16972825 -0.078363135 -0.013016618 0.0884132 0.2375975
-0.4725311 -0.06202038 0.060121085 -0.004095401 -0.08481682 -0.039049774 0.19619703 -0.14006138
0.33108953 0.26361263 0.56279933 0.31590757 0.12824483 -0.19275197 -0.14815965 -0.15255366
-0.08771156 -0.14604269 0.10032922 0.085499145 0.20208168 0.050031643 -0.03708295 0.2250748
0.23548831 -0.092994094 -0.21319738 0.1290257 0.27365106 -0.00360354 0.5087682 0.16099288
-0.204906 0.38966703 -0.1676552 -0.27754968 -0.24970536 -0.12734585 0.08073227 -0.12895834
0.00031163302 -0.44689512 -0.12374399 0.088001356 0.11732332 0.09137453 0.13551508 -0.14533612
0.18222354 -0.09266289 -0.09696086 0.09814015 -0.0688673 0.12413643 0.30584323 -0.05761785
-0.020816468 -0.12242563 0.6389916 -0.109454066 -0.18368068 -0.11072707 -0.15398082 0.065833494
0.2697164 -0.12644738 0.106238976 0.26358962 -0.05950221 -0.34339687 -0.17456882 -0.11190452
0.0343502 0.07257811 -0.10189815 0.15701401 0.16011737 0.05738226 -0.03928935 -0.047216557
-0.010189539 0.07079722 -0.22264704 -0.0023049284 -0.20125422 -0.10901001 -0.14239769 0.100694686
-0.5010493 -0.09909916 0.11148601 0.30487752 -0.01133948 -0.3130041 0.0031570464 -0.6136709
-0.24151443 0.037144918 0.29362097 -0.0045492086 -0.07931657 -0.09996781 -0.14941825 -0.0020869332
0.078432985 0.21745807 -0.026222546 -0.1508298 -0.010593021 -0.22479726 -0.14630347 0.039512683
-0.023801114 -0.050613306 -0.05601934 0.20604177 0.016686471 0.11041432 -0.42342392 0.29068133
0.32517293 0.02523848 -0.08019519 -0.13697214 -0.019858267 -0.2770128 0.07008683 -0.043480746
0.15041707 0.055099033 -0.13236666 0.09356055 0.16270468 -0.5314692 0.1583491 -0.04979328
-0.041937534 0.043626692 -0.062323377 -0.17529841 -0.19225505 -0.01591423 -0.08287125 0.1401481
0.11080899 -0.19171932 0.28373203 0.01432941 0.13937613 -0.010631001 -0.045791224 0.0814365
-0.003386363 -0.15998867 0.28719643 0.04370243 0.16078392 -0.32927468 0.18793747 0.22214353
-0.2304308 0.13209172 -0.0016996372 0.12861429 0.07851303 0.066632785 -0.13790861 0.13791482
00000000: 6bdc 823e f4b4 8bbe 944d 40be 743a fb3d
00000010: 975d 9abe 032b d2bd a05d 2c3e d464 653e
00000020: 0298 923d 2d05 c9be d69d 673d a6f8 6e3e
00000030: 7d23 b63d b948 ed3e b79e ab3c 23c6 943e
00000040: c94a cabc a955 fc3c 2f66 843e 4a64 8a3d
00000050: c383 043e 4a2f e93d 8126 99bd 080e 0ebd
00000060: 7423 8f3d 575e fbbb ec87 2bbd 33b4 a53c
00000070: 76c9 38be 836c 833e 739a 4d3d 1797 7c3d
00000080: 7fad 5bbc aa2c 823e 8f5e 7c3e be7b 30bd
00000090: 5e41 f8bd a2f0 68be 9702 79bd dd09 f93d
000000a0: df05 6fbe a479 a0be 4fea 12be 6927 09be
000000b0: 6505 973e 74ea aebc 2100 c0bc 4c7e 85bd
000000c0: 41a2 f3bc 27cf e1be 71ff fcbd 588d d63e
000000d0: 3e48 b2bc 0961 90be e192 51be 9e07 a2be
000000e0: 970d cd3e d5ce 47be d3ba 3f3d dcd2 d9be
000000f0: 4e35 013e 2386 12be 902d d1bc 98b0 6e3e
00000100: 2200 af3e 7269 fc3d f9ab 21be 7eff dfbd
00000110: 2f2a 9d3e 5e4d 503e 6742 4cbe c6a0 4abd
00000120: 2c77 a73a 429b ee3e e4b3 ef3a 5f61 fb3d
00000130: b11d a23e a2c5 dabd 4f97 9fbd 6ce4 36be
00000140: 4ef9 28be a4f0 653e 3fee cf3e 3ecd 2d3e
00000150: da7c a0bd a743 55bc fb11 b53d c24c 733e
00000160: 99ef f1be 1509 7ebd 8741 763d b732 86bb
00000170: 71b4 adbd a8f2 1fbd e0e7 483e 406c 0fbe
00000180: 9184 a93e 3cf8 863e 9e13 103f a3be a13e
00000190: 9d52 033e c660 45be 2ab7 17be 0737 1cbe
000001a0: 1ea2 b3bd 378c 15be 6879 cd3d 2d1a af3d
000001b0: 80ee 4e3e fbed 4c3d 4be4 17bd 027a 663e
000001c0: d923 713e b073 bebd 6a50 5abe 501f 043e
000001d0: fe1b 8c3e 5e29 6cbb a23e 023f 51db 243e
000001e0: e1d2 51be 7082 c73e cead 2bbe fe1a 8ebe
000001f0: c3b2 7fbe f366 02be f656 a53d a80d 04be
00000200: ad62 a339 70cf e4be 7d6d fdbd 0e3a b43d
00000210: 3547 f03d 9222 bb3d 77c4 0a3e fed2 14be
00000220: cf98 3a3e 0bc6 bdbd 6a93 c6bd b4fd c83d
00000230: 4d0a 8dbd 3e3b fe3d 7c97 9c3e b200 6cbd
00000240: 4c87 aabc 4aba fabd f494 233f 7429 e0bd
00000250: ca16 3cbe e0c4 e2bd 26ad 1dbe b6d3 863d
00000260: 4518 8a3e 6c7b 01be d293 d93d 38f5 863e
00000270: 97b8 73bd b7d1 afbe 2bc2 32be 322e e5bd
00000280: ccb2 0c3d d5a3 943d faaf d0bd 48c8 203e
00000290: cff5 233e a909 6b3d dfed 20bd 2666 41bd
000002a0: 06f2 26bc 22fe 903d 96fd 63be 480e 17bb
000002b0: 9615 4ebe a440 dfbd b3d0 11be 0439 ce3d
000002c0: c444 00bf 80f4 cabd c752 e43d e818 9c3e
000002d0: 3ac9 39bc 1342 a0be 73e6 4e3b 8919 1dbf
000002e0: 8f4f 77be 4525 183d 7d55 963e 8711 95bb
000002f0: ba70 a2bd ecbb ccbd 1901 19be eec4 08bb
00000300: 79a1 a03d 54ad 5e3e aad0 d6bc 2173 1abe
00000310: 5a8e 2dbc 4131 66be 94d0 15be 0dd8 213d
00000320: 8efa c2bc e64f 4fbd 8974 65bd 9dfc 523e
00000330: 11b2 883c e720 e23d 05cb d8be 2fd4 943e
00000340: 117d a63e eec0 ce3c 603d a4bd 6d42 0cbe
00000350: cead a2bc 9fd4 8dbe af89 8f3d de18 32bd
00000360: ef06 1a3e 86af 613d 208b 07be ac9c bf3d
00000370: 0e9c 263e 5e0e 08bf 4426 223e 0af4 4bbd
00000380: b1c6 2bbd e7b1 323d cc46 7fbd 6d81 33be
00000390: 82de 44be 8f5e 82bc 67b8 a9bd fc82 0f3e
000003a0: d3ef e23d 1252 44be 5345 913e e7c5 6a3c
000003b0: 9eb8 0e3e a62d 2ebc 948f 3bbd 2ec8 a63d
000003c0: beed 5dbb 12d4 23be 690b 933e 5201 333d
000003d0: 8aa4 243e b196 a8be ae72 403e 9879 633e
000003e0: 0df6 6bbe 0d43 073e 5cc6 deba 77b3 033e
000003f0: 71cb a03d c576 883d ea37 0dbe 8b39 0d3e

fc3.bias f4 [4]
0.043372862 -0.07685936 0.06240909 -0.015649538
00000000: bea7 313d 7168 9dbd ada0 7f3d 7633 80bc
