savedmodels/checkpoint_1545158393_critic_episode133_score35.536.pth (torch_old, 169980 bytes, 5 tensors)

fcs1.weight f4 [256, 33]
00000000: 8faf 8ebc 8fa1 5c3d b7d7 913d 4c03 12bd
00000010: f9f2 acbd 8e06 51bd 8507 ff3d 7cba 273d
00000020: 9ea1 8a3d 90fe 603d 7940 2cbc 3338 0bbd
00000030: e029 c1bc c11a ae3d f220 b73d a2f1 28bc
00000040: 9250 a13d 3421 3e3c c3ca 09bd a00a 95bc
00000050: 6a6e 36bd 0314 4abc 8345 8abc fbd8 f83d
00000060: e51b 18bb a332 333d 5c83 19bd 7946 3c3c
00000070: c993 4abd 806a 4ebd 4be5 94bd be99 253d
00000080: cee7 c73c 1686 353c e0ec 7ebd bd31 653d
00000090: 498e f43c d0f2 0f3d 6feb ea3c e6f3 133d
000000a0: c6ae cabc 71d1 b83c ed95 71bc 2a9f 9a3b
000000b0: c282 e13c e721 333d c2d8 973c e378 5c3d
000000c0: 0180 673d 1438 c73c da87 203d 68da 0c3d
000000d0: 8d55 e5bb c518 14bc b167 793c ffa3 283d
000000e0: 5f73 48bb 0c95 aebc 1290 933c 9485 7abd
000000f0: cf77 a8bd 8c95 973d 30f6 a33c 9daf 8b3d
00000100: a09a 9d3b 1812 82bc a1fb 663d 7c5a 21bd
00000110: 50ac 5b3d 5d82 d1ba c722 313d f175 513d
00000120: 4bc9 51bd 37e4 c2bc 97a3 90bc 3d05 113c
00000130: cee5 513c 48a4 00bd 51b0 ba3c 8d22 36bd
00000140: b39f 1d3c edd0 ce3a 9af7 dc3c da00 1fbd
00000150: 1626 f6bb 20d8 7cbd 5be8 88bd 7ffb 283d
00000160: 7818 00bd 1485 ccbc 1146 723c 046e c9bd
00000170: c3f1 563d 5171 023b 21ec c3bc 402e 51bb
00000180: 6678 853d 1e99 5ebd 4c5f 6b3e 1018 803d
00000190: 8945 503b 3c61 bf3d 57a4 1a3d 374d adbc
000001a0: bab7 193d 609c fc3c 3260 24bc 83a6 7b3c
000001b0: 0e62 c3bc 0e71 083c 36ce bd3c 381f 87bc
000001c0: 2dc6 3cbd 46f9 573d add0 95bd 03b6 93bc
000001d0: 7b87 7cbc a068 89bd 9256 90bc fac8 d43c
000001e0: 038d 133d 2e40 30bd 50b1 04bd eb16 0bbd
000001f0: 59bc c2bc e275 5f3c 5edf 1f3c 363b 3dbd
00000200: b8a0 cabc 0bb7 be3d 80c6 33bc 8552 1f3d
00000210: 2b7b f9bc 6281 333c e770 553d a7ab 8cbc
00000220: 9648 64bd 79da 803d 0ca6 cf3c 3b76 063d
00000230: ac56 eabd 4c72 8a3d df9e 91bc 78f1 e23c
00000240: bc8e 163c c16d 94bc e374 133a 1faa a5bb
00000250: d472 81bc bb48 a0bc 27d4 20bc 2526 c0bc
00000260: 68bd 89ba a14c 113d bc05 e63c dc2a 96bc
00000270: 707d af3c ad5c 8b3c 436a ebbc 5fe3 303d
00000280: a589 69bd 58d9 923c 3bb8 4fbd 94a1 883c
00000290: 5ce9 9bbe d7b2 b6bd 4fa1 b83d 3f23 debb
000002a0: 55fc 9cbc 5716 00bd a10d acbc a165 2b3d
000002b0: 7f4f cfbb b147 48bd a556 1c3d 733e b7bc
000002c0: aadc f1ba d6a7 dcbb c0f8 233e 5d4d 07be
000002d0: 943e eebc 5dea b83c 7083 8b3c 26e8 41bd
000002e0: da83 9b3c 425f 4cbb 725e 50bb 0618 5b3b
000002f0: 032a 9b3c ee2b 09bd 496b a63b 6251 b6bd
00000300: b173 773d 649f 0c3d a41a 443d 4300 67bd
00000310: c880 193c 1cd8 143d b822 a73c 6da1 cabc
00000320: fbaa 4cbd 9c4c d5bb 6cad 91bd f306 bb3d
00000330: 1753 5c3d 3e50 153d b324 b5bc 2bdd 46bd
00000340: 5de5 78b9 7efb 54bd 5fed 2f3c d276 483d
00000350: aa23 5dbd 245b 20bc 92b9 a2ba ce48 3e3d
00000360: 63fd ea3a 8f29 833c e0eb adbd 8778 013c
00000370: 813b a93c 2dfb ccbc 20df e43c 31f5 84bc
00000380: 8bb9 32bd 3a01 b53d e5c1 3f3c 6481 43bd
00000390: f26e eabd 809d be3a 9307 973d 8c0f 8abd
000003a0: 725d 1a3d 453b 023e 8a96 0ebd 79b9 a1bd
000003b0: e18f 36bd e418 783d f141 4b3d 76d3 953d
000003c0: 5e03 65bc f219 74bd d4d2 0b3d 3b05 13bd
000003d0: 6503 3c3d eb26 b6bb fd9c 8abd bd9b 37bc
000003e0: ba50 9fbc 0671 0e3c 29cb d03c dd5a af3c
000003f0: bcc7 093d 1271 903c 4e3a 2abd 09cf 97bd
-0.017417697 0.05386501 0.071212225 -0.035647675 -0.08444781 -0.05103164 0.12452606 0.04094933
0.06769107 0.05493027 -0.010513418 -0.033989143 -0.023579538 0.08501197 0.08941831 -0.010311516
0.07876696 0.011604596 -0.033640634 -0.018193543 -0.044538893 -0.012333873 -0.016878849 0.12150761
-0.0023209986 0.043749463 -0.03747879 0.011491411 -0.049457345 -0.050394535 -0.07270297 0.040429823
0.024402525 0.011079332 -0.06223762 0.055955637 0.029853003 0.035143673 0.028676717 0.03612127
-0.024741542 0.022560807 -0.014745218 0.004718681 0.02752817 0.043733504 0.018535975 0.053826224
0.05651856 0.024318732 0.03919206 0.034387976 -0.006998724 -0.009039109 0.015222476 0.041172024
-0.0030586345 -0.021311305 0.018013034 -0.061162546 -0.08225977 0.07401571 0.020014852 0.06820605
0.0048096925 -0.015877768 0.056392316 -0.039392933 0.053631127 -0.0015984286 0.043246057 0.05113787
-0.05121736 -0.023790462 -0.01765613 0.008851347 0.012811137 -0.03140667 0.022789152 -0.044466544
0.009620595 0.0015778817 0.026973534 -0.03881917 -0.0075118644 -0.06172955 -0.06684943 0.04125547
-0.031273335 -0.0249658 0.014787213 -0.09835437 0.052476656 0.0019903968 -0.023916306 -0.0031918436
0.06517105 -0.054345243 0.22985572 0.062545896 0.0031779727 0.09344718 0.037754383 -0.021154983
0.03752873 0.030836284 -0.0100327 0.015359524 -0.023850467 0.008327736 0.023169618 -0.016494378
-0.046087433 0.05272796 -0.07315192 -0.018031126 -0.01541316 -0.06709409 -0.017619405 0.02597474
0.03602315 -0.043029957 -0.03239566 -0.033957403 -0.023771452 0.013638945 0.009757845 -0.046199046
-0.02473484 0.093122564 -0.010972619 0.038897056 -0.030454239 0.01095614 0.052109625 -0.017171694
-0.055733286 0.0629167 0.025347732 0.032827597 -0.114423126 0.06760082 -0.017775951 0.027703032
0.009189304 -0.018118741 0.00056250225 -0.0050556804 -0.015801825 -0.01956593 -0.009816206 -0.023455689
-0.0010508718 0.03547347 0.028078906 -0.018330984 0.021422118 0.017011965 -0.028737193 0.043185588
-0.057016034 0.017925903 -0.050712805 0.016678609 -0.30451477 -0.0892083 0.09015142 -0.006779104
-0.01916329 -0.031271305 -0.021002593 0.041844968 -0.0063266153 -0.048896495 0.03816857 -0.022368645
-0.0018452604 -0.006733875 0.1601286 -0.13213105 -0.029082574 0.02257269 0.017030448 -0.047340535
0.01898377 -0.0031184708 -0.0031794575 0.0033431067 0.018940931 -0.03348916 0.0050787074 -0.08902241
0.060413066 0.034331694 0.04787697 -0.056396734 0.009369083 0.03633891 0.020402297 -0.024735177
-0.049967747 -0.0065093767 -0.07113156 0.09132185 0.05379018 0.036453478 -0.022112226 -0.048550766
-0.00023736568 -0.051997654 0.010737746 0.04894144 -0.05398909 -0.009787355 -0.0012414923 0.04645615
0.0017928298 0.016011028 -0.08492255 0.007902271 0.020658256 -0.025022114 0.027938426 -0.016230198
-0.04363398 0.088381246 0.011703943 -0.04773082 -0.114469424 0.0014542788 0.073744915 -0.067412466
0.037686773 0.12717922 -0.034811534 -0.07896704 -0.044570807 0.060570613 0.049623434 0.073157236
-0.013977854 -0.059595056 0.03413661 -0.03589366 0.045901675 -0.0055588386 -0.067682244 -0.0112065645
-0.019447673 0.008693939 0.0254875 0.021405632 0.033637747 0.017632041 -0.04155951 -0.07412536

fcs1.bias f4 [256]
00000000: f468 c13c c5e3 3e3e c983 e1bb 6bc5 403e
00000010: 782d 8bbc 00c3 4ebe 0bae 5fbe 0c61 28be
00000020: 889c 383d 7218 923d b394 8fbd ae07 8fbc
00000030: c6da b43d 6915 2abd 1b8f 6a3d 52fc a3bc
00000040: 1b51 16be 160c 0abe 25ec dd3d 94dd 12be
00000050: 02ba 113c 8509 85bb 54bd 903d 95cd d33c
00000060: 9cd7 22bd b491 72bd c6b9 623d 8cea 94bd
00000070: d457 723d 9e0f ee3c 9b05 9c3d 0109 4ebd
00000080: 4dda 21be fe86 aebd 7c62 b43d b374 8dbd
00000090: 9f9b 223e c656 b63d 8e20 00be 730e 5a3d
000000a0: 0cf8 d4bd d14f 0bbe 5fc3 793d 1d7b 1abe
000000b0: dbed 3abd 70ba 35be 2f2d ab3d a515 9c3d
000000c0: 29df f33d 4dd7 eebd 2660 eebd 1d14 d93c
000000d0: dd03 13be d9f9 a3bd a4e0 34be afe4 e33d
000000e0: 104c 98bd 68cb 7bbd 2209 5a3d 0604 2f3d
000000f0: 7f0c 03be 3875 dd3d 1c38 32be eb55 56bd
00000100: a1c8 08be 7193 04be 00a7 5b3d acf3 113e
00000110: 08c2 663d 4b47 fcbc 710d 783d 890d 043e
00000120: 2dd4 24bd 0856 02be 84cc 703c 8aac 883d
00000130: 9057 803d cda5 bfbd a0e4 4a3e ba34 fbbd
00000140: 9dd7 0b3a 41c9 e83d dfbb 87bd 1b12 773d
00000150: 72fd e43d 3454 99bd b530 063e b4c8 873d
00000160: 6fb8 cb3d 1224 043e 0215 e93d 8acc 283d
00000170: 08f3 053e a301 5dbe f067 75be e464 053c
00000180: a218 483e b740 ecbd 95f8 313e 536f 92bd
00000190: 9d2c a83b 53c6 c6bd 1e04 aaba 6053 c1bd
000001a0: 2c21 fdbd c4af 283d 4306 03bd 1c15 1b3d
000001b0: 7efd 733d f09f c9bd 308c ae3d d305 4a3e
000001c0: 1bd4 c1bd 55e7 043e 61e3 983d d850 21be
000001d0: f764 b33c d87f 40be 3717 14bc f4bb 0dbe
000001e0: bcdb 063e f68e b23c d49f 0b3e 6e5e 5ebd
000001f0: b040 10be 5668 df3d 547b 9b3c 9fa6 5a3d
00000200: 813c 4b3b 6abf b73d 47fa c4bd 73fc 60be
00000210: befe 203c bb9c ca3d c7d7 f7bb b17a 7ebc
00000220: 6fab 2cbe 4bca 583d e55a 67be 1d97 f7bd
00000230: 1218 ce3d 05c5 4fbe 01bc 10be 926a 1bbe
00000240: 63a5 fa3d 15df 13be cae3 0ebd fb18 0b3b
00000250: eb60 8f3d fd9a 013e 4cc2 223d 4f04 9f3c
00000260: b798 e6bd 4f96 c53d 9c55 283e 7d29 20bb
00000270: 47b5 e03d 56fc a7bd 75e0 88bc 07ca bebd
00000280: 597d 983d 9686 9bbd f30c abbd 74ca 3fbe
00000290: 9c3e dcbc 92c5 3b3d d3f5 043e a2a2 d63b
000002a0: b67f e7bc 2067 753d 4aaa 843c 9f15 2d3e
000002b0: fa31 473e 4fcc 293e 275a da3c 5d89 123d
000002c0: 377c 1d3e a96c 93bc d026 313e 137b ecbd
000002d0: b6f3 19ba 1a8e 0c3d 02c1 02be 501c 4cbd
000002e0: eb21 59bc 31e9 cfbc 81f1 72bd 1b49 4fbc
000002f0: fa42 52bc da5e 623e 3007 76bd 803e 093e
00000300: ea88 23bd 4c66 283e ccaf 3d3e 9a8d 3fbd
00000310: 8a38 97bc bbc6 fbbd 3785 c8ba 7a86 0ebe
00000320: b8c8 cabd af48 9f3c 39bc d63c 0204 b7bd
00000330: 960a fc3d 016e 573d 2933 96bd 1cca be3d
00000340: 8a3b 1fbe 077f 56bc 1d45 573e eb53 a73d
00000350: 08b7 843d c857 b73c 2dbc 1bbd 8afe 0d3e
00000360: ecf3 303c 1b70 f23c 4f48 ab3c 89cb 3bbc
00000370: 2dbe 683d 80ae fbbd 209a 05be 62b6 2cbe
00000380: 8cc5 3e3e e7e7 a3bd 8f1e 1dbe 989f 1c3d
00000390: dbee acbd 4105 753d 14e4 7ebd 2c7b 8b3d
000003a0: 088b 3bbe 1c35 48be 5bc7 b63d 06e4 94bd
000003b0: 4ae9 4bbd e88a 223d 64bb 623c 44be babd
000003c0: 6116 883d dbb3 eabd 46f8 103e 94e5 65bd
000003d0: eea5 2f3d d064 223e df92 eb3d 27ad c33d
000003e0: 18cb aa3d 5e3f f5bd e671 9d3d a4cc c4bd
000003f0: fed3 143e 3056 8ebd 3922 ab3d db3e de3c
0.023609616 0.18641575 -0.006882165 0.18825309 -0.016989455 -0.20191574 -0.21843736 -0.1644327
0.045071155 0.07133569 -0.07010784 -0.017459717 0.0883079 -0.041524325 0.057265382 -0.020017777
-0.14679377 -0.13481173 0.108360566 -0.14342338 0.008894445 -0.0040599727 0.070673615 0.025854865
-0.039756402 -0.059220985 0.05535295 -0.07271299 0.05916579 0.029060181 0.07618257 -0.050301556
-0.15805931 -0.085218415 0.08807847 -0.06907024 0.15879677 0.089032695 -0.12512419 0.053236436
-0.10398874 -0.13604666 0.060977336 -0.15086026 -0.045636993 -0.17746902 0.083582275 0.07621316
0.11907799 -0.11662159 -0.116394326 0.026498849 -0.14356942 -0.08006639 -0.17663819 0.11127602
-0.07436383 -0.06147328 0.053231366 0.042728446 -0.12797736 0.10813373 -0.17404217 -0.05232803
-0.13357784 -0.1294687 0.05362606 0.1425311 0.056337386 -0.030795714 0.060559694 0.12895788
-0.04024141 -0.12728131 0.014697198 0.06673534 0.06266701 -0.09357796 0.19813776 -0.12265916
0.0005334558 0.11366511 -0.066276304 0.06032 0.11181153 -0.074867636 0.13104518 0.06630078
0.09947287 0.12904385 0.1138096 0.04121069 0.1308099 -0.21582656 -0.2396543 0.00814173
0.19540647 -0.11535781 0.17379983 -0.0715014 0.0051322714 -0.09705796 -0.0012971198 -0.09439731
-0.12359843 0.04118325 -0.031988394 0.03786193 0.05956792 -0.09844959 0.085228324 0.19728784
-0.09464284 0.12978871 0.07465244 -0.15753496 0.02189873 -0.18798769 -0.009038738 -0.1384123
0.1316976 0.021796685 0.13635188 -0.054289274 -0.14087176 0.109085724 0.018979706 0.05338156
0.0031011405 0.08972056 -0.09618049 -0.21971302 0.00982636 0.09893175 -0.0075635645 -0.015532182
-0.16862272 0.052927297 -0.22593267 -0.120893694 0.10063185 -0.2029 -0.14134218 -0.15177372
0.12238576 -0.14440568 -0.034885205 0.0021224606 0.070009075 0.1265678 0.039736077 0.019411234
-0.11259597 0.0964781 0.16438907 -0.0024438791 0.10972076 -0.08202426 -0.016708592 -0.093158774
0.07445783 -0.075940296 -0.08352079 -0.18729573 -0.026885323 0.045842715 0.129844 0.006550149
-0.02825914 0.0599128 0.016194481 0.16902779 0.19452658 0.16581844 0.026654316 0.03577553
0.15379415 -0.01799615 0.17299962 -0.11546912 -0.00058728026 0.034315206 -0.12768939 -0.04983169
-0.013252716 -0.025379749 -0.059312347 -0.012651707 -0.012833351 0.22106495 -0.06006545 0.13402748
-0.039925493 0.16445273 0.18524092 -0.0467659 -0.018459577 -0.12293764 -0.001529849 -0.13918486
-0.09901565 0.019443838 0.026212798 -0.08936311 0.123067066 0.052595142 -0.07333977 0.09315893
-0.15550056 -0.013091809 0.21022458 0.08170303 0.06480223 0.022380725 -0.038021255 0.1386663
0.010800343 0.029594472 0.020908503 -0.011462101 0.05682199 -0.122891426 -0.13047075 -0.16866449
0.18630046 -0.08003216 -0.15343688 0.038238138 -0.084439956 0.059819464 -0.06222923 0.068106025
-0.18314755 -0.1955151 0.08924743 -0.072700545 -0.04978303 0.039683253 0.013838623 -0.091183215
0.066448934 -0.11460086 0.14157209 -0.056127146 0.042882852 0.1585877 0.11502623 0.095545106
0.08339518 -0.11974977 0.0768774 -0.096093446 0.14533994 -0.06950033 0.08356137 0.027129581

fc2.weight f4 [128, 260]
00000000: d124 cd3c 0eda ac3b be03 c23d ee6b 6dbb
00000010: 1d55 db3d 9018 98be 985a 98bd c61f 9e3d
00000020: 8176 8ebc 67ff aabd 3b9d 0b3d da1d ad3b
00000030: bfb1 19bd 621c 803d a4d6 12bd 1257 0b3c
00000040: eae6 c0bb 3720 7bbd 15a8 9e3c d993 f93d
00000050: 420a a43d 64af d2bc c095 263d 8533 38be
00000060: af33 233d f227 e0bb 5978 993d e1b4 82be
00000070: 1c4e 8f3d d014 31bd 08a1 273d 8909 243d
00000080: d0c0 883c 6888 d43c d0e4 8b3c 072f 6bbc
00000090: c557 64bc 5fc9 2cbd ca47 823d 9284 2abd
000000a0: 6607 b4bd 52e7 54bd 3e9a 2bbd c9dc 42bc
000000b0: a96e aabb de57 483d f036 053d 633d 3abd
000000c0: 41b9 87bd e17f 9d3a ec04 bb3c af3b 9b3d
000000d0: 25b0 573d 9410 91bd ce7e 4aba 35d4 6fbd
000000e0: 69d2 8cbd 3224 643d c7a9 a0bd 6d2a 153d
000000f0: 573d aabc 561e f13d d0a6 5d3d 7cd4 653d
00000100: 1b51 fa3c c4d8 bfbc 959d 43bd 6731 973d
00000110: 313e bbbd 787f efbd 5a31 b9bd b094 2e3d
00000120: 6f59 33bc a25a 8e3d 89c5 82bd 1973 74bd
00000130: 5565 cebc ecb8 323d b89a 5a3d c964 6dbd
00000140: 41a5 98bd 1cf9 59bc b822 1ebd 37f8 ebbd
00000150: 3ea7 9cbd 0ac5 823d 0524 033d e1ac 03bd
00000160: 2d8d 53bd c641 13be f896 dd3d 183a 53be
00000170: ca51 33bc 0a64 5ebe 6e18 423d 3f1c 00bc
00000180: 045e 853c 7477 aabd febf 3f3d 55bc 6d3d
00000190: 92ee c4bd 5e72 63bd ef7f 8fbb 6463 b73c
000001a0: 62e6 85bd cbd1 d43d a202 d03d dbd2 1f3d
000001b0: b8f0 b03d 2fc6 953c 0624 41bd a70a 253d
000001c0: 8a9f 943d 69ff d03b 3a90 54bd 34a3 d6bd
000001d0: 0700 7ebd b77e c7bd c8c9 58bc ae73 bebc
000001e0: afba 86bc c383 9f3b 7571 26bd 9668 9cbd
000001f0: c040 4c3d a161 85bc 9663 c43d bfee 763d
00000200: 7c79 863d a528 8c3d 6d27 66bd 8c18 c33d
00000210: cd0a ea3d dc46 a1bd 1949 52be bd81 8c3d
00000220: 3d5b 7b3d a12b bb3c 34c3 c03c 0264 fc3c
00000230: 90a8 44bd ff32 21be 3f8c 21bd 1117 14bd
00000240: 04ca 863d 5934 bbbc ceed 08bb 99a1 133d
00000250: 0df3 06be c440 c7bb 3d18 7bbd 025b 3b3d
00000260: d7c9 fabc 3607 0b3e 7226 e33c 89e0 573d
00000270: 5792 01be 7237 09bd d386 963d 0d38 bf3d
00000280: c265 223b 01d9 163e 2773 2fbd 66f6 c8bd
00000290: 4372 413d 8c54 e7bd 2350 2f3d 5096 873d
000002a0: ac44 bf3d 44ce a0bd 08a5 b33d 2b2a 86bd
000002b0: e45f aebc e972 5ebc 5891 163d 9b25 91bd
000002c0: 119b a3bb 2ffe 96bc 31f6 2d3c 2bef 76bd
000002d0: dddd 4bbd 517c 0c3d 73ef 5abd a023 933d
000002e0: ec3d 5fbd f04c 06be 146d c5bd 8029 923d
000002f0: c1c4 213d b3b6 9a3d 5d10 42bc ac28 54bc
00000300: 0727 94bd 491c 0f3e 7c2d 133b 2788 02bc
00000310: d38a eb3d 9366 f2bd be85 683d a5d6 663d
00000320: b720 3a3c 1db0 053d 194d 9ebc 5ece 8f3d
00000330: f6e6 2abd 9eed 483d a10c 3e3c be73 393c
00000340: 95f7 9bbd 6b01 b03c 1132 46bc 4dc0 3d3b
00000350: 4923 bc3d 39e3 45bd 2455 823d 890d 703c
00000360: aadc cf3c 6c90 b9bd b307 bcbd 8089 ddbd
00000370: 571e b93b caff d73d ea21 93bd b58e ff3b
00000380: 277c 8d3c af04 07be 5b36 643b 0047 683c
00000390: 3acd 86bd c25e b43c f219 833d a20b 363d
000003a0: 8638 9f3c 2874 ad3c 9689 a0bd cece a5bd
000003b0: f2fb a03d 01a3 0fbd 7bb3 3bbe 0142 353d
000003c0: 1f57 31be 77cf a23d a1f9 24bd efe7 00be
000003d0: 0fd4 b13b 411c fc3c 5129 3fbd 5ab7 f93b
000003e0: 725f 1b3d 1ba8 843d 81de 39bd 9bfb 713d
000003f0: 3567 903c 3d3b b1bb 9204 3abd 80ba dabc
0.02504197 0.0052750176 0.0947337 -0.0036227661 0.107095934 -0.2970624 -0.074391544 0.07720904
-0.017390491 -0.083494954 0.034085494 0.0052830996 -0.037523028 0.062554136 -0.03584923 0.008504646
-0.005886902 -0.06131002 0.019367257 0.12186403 0.08009769 -0.025718398 0.040670156 -0.17988403
0.03984421 -0.0068406994 0.074936576 -0.25528625 0.0699732 -0.04323274 0.040925056 0.040048156
0.016693503 0.02594395 0.01707688 -0.014354474 -0.0139369415 -0.04218423 0.06361349 -0.041630335
-0.08790474 -0.051978417 -0.041895144 -0.01189346 -0.00520118 0.04891192 0.032523096 -0.0454687
-0.06627131 0.001201626 0.022829495 0.07579743 0.05265822 -0.0708324 -0.0007724584 -0.058551986
-0.0687607 0.05569858 -0.078448825 0.036417414 -0.020781202 0.11773364 0.054114163 0.056110844
0.030556252 -0.023418792 -0.047757704 0.073824696 -0.091427214 -0.116942346 -0.09042616 0.04262227
-0.010946616 0.069508806 -0.06385333 -0.05968008 -0.025194803 0.043633386 0.053370208 -0.057957444
-0.07453395 -0.013304021 -0.03860733 -0.115219526 -0.076490864 0.063852385 0.032016773 -0.032147292
-0.051648308 -0.1438056 0.10819811 -0.2062763 -0.010944793 -0.2171785 0.04738658 -0.007819234
0.016280182 -0.08323565 0.046813957 0.058040936 -0.09615816 -0.05552899 -0.0043792645 0.02238626
-0.06538083 0.10391577 0.10156752 0.039019447 0.086396635 0.018282978 -0.047153495 0.040293362
0.07256992 0.0063781035 -0.051895358 -0.10480347 -0.062011745 -0.09740966 -0.013231702 -0.02324852
-0.01644644 0.004868002 -0.040635545 -0.07637136 0.049866438 -0.016281905 0.09589307 0.06028628
0.0656614 0.0684369 -0.056189943 0.09526166 0.11427841 -0.078748435 -0.20535697 0.06860683
0.06136631 0.022847952 0.02353058 0.030809406 -0.048012316 -0.1574211 -0.03944039 -0.03615481
0.065815 -0.02285211 -0.0020893696 0.036042783 -0.13178654 -0.0060807187 -0.061302412 0.04574109
-0.030613823 0.1357697 0.027728293 0.052704368 -0.1265348 -0.033500142 0.073499344 0.09336863
0.002477989 0.14731218 -0.042834427 -0.09812622 0.04722811 -0.11295423 0.042801034 0.06620467
0.0933927 -0.07851842 0.087717116 -0.06551012 -0.021285959 -0.013577201 0.036759704 -0.07087251
-0.0049928506 -0.018431751 0.010617779 -0.060286682 -0.049772132 0.034298245 -0.053451013 0.07184529
-0.054502413 -0.13115287 -0.096399456 0.07136822 0.03949428 0.07554378 -0.011844722 -0.01294915
-0.072340064 0.13975634 0.002245753 -0.007967032 0.11501088 -0.11835971 0.05676817 0.056357045
0.011360339 0.032638658 -0.019323872 0.07021783 -0.041724168 0.049054734 0.011599691 0.011319099
-0.07615582 0.021485051 -0.012096898 0.0028953732 0.091864176 -0.0483124 0.063638955 0.0146516645
0.025373776 -0.090607494 -0.09181156 -0.10817242 0.0056493687 0.10546835 -0.07184203 0.0077989944
0.017271115 -0.1318538 0.0034822437 0.014177084 -0.065821126 0.02201784 0.06401433 0.044444688
0.019436132 0.021173552 -0.078387424 -0.080960855 0.07860555 -0.035067562 -0.18330185 0.0442524
-0.1731839 0.07949727 -0.040277127 -0.12588476 0.0054268907 0.030775191 -0.04667026 0.007620734
0.03793282 0.06477376 -0.045378212 0.05907784 0.017627338 -0.005408673 -0.045414515 -0.026700258

fc2.bias f4 [128]
00000000: 19f5 873c 2662 903a e720 ac3d 071c 22bd
00000010: da64 0d3d 741e db3d bcee 2fbd 1191 b63b
00000020: 8caf b53c dfbb 6b3c 1fcc 8a3d 9d2a 943d
00000030: 680e ed3d 981d c0bd b973 15bd 83e7 93bd
00000040: 466b 8d3d 54dc 99bd aa2d 183d e251 9e3d
00000050: 28b2 1d3e a0cc b53d 80a2 40bd 314f 8abd
00000060: e87a c23d 23e3 01bc 5385 c63d 5e73 36bd
00000070: e146 123e bcee 51bd 86bc be3d 5f76 173d
00000080: 699e 873d 5dc2 7ebd 25a0 8b3d 5240 2f3c
00000090: 5a74 723c 3b4b ae3c 0447 f23d c778 9d3b
000000a0: dac6 af3c ad7d 5db9 f05c e33c d7f1 4f3d
000000b0: 7b9a 66bd 4f8e 133e 535f 1d3d b6a3 f3bc
000000c0: 58e9 433d c33a b2bb 2ecd 93bd 6732 bdbd
000000d0: 382e 883d dc17 09bd 63c2 28bd 6980 b1bd
000000e0: 7a6d bd3d 5019 8fbc 8a35 18bd eac8 09bd
000000f0: 4688 bdbd a466 203d 1bd0 ab3d b69d fa3d
00000100: e14c 8ebc cd6a 1bbd e785 b83b e8a0 a13d
00000110: 5c6f a3bc b613 ef3d 48e7 37bc 8dc9 35bd
00000120: a20c 793d 6682 113d b7ca aa3c 5270 d93d
00000130: b4c2 c43d 0f62 acbd cc3a d2bc eb55 9bbc
00000140: 1eb6 433d 9466 aa3d 433e 68bd cf86 f73c
00000150: 5cb3 403c 361f 0a3e 3e5a 9dbc 5e6c 893d
00000160: fcf3 0b3e 3eb1 2f3e 76de 223e c3e7 843d
00000170: d073 c0bc 3a62 dc3d e2b2 0f3c 09c0 d73c
00000180: eb1b a3bd 4f3d 31bd cb55 103e fb5e 64bd
00000190: 5cba a2bd 65f3 1c3d bbc6 1ebd f166 c73d
000001a0: 9e91 3b3c 8afb afbb e810 eb3c 213b b4bd
000001b0: a1a3 0a3d c145 9a3c 78f9 f43c 8534 8b3a
000001c0: 7792 31bc 3415 8dbd 9192 963d c570 08bd
000001d0: 1c5c c03b 39fe 3d3d cb64 9ebc dafc 2ebd
000001e0: 5cc1 a0bd 3b67 33bd 4ab3 743d 0433 2b3d
000001f0: 1257 0ebd 7c64 c1bd 9497 3abd 08c5 df3d
0.016596364 0.0011015579 0.08404713 -0.03957751 0.034520008 0.10699168 -0.042952284 0.0055714925
0.022178434 0.014388054 0.06777214 0.0723469 0.115750134 -0.093806446 -0.036487315 -0.07221892
0.069052264 -0.075127274 0.037152924 0.07730462 0.15399992 0.0887692 -0.047029972 -0.06753386
0.09496099 -0.007927689 0.09693398 -0.044543616 0.1428485 -0.051253065 0.09313302 0.03697812
0.06622011 -0.062197078 0.068176545 0.0106964875 0.014798248 0.021276107 0.118299514 0.0048056575
0.021457125 -0.0002112302 0.027754277 0.050767746 -0.056299668 0.14409755 0.038420986 -0.02974115
0.047829956 -0.005439134 -0.07216869 -0.09238129 0.066494405 -0.03347002 -0.041201007 -0.086670704
0.092493966 -0.017468125 -0.037160434 -0.033638872 -0.09254508 0.039160386 0.08389302 0.12237112
-0.017370643 -0.03794365 0.005631197 0.078920186 -0.019950561 0.116736814 -0.011224575 -0.044381667
0.060803063 0.03552475 0.020848615 0.106171265 0.09607449 -0.08417141 -0.025662802 -0.018961867
0.047781102 0.083203465 -0.056700002 0.030215649 0.011761513 0.13488469 -0.01920807 0.067101225
0.13667291 0.17157456 0.15905175 0.064895175 -0.023492724 0.10760923 0.008770676 0.026336687
-0.07964309 -0.04327136 0.14095227 -0.055754643 -0.079457015 0.038318057 -0.038763743 0.097364314
0.011448292 -0.005370562 0.028694585 -0.088003404 0.033847455 0.01883209 0.029904112 0.001062051
-0.010838143 -0.0688881 0.07352174 -0.03331067 0.0058703553 0.046385024 -0.019335171 -0.042721607
-0.078493804 -0.04379962 0.059741296 0.0417967 -0.034751005 -0.09442994 -0.045554712 0.109262526

fc3.weight f4 [1, 128]
00000000: 7750 ab3d 0ec5 33be feb2 2b3e 0cb8 49bd
00000010: 6322 673d 232d 923d 1e8d ae3d 185c b63d
00000020: e031 5e3d c42a 23be 597e 373d f48f 073e
00000030: 2cb0 aa3d 8ef8 95bc b682 76be b720 c5bd
00000040: 4cf3 873d f3a0 c9bd eb1c 233d 9ee4 3a3e
00000050: 1ece 823d 3f01 b43d 9afa e3bd 7dfc d2bd
00000060: 833e 883d 8e5a 9abd 7521 db3d 5a7d b3bd
00000070: 22af a03d eb8d 87be 768a 6b3d 2b58 edbd
00000080: 48d1 533d 955b 0ebe 0119 823d 77e2 173e
00000090: e311 8ebd 3ff1 f13d 06f8 643d 6d7b 59be
000000a0: 8b88 483d c0a8 5abe 72c4 ed3d 81ba 643d
000000b0: d87a cabd 86c4 fc3d c92e 083e 5ffb a7bd
000000c0: 81b9 b83d 57e0 2fbe a7ac 50be 41db 0cbd
000000d0: 8239 4d3d 9f56 89bd a10d dfbd 411c b8bd
000000e0: bffb bf3d dac8 c2bd d70d 49be 14d2 fbbd
000000f0: 43cb 2abd 10da 953d c9a3 393d 4bae 443d
00000100: b3af c1bd 2561 9dbd c081 90bd 0a87 803d
00000110: dd2a 18be bee5 933d 48b1 65bd 7ae9 6bbe
00000120: a778 023e a800 513d 65d9 503d 7225 783d
00000130: f9cc 093d b884 3fbd d2d9 5e3d 0384 113e
00000140: 6f30 8b3d c41e 673d cd18 e0bd 01de 583d
00000150: 943a 7f3d 9e29 313d b58c 39bd 1a32 a93d
00000160: 4b89 893d 3541 6b3d cb33 9e3d d196 543d
00000170: 630b 4ebe 4617 b73d 5126 813d c792 433d
00000180: f93f 31bd 9b1f 82bd c868 dc3d 9c69 17be
00000190: 2e4f 37be 9693 903d 2188 37be 7062 533d
000001a0: 210f 8d3d 1685 a7bd 4969 ad3d c39d 8abd
000001b0: 2829 993d 01c0 b0bd 7868 0e3d f2ec b8bd
000001c0: 32f5 debd b7ff 56bd df4f 9b3d 2e4b d3bd
000001d0: 7f91 0ebe 6839 fb3d 0600 883d 91d4 543c
000001e0: 2f6d 1bbe effa 53bd 26c7 a33d 9b84 5e3d
000001f0: 390d 03be c192 0bbe 4329 6c3d 0734 923d
0.08364957 -0.17555639 0.16767499 -0.049247786 0.056429278 0.071375154 0.0852301 0.08904284
0.054246783 -0.15934283 0.04479823 0.13238508 0.08334383 -0.018306997 -0.240733 -0.096253805
0.06638202 -0.09845152 0.0398225 0.18251273 0.0638697 0.087893 -0.11131783 -0.103020646
0.06652548 -0.07536803 0.10699741 -0.08764143 0.07845904 -0.26475462 0.057505094 -0.11589082
0.051713258 -0.13902123 0.06352425 0.14832483 -0.06937005 0.11813592 0.055900596 -0.2123849
0.048958343 -0.21353436 0.116097346 0.055841926 -0.09886712 0.12342171 0.13299097 -0.08202242
0.09019757 -0.17175423 -0.20378362 -0.034388784 0.05010367 -0.06705975 -0.108912714 -0.08989764
0.09374189 -0.09510966 -0.19634186 -0.122959286 -0.04169775 0.07316983 0.045322213 0.04801778
-0.0945734 -0.076845445 -0.07055998 0.06275757 -0.14860101 0.07221554 -0.05607727 -0.23038283
0.12741338 0.051026016 0.050988574 0.060582586 0.033642743 -0.04675743 0.05440695 0.14210515
0.06796347 0.056425825 -0.109422304 0.052946094 0.062311724 0.04325258 -0.045300204 0.08261509
0.0671564 0.057435233 0.077247225 0.051901642 -0.20121531 0.08939986 0.063061364 0.0477474
-0.0432739 -0.063536845 0.10762173 -0.1478638 -0.17901298 0.070594 -0.17923023 0.05160755
0.06887651 -0.08179681 0.08467347 -0.06768372 0.07478553 -0.08630372 0.034767598 -0.09029569
-0.10886611 -0.052489962 0.075835936 -0.10317074 -0.1392269 0.12266809 0.066406295 0.012990133
-0.15178369 -0.05175298 0.07996969 0.05432568 -0.12798013 -0.13630201 0.057656538 0.0713883
