savedmodels/checkpoint_1545158393_actor_episode142_score36.266.pth (torch_old, 169478 bytes, 6 tensors)

fc1.weight f4 [256, 33]
00000000: 514d a2bc c49b 26bd f30d d5bd 0e55 113d
00000010: 1447 e7bc c0df 323e dea6 e0bd ff04 3dbd
00000020: 35c3 0f3c 7e88 81bd 5a4a 00be 98dc 763d
00000030: 076f 09bd a0cd d13d bd06 353e 684c 153e
00000040: eaee 33bd ffb4 1dbc f412 8abd 14ff a7bd
00000050: e571 b7bc c2c0 ab3c 0d03 2d3e 6556 83bd
00000060: 94e6 343d fd2b 50bd 2536 83bd 9a50 3d3d
00000070: afa0 f0bd 702a 013d a62d 56bc 7400 e93c
00000080: 9533 e8be 2220 02be 5bc4 ffbd dc2c 19bd
00000090: c798 c93d 5c7c d13d 6408 b83d 7bad 9a3c
000000a0: 560e 653c a20f 073d 2f2d 57bb 4b95 b0bd
000000b0: e29f e43d 7af2 da3d 4e0b 003c 617b 9d3d
000000c0: 596f ccbd db34 af3d c1bf da3c 62ba 93bd
000000d0: 73ca 3c3b c348 c5bc 8af2 77bd abad 0a3d
000000e0: 186d a3bb 234d e83c 17d5 183d 42b0 b1bd
000000f0: 9c95 89bc b630 3e3e ca5b 71bd 5afb e83c
00000100: 1a4e 543d 55ca 88be 0286 e6bd d7a6 2abd
00000110: d245 80bc a6d2 d23d b998 a63d b5bf 2ebd
00000120: be09 743d 5f50 99bd 46ff b83c a9f5 64bd
00000130: 6ca4 79bd b0ad 21bb 7393 3b3d 19a0 48bd
00000140: a470 793d 8fcc c83c b0d9 d13d bb33 ae3c
00000150: c39d 4d3b 3a53 023d 448c 3dbd ed3f a93d
00000160: dc65 b63d 2bab 19be bd5c 41bb f2e5 51bc
00000170: 5618 13be e2e7 51bd 4624 bfbc 2841 063d
00000180: 30d2 34bc 7ca1 12bd 1076 1dbe 0e0c 273c
00000190: 05ec e93b 1dd5 eb3c 5980 b8bd a043 c43c
000001a0: a023 f33c 67fc c23d af91 89bd 5017 56bd
000001b0: 051e f4bc c062 0cbd cfb8 95bd d9ba f03c
000001c0: 89f1 3bbd 79be 25be d14a db3c f158 2f3d
000001d0: 5259 583d 9969 7b3d e634 14bd 8625 6ebe
000001e0: e17f 5e3d ae1f 18bd 2e6e 55bd c52b a4bd
000001f0: d931 a8bd a347 243e 15e4 513d 6cc6 44bd
00000200: 8c51 63bd da5f b1bc 38cd 34bd 3b5a 5a3e
00000210: 3c39 2c3d 3a89 8dbd 2dfc 4d3d 3d42 58bb
00000220: 6c4d b23d 2a38 a1bd 9b50 f63d 56fc b5bc
00000230: 2cfa 70bd 61c2 253d 93a7 2abd 04f4 d0bd
00000240: a7ac e2bb 7592 eabb 6e79 003e 624c 35bd
00000250: 7c97 9fbc d77e 04bc eb53 183e 01b0 153c
00000260: acd3 0fbd b7b2 423d 2d85 bd3a dffe 77bc
00000270: 8824 c13d d08b 0cbe 805f 0c3e 0811 40be
00000280: e101 a33c b84f 373c 38fd 4b3e 28a8 743d
00000290: 5d68 eebe 50ed 3c3d 03df 013e 75f7 6fbe
000002a0: 44b4 0cbc d074 d43d 883d 22bd ffd7 e8bd
000002b0: 6b09 d73d 0715 5ebc 4e6a 1b3d 24d3 f43c
000002c0: 3a21 1ebd 4105 f3bd 6ff4 07bd 08e4 fbbd
000002d0: 255a 603d 6bbc 0dbd 3e2c 1abd 4ca1 15bd
000002e0: 1be9 89bd 7bff 18be 38f8 acbd 68d1 00bd
000002f0: 32f9 b4ba 12ab c5bd 3dc0 8b3d 26cc fabd
00000300: 2205 b83c b6e5 013e e88c bf3c 3796 01bd
00000310: b44c 823c f8f9 403e 102e 21bd f4ce ed3c
00000320: 1e17 0f3c 3d14 193d cace ca3d 046a 913d
00000330: 3d89 1a3e 3c91 a5bc 81bd 69bb e11d 833d
00000340: 22e3 ac3d 4b3c 4fbd 3ebf 2cbd af52 86bd
00000350: 8b75 cc3d 79fb 07be 854a c03d c8f5 b33d
00000360: 96d1 f23d d098 5c3d e48b 093e 86c1 2cbc
00000370: 0974 a0bc 1713 a33c bf37 2e3d baa6 45be
00000380: 2dc4 b93d ea6a b53c a767 c2bc 90ba 223d
00000390: 2081 a1bd 3880 463c 3646 56be 86ef d0bb
000003a0: 2bcb da3d 1dac 393b f332 b13c 5bf4 7dbc
000003b0: 27ca 6bbd b40b 62bc 6a6b 7e3d 4474 b0bd
000003c0: ba03 4e3c 7d7c 9e3d 0726 96bc 6368 2a3b
000003d0: cb24 533e dd67 89bc 3cc5 d5bd b944 773d
000003e0: 1172 853b f190 323c 26e1 653d 8982 26bd
000003f0: e975 a5bd 865a ddbc 590f 283e ff7a ec3b
-0.019812258 -0.040675893 -0.10403051 0.035481505 -0.028232135 0.17468166 -0.109693274 -0.046147343
0.008774568 -0.06324862 -0.12528363 0.06026897 -0.03355315 0.10244298 0.17678352 0.14579928
-0.043929018 -0.009625672 -0.06741896 -0.08202949 -0.022393176 0.020965938 0.16895695 -0.06412963
0.04416521 -0.0508232 -0.064068116 0.046219446 -0.11749398 0.031534612 -0.013072407 0.028442599
-0.45351854 -0.1270757 -0.12488624 -0.037396297 0.09843593 0.10228798 0.089859754 0.01888155
0.013980469 0.032973893 -0.0032833328 -0.086222254 0.11163308 0.1069078 0.007815195 0.07689548
-0.099821754 0.08555003 0.026702764 -0.07213284 0.0028807193 -0.024082547 -0.060534038 0.03385703
-0.00498737 0.028357094 0.037312593 -0.08676197 -0.016794972 0.18573269 -0.058925427 0.028440166
0.051832296 -0.26716867 -0.11256029 -0.041663017 -0.015658293 0.10294084 0.08134598 -0.042663295
0.059579603 -0.07486033 0.022582661 -0.055898342 -0.06094782 -0.0024670176 0.045794915 -0.048980806
0.060898438 0.024511604 0.10246599 0.021264901 0.003137455 0.031817652 -0.046276346 0.08264146
0.08906147 -0.15006702 -0.002950474 -0.012811171 -0.14364752 -0.05124653 -0.023332726 0.03277698
-0.011036441 -0.035798535 -0.15377069 0.010195745 0.0071387314 0.028788144 -0.090088554 0.023958027
0.029680073 0.09520798 -0.0671724 -0.052268326 -0.02979947 -0.034273863 -0.0731064 0.02938597
-0.045884643 -0.16185941 0.026769074 0.04280943 0.052819557 0.061380003 -0.03618326 -0.23256502
0.054321174 -0.037139587 -0.05210703 -0.08016161 -0.08212633 0.16042952 0.051242907 -0.048040792
-0.05549769 -0.02165215 -0.044141024 0.21323483 0.04204677 -0.069109395 0.05028932 -0.0032998465
0.08706173 -0.078720406 0.12027093 -0.02221505 -0.058832332 0.040468577 -0.041663717 -0.10202792
-0.0069175544 -0.0071585723 0.12546322 -0.044262297 -0.019481413 -0.008086882 0.14875762 0.009136201
-0.035113975 0.047533717 0.0014459245 -0.01513645 0.09430796 -0.13725209 0.13708305 -0.18756497
0.019898357 0.01118844 0.19920814 0.05973068 -0.46563998 0.046124756 0.12682728 -0.23434241
-0.008587901 0.10373843 -0.039609462 -0.11369323 0.10499843 -0.013554818 0.037943177 0.029885836
-0.038605906 -0.118662365 -0.033192094 -0.12299353 0.05477347 -0.034603518 -0.03763985 -0.036530778
-0.067339145 -0.14941208 -0.084457815 -0.031449705 -0.0013807176 -0.0965177 0.06823776 -0.122459695
0.022463385 0.12685284 0.023382619 -0.031637397 0.015905716 0.18845356 -0.03935057 0.029029347
0.008733539 0.037372816 0.09902723 0.07100299 0.15091415 -0.020210855 -0.0035665932 0.06402183
0.0844176 -0.05059461 -0.04217457 -0.065587394 0.09983357 -0.13279523 0.093892135 0.087871134
0.118563816 0.05385667 0.1343227 -0.010544186 -0.01958658 0.019906564 0.042533632 -0.19301882
0.09070621 0.022145707 -0.023731066 0.0397287 -0.07885957 0.012115531 -0.20925221 -0.0063762097
0.106832825 0.0028331347 0.02163074 -0.015500153 -0.057565834 -0.013796736 0.062114157 -0.08615926
0.012574131 0.07738588 -0.01832868 0.002600216 0.20619504 -0.016773159 -0.1043801 0.060368273
0.0040724357 0.010898815 0.05612292 -0.04065183 -0.0807913 -0.027020704 0.16412105 0.0072168107

fc1.bias f4 [256]
00000000: 589d 953d 94ec 4f3e 209d 1abb 7c51 b23d
00000010: 6944 143e afa0 45be ef9d 3dbe 511b 04be
00000020: 2cfb 1f3d 84ca a13d e265 bbbd 7bc5 553d
00000030: e52b 54bc 129b 103d 26bf 283e 807f 0a3d
00000040: 876d f3bd 5fb6 b7bc a832 2d3e c823 9abd
00000050: 3cea 123c 665b f33d 0b80 69bd 5f4b 0e3c
00000060: 312e d13d 86db bdbd e794 213d a345 723d
00000070: 8fa8 153d 922c 043e 780e cb3d 709a f5bd
00000080: b0b5 44be aa2a 873c 06c2 48bd 0769 cebc
00000090: 6405 383e 4b60 d03d 134c 21bd b04d 313e
000000a0: f92f e23b bd86 7dbd 6016 d0bc 43d2 53bd
000000b0: e766 01be eeba 17bd 3d35 2c3e 2077 a73d
000000c0: e4ce 283e 7e1b f0bd 260f c3bd 644e 363e
000000d0: 07b4 68bd 5000 6fbd 3c58 ffbd f509 083e
000000e0: c4ad 82bd 59c5 cb3d 5d4c 263d e6b3 053b
000000f0: 7f2f aabd 32da fe3d c3c7 9ebd 1f1b 043b
00000100: 6e05 f2bd 3e99 ac3c dfc9 1a3e fb90 303e
00000110: 28b2 d33c cf70 b3bc b96e d13d 6d82 023e
00000120: c633 4dbd fb82 81bd 8345 953d 293b 343e
00000130: d37a 313c 7088 183d d628 5e3e 05e5 cdbd
00000140: b72d df3c 360a f33d 32b8 023d 240c 20bc
00000150: b6bc 113e 1791 0dbe ed66 8f3d 4405 423d
00000160: 7571 403e 6a9a 9b3d c405 143e b820 06bd
00000170: e4f4 2e3d e324 7abd 896a 4ebe b8a6 f93d
00000180: 305b 0e3e 2b85 b6bc a7c8 6f3d 97af 153d
00000190: da76 a23d bc8f 27be 57ab b73d b7b9 5cbd
000001a0: be99 0dbe db7f 543e 6434 03bd b5df f93b
000001b0: 645c 8dbb 6be0 03be f8e4 3f3e c8c4 d23d
000001c0: 36ce c9bc 21ec 363a 5fdf 193d 3be5 37bd
000001d0: d820 563d 1a7b 02be fc4c 5abd c19a 6ebd
000001e0: 76c1 1f3e 0087 133c 4f7c 213e 6a2b 83bd
000001f0: 8314 2abe 49ef 1a3e 769c c63d 1f83 513d
00000200: 30aa 21bc c49f 303e 0529 cdbd df8c 3dbe
00000210: f9de d83d 20f8 2c3e df47 b43d cc74 cabc
00000220: a717 16be 184f 1a3d 54d6 50be e823 22be
00000230: 7079 2b3e ef59 19be 875b 27be 22d3 0cbd
00000240: dd95 f33d bf11 f8bd 0709 513d b836 05bc
00000250: 08a3 8f3d 3108 113e f64c 933d 5603 833c
00000260: 06c4 45bb df7b 023e bcee 1c3e 1cfa 51bc
00000270: 51e6 923d 2fcc 743c 35b2 9f3d 183d 43be
00000280: 2db7 c139 00b4 07be f333 a8bd c630 84be
00000290: 0aef 963d e1f1 b0bd e2b3 503d 4944 74bd
000002a0: 5d3f 6a3d 6e52 cf3d 9df8 22bd 457d f43d
000002b0: c3f6 913e b408 103e ba4e b53d 31f9 103e
000002c0: 537c 573e a531 6abd 3d41 3e3e 044b b5bd
000002d0: 2dd2 15bc a871 2a3e d2f1 22bd e99d 373d
000002e0: 1b87 e93c a483 213e 3a98 e1bc f51b 4dbc
000002f0: c16a 033e b914 973d 2f18 39bd 999e d23d
00000300: 1180 db3d 2528 323e 5c21 2c3e 2b6b 823c
00000310: 11e0 60bd f9b6 113c cbb9 8e3d 3b12 85bb
00000320: f673 55bb b446 af3d f521 173d 4770 ecbc
00000330: 933c 87bc 6fcb c53c d316 033e 6b0a 9f3c
00000340: c394 a1bd e5f1 b3bb 5aa5 4e3e f2dd b73d
00000350: 2506 153e c5c9 903d be36 863b e0c9 0d3d
00000360: 2232 bc3d cfd7 823d e37b 063e 0385 063e
00000370: dad8 9b3d 2ca6 ccbd 92e6 b4bc 82a8 72be
00000380: 6640 2e3e 0dc9 adbd c1f3 82bd a428 65bd
00000390: f60f c63c 00f3 4fba 6a65 04be a0e4 a73d
000003a0: 6a78 4dbe e12a 61be ebaf 0e3e 9c2c 1bbd
000003b0: 41f7 7a3d 3bce 5bbc ae4d ac3d dd83 dfbd
000003c0: 2991 e4bc 8a0d 12be 547d b13d dbdb 0d3d
000003d0: 0f04 b83d a789 993d 4a22 9c3c 03dd 833d
000003e0: 19ef 0c3e f15e 64bd 4191 663e 31e6 abbd
000003f0: deff 8f3d 43f7 03bd 5501 ba3d b82d ce3d
0.073054016 0.20305091 -0.002359219 0.08706948 0.14479221 -0.19299577 -0.18517278 -0.12901045
0.039057896 0.07899955 -0.09150292 0.052190285 -0.012949918 0.035304137 0.16479167 0.033813
-0.11886125 -0.022425829 0.16913855 -0.07526356 0.008966979 0.11882667 -0.057006877 0.008684962
0.102138884 -0.092703864 0.039448645 0.059148442 0.036537703 0.12907627 0.09914869 -0.11992347
-0.19209933 0.016499836 -0.04901316 -0.025196565 0.17970806 0.101746164 -0.03937919 0.17314792
0.0069026914 -0.061896075 -0.025401294 -0.051714193 -0.1263691 -0.037043504 0.16817184 0.08177018
0.16485173 -0.11723994 -0.09524374 0.17803341 -0.056812312 -0.058349907 -0.12468001 0.13285048
-0.063807994 0.099497505 0.04060017 0.0020401417 -0.083098404 0.12443961 -0.07752945 0.0020157767
-0.11817442 0.021069165 0.1511607 0.17242806 0.025841787 -0.021904377 0.10226197 0.12745066
-0.050098203 -0.06323811 0.07288649 0.17600693 0.010832506 0.037239492 0.21695265 -0.10053448
0.027243478 0.11867182 0.031913944 -0.00976852 0.14232144 -0.13824879 0.070020534 0.047368303
0.1879328 0.075978115 0.14455324 -0.032746047 0.042714015 -0.061070334 -0.20157827 0.12190002
0.13901973 -0.022280296 0.058540966 0.03654441 0.079328254 -0.16363424 0.08968227 -0.05388805
-0.13828179 0.20751898 -0.032032385 0.007625545 -0.0043139923 -0.12878577 0.18739688 0.10291439
-0.024634462 0.0006977935 0.03756654 -0.044896346 0.052277416 -0.12742272 -0.053296074 -0.058253054
0.15601143 0.0090043545 0.15770076 -0.06404765 -0.16609387 0.15130343 0.09697811 0.051150437
-0.009867236 0.17248446 -0.100175895 -0.1851077 0.10589404 0.16891527 0.08802771 -0.024713896
-0.1465746 0.037673086 -0.2039426 -0.1583401 0.16745543 -0.14975713 -0.16343509 -0.03438104
0.118938185 -0.1211276 0.051034 -0.008130722 0.070135176 0.14163281 0.071924135 0.015992802
-0.0030176654 0.12742566 0.15325445 -0.012815978 0.071728356 0.014941259 0.07797662 -0.19066274
0.00036948305 -0.13252258 -0.082130335 -0.2581846 0.07369812 -0.08639885 0.0509528 -0.059635434
0.057189334 0.10123144 -0.039787877 0.11937956 0.28508577 0.1406582 0.088529065 0.14157559
0.2104352 -0.05717625 0.18579574 -0.08852199 -0.009144348 0.16644919 -0.0397814 0.04482833
0.028506806 0.15772873 -0.027538408 -0.0125188725 0.12833692 0.073769994 -0.04518908 0.10284156
0.10717786 0.17398126 0.168096 0.015920242 -0.054901186 0.008893722 0.06969031 -0.004061011
-0.0032570339 0.085584074 0.03689762 -0.028862132 -0.016508376 0.024144856 0.12801675 0.019414147
-0.07889702 -0.0054914826 0.20180264 0.089778796 0.14553125 0.070697345 0.0040958812 0.03461635
0.091892496 0.063888185 0.13133197 0.13136677 0.076097205 -0.09992632 -0.0220826 -0.23697093
0.17016754 -0.08485613 -0.063941486 -0.05594696 0.024177533 -0.0007932633 -0.12929311 0.08197904
-0.20065466 -0.21989013 0.13934295 -0.03788434 0.061270956 -0.013415868 0.08413254 -0.10913823
-0.027901249 -0.14262977 0.086664826 0.0346335 0.08985149 0.07496958 0.019059319 0.06438639
0.13763084 -0.055754606 0.22516347 -0.08393515 0.07031225 -0.03221823 0.09082285 0.10067314

fc2.weight f4 [128, 256]
00000000: 0f21 ebbd 8730 eb3d 1e69 d5bc 578c 9cbc
00000010: 98b3 36be 1f84 b9bd 9cb0 0e3e 7c0e 0cbc
00000020: b17b ac3c 98a4 2c3e 6e2e 0f3e 6b6a f53d
00000030: 9261 2e3e 1d58 cb3a 12b8 82be 44cd 9bbc
00000040: f271 373d e218 84bd 5a85 88bd 47fa 8d3c
00000050: 10a0 fd3d 53f6 753d cd6e 7e3d 88c1 3c3e
00000060: ad59 6fbe 8c42 08be 3c6d 97bc 49a9 5fbe
00000070: 8c2b b7bd c72d ff3d 8483 82bd f342 5c3e
00000080: 648c 093e 62eb db3b 65d4 9abd fd3f 59bc
00000090: f1d4 203d c19f f2bd 2586 0dbc d946 c63d
000000a0: 1385 46be f310 c5be 9583 5a3d 699b 043c
000000b0: 8537 0abd be1f a13d 7f88 94bb a940 753d
000000c0: feaf 74bc 4cb1 8e3d ac6b 733d 0cf6 0e3c
000000d0: 22b5 23be b2b8 acbd 6d34 203d 9fe1 563e
000000e0: 8cd1 dfbd f108 f3bd 5c7c 9e3d fdef 66bd
000000f0: 7657 3bbd 2f1d cb3d d051 613d 2f69 273d
00000100: 7d8b 653e bfb8 01be 07d4 e53d 29ae ad3d
00000110: 8f4f de3c 8364 56bc ad5a 8e3d f9eb 833d
00000120: 0c13 0d3d a30f 823e e5b4 72bd 4d4b ce3d
00000130: 9844 e4bd 6329 c83d 013c af3d 2e7a c73d
00000140: 2aeb 6dbe 409e a5bb c1cb bf3d 0826 da3d
00000150: 59d9 5cbc 0c34 813b 51f5 0bbd 8186 263e
00000160: 5fc1 a4bb 1321 ecbd 25dc 343d fa97 143d
00000170: 7903 153d 8eb0 613c ddbd 02be 2770 96bd
00000180: 7632 d5b9 703d 423d e91d f33c ce19 403d
00000190: 3553 3fbd 5e65 803d 37c6 8f3b 0552 ed3c
000001a0: 34a2 d53d 46cb c63d 0c6d b83d e376 243e
000001b0: a2f3 e93c 8537 eb3d 020c 313c b779 dd3d
000001c0: ee0f 16bd 2455 f13d a95b 4a3d f7a2 f93a
000001d0: b99b eb3d e0a4 383d d722 c6bc 2948 1d3c
000001e0: 135a 3b3d aaa4 c83d fd57 c1bd 09ad 133c
000001f0: 8177 03be 80c3 ac3c e3ba 9a3c 8192 3f3e
00000200: 90dc c5bd 52aa 42bd 33fb 4f3c 2ab9 ca3d
00000210: 654e 393d 5324 c4bd e1af cdbd 8321 233e
00000220: 6b7d 383e e644 843e f55b 7b3d 3d67 e73d
00000230: ff63 e3bc 7b31 ab3d baea 983d b8b7 c03a
00000240: 1d96 c83d cff4 6abe 0969 00be feaa eebd
00000250: 81a9 f0bc c6b6 b23d b77a c5bd 5c13 65bd
00000260: 1a7b 57be 2920 453e 6690 db3c f749 e0bb
00000270: 2b62 3cbd 5c27 163e 5e1b 02bd fb15 0e3e
00000280: 5018 06be c249 29bd b99a bbbc c5f3 953e
00000290: fd1f c7bd 4de1 553e ff36 1cbd 6590 3b3d
000002a0: 7c69 c3bd 91f8 96bd c625 3cbe f141 3a3d
000002b0: 4d43 7c3d d23d 13be c480 5b3d 00ec 5e3d
000002c0: f5f3 f33d f881 033e 8a48 613e 95c5 d23d
000002d0: 76b9 6cbd 7ca6 723d 54a7 d5bc 8035 37be
000002e0: 5bf1 32bb 17f5 fcbc 45a6 2c3c 0097 3b3d
000002f0: d627 4ebd 9c0b 87ba ce9b 203e 6309 da3c
00000300: 2aad 2a3e 7546 52bd 067e 90bd 78a8 c93c
00000310: 341d 83bd 476f 00be 48ac f33d 0cc4 55be
00000320: 961a 8fbd de5b 4c3c a3ec 3a3d 7c59 313d
00000330: 842d 483e 3148 dd3d 2317 83bd f2a9 49be
00000340: 47d3 09be a1a8 cabc 10d1 7fbd 20dd 4d3e
00000350: 31b8 7e3d c380 2abd 9caf 85be d990 a63d
00000360: 909d 6bb9 2b77 983b adf8 723c cb47 86bd
00000370: e90d 423d 1796 193e aa46 1abe a480 81bc
00000380: 682c 8b3d 06b3 11be 4c5d 03bd 77ec fa3d
00000390: 74f6 ac3c b573 e5bc 5ae0 b13d 75d6 273e
000003a0: f210 a73d e5ea 3c3e 4646 5cbd 4bc3 1c3e
000003b0: 185c 753d d8b7 57bd 787a d2bd d7b6 433d
000003c0: f124 513e d690 f5bd 735a cebb f585 e3bc
000003d0: 0702 603c 09e0 f3bd cfd9 e9bd cc87 74bd
000003e0: 5e53 c5bc 2058 52bc e770 953c 2d54 f13c
000003f0: ac86 963d 587c b13d 428c 303e 939a c33d
-0.11480915 0.11483865 -0.0260511 -0.019109888 -0.17841947 -0.09058403 0.13934559 -0.008548375
0.021055074 0.16859663 0.13982555 0.11983188 0.17029408 0.0015513931 -0.2553106 -0.019018777
0.0447864 -0.064500585 -0.0666606 0.017331256 0.12384045 0.060049366 0.062117387 0.18433201
-0.23374052 -0.13306636 -0.018484704 -0.21841921 -0.08943853 0.12459903 -0.06372741 0.21509914
0.13432461 0.0067114094 -0.07560042 -0.013259885 0.039265577 -0.11846877 -0.00863794 0.09681482
-0.19386701 -0.38489494 0.053348143 0.008093693 -0.033744354 0.078673825 -0.004532873 0.059876118
-0.014934538 0.069674104 0.059428856 0.008725654 -0.15987065 -0.08433665 0.039112497 0.20984505
-0.1092864 -0.1186694 0.077385634 -0.056381214 -0.045737706 0.09917676 0.055009663 0.040871795
0.22416492 -0.12668131 0.11222082 0.08480484 0.027137546 -0.013085487 0.06950889 0.064414926
0.034441993 0.25402555 -0.059254546 0.10072956 -0.11145896 0.09773519 0.08556367 0.09740101
-0.23234239 -0.0050542653 0.09365035 0.10651785 -0.013479554 0.003942972 -0.0341695 0.16262247
-0.0050279344 -0.11529746 0.04415526 0.03627775 0.036380265 0.013775004 -0.1276774 -0.0734561
-0.00040664122 0.047421873 0.029677348 0.04689961 -0.04671021 0.06269334 0.0043876427 0.028969774
0.104313284 0.0970674 0.09005174 0.16060977 0.028558556 0.11485199 0.010806086 0.10814231
-0.036636285 0.117838174 0.04940382 0.001904576 0.11504311 0.045079112 -0.024186535 0.009599724
0.0457402 0.09797032 -0.094406106 0.009013423 -0.12838556 0.021089315 0.018887943 0.1870823
-0.096612096 -0.04752571 0.012694168 0.098985985 0.04524078 -0.09577241 -0.10043312 0.15930752
0.18016593 0.25833815 0.061366994 0.11298988 -0.027757643 0.08359047 0.074666455 0.001470319
0.09794257 -0.2294495 -0.12540068 -0.11653708 -0.0293777 0.087262675 -0.096425466 -0.055926666
-0.21043053 0.1925055 0.026802253 -0.006844755 -0.045992058 0.14663452 -0.03176438 0.13875572
-0.13095212 -0.041330107 -0.022900926 0.29287544 -0.09722898 0.20886727 -0.038138386 0.045792002
-0.09541604 -0.07371629 -0.18373784 0.045473043 0.06158762 -0.14379051 0.053589597 0.054424286
0.119117655 0.12842548 0.22000328 0.10291592 -0.057794057 0.059240803 -0.026080765 -0.17891502
-0.0027304504 -0.030878587 0.010537689 0.0457983 -0.05033096 -0.0010303142 0.15684435 0.026615804
0.1666762 -0.051336724 -0.07055287 0.024616465 -0.064020544 -0.12542449 0.118980944 -0.20875567
-0.06987493 0.012473075 0.04563583 0.04329823 0.19548613 0.10804785 -0.06400897 -0.19693735
-0.13459502 -0.024738612 -0.062455237 0.20103884 0.062187377 -0.041626703 -0.26110542 0.08133096
-0.00022470043 0.004652878 0.014829797 -0.06556662 0.047376547 0.14998661 -0.15066019 -0.015808411
0.06795579 -0.14228448 -0.032071397 0.12252133 0.021113612 -0.028009275 0.0868537 0.16390403
0.08157529 0.1844898 -0.053777955 0.15308873 0.05990228 -0.05266556 -0.10277265 0.04778179
0.20424248 -0.11990516 -0.0062974035 -0.027773837 0.013672358 -0.11907966 -0.11418497 -0.05969982
-0.024087604 -0.012838393 0.018242313 0.029459083 0.07349905 0.08666295 0.17241004 0.09550967

fc2.bias f4 [128]
00000000: 0b4a 043d c2f6 1b3d 6f5d 56bd 7f08 283d
00000010: f187 5bbd 178d 143d b9fa e0bc e26b 4b3c
00000020: 7213 b2bc 177d 16bb 3468 9c3c 0973 9fbd
00000030: e689 08bd 7499 703b d62f 46bd c5e7 613d
00000040: 8d31 9b3c c5f7 7e3d fc0d e7bc c263 e1bc
00000050: eb73 06bd 2333 f3bc 9ab9 6abd 6340 63bc
00000060: f588 02bd 0bff e5bc 37bf 59bd 0bca 053d
00000070: 5e55 4e3c 6cac 31bc b5f1 c63a e454 96bc
00000080: 6553 83bd 5cf2 40bd d2f5 aebd 0b4a 52bc
00000090: 5a8c 24bd 9a5e cfbc 7fb1 c4bc 5888 4bbc
000000a0: f4a0 663d fca4 dbbc 9d21 243d fa84 05bd
000000b0: af99 e0bc 6f74 4b3d 1458 bf3c 745c 5cbc
000000c0: 1644 613d bb5f ad3d cdc7 393a 5579 5dbd
000000d0: e936 d23b 52a3 afbc cdeb 5ebc 396d c53d
000000e0: 4b96 b9bc 5c78 df3b 7c6e 9f3d 0ab0 19bc
000000f0: c8e6 513c 71cf 013d c751 263b e36f 993d
00000100: a403 60bd 414c 9b3c 45e8 993b 9ab2 813b
00000110: 1e46 283c d308 913d f165 d93c ae20 623d
00000120: c519 023d 21ee 773d 8fb5 2bbc 132e 413d
00000130: ee5b 5abd 2987 3c3d 99cc 333d cd9b d53c
00000140: e382 eabc fb08 6fbb d497 813d 707f 6a3b
00000150: 26c9 1bbd e37d 35bd af9d 583b 9bf2 6c3c
00000160: c0f8 6b3c 4c0d b63c 30a3 953d db72 6c3c
00000170: ac29 96bc b504 89bd def5 cabc ec2b e3ba
00000180: 9301 523c bfe7 6b3d 78b7 843b fc81 63bb
00000190: 0e19 82bd 2503 173d 558f 48bb c226 5fbc
000001a0: 37b5 103d 2580 ae3c 7690 5ebd f8d0 943d
000001b0: f348 563d 0003 0bbc 7392 dcbc 7afc 2bbd
000001c0: 10f5 a53d 55be e7bc 7379 873d 5f98 8e3b
000001d0: 367e ac3d bc5b d83a 8525 2f3c 197f 7a3c
000001e0: 355a 98bd 7107 263d fa19 9fbc 4f46 543d
000001f0: a0db 25bd 365c 9ebd 4307 22bd ba84 25bd
0.032297175 0.038077123 -0.0523352 0.041023728 -0.05359644 0.036267366 -0.027463304 0.012415858
-0.021737788 -0.0022962743 0.019092657 -0.07785613 -0.033334635 0.003671256 -0.048385464 0.055152673
0.018944526 0.06224801 -0.02820491 -0.027513389 -0.03282539 -0.02968747 -0.05730591 -0.013870331
-0.031868894 -0.028075716 -0.053160872 0.032663386 0.012593595 -0.010844331 0.0015178235 -0.018351026
-0.064123906 -0.047106132 -0.0854298 -0.012835036 -0.040172912 -0.025313664 -0.024010418 -0.012422644
0.05630584 -0.02681207 0.04007112 -0.03259752 -0.027417032 0.049671587 0.023357429 -0.013449777
0.054996572 0.08465525 0.00070869626 -0.05407079 0.006415237 -0.021440182 -0.013606024 0.09639973
-0.022654673 0.006819768 0.07784745 -0.00938035 0.01281137 0.031691972 0.0025378333 0.07492044
-0.054690972 0.01895726 0.004696878 0.0039580585 0.0102706235 0.07081761 0.026537867 0.055206947
0.031762857 0.06052983 -0.010480299 0.04716308 -0.053310327 0.046027336 0.04389629 0.026075268
-0.028626865 -0.0036473859 0.06327787 0.0035781525 -0.038033627 -0.044309508 0.003305297 0.0144621385
0.014402568 0.022223137 0.07306516 0.014431681 -0.018330418 -0.06690351 -0.024775442 -0.0017331815
0.012817758 0.057594057 0.0040501915 -0.0034714928 -0.06352435 0.036868233 -0.003060301 -0.01362008
0.03532907 0.021301338 -0.054336987 0.0726642 0.052315664 -0.008484602 -0.026925301 -0.041988827
0.081033826 -0.028289 0.066149615 0.00435166 0.0842251 0.0016506831 0.010690098 0.0152890915
-0.074390806 0.04053444 -0.019421566 0.051824864 -0.040492654 -0.077324316 -0.039557707 -0.04040978

fc3.weight f4 [4, 128]
00000000: 8b16 823e 7ae9 7abe 621f 82be b0c8 ed3d
00000010: c1e7 bbbe 892c 10be 7615 1b3e b2ed 7b3e
00000020: 1902 e93c c0ad d7be 0ebb 273e 43cb 8d3e
00000030: 499d 173e f58d 3d3f d4b1 d3bc e767 0f3f
00000040: 8f7e 89bc e9b5 943d 464c 813e 6377 a33d
00000050: 01bc cc3e a517 2b3e 1ef9 00be bd4d e0bd
00000060: 8b40 6b3d 1620 3f3c 8e8f a9bd 96c0 afbb
00000070: 09e9 48be 247f 873e 89c8 733d 356c b73d
00000080: b533 19bd 8580 d13e 088e 913e 74d0 f4bd
00000090: d3ec 72be 9729 94be 806c abbd ac8a f93d
000000a0: a426 8fbe a1a9 bbbe 56c6 14be cef5 55be
000000b0: f8cb ca3e 1802 0fbd f9c5 eb3b 3689 bdbd
000000c0: e826 8b3c 0faa 07bf a716 26be 5c1a f93e
000000d0: eb02 ccbc 836c 88be c4ea 83be c099 abbe
000000e0: 4a82 2d3f d329 8dbe bd00 b93b c351 f2be
000000f0: e957 483e 70f8 16be 022d e8bc d0fa 843e
00000100: ac20 113f 9bb1 e03d 8d87 75be 012f 10be
00000110: 1563 f63e 3b5e 623e 2afa 5cbe e2ea a3bd
00000120: 7efb b43a 3245 173f 4117 a7bc 5ce9 8e3d
00000130: 3003 c63e 6b8d 32be f823 163a bc2e 98be
00000140: 9f3e 42be f635 723e 06e6 d93e d675 873e
00000150: 3a9c 97bd eb91 92bc f318 3f3e 17ca 823e
00000160: 6715 21bf d0c9 efbd 6116 a13d 87c5 6abd
00000170: ac4c f8bd 21a7 38bd 4d53 1d3e e430 86be
00000180: e73a ba3e 7b7f 933e 72b0 1d3f e153 b23e
00000190: 2142 973e 94f4 90be 0c0b 39be 2eb1 6ebe
000001a0: ec9e 24be e1c7 11be a20e d13d e9bf fb3d
000001b0: 10d3 803e 0333 843d 8b47 43bd d9c5 3c3e
000001c0: 862c 913e 3ce5 08be ee8a 8dbe 2b73 e93d
000001d0: c218 913e 2ee2 473c abfb 103f 2444 203e
000001e0: 460f 0fbe 4add d13e 4ef4 67be d7cf b6be
000001f0: 5483 abbe 7457 47be d3d5 d13d 5d74 40be
00000200: 9d3e 70bc f1de 07bf b779 0cbe a7c1 e83d
00000210: 3224 dc3d 2a4d b33d 6d3e f53c ed17 40be
00000220: 65f7 893e f466 bebd c7f2 50be 4b2b 083e
00000230: 890a 7fbd f8f5 9bbc e0d9 db3e 8c05 93bb
00000240: d35f 24bd 881b fdbd e615 2a3f 4a82 b6bd
00000250: 1a29 19be d514 a6bd 1c02 1bbe 4257 e63c
00000260: 167c 8e3e 3dc8 fcbd 342d c13d 0102 7b3e
00000270: 4541 98bd 359d b8be b05e 31be 0aaa 0ebe
00000280: 53eb 933c 8dc4 783d bbb9 6abd 9757 233e
00000290: e4a1 3d3e d618 5c3d c5f1 08bd c243 78bd
000002a0: 09c6 ffbc d654 ab3d a6be 67be 2b22 acbc
000002b0: ebad 6abe 4b66 26be 20ae 3fbe 8a82 ba3d
000002c0: 5cc7 08bf 8438 00be 1c9d a73d cd0a 973e
000002d0: cb19 35bc ca22 b0be 63dd 6dbc 677f 4fbf
000002e0: 7c98 97be 2bf0 373d 81d8 8e3e 26d8 423b
000002f0: 40d3 38be 396e f1bd 90f8 3dbe 6d7e d5bc
00000300: fd3b 3a3d 5850 4a3e 7e76 1ebd 0a00 50be
00000310: 25a4 3fbe 079b aebe c847 0abe ed99 1e3d
00000320: d7f3 62bc d559 55bd c6e1 71bd ecd2 303e
00000330: a35c 9ebc 5268 093e e5f0 e4be 09db ac3e
00000340: 7b9b a13e 9656 653d b5f7 f6bd 2976 42be
00000350: a1f5 d0bc b5d2 88be c970 c5bc 7f51 32be
00000360: 264d 4e3e edd9 ac3d ff22 e5bd 2d9e 493e
00000370: 9c4b 433e 8636 11bf 87fe 153e 9428 1dbe
00000380: b6ca 44bd b9fd c83c 5e85 cabd 388f 3abe
00000390: 70eb 97bd 6f80 31bd 0a34 b8bd bb79 083e
000003a0: 50cf f23d 636e 47be 5d7d 9a3e 01c4 5e3d
000003b0: 0f90 223e 19a5 0cbd 53ab 19bd 0b8f 843d
000003c0: aa2e f5bc a00c 4bbe 6295 993e 2c7c 843b
000003d0: c3f1 053e cc3e d3be b149 293e 437e 783e
000003e0: 5ead 5bbe d5ba 1c3e dff6 bc3a b2ae 093e
000003f0: e03a b63d e4ff c83d 17b3 58be fec1 fc3d
0.25407824 -0.24503127 -0.25414568 0.11610544 -0.36700252 -0.14079489 0.15144905 0.24602392
0.028443383 -0.42124748 0.1637995 0.2769414 0.14806093 0.74044734 -0.025841631 0.5601792
-0.01678398 0.07261259 0.25253505 0.079817556 0.39987186 0.16708238 -0.1259503 -0.109523274
0.0574346 0.011665365 -0.08279334 -0.005363534 -0.19620146 0.26464188 0.059517417 0.08956186
-0.037402827 0.40918365 0.28428674 -0.11953822 -0.23723154 -0.2893798 -0.08370304 0.12184653
-0.27959168 -0.36652854 -0.14528784 -0.20894548 0.3960874 -0.034914106 0.007195231 -0.092546865
0.016986325 -0.52993864 -0.16219579 0.48652923 -0.024903735 -0.26645288 -0.2576505 -0.3351574
0.6777693 -0.27570972 0.00564584 -0.47328004 0.19564785 -0.14743209 -0.028341774 0.25972605
0.5669048 0.109713756 -0.2397749 -0.1408043 0.4812247 0.22106259 -0.21579805 -0.08003785
0.0013807861 0.5908996 -0.02039683 0.069781035 0.38674307 -0.17436759 0.00057274057 -0.29723155
-0.189692 0.23653397 0.42558306 0.2645709 -0.07402845 -0.017891845 0.18661861 0.25544807
-0.6292328 -0.117084146 0.078655966 -0.057317283 -0.12123999 -0.04508126 0.15363808 -0.26209176
0.36373064 0.28808197 0.6159736 0.3482962 0.2954264 -0.28311598 -0.1807062 -0.23309776
-0.16076249 -0.14236404 0.10207869 0.12292463 0.25161028 0.06455042 -0.04767565 0.18434848
0.2835428 -0.13368696 -0.27645057 0.1139892 0.283392 0.0121999215 0.56634015 0.15650994
-0.1397067 0.40989143 -0.22651789 -0.35705444 -0.33498633 -0.19466954 0.10245862 -0.18794389
-0.014663366 -0.53074557 -0.13718306 0.11365061 0.10749091 0.08754952 0.029936993 -0.18759127
0.2694656 -0.092969805 -0.20405112 0.13297765 -0.062265906 -0.019038185 0.42939663 -0.004486745
-0.040130448 -0.12358767 0.66439664 -0.089115694 -0.14957085 -0.08109442 -0.15137523 0.02811778
0.27829045 -0.1234288 0.0943245 0.24512483 -0.07434324 -0.3605744 -0.17321277 -0.13932052
0.018056547 0.06073432 -0.057306033 0.15951382 0.18518788 0.053734623 -0.033433694 -0.060611494
-0.03122236 0.083657905 -0.2263132 -0.021012386 -0.22917907 -0.16249959 -0.18718767 0.091069296
-0.534292 -0.12521559 0.08184263 0.29500428 -0.011053513 -0.34401542 -0.014518115 -0.81053776
-0.29608524 0.044906776 0.27899554 0.0029730885 -0.18049335 -0.117886014 -0.1855185 -0.026061261
0.045467366 0.19757211 -0.03868722 -0.20312515 -0.1871496 -0.3410265 -0.13503945 0.038721014
-0.013852081 -0.052087624 -0.059053205 0.1726796 -0.019331282 0.13418701 -0.44715038 0.3376086
0.31563935 0.055990778 -0.12058965 -0.18990387 -0.02550775 -0.26723257 -0.024101632 -0.17413901
0.20146617 0.084400035 -0.111883156 0.19689246 0.19071811 -0.5672382 0.14647876 -0.1534751
-0.048044883 0.024535047 -0.09888719 -0.18218696 -0.07417953 -0.043335374 -0.08994301 0.13327686
0.11855948 -0.19475703 0.3017377 0.054386143 0.15875266 -0.034337137 -0.037516903 0.06472596
-0.029929478 -0.19829035 0.29996783 0.0040431228 0.13080506 -0.41258848 0.16532017 0.24266915
-0.21452853 0.15305646 0.0014416835 0.13445547 0.08897948 0.09814432 -0.21162067 0.123416886

fc3.bias f4 [4]
00000000: db72 023d 6d07 a2bd d80b 7f3d 2cd7 42bc
0.031847816 -0.079115726 0.062267154 -0.011892121
