savedmodels/checkpoint_1545158393_critic_episode115_score30.423.pth (torch_old, 169980 bytes, 5 tensors)

fcs1.weight f4 [256, 33]
00000000: 0f26 55bc 74a8 1a3d ff69 3f3d 5a03 e1bc
00000010: 58e2 a8bd b8ff 54bd d51b d23d cce2 713d
00000020: b04f 8a3d 671f 733d e635 b8bb d30a 80bc
00000030: 64dc 16bd 179a aa3d c12e 973d 153f 12bd
00000040: 0f6c 883d ed65 15bd a237 3abd c3d4 953c
00000050: 55b4 55bc 7799 213b aa82 f7ba f41f ff3d
00000060: 943e 9abc 59ff 0b3d eb55 43bd f3d4 f638
00000070: a5ee 72bd 806a 4ebd 7a34 7bbd be99 253d
00000080: 4a3d 193d 240d 583c a197 82bd b089 563d
00000090: e33c ef3c 2626 203d e80b 1b3d 7d93 f33c
000000a0: d90b fcbc cf6a cf3c 3d28 74bc eecc c93b
000000b0: 8c15 e03c 91c6 363d f009 b13c 3100 5e3d
000000c0: b8e8 653d c3f9 023d 4a9c f33c f0eb 593d
000000d0: 44e4 5ebc 4736 76bc 0f25 543c ccb2 3b3d
000000e0: fdc0 99bb 0339 a8bc ed0a 733c 4d80 6bbd
000000f0: dcac a5bd 4bec 963d 30f6 a33c aae4 883d
00000100: a09a 9d3b c966 8bbc f066 4e3d 6e05 28bd
00000110: 4dd5 3c3d 6ba9 a7bb 6b74 063d a85a 5a3d
00000120: 0983 52bd 6440 35bd 218c f4bb 1e48 d83c
00000130: 6eea fe3c baf5 e7bc d1bf ed3c a99a 37bd
00000140: d5a1 213c a670 acbb 9fa9 e63c e0e1 aebc
00000150: b60a c3bb 16cb 1fbd 0187 5bbd 0ee9 ee3b
00000160: cc3a 4cbd 218c 8cbc 1f6b 963b fdf3 c3bd
00000170: d358 7b3d 7f08 483b 5859 d7bc 402e 51bb
00000180: a34b 833d 1e99 5ebd 8fba 613e 12ce 863d
00000190: bd55 233b 2427 b53d ccc1 043d a603 91bc
000001a0: 8f1f 113d 7610 033d d041 dcbc 974b 5b3c
000001b0: 3082 9ebc c67c 3c3c b4ed b23c 2353 c03a
000001c0: 7c32 2abd 41b7 4a3d 009c 9ebd ee15 a5bc
000001d0: e8eb c7bc e0fe 76bd b48b 6abc c2f2 b93c
000001e0: 5164 123d a406 5fbd a481 f5bc 29de 1dbd
000001f0: 83bb 1abc 06a7 a33c 5acb 293c fc91 45bd
00000200: b8a0 cabc 8379 bd3d 80c6 33bc e08b 563d
00000210: e8b2 b6bc 88b3 113c b4ab 563d bd46 a2bc
00000220: acea 50bd b28b 903d 6ef4 f83c 3e7d cf3c
00000230: edb5 e0bd ee62 893d d63d 9ebc d4ba e53c
00000240: 3807 253c 0550 52bc b253 b0bb d54c c9bb
00000250: 590f cbbc 3e40 92bc f2a0 c9b8 c1df e4bc
00000260: 5405 cd3b 857c d43c 28fc fb3c 102b d1bc
00000270: 7de4 0d3c d4c7 8a3c 791e b5bc 647e 323d
00000280: c393 70bd 58d9 923c 4053 51bd 94a1 883c
00000290: e2d7 91be 3334 c4bd 2ac5 b43d 5c61 a6bb
000002a0: 02e7 95bc afa7 1abd 6ded c9bc 6f77 433d
000002b0: ad8a edbb ee04 88bd 3b88 fe3c 434d 99bc
000002c0: 19c2 8a3a eeb6 3bb9 feba 1f3e 0fcf fdbd
000002d0: a713 d3bc 7c4f c138 0579 edbc 2eeb 30bd
000002e0: b811 c53c 91ff 56bb 4d06 1cbb f3e1 733c
000002f0: e94b 9b3c 7b78 30bd 9b96 f0bb 219d b9bd
00000300: d7fc 6d3d 3e01 c63c a41a 443d 6989 5dbd
00000310: c880 193c 4f5a 6c3d a42b dc3c 9f90 98bc
00000320: 0d6e 26bd de12 0cbc d76e 85bd 8e82 d83d
00000330: bae4 733d 7d3c 603c a76d 25bc 6f44 14bd
00000340: 80ee 3e3c 1371 3dbd 28e1 eb3c ef5d 473d
00000350: 1231 33bd 2b08 46bb 747b 203d 8480 0f3d
00000360: 6844 2b3b d93a a33c 4e7f 92bd 8712 4cba
00000370: e8af dc3c 2d94 f0bc a0e4 023d 0b29 88bc
00000380: 0df9 25bd 7194 bb3d d8bc 263c 6481 43bd
00000390: 2902 f1bd 809d be3a e948 a43d 158c 7abd
000003a0: 5a47 a23c 792b 033e 9b76 69bc 6e3f 98bd
000003b0: 54ea 01bd d61b 5d3d 2827 0a3d f69c be3d
000003c0: 7dac eebc 5d49 9cbd ab45 633d 82ac fbbc
000003d0: 8ebf 563d bea5 cebc f697 90bd 42d3 84bc
000003e0: 43c6 fcbc c684 113c 2459 1d3d 2955 83bc
000003f0: 3d3c 9a3b a55d a63b 4e5d 87bc ec3e dbbd
-0.013009562 0.037758306 0.046731945 -0.027467418 -0.08246297 -0.052001685 0.10259215 0.05905418
0.067534804 0.05935612 -0.0056216596 -0.015630161 -0.036831275 0.083301716 0.073819645 -0.03570469
0.066612355 -0.036474157 -0.04546321 0.01828993 -0.013043483 0.0024658123 -0.0018883545 0.124572664
-0.018828668 0.034179065 -0.04768936 0.00011769859 -0.05930962 -0.050394535 -0.061329342 0.040429823
0.037411965 0.013186727 -0.06376577 0.052377403 0.029203838 0.03909888 0.03785315 0.029733414
-0.030767368 0.025319485 -0.014902172 0.0061584627 0.027354024 0.04462296 0.021611184 0.0541994
0.05613014 0.031976473 0.02973761 0.053203523 -0.013604227 -0.015027589 0.012948289 0.04582481
-0.0046921954 -0.020534998 0.014834148 -0.057495404 -0.08089611 0.07369288 0.020014852 0.06684239
0.0048096925 -0.017016785 0.050391138 -0.041020803 0.046101857 -0.0051166317 0.03282587 0.053309113
-0.051394496 -0.04425086 -0.0074629937 0.026401576 0.031117644 -0.028315414 0.02902213 -0.04482523
0.009865244 -0.005262452 0.028157054 -0.02134794 -0.0059522046 -0.039012037 -0.053595547 0.007290966
-0.04986076 -0.017156662 0.0045904065 -0.095680214 0.061364006 0.0030522642 -0.02628772 -0.0031918436
0.06410911 -0.054345243 0.22043823 0.065822735 0.002492293 0.08845356 0.03241138 -0.017701935
0.035430487 0.03199812 -0.02688685 0.013384721 -0.019349188 0.011504358 0.021841861 0.0014673214
-0.041552052 0.04949117 -0.077445984 -0.020152058 -0.024404481 -0.06030166 -0.014315534 0.022698764
0.0357402 -0.054449692 -0.029969044 -0.038541947 -0.00944412 0.019977104 0.010363424 -0.048234925
-0.02473484 0.09251692 -0.010972619 0.05237949 -0.022302106 0.008892901 0.052409843 -0.019809121
-0.05100505 0.07057895 0.03038999 0.025328275 -0.109721996 0.067083225 -0.019316595 0.028043188
0.010072522 -0.012836461 -0.005381071 -0.0061431923 -0.024787592 -0.017852899 -9.614405e-05 -0.027938725
0.0062567387 0.025938282 0.030759886 -0.02553323 0.008660433 0.016940989 -0.022109257 0.043577567
-0.058734667 0.017925903 -0.051104784 0.016678609 -0.28485018 -0.09580269 0.088266686 -0.005077524
-0.01829863 -0.03775757 -0.024649346 0.047721323 -0.0072491975 -0.06641565 0.03107082 -0.0187136
0.001058641 -0.00017901856 0.15598676 -0.12393009 -0.025766207 9.217762e-05 -0.02898837 -0.043193035
0.0240563 -0.0032806138 -0.0023807466 0.014885413 0.018957095 -0.04308365 -0.0073421723 -0.09063173
0.058102455 0.024170514 0.04787697 -0.054086123 0.009369083 0.057703312 0.026876278 -0.018623648
-0.040632296 -0.00854942 -0.06515282 0.10571776 0.059544303 0.0136862965 -0.010096944 -0.036198076
0.0116535425 -0.046250414 0.028793886 0.048673566 -0.04374797 -0.003021727 0.039180234 0.03503467
0.0026133303 0.019925522 -0.07153188 -0.0007784743 0.026939347 -0.02936753 0.031956315 -0.016621133
-0.040520716 0.09159172 0.01017686 -0.04773082 -0.1176799 0.0014542788 0.08021719 -0.06116875
0.019809414 0.12809552 -0.014249469 -0.07433973 -0.031717613 0.053981625 0.03372875 0.09307282
-0.029134983 -0.076311804 0.055486362 -0.030721907 0.052428775 -0.025225516 -0.07060234 -0.016214017
-0.030856257 0.008881753 0.03841509 -0.016031818 0.004706888 0.0050770813 -0.016523983 -0.10705361

fcs1.bias f4 [256]
00000000: d64a 0f3d 537e 3d3e c527 02bc 8826 403e
00000010: 7963 8ebc 7c65 4cbe caf7 62be 1b36 19be
00000020: 4015 233d ab2b b83d 7fca 9cbd 0dd6 50bc
00000030: 1905 c53d 66b1 3dbd 6222 8d3d cc61 64bc
00000040: 5974 06be 5084 0bbe 9e88 e43d aa83 10be
00000050: 0b98 8f3c 34ae c53b af77 893d 94f7 bb3c
00000060: ce21 3dbd 81c7 71bd 7a4a 7e3d 8337 84bd
00000070: 37a9 553d e92b 1f3d bf21 9a3d 4832 49bd
00000080: 1480 18be f4a7 aebd e377 ac3d d8f0 83bd
00000090: 9dc4 313e 94a6 d93d 148b f1bd e36a 4e3d
000000a0: 38b5 bbbd 3d01 f8bd e7e8 803d de45 14be
000000b0: 9280 47bd 5839 2ebe b0b1 ad3d bb87 bc3d
000000c0: 1434 fa3d a9cb c8bd d702 efbd 8673 b83c
000000d0: 084c 15be 401d 99bd 2d67 32be 5b94 e13d
000000e0: 91ad a2bd 6aa2 6ebd 7734 4b3d 383d 163d
000000f0: ed16 05be d15c dd3d 34b5 30be 22b6 57bd
00000100: c877 14be 7dc9 fdbd 4f91 703d 4e62 083e
00000110: 649a 773d ee91 a8bc 8372 903d 948e fd3d
00000120: 7fc2 36bd 2178 02be 0c4c f93b 7fea 8a3d
00000130: 2edb 703d 527a bebd 16de 423e 6165 f5bd
00000140: 8bcf e83b c050 ef3d f206 89bd 6de3 8c3d
00000150: d740 ef3d d713 a9bd 21ee 053e fdc1 763d
00000160: 2fb6 dc3d 49e7 f83d 0a97 e13d 22fb 333d
00000170: 5a9b 023e 2b7b 58be a6d4 6ebe 408d 923c
00000180: bc5e 433e 1766 d2bd b3ab 2d3e 9f25 78bd
00000190: b110 163c 998d babd 03e0 963a 49ca bcbd
000001a0: b383 04be ed5e 5c3d 8678 0cbd 1e54 423d
000001b0: d312 653d 5f3e bbbd 04eb c73d 336c 433e
000001c0: 18c2 bebd 485b 013e 3822 8f3d e623 1ebe
000001d0: 47b2 9a3c 5e09 38be 3ff9 10bc 4117 0fbe
000001e0: eb67 053e 1e04 153d cd52 0c3e 15bf 43bd
000001f0: 5e67 09be 1147 d53d 0e74 a63c e0da 483d
00000200: ecb3 81bb 06a7 c73d 168e c2bd 73bc 64be
00000210: f924 2a3c 89b3 d03d 4b74 6abc 3025 b8bc
00000220: 71b5 24be 5900 7e3d 83dc 64be 8e04 e6bd
00000230: 99d5 b53d d72e 47be e070 00be b3e7 1bbe
00000240: ff77 f33d a2de 10be 6292 ffbc a3d2 513a
00000250: d379 823d f80f 0a3e a052 253d c48f 2f3c
00000260: ce4e e8bd e6bc c33d 2a27 263e fa01 393c
00000270: 577d cd3d 43fe a0bd eeb3 64bc 58f6 c0bd
00000280: d154 a23d 542f a3bd 192d a0bd 0fa6 3fbe
00000290: 803c eebc 5799 453d de01 ff3d 21af a03b
000002a0: 9aeb c9bc cac1 9e3d 2ccc 783c bf1f 293e
000002b0: ee32 423e 92ac 223e 7bb6 093d 2f3d 2f3d
000002c0: 4d93 1c3e 218c 90bc 0c7e 2e3e c0a9 eabd
000002d0: 56f5 0fbb 9afb 2a3d 61ec e5bd 6ceb 5cbd
000002e0: 293c 89bc 3d32 acbc 77e6 71bd 15c6 31bc
000002f0: 054c 06ba 13ba 5c3e d645 85bd 60c4 033e
00000300: ddc3 bfbc c6ed 223e 0046 373e 51df 23bd
00000310: 07e6 b5bc 605e fdbd 1073 c63a d5ab 10be
00000320: 8722 c8bd 788c 213d 77e2 063d 4ce3 bbbd
00000330: c072 013e da80 473d 4c49 9dbd 48f4 b43d
00000340: 201e 0bbe 672d 52bc 3aa1 533e 14ff a33d
00000350: 0ff8 703d d92f a83c 925f 02bd a1f7 073e
00000360: bd5c e63b 8318 023d 5970 193d bc92 70bc
00000370: 4408 8b3d d6f7 f6bd 37e7 08be 63ed 29be
00000380: 7b1b 363e a4f1 9cbd 52e4 25be 499b 213d
00000390: 9b54 86bd 4159 803d 7cb2 8abd ca54 923d
000003a0: 6ec5 38be 61db 42be 2661 b63d 4b4d 86bd
000003b0: c838 84bc 5e50 0a3d c013 5c3c afcc b3bd
000003c0: e70a 7e3d d6ba ddbd 7609 0c3e 2473 71bd
000003d0: 77da 843d cc4c 223e 2261 e13d 843f b43d
000003e0: 7bdd b03d c407 e0bd d14c a23d c0f7 9fbd
000003f0: 425c 0c3e 274a 8fbd 5abf a43d 5bd3 f93c
0.03498348 0.1850522 -0.007944052 0.18764699 -0.017381417 -0.19960588 -0.22164837 -0.14962046
0.039815187 0.08992704 -0.076558106 -0.012746346 0.09620113 -0.04631176 0.068913236 -0.013939332
-0.1313032 -0.13624692 0.1115887 -0.14112726 0.017528554 0.0060327295 0.06712281 0.022945203
-0.046174817 -0.059028152 0.062082745 -0.064559005 0.05216333 0.038860235 0.07525968 -0.049120218
-0.14892608 -0.08528128 0.08421304 -0.06442422 0.17360158 0.106274754 -0.11794105 0.050394904
-0.09165424 -0.12109611 0.062944226 -0.14479777 -0.0487066 -0.17014062 0.08481157 0.09205576
0.12216964 -0.0980447 -0.116704635 0.022516023 -0.14579785 -0.07476282 -0.17422171 0.11014625
-0.079432614 -0.05826036 0.04961058 0.036679476 -0.12997027 0.10808719 -0.17256624 -0.05266393
-0.14498818 -0.123919465 0.058732327 0.1331875 0.060449973 -0.020577397 0.070530914 0.1238071
-0.04461908 -0.12741138 0.0076079424 0.06783008 0.058802776 -0.093006745 0.19030032 -0.11982227
0.007104819 0.11685324 -0.06690778 0.068793155 0.11682289 -0.08255737 0.1307912 0.060243595
0.10776936 0.12153489 0.110151365 0.04394067 0.12754574 -0.21140735 -0.23323306 0.017889619
0.19079107 -0.10273378 0.1696003 -0.060582753 0.009159253 -0.09109039 0.0011510852 -0.0921827
-0.12940864 0.053801466 -0.034294628 0.0474435 0.055926155 -0.09142756 0.097616225 0.19084243
-0.09314364 0.12632477 0.069889486 -0.15443382 0.018883837 -0.17972323 -0.008848487 -0.13973714
0.13027923 0.03638088 0.13703461 -0.047789652 -0.13418338 0.104139455 0.020319011 0.04903686
-0.003958216 0.09748654 -0.09499757 -0.22337513 0.0103847915 0.101904936 -0.014309953 -0.02247867
-0.1608484 0.06201205 -0.22349744 -0.112313375 0.08878631 -0.19451462 -0.12543058 -0.15225105
0.11888122 -0.14147428 -0.03119773 0.00080041046 0.063708924 0.13482654 0.040362 0.010715429
-0.11343156 0.09557514 0.16225877 0.011291975 0.10033672 -0.078609966 -0.013958914 -0.09421986
0.07926334 -0.079680115 -0.07821102 -0.1871569 -0.029081583 0.04824194 0.12451528 0.0049036895
-0.024648476 0.07751806 0.015185397 0.16516016 0.1896474 0.15886143 0.033621293 0.04278296
0.15290566 -0.017644944 0.1704027 -0.114581585 -0.00219663 0.041743852 -0.11226726 -0.053935453
-0.01675232 -0.02102005 -0.05905768 -0.010850449 -0.0005123022 0.21555357 -0.06507461 0.1286788
-0.023408825 0.15911016 0.17897797 -0.040007893 -0.022204412 -0.12371516 0.0015140492 -0.14128049
-0.097722106 0.039440602 0.032930817 -0.09174213 0.1264143 0.048706867 -0.07679996 0.088356555
-0.1358571 -0.012828208 0.20666972 0.08007637 0.058830317 0.020530628 -0.031829424 0.13278057
0.0070300982 0.031761657 0.03746066 -0.014683422 0.06788686 -0.1205899 -0.13369451 -0.16594462
0.1778392 -0.07663277 -0.16200379 0.039454732 -0.06559106 0.06267024 -0.067723244 0.071450785
-0.18044063 -0.19028999 0.08905248 -0.06557711 -0.016140357 0.03376805 0.013432443 -0.08779275
0.062022116 -0.10826652 0.13675484 -0.058947697 0.06486981 0.15849608 0.11004855 0.08801177
0.08635994 -0.10938981 0.07924808 -0.078109264 0.13707069 -0.06996565 0.0804431 0.03049629

fc2.weight f4 [128, 260]
00000000: 520a ef3c dd98 993b b0ee bf3d 08c6 74bb
00000010: 8cc0 d93d 5e20 94be 2709 a7bd a7f3 b83d
00000020: 20f3 a9bc 49e6 a4bd e937 283d 3fed e73b
00000030: aeb2 67bd a587 783d acc6 0fbd 30b9 f53b
00000040: 2841 b2bb 4006 95bd f880 8b3c b3c5 ff3d
00000050: f50a a13d 9cef b6bc 64a9 193d 7462 39be
00000060: 891a 133d 7019 0fbc f5c4 923d 12d7 87be
00000070: 05a6 883d eef5 36bd 58f2 2f3d ca99 223d
00000080: 85b4 b5bb eb03 763c 2be9 5c3c 5d39 88bc
00000090: 74d4 39bc 6ec9 30bd 92bd 743d f8f6 52bd
000000a0: 765b bebd 7301 5ebd ddfe 41b9 aba8 5abc
000000b0: 64ae e5bb 022f 6d3d 5c1b 0d3d dd9f 37bd
000000c0: 2ec6 83bd cf76 23b9 2bd8 353c 3d1b 8f3d
000000d0: ac8c 2c3d 43f8 a8bd b967 47bb ea2d 86bd
000000e0: 8ec4 8abd e19a 923d ed71 a3bd 4287 103d
000000f0: 0df6 7e3b bd52 ec3d bbd0 5d3d 8d4a 673d
00000100: 36dd 633d e496 20bd d84a 08bd c002 923d
00000110: 77e4 afbd 9fbb d6bd a2e8 abbd d561 343d
00000120: 814e 6bbc d629 923d d212 93bd 15c9 67bd
00000130: 75ba f6bc f6a7 463d 66a5 473d dfe2 8abd
00000140: 72b3 9fbd f5c3 81bc 4648 0fbd 0b70 bebd
00000150: 2027 97bd af1c 783d 42bb e43c 4ac7 eebc
00000160: 797c 3cbd d223 11be a8b4 dd3d 2652 52be
00000170: ce79 2fbc e664 5ebe 4502 4d3d 46ee 55bc
00000180: e90c b43c 6eff acbd 4413 343d 1a10 743d
00000190: d257 b9bd b884 37bd 503b c0bb a426 b13c
000001a0: 51c2 8abd ed78 d43d 37cf c83d e1c3 223d
000001b0: eb80 ad3d d558 723c 6bc0 2ebd 1f50 243d
000001c0: 0f46 903d 1fad 843b 56bd 46bd 7b43 d6bd
000001d0: a15b 7fbd 368f c5bd 301f 55bc b3e1 b7bc
000001e0: 654d 84bc 9836 cc39 55ed 2fbd 4856 93bd
000001f0: 64be 383d dfdb 96bc 1573 d33d 817e 433d
00000200: 9649 873d 9877 8b3d 38cc 11bd e4b1 b83d
00000210: beff d93d ee62 95bd fb2b 4bbe 3d20 873d
00000220: 57bd 693d 5a2c 1c3d 3bcb d83c f8bc e93c
00000230: 6b0c 2dbd f9b3 11be 87c7 92bc ed64 64bd
00000240: e4e8 843d 7d98 8abc 6110 09bc 6022 163d
00000250: 3005 10be d414 71bb f288 8fbd f9d6 333d
00000260: 39e2 1cbd 47da 093e 5db4 b53c 8441 6d3d
00000270: 4be3 f8bd d87b 16bd 0599 9b3d 10fa be3d
00000280: 59ab a6bc c1dc 183e 7cb2 e2bc 432a d7bd
00000290: 24bd 643d e7d9 f4bd e184 313d 0b57 8d3d
000002a0: 2050 9c3d 1ddf 9fbd 00b7 c43d a353 87bd
000002b0: a955 babc 56b5 b4bc 9d43 4f3d b118 3ebd
000002c0: 2994 8dbc a04d bfbc 0435 173c c58e 8dbd
000002d0: d37d 59bd 238e d73c b2de 47bd ff28 963d
000002e0: e17b 56bd 694f ffbd 90c3 d4bd caaa 863d
000002f0: 80f0 2c3d 1d20 943d bf60 e73b e731 80bc
00000300: 67d3 90bd d38e 093e fdf2 2ebb 0d49 e5bb
00000310: 0d80 da3d 7b69 f5bd d046 723d d5ab 183d
00000320: 6c77 a03b 8c8f 023d bf9a 8ebc 17c6 933d
00000330: e619 26bd 1d7b 483d 41f5 003c f74c 273c
00000340: 920c 9bbd ebe2 aa3c ed5f 2cbc 4a6b 483a
00000350: d5e2 b43d 1c64 41bd 4c30 703d da72 213c
00000360: c560 d73c d0e3 b3bd b675 c9bd 839e e9bd
00000370: f3c3 3eba 09af bd3d 888d 9fbd 350d 1dbc
00000380: 535e 7f3c 4265 00be 9340 a43a 4b2e cb3b
00000390: 968a 64bd e22c 8b3c 8afd 6d3d 73f0 303d
000003a0: a2c5 643c 5214 f13b 04a6 acbd 7f35 aebd
000003b0: e2ca ac3d 117c 16bd ded1 42be 58f0 303d
000003c0: 38d8 2fbe 79a8 9a3d 2eff 25bd a0c9 dcbd
000003d0: 6350 debb e352 fe3c aa08 4cbd d7d3 e03b
000003e0: 31f1 0d3d daf6 873d c9ac 3bbd 61d8 613d
000003f0: 15b5 af3c 9314 54bc 753c 46bd 7043 b5bc
0.029179726 0.004687412 0.09371698 -0.003734948 0.106324285 -0.28930944 -0.081560425 0.09030848
-0.020745814 -0.08051736 0.041068945 0.0070778425 -0.056566887 0.060676236 -0.035101578 0.0074988827
-0.005439896 -0.07276583 0.01702927 0.1248888 0.07863418 -0.022331052 0.03751506 -0.18103963
0.035913978 -0.008734092 0.07166473 -0.26531273 0.06672291 -0.04466813 0.042955726 0.039697446
-0.0055452012 0.015015583 0.013483326 -0.016628915 -0.011342157 -0.04316085 0.0597511 -0.05150506
-0.092947885 -0.0542006 -0.00018500858 -0.013345878 -0.0070093144 0.05790616 0.03444992 -0.044830192
-0.06434284 -0.00015589151 0.011098902 0.06987617 0.042126343 -0.08250477 -0.0030426814 -0.06551726
-0.06775771 0.07158447 -0.07980714 0.035285242 0.0038903982 0.115392186 0.05415414 0.05646758
0.055630885 -0.0392064 -0.0332745 0.07129431 -0.08588498 -0.10485005 -0.083939806 0.044038612
-0.0143619785 0.07136886 -0.07181324 -0.05658825 -0.030118207 0.048500024 0.04874172 -0.067815535
-0.07797898 -0.01584051 -0.034981035 -0.09298714 -0.073805094 0.06057423 0.027921323 -0.029147763
-0.046017144 -0.1417382 0.10825473 -0.2053915 -0.010710193 -0.21718177 0.050050993 -0.013057297
0.021978812 -0.08447157 0.043963686 0.05958567 -0.090499535 -0.044804305 -0.0058664456 0.02162487
-0.06775344 0.10374627 0.09805148 0.039737586 0.08471855 0.014791687 -0.042663973 0.040115472
0.070446126 0.004048958 -0.04852041 -0.1046209 -0.062343244 -0.09646456 -0.013007924 -0.022446489
-0.016150186 0.00038950588 -0.042950947 -0.07194191 0.045103446 -0.01841539 0.103246845 0.047728065
0.06605832 0.0680992 -0.03559515 0.09018305 0.10644482 -0.0729426 -0.19840996 0.06597946
0.057065334 0.038128234 0.026464095 0.02853249 -0.04224817 -0.1422881 -0.017917408 -0.055760313
0.06489733 -0.016918415 -0.008365721 0.036653876 -0.14064479 -0.0036786096 -0.07008542 0.043906186
-0.03830168 0.13462172 0.02218073 0.05792381 -0.12152728 -0.0367392 0.075975455 0.093250394
-0.020345377 0.14927961 -0.027672999 -0.10506108 0.05584444 -0.11955624 0.043339614 0.06901368
0.0763247 -0.07806227 0.09605217 -0.06607749 -0.022745924 -0.022059124 0.05060159 -0.046410266
-0.017282562 -0.023352444 0.0092289485 -0.06911997 -0.05309851 0.026312893 -0.048796363 0.07332038
-0.052364234 -0.12466318 -0.10388863 0.06575544 0.042221546 0.072326876 0.0070610936 -0.015648795
-0.07071572 0.1343339 -0.0026695125 -0.0069972337 0.10668955 -0.119830094 0.059149563 0.037273247
0.0048970487 0.03187518 -0.017407773 0.07215517 -0.040552042 0.048945535 0.007870973 0.010211221
-0.07570757 0.020860156 -0.010520917 0.0007645382 0.08832327 -0.047214612 0.05863981 0.009854043
0.02629126 -0.08783686 -0.09836905 -0.11407187 -0.00072771235 0.09261901 -0.07790667 -0.009585668
0.0155864535 -0.12538627 0.0012531452 0.006200587 -0.05579623 0.016989175 0.05810312 0.04319806
0.013963135 0.0073571587 -0.084301025 -0.08506297 0.08437134 -0.036739413 -0.1902537 0.04319796
-0.17172325 0.07551665 -0.04052656 -0.107806444 -0.006784485 0.031045383 -0.04981295 0.006861191
0.034653846 0.0663888 -0.045819078 0.055137996 0.021448651 -0.012944358 -0.0483975 -0.022126883

fc2.bias f4 [128]
00000000: cc8c 093c 35e4 d83b d245 953d 071c 22bd
00000010: 30a1 1b3d 7788 c43d ac24 2cbd 7c3b 953a
00000020: 1111 963c 22a7 4b3c 07ec 7d3d 68d9 883d
00000030: 962c d63d 992d b1bd eafe 10bd 3b31 8dbd
00000040: 9168 863d c95c 97bd 4628 043d 6244 8e3d
00000050: 1b7e 123e 53d9 ae3d 0a76 33bd fb99 79bd
00000060: 549e b53d 74b7 32bb 46ec bd3d ff67 1fbd
00000070: 67e4 063e 8dab 63bd ad13 a83d 4502 153d
00000080: f251 793d 4477 77bd b5fc 783d ccdc b73b
00000090: 3a8b 373c c057 953c 02eb e23d e085 8b3b
000000a0: e613 733c 3be6 2b39 771b b23c 2d85 263d
000000b0: 52de 51bd d83f 093e 62f6 123d 1fcd d1bc
000000c0: c02a 433d ad38 eebb ccf1 94bd 23f0 9cbd
000000d0: a7d9 863d 7118 f9bc 2077 15bd c63a aebd
000000e0: 29ad ae3d 7cff 0abb da33 13bd 07d5 12bd
000000f0: 24dd babd 1fd7 033d fc67 9f3d fd85 e43d
00000100: c84f 6ebc a286 0bbd 8237 243c 1894 8c3d
00000110: 0fc1 9fbc 377d e83d 6904 e0bb e274 31bd
00000120: 3221 763d cf2c fd3c 0911 8a3c 67ef d53d
00000130: 91a3 b33d 6220 a9bd 3408 07bd 90f0 b9bc
00000140: 89ca 323d cd11 a53d 8d89 57bd 699f 003d
00000150: ad66 333c 9f38 023e 3193 a2bc 1994 823d
00000160: d1c2 003e 4992 243e 2c8a 173e bb38 813d
00000170: 4664 9cbc 7e0f d43d 6794 873a 991f a83c
00000180: eb1b a3bd 6d67 32bd e23d 053e 43d9 59bd
00000190: c856 9dbd 6db6 103d 0ffd 20bd 8be9 b23d
000001a0: 539d 9f3b 676f 303b 4a7d 9c3c 38a3 9cbd
000001b0: f1ac c63c 682c a63c b45a e43c 6d8c 2c3b
000001c0: 5b94 fdbb 1123 76bd c859 933d 6511 f1bc
000001d0: ef87 9e3b d664 213d 84c0 aabc dafc 2ebd
000001e0: 3f1b 94bd 3438 1dbd ee2d 5b3d 1939 083d
000001f0: eaa1 e4bc 618d b9bd 458b 49bd 55cb c83d
0.008395385 0.0066190013 0.07288708 -0.03957751 0.037995517 0.09596341 -0.04202716 0.0011385526
0.018318685 0.012429984 0.06199267 0.06682092 0.10457723 -0.08651275 -0.035399355 -0.068941556
0.06562913 -0.07390744 0.03226497 0.06946637 0.14305918 0.08537545 -0.043813743 -0.060937863
0.08868089 -0.002726999 0.09273581 -0.038917538 0.13173066 -0.055583525 0.08206878 0.036379118
0.060869165 -0.060416475 0.060787875 0.005611038 0.011202628 0.018230319 0.110799804 0.0042579025
0.014836287 0.00016393598 0.021741612 0.04065435 -0.05123741 0.1340326 0.0358795 -0.025610505
0.04764819 -0.00726994 -0.072726816 -0.0766299 0.06584483 -0.030407162 -0.03649056 -0.08507304
0.085291214 -0.002120941 -0.03593812 -0.03584769 -0.091242105 0.032187577 0.07783505 0.11158369
-0.0145453885 -0.034063943 0.010023 0.06864184 -0.019501237 0.11352008 -0.006836463 -0.04332436
0.06009025 0.030905155 0.016853826 0.10446053 0.08771432 -0.0825813 -0.032966807 -0.022697717
0.043650184 0.08060036 -0.052621413 0.031402025 0.010949773 0.12716912 -0.019845577 0.06375904
0.12574317 0.16071428 0.14798802 0.063096486 -0.019090783 0.103545174 0.001034391 0.02052288
-0.07964309 -0.043555666 0.13011888 -0.053185713 -0.07682568 0.035330225 -0.039303835 0.08735951
0.0048710494 0.002692187 0.019102711 -0.07648319 0.024252387 0.020284846 0.027875282 0.0026328817
-0.0077386326 -0.060092036 0.07194859 -0.02942724 0.004837982 0.039402805 -0.020843752 -0.042721607
-0.07231759 -0.038383678 0.0535106 0.033257578 -0.027909238 -0.09060169 -0.049205083 0.098044075

fc3.weight f4 [1, 128]
00000000: ba87 aa3d 794b 37be 7418 2a3e 0cb8 49bd
00000010: 61b5 4e3d f607 8d3d fd40 b93d 4777 b73d
00000020: 076f 613d 37b1 23be cd7c 3c3d 82de 0f3e
00000030: e0eb a53d 392f dcbc 522d 64be aa5b cfbd
00000040: 7197 9a3d da34 cebd 866d 263d 6373 3c3e
00000050: 3283 7b3d 5990 b53d b4a5 d2bd 33a1 c3bd
00000060: 5233 a63d b9c0 a2bd 3edc dd3d def3 a3bd
00000070: 94b7 9c3d 8aee 6ebe bdda 623d 749b 11be
00000080: 6d33 473d 3e06 febd 29e5 833d f405 1e3e
00000090: 23e0 8abd 8d87 f73d 2917 623d 610f 62be
000000a0: 0c07 5e3d 0d39 6cbe ca4a f53d 81ea 603d
000000b0: fb94 b1bd bb46 f83d 756e 123e 1d4f 9abd
000000c0: f6a3 db3d b0f9 1ebe a187 4bbe c187 2bbd
000000d0: f85a 553d e990 a0bd 5b11 c0bd 9c3a 7ebd
000000e0: afa9 bc3d 6d4e ffbd f972 48be 83c4 f5bd
000000f0: 86c4 56bd 2330 9e3d 6f15 5a3d cb3a 433d
00000100: 71de a7bd 948d 69bd 2da4 93bd 4b5a 823d
00000110: 0d70 1ebe ace4 943d a651 33bd d6fb 56be
00000120: ad84 fc3d 44d1 633d 2fc1 593d 6e0e 703d
00000130: 1a95 0c3d 9058 4abd f4a5 873d 3f80 193e
00000140: 5dec 8f3d 1ff6 6c3d 648a f6bd f577 533d
00000150: 7501 823d 4fc7 293d 2c45 10bd 856f 9f3d
00000160: 3535 863d 0ff7 603d 54eb 973d c591 633d
00000170: ec4e 4ebe df94 ba3d c0c9 793d d002 4a3d
00000180: f93f 31bd a0da 7ebd 8c10 d83d 7513 03be
00000190: 9e7d 43be 498a 933d 546a 31be 6e2c 563d
000001a0: 8096 873d 55e5 95bd 3b41 bf3d 6a44 51bd
000001b0: 4037 993d 182b 8bbd 9e4c 193d 3099 95bd
000001c0: e34c c5bd 9a9d 73bd a553 993d f3ef a6bd
000001d0: b3f3 eebd 1c7b fa3d 50b0 943d 91d4 543c
000001e0: 83f7 0ebe 98f2 58bd 6847 ba3d 9acd 633d
000001f0: 996e cabd 2096 02be 48a8 8e3d 716f 943d
0.08326669 -0.17899884 0.1661089 -0.049247786 0.050465945 0.06886284 0.09045599 0.08958297
0.055037525 -0.15985571 0.046017457 0.14049724 0.0810163 -0.026877986 -0.22282913 -0.101249054
0.075484164 -0.100686744 0.040631793 0.18403392 0.061404414 0.08865423 -0.102855116 -0.09552231
0.08115257 -0.07946915 0.108330235 -0.08005498 0.07652202 -0.23333183 0.055384386 -0.14219457
0.048633028 -0.12403534 0.06440193 0.15431958 -0.06781032 0.12086401 0.05519787 -0.22076179
0.05420594 -0.23068638 0.119771555 0.05491114 -0.08670994 0.12122866 0.14299949 -0.07534621
0.107246324 -0.15524936 -0.19875957 -0.041877512 0.052088708 -0.078401394 -0.0937831 -0.062067613
0.09212052 -0.124661304 -0.19575109 -0.12000372 -0.052433513 0.07724025 0.053243097 0.04766349
-0.08196724 -0.057019785 -0.072090484 0.06364878 -0.15472431 0.07270178 -0.043779038 -0.20994505
0.123299934 0.055619493 0.05316275 0.05860751 0.03432188 -0.049400866 0.0662345 0.14990328
0.070275046 0.057851907 -0.12038115 0.05162807 0.06347934 0.04144984 -0.035222217 0.077849425
0.06553117 0.054923113 0.07417932 0.05555894 -0.20147294 0.09110426 0.06098342 0.04931909
-0.0432739 -0.062220216 0.10550031 -0.12800391 -0.19090888 0.0720411 -0.17325717 0.052288465
0.066205025 -0.07319132 0.093386136 -0.051090635 0.07481241 -0.06795329 0.037426583 -0.07304609
-0.096338056 -0.059476472 0.07486657 -0.081512354 -0.11667576 0.122305125 0.072601914 0.012990133
-0.13961606 -0.05296573 0.09095651 0.055616 -0.09884376 -0.1275258 0.06965691 0.07247818
