savedmodels/checkpoint_1545158393_critic_episode139_score36.218.pth (torch_old, 169980 bytes, 5 tensors)

fcs1.weight f4 [256, 33]
-0.011807801 0.057954624 0.074371554 -0.042902067 -0.08022455 -0.035192642 0.12922212 0.028493432
0.07230749 0.04664129 -0.019548975 -0.04141717 -0.014954779 0.07867396 0.092426986 -0.008121776
0.07563611 0.013525313 -0.025676673 -0.040227216 -0.05516038 -0.0026774157 -0.012435575 0.11860314
-0.0035449755 0.035894755 -0.045999028 0.019212002 -0.046474963 -0.050394535 -0.080423586 0.040429823
0.026013644 0.009234213 -0.064565115 0.054531746 0.032346547 0.03405066 0.02869913 0.03492424
-0.022908408 0.021904653 -0.008233587 0.009628235 0.030984797 0.041264713 0.015562158 0.051036116
0.055249777 0.024467247 0.04189732 0.032681715 -0.0044067358 -0.005065558 0.005740726 0.042509407
-0.0020822925 -0.016823882 0.018393781 -0.063138895 -0.08529098 0.0730216 0.020014852 0.071237266
0.0048096925 -0.018329851 0.060759585 -0.03506902 0.057177074 -0.0027978476 0.051678546 0.050698012
-0.046530224 -0.025374902 -0.031273827 0.013677385 0.015456955 -0.036801614 0.018477948 -0.04058588
0.012999947 0.009972256 0.02052356 -0.05210841 -0.010524142 -0.06670663 -0.06360766 0.046469722
-0.03089919 -0.022382554 0.01276443 -0.09757386 0.053531416 0.0027469716 -0.012393268 -0.0031918436
0.064414404 -0.054345243 0.23230344 0.06369163 0.0042804917 0.095869154 0.037465155 -0.022572968
0.039952856 0.033238705 -0.016241614 0.013639797 -0.023695182 0.009982819 0.019106157 -0.014316584
-0.045592375 0.05284835 -0.071081094 -0.016753 -0.017218856 -0.059553824 -0.017326599 0.028092945
0.036726806 -0.04286282 -0.030993775 -0.028477972 -0.024861 0.015564383 0.010716137 -0.043014884
-0.02473484 0.09216432 -0.010972619 0.038882405 -0.030115245 0.011397679 0.052136328 -0.018245637
-0.05723019 0.065207735 0.02618574 0.028433455 -0.10825993 0.064987645 -0.019798158 0.028234545
0.012544147 -0.020849582 0.0016856978 -0.0070873075 -0.021648487 -0.015340532 -0.004196259 -0.01763466
-0.0020988348 0.04641053 0.023648614 -0.010546796 0.013976927 0.021698242 -0.030673718 0.04513346
-0.057674177 0.017925903 -0.052660678 0.016678609 -0.30825648 -0.09281685 0.088017695 -0.004463764
-0.017537711 -0.036863945 -0.042478934 0.044059057 -0.0059854058 -0.03605555 0.044557158 -0.014702364
0.002172146 -0.010898012 0.15676191 -0.13427117 -0.028365428 0.009065558 0.024313273 -0.039660275
0.0148925455 -0.007254194 -0.0045130653 0.007276378 0.024039036 -0.03141843 0.004746803 -0.09469725
0.060109712 0.036393624 0.04787697 -0.05609338 0.009369083 0.052351132 0.03182964 -0.023097204
-0.047918424 -0.005313531 -0.05802662 0.06435439 0.0562234 0.03230016 -0.0237179 -0.048796978
0.00046986842 -0.05140502 0.013930912 0.055657905 -0.05254544 -0.004419376 0.0054266085 0.03633805
0.011513755 0.0194708 -0.09131145 0.017457584 0.015637027 -0.0114244595 0.026687048 -0.015058063
-0.039527673 0.08863558 0.014721435 -0.04773082 -0.11472376 0.0014542788 0.07412788 -0.059417613
0.035055466 0.14044838 -0.03483601 -0.07217704 -0.033305153 0.0733885 0.04031067 0.06308503
-0.019263048 -0.06268005 0.0324948 -0.026238475 0.053454384 -0.010746503 -0.056595504 -0.0026122064
-0.0007980583 0.022966554 0.0012236808 0.008874745 0.016888829 0.026529165 -0.04708445 -0.07796858
00000000: 8275 41bc d461 6d3d 1d50 983d 14ba 2fbd
00000010: c54c a4bd 2926 10bd ce52 043e 0f6b e93c
00000020: f315 943d f00a 3f3d 2c25 a0bc 0da5 29bd
00000030: e404 75bc d01f a13d 5c4a bd3d 3311 05bc
00000040: 1be7 9a3d 4699 5d3c e357 d2bc 4bc5 24bd
00000050: daef 61bd 9577 2fbb 95be 4bbc 34e6 f23d
00000060: d252 68bb 6106 133d 7a69 3cbd 7d62 9d3c
00000070: 885c 3ebd 806a 4ebd 1fb5 a4bd be99 253d
00000080: 911a d53c 194b 173c b73a 84bd ae5c 5f3d
00000090: d07d 043d b478 0b3d 701a eb3c b80c 0f3d
000000a0: 6aaa bbbc 6371 b33c 2be6 06bc bfbf 1d3c
000000b0: d4d3 fd3c 3005 293d 6cf8 7e3c 3f0b 513d
000000c0: 974d 623d 896f c83c 869c 2b3d 43dd 053d
000000d0: 6166 90bb fbfc a5bb b31c bc3b 581e 2e3d
000000e0: 1277 08bb 3dd2 89bc 8eae 963c f74e 81bd
000000f0: 0aad aebd 598c 953d 30f6 a33c d8e4 913d
00000100: a09a 9d3b 7c28 96bc 0bdf 783d 88a4 0fbd
00000110: 8232 6a3d 185c 37bb e2ac 533d b8a8 4f3d
00000120: 7a96 3ebd 07df cfbc fc18 00bd 1c17 603c
00000130: 2b3f 7d3c 4abd 16bd 115f 973c 613d 26bd
00000140: bbfd 543c ac62 233c 0621 a83c a16f 55bd
00000150: 736d 2cbc 7c9d 88bd bc44 82bd 0957 3e3d
00000160: 4c20 fdbc 9e5b b7bc e621 513c ced4 c7bd
00000170: c243 5b3d 8906 343b 220d 4bbc 402e 51bb
00000180: b3eb 833d 1e99 5ebd f4e0 6d3e c270 823d
00000190: 5e43 8c3b 0c57 c43d 1075 193d f2ea b8bc
000001a0: 9ba5 233d 4f25 083d 220d 85bc 7579 5f3c
000001b0: 661c c2bc fa8e 233c 8484 9c3c 1b90 6abc
000001c0: 12bf 3abd 8377 583d f792 91bd 963d 89bc
000001d0: 8f0e 8dbc b6ee 73bd 83f0 8dbc 2d23 e63c
000001e0: d96e 163d ed90 2fbd a8e6 fdbc a34a e9bc
000001f0: 4ca9 cbbc c101 7f3c bc92 2f3c 6030 30bd
00000200: b8a0 cabc a6c0 bc3d 80c6 33bc 2843 1f3d
00000210: 3fb4 f6bc 55bd 3a3c e78c 553d e077 95bc
00000220: 346a 6abd a28b 853d 7a83 d63c 47ed e83c
00000230: 62b7 ddbd 3e18 853d bf2f a2bc 224c e73c
00000240: f785 4d3c becc aabc a2f2 dc3a a53c e8bb
00000250: 2b58 b1bc db56 7bbc c680 89bb 9076 90bc
00000260: 9b8c 09bb f818 3e3d bdba c13c 78cc 2cbc
00000270: 7bff 643c 83c0 b13c 7347 fbbc dddd 383d
00000280: c23b 6cbd 58d9 923c b9b2 57bd 94a1 883c
00000290: cbd3 9dbe c316 bebd 9f42 b43d c444 92bb
000002a0: 3fab 8fbc a6fe 16bd 64fe 2dbd 4577 343d
000002b0: 3921 c4bb fcae 13bd 9181 363d 2fe2 70bc
000002c0: 905a 0e3b 938d 32bc 3286 203e 627e 09be
000002d0: 9d5e e8bc b587 143c a12c c73c d072 22bd
000002e0: ddff 733c 97b4 edbb 56e2 93bb af6e ee3b
000002f0: 83ed c43c 9db0 00bd 128b 9b3b a2f0 c1bd
00000300: 9a35 763d 7b11 153d a41a 443d 2cc2 65bd
00000310: c880 193c 246e 563d cc5f 023d 5936 bdbc
00000320: 1c46 44bd 211d aebb 52ad 6dbd 3ccc 833d
00000330: 824a 663d 2c4d 043d 0b4c c2bc 57df 47bd
00000340: ac58 f639 128e 52bd 7b3e 643c 8bf9 633d
00000350: e339 57bd 6ad0 90bb b1d1 b13b 35d7 143d
00000360: 30a4 3c3c 3a81 9f3c 7f01 bbbd 3503 8f3c
00000370: 3919 803c a82d 3bbc cc9e da3c 18b6 76bc
00000380: c5e7 21bd 9286 b53d 2c32 713c 6481 43bd
00000390: 4af4 eabd 809d be3a 5cd0 973d e25f 73bd
000003a0: 5296 0f3d b3d1 0f3e 34b0 0ebd 8ed1 93bd
000003b0: fc6a 08bd b64c 963d cd1c 253d b932 813d
000003c0: 8acd 9dbc 665e 80bd 4419 053d 12f2 d6bc
000003d0: fcf2 5a3d 1a12 30bc b0d0 67bd 8d31 2bbb
000003e0: c934 51ba 5b24 bc3c ea63 a03a 6167 113c
000003f0: 715a 8a3c b153 d93c a0db 40bd fead 9fbd

fcs1.bias f4 [256]
0.015888983 0.18944679 -0.0076387473 0.18729493 -0.01893736 -0.20161171 -0.21869099 -0.16518795
0.047428228 0.06267651 -0.07292081 -0.025604062 0.08139786 -0.040293317 0.058826964 -0.0233564
-0.14707845 -0.13569126 0.10664332 -0.15139829 0.008536882 -0.007987572 0.07316871 0.023891823
-0.04054472 -0.06303764 0.056433845 -0.071452916 0.05286466 0.030208683 0.078838006 -0.050389126
-0.15745085 -0.084472075 0.08939221 -0.07664954 0.16041438 0.08825309 -0.12677023 0.0547294
-0.10401428 -0.13888693 0.062475 -0.14380994 -0.04520109 -0.17708236 0.08389221 0.070979156
0.12146213 -0.1190893 -0.114479095 0.026297083 -0.14645144 -0.07974611 -0.18690152 0.11087497
-0.070381045 -0.06330482 0.054651365 0.044474255 -0.1289367 0.108892106 -0.17576244 -0.063123405
-0.12993878 -0.1300448 0.049654294 0.14280689 0.055960268 -0.024314465 0.052940838 0.12969962
-0.0449758 -0.13036694 0.012545288 0.066014975 0.062726624 -0.09181697 0.19730635 -0.121948354
0.00010833208 0.10991734 -0.06932449 0.0658939 0.10673187 -0.071694136 0.13347374 0.06735534
0.102327935 0.12983444 0.11271274 0.037468605 0.13050416 -0.21627118 -0.23595415 0.0055831517
0.19615942 -0.115548074 0.17678489 -0.07450906 -0.008627458 -0.094671234 -0.0045155035 -0.093265176
-0.12528314 0.03790153 -0.031291027 0.037603877 0.060367297 -0.10295121 0.084956445 0.19783314
-0.09542704 0.12822077 0.07375975 -0.15735722 0.023514813 -0.1863323 -0.009275858 -0.13840672
0.13444614 0.02257927 0.13995087 -0.05144723 -0.14156604 0.1106816 0.01848529 0.05692171
0.0023006136 0.08874215 -0.10453569 -0.22286382 0.010426867 0.10167983 -0.008281719 -0.015561703
-0.17010155 0.053856596 -0.23184538 -0.12236378 0.10213918 -0.2026253 -0.13745858 -0.15595008
0.12334519 -0.13927491 -0.03298669 0.0046100924 0.0664489 0.1187695 0.043390274 0.02219058
-0.1102058 0.09949298 0.16591728 -0.0020217954 0.108677864 -0.08534561 -0.013723591 -0.092413224
0.07490166 -0.077399276 -0.081730545 -0.19447602 -0.024773346 0.04563651 0.128153 0.007944804
-0.025453448 0.056572992 0.018255614 0.16884968 0.19359158 0.16847442 0.025053283 0.03355024
0.14861599 -0.020176055 0.17599225 -0.11818291 0.0007718382 0.031535555 -0.12813996 -0.04835684
-0.018086571 -0.029391546 -0.058896385 -0.013809578 -0.011527022 0.21841161 -0.058302592 0.1366209
-0.036907632 0.16763324 0.18660939 -0.0481264 -0.022097707 -0.12118758 0.0010833201 -0.13880847
-0.10010122 0.017041843 0.025950028 -0.09056096 0.12201273 0.05436506 -0.08008916 0.09269272
-0.16043942 -0.015755955 0.2131746 0.082691714 0.0626012 0.023218775 -0.039958335 0.14013405
0.011063875 0.035145517 0.023815878 -0.016179359 0.0546873 -0.122307606 -0.12720874 -0.16966523
0.1861799 -0.08420338 -0.15179378 0.040452007 -0.08312418 0.05985666 -0.05936651 0.06840376
-0.18961684 -0.19780728 0.0877075 -0.07861055 -0.05847245 0.04239702 0.014890262 -0.09001453
0.06777341 -0.10789729 0.14238547 -0.06341977 0.03505881 0.15777107 0.11621069 0.09769006
0.08213022 -0.11891524 0.07632014 -0.092478275 0.14009894 -0.06885548 0.080281176 0.02414385
00000000: 9d29 823c 57fe 413e 754e fabb 3eca 3f3e
00000010: 8622 9bbc 4d73 4ebe 88f0 5fbe 0827 29be
00000020: 1a44 423d 8b5c 803d 8157 95bd 9cbf d1bc
00000030: ecb3 a63d 9b0a 25bd 8bf4 703d ec55 bfbc
00000040: bc9b 16be a6f2 0abe d067 da3d 2708 1bbe
00000050: 47de 0b3c 4ede 02bc 7ad9 953d c9b8 c33c
00000060: 3812 26bd e119 81bd 2d27 673d e855 92bd
00000070: 9d88 583d 3378 f73c d275 a13d d464 4ebd
00000080: cc3a 21be b2ff acbd 4313 b73d 6ffa 9cbd
00000090: ab43 243e 09be b43d 0ed0 01be ef2b 603d
000000a0: 7005 d5bd 6038 0ebe c9e5 7f3d ea42 13be
000000b0: c724 39bd 1455 35be aecf ab3d 855d 913d
000000c0: 23c1 f83d 17e5 f3bd 0474 eabd fb6c d73c
000000d0: 5ef7 15be ee51 a3bd 1d63 3fbe 6b12 e33d
000000e0: f023 90bd f5a5 81bd 1cda 5f3d a32a 363d
000000f0: fb07 04be d302 df3d 12fb 33be d846 81bd
00000100: ac0e 05be 772a 05be 4d62 4b3d f83b 123e
00000110: 9836 653d 212f c7bc 7ed8 583d facf 043e
00000120: 8b38 38bd e97e 05be c08a 4d3c dc32 873d
00000130: d176 803d 890a bcbd ad0a 4a3e 0fc0 f9bd
00000140: 5830 e338 581c e13d 00fa 8dbd 62f3 863d
00000150: 3d96 da3d 60d4 92bd 57ad 083e 99f1 893d
00000160: 4f91 d13d 52f3 043e f0d5 e63d ae78 193d
00000170: e2a2 053e 3176 5dbe f79d 71be dff2 b63b
00000180: 04de 483e 78a4 ecbd 1907 353e 3598 98bd
00000190: 2e5a 0dbc fee2 c1bd caf6 93bb d001 bfbd
000001a0: 394a 00be a23e 1b3d 052b 00bd 8606 1a3d
000001b0: b343 773d 16d8 d2bd a5fd ad3d c594 4a3e
000001c0: 406f c3bd 4e4c 033e 5a0f 973d 4022 21be
000001d0: 23a2 c03c e5cd 3ebe c5f9 17bc 7eba 0dbe
000001e0: 40ac 093e 29f8 b83c 484f 0f3e 55ba 52bd
000001f0: b0f6 10be 09ad e23d 776e 973c bd26 693d
00000200: e4c5 163b 72be b53d cf16 d6bd 6a36 64be
00000210: 73d5 2a3c 843d d03d 0cb0 07bc 83f6 7ebc
00000220: 1a2f 2ebe bc98 5c3d e068 6dbe dd99 fabd
00000230: 592e d13d 027d 4fbe f1c1 0cbe 61b1 1fbe
00000240: 679c fc3d 159e 0ebe 0d1d 07bd 4210 973b
00000250: 5c16 883d 6c3d f33d 00ba 313d 05c9 b53c
00000260: 94b3 e1bd fac2 cb3d 38e6 293e 1980 04bb
00000270: 8092 de3d aec9 aebd ead8 60bc 2543 bdbd
00000280: 0b66 993d 8383 9ebd 5862 a7bd b924 47be
00000290: 79f1 cabc 59ed 3a3d 8a3a 033e ec2a 023c
000002a0: c083 d0bc 15b9 673d cc8c 953c eee6 2c3e
000002b0: df3c 463e 8f84 2c3e 8b3c cd3c fa6b 093d
000002c0: ca2e 183e 4148 a5bc 5037 343e e209 f2bd
000002d0: 2f55 4a3a 6d2b 013d 1f37 03be d211 46bd
000002e0: 4a2a 94bc 8ac6 f0bc 563d 71bd 9141 62bc
000002f0: d6db 3cbc 4ba7 5f3e b3ce 6ebd 59e6 0b3e
00000300: 752c 17bd 0ca8 2b3e 8816 3f3e 3020 45bd
00000310: 4006 b5bc 3231 f8bd 31fe 8d3a cf23 0ebe
00000320: de01 cdbd 569b 8b3c 2795 d43c 0678 b9bd
00000330: cfe1 f93d e6ad 5e3d c905 a4bd aed5 bd3d
00000340: 3b4a 24be a212 81bc 714a 5a3e 465a a93d
00000350: 0f35 803d 4d35 be3c 5aab 23bd 4d7f 0f3e
00000360: 4145 353c bff4 0f3d 8419 c33c 938a 84bc
00000370: caff 5f3d 697c fabd 0243 02be b9bc 2dbe
00000380: f2a5 3e3e d272 acbd d46f 1bbe 01b1 253d
00000390: 033d aabd 422c 753d 4c2a 73bd 4517 8c3d
000003a0: eb2a 42be fe8d 4abe fd9f b33d 91fe a0bd
000003b0: cf80 6fbd 7fa8 2d3d 49f6 733c 8a59 b8bd
000003c0: c9cc 8a3d 41f9 dcbd 7fcd 113e 39e2 81bd
000003d0: d499 0f3d bd8e 213e dfff ed3d ba11 c83d
000003e0: e433 a83d d589 f3bd bc4d 9c3d 4065 bdbd
000003f0: 1976 0f3e 1a04 8dbd 756a a43d 53c9 c53c

fc2.weight f4 [128, 260]
0.024254397 0.008069719 0.09469389 -0.0032150354 0.10903111 -0.29034567 -0.07089886 0.081080794
-0.014997261 -0.07181106 0.03183734 0.007283383 -0.039830983 0.061619956 -0.034261383 0.0070939893
-0.0069044246 -0.058922246 0.014930182 0.11488397 0.07918669 -0.03736772 0.042514145 -0.17988785
0.041805066 -0.00669607 0.076454364 -0.25555134 0.074523374 -0.036328502 0.041102648 0.039739326
0.013825771 0.027000586 0.019579286 -0.012536538 -0.012950039 -0.0392657 0.07534448 -0.04011122
-0.080439545 -0.04266748 -0.04081127 -0.010945365 -0.003012179 0.058981054 0.034939345 -0.047426444
-0.069518745 0.00024197272 0.03164605 0.078339905 0.06279127 -0.07575129 -0.005795993 -0.060268153
-0.07531723 0.057598487 -0.07824917 0.038843695 -0.010165054 0.11959085 0.05447576 0.056233034
0.02713319 -0.009557907 -0.047778368 0.07483214 -0.087509245 -0.11947656 -0.096676536 0.04429584
9.122514e-05 0.070285186 -0.06348605 -0.053916674 -0.019802473 0.04403029 0.05479348 -0.055304114
-0.07564048 -0.013142221 -0.033004448 -0.11093118 -0.08175181 0.06461809 0.029630426 -0.025832675
-0.049606442 -0.14117305 0.10890338 -0.20698543 -0.011255259 -0.20993157 0.048837055 -0.0019537825
0.017012574 -0.07556982 0.047247384 0.056290764 -0.09568542 -0.0548101 -0.0023971444 0.022391982
-0.06284502 0.098909155 0.1041955 0.043781627 0.0861353 0.021065576 -0.054106046 0.04267009
0.07200858 0.0079282075 -0.05289374 -0.1033949 -0.062025275 -0.0933434 -0.013073078 -0.02199607
-0.012451672 0.0055726888 -0.036482655 -0.06582783 0.052427113 -0.017142883 0.09587115 0.06359644
0.06707845 0.08598463 -0.06318139 0.0963211 0.12084109 -0.07980472 -0.20103157 0.07047368
0.056215107 0.017867543 0.024839463 0.03556911 -0.044178594 -0.15725383 -0.04227161 -0.02148099
0.06669199 -0.0282249 0.005059312 0.035357717 -0.13086309 -0.0055586845 -0.06231159 0.047839645
-0.028153837 0.13724144 0.033159014 0.051730454 -0.11608615 -0.031407963 0.07177175 0.094985396
-0.0025599324 0.14797543 -0.04501364 -0.10389686 0.046381313 -0.1114938 0.04318818 0.06824503
0.083830774 -0.0788658 0.08671587 -0.06433928 -0.021734044 -0.00926868 0.037579816 -0.06383768
-0.018663308 -0.01589034 0.011723838 -0.059936587 -0.046853643 0.030081717 -0.05927227 0.071610846
-0.055731762 -0.12603097 -0.091000006 0.0730295 0.036305066 0.07742595 -0.01490743 -0.011387599
-0.07032647 0.14234562 0.004850258 -0.01237095 0.11498582 -0.12152571 0.055781223 0.041451383
0.01578623 0.04075794 -0.016942723 0.06953537 -0.037471764 0.049131192 0.004935677 0.017128048
-0.07570391 0.021491323 -0.011134172 0.0044798898 0.09313221 -0.04481838 0.06913186 0.015895057
0.025537854 -0.08856826 -0.09958078 -0.099969864 0.0050774203 0.108866505 -0.07036652 0.025735747
0.017698022 -0.13101387 0.006249667 0.023157217 -0.0578523 0.021408765 0.061431315 0.040050104
0.025725042 0.039413664 -0.08011309 -0.076198906 0.082240276 -0.034961283 -0.17678623 0.044344287
-0.17485449 0.07818543 -0.036138617 -0.1172042 0.015075838 0.036658976 -0.045687176 0.008492862
0.040832486 0.06870353 -0.04636355 0.062036276 0.017320573 -0.004262342 -0.04605384 -0.018538881
00000000: 28b1 c63c db36 043c dfee c13d 58b3 52bb
00000010: b44b df3d 30a8 94be 6c33 91bd b00d a63d
00000020: 12b7 75bc ad11 93bd df67 023d 72a9 ee3b
00000030: d025 23bd 3565 7c3d aa55 0cbd b274 e83b
00000040: 833e e2bb 7458 71bd b99d 743c 4948 eb3d
00000050: a22c a23d e50e 19bd 5023 2e3d 8534 38be
00000060: ca3b 2b3d b56a dbbb 1b94 9c3d a0d7 82be
00000070: b69f 983d 32cd 14bd 405b 283d b4c5 223d
00000080: 7d85 623c 5530 dd3c bd64 a03c 0d66 4dbc
00000090: 662c 54bc 12d5 20bd 354e 9a3d aa4b 24bd
000000a0: 7dbd a4bd 18c4 2ebd b829 27bd 3054 33bc
000000b0: fa67 45bb 1e96 713d 8f1c 0f3d 3b42 42bd
000000c0: d85f 8ebd 0fba 7d39 4a9f 013d ac70 a03d
000000d0: b698 803d 7e23 9bbd 50ec bdbb bddb 76bd
000000e0: eb3f 9abd 64ec 6b3d 1a41 a0bd 911a 1f3d
000000f0: 548b 26bc 0cec f43d f921 5f3d 9c54 663d
00000100: 6c46 de3c c498 1cbc 40b3 43bd 9841 993d
00000110: 0c38 b3bd 20b0 f4bd 59fe c5bd 8e6f 353d
00000120: 2050 bf38 aef1 8f3d f904 82bd bbd7 5cbd
00000130: cc38 a2bc 1b59 343d 216f 603d 9186 62bd
00000140: 65e9 9abd 7852 57bc ac2f 07bd e32f e3bd
00000150: 7e6d a7bd 7d56 843d 82bb f23c 0c9f d3bc
00000160: 2030 4bbd ab8f 10be bc08 df3d fdf3 53be
00000170: fa67 38bc 4df8 56be 5d09 483d 080b 00bb
00000180: f45d 8b3c 5ac4 9abd 7986 413d 2591 663d
00000190: b8f6 c3bd 8e80 60bd 6919 1dbb 646f b73c
000001a0: e4b4 80bd e290 ca3d 7364 d53d 5d54 333d
000001b0: b467 b03d b791 ac3c 4d9e 5dbd d5c6 2e3d
000001c0: 3c79 933d 50e5 013c 1ba7 58bd b5c0 d3bd
000001d0: 370e 7ebd d32a bfbd 7730 56bc 1a31 b4bc
000001e0: 1902 4cbc 1a9b b63b d66e 15bd bed0 86bd
000001f0: d0bd 563d 3b6f 8cbc 1858 c43d da3e 823d
00000200: 6d60 893d b618 b03d 3f65 81bd ff43 c53d
00000210: 897b f73d a870 a3bd 38db 4dbe 8154 903d
00000220: d041 663d f45e 923c 217c cb3c eab0 113d
00000230: 9df4 34bd 2607 21be ff24 2dbd e7f8 afbc
00000240: cf95 883d e837 e7bc 96c8 a53b 41d3 103d
00000250: f900 06be a025 b6bb 703a 7fbd 81f3 433d
00000260: e0a2 e6bc 0589 0c3e bfd1 073d 50e3 533d
00000270: 93be edbd a3a5 00bd 11fd 923d b487 c23d
00000280: 8ac4 27bb df86 173e 3960 38bd e0c7 d4bd
00000290: 55fa 3d3d dd56 e4bd 17e6 303d 0dc4 8b3d
000002a0: 78af ab3d 6484 a1bd 1798 b13d 50c4 83bd
000002b0: 980b b2bc a9db 17bc 4bed 193d 54bd 82bd
000002c0: cbe3 98bc 752c 82bc 5715 403c 1180 75bd
000002d0: 9be9 3fbd ef6d f63c 7bc7 72bd b5a8 923d
000002e0: fd46 64bd 430e 01be 365e babd 7e90 953d
000002f0: 9fb4 143d 7f91 9e3d 4b3e 74bc 0d93 3abc
00000300: 5307 90bd 0dc3 113e eaee 9e3b 86af 4abc
00000310: b07d eb3d 79e2 f8bd da7a 643d edc8 293d
00000320: 2052 813c ccf1 263d 77cb 8abc 8f68 8e3d
00000330: fe7b 19bd ca3d 493d 76bb a13b 1f50 8c3c
00000340: a70a 9bbd 920e b03c 1a6c 36bc 0acc 923b
00000350: 1abc be3d 7a93 37bd 0195 8d3d 5a36 823c
00000360: c334 d13c 4763 b5bd 02f1 cbbd 00bd ccbd
00000370: 7d60 a63b 67f5 de3d 521c 90bd c6d3 d23c
00000380: 71fb 903c 8028 06be 02ca cc3b 34b4 bd3c
00000390: 89f6 6cbd 6f61 af3c 679f 7b3d 940b 243d
000003a0: 53bd d23c 3970 213d 5512 a4bd 2c0e 9cbd
000003b0: 976d a83d 9033 0fbd 7307 35be 5ba2 353d
000003c0: 0e0d 33be af1f a03d 1606 14bd c108 f0bd
000003d0: a600 773c b927 163d 7a22 3bbd a525 0b3c
000003e0: f73f 273d 70b4 8c3d b5e7 3dbd c019 7e3d
000003f0: e0e3 8d3c 1eab 8bbb f4a2 3cbd dade 97bc

fc2.bias f4 [128]
0.020144839 0.0050126743 0.08738577 -0.03957751 0.032819755 0.11016846 -0.04551704 0.007511539
0.024564385 0.009077138 0.07101939 0.0751183 0.11896932 -0.09684397 -0.036213715 -0.07340762
0.06699308 -0.07714241 0.038241897 0.07929474 0.15715045 0.09232365 -0.04634284 -0.06748273
0.097465724 -0.0077893175 0.098509334 -0.04560814 0.14604546 -0.051955037 0.09319291 0.03552211
0.06684101 -0.06223028 0.069300205 0.01114984 0.013785306 0.020062143 0.1194065 0.005336008
0.021691341 0.004083813 0.028728176 0.05362171 -0.055206705 0.1465985 0.039650105 -0.029637888
0.04443117 -0.0023914326 -0.067707606 -0.09115762 0.06796616 -0.03533077 -0.041448236 -0.08769079
0.09426761 -0.018039372 -0.035320926 -0.03681301 -0.09136224 0.04126308 0.08472016 0.1250417
-0.01557778 -0.03687328 0.005480652 0.08210122 -0.026086247 0.11872705 -0.009420015 -0.039876744
0.05997235 0.03904189 0.023380358 0.10611578 0.09959035 -0.08509942 -0.032202534 -0.017984886
0.048520748 0.08448405 -0.058978774 0.034512103 0.013309668 0.13708825 -0.018193064 0.06769363
0.13985781 0.1747006 0.16225098 0.063674144 -0.025534526 0.10998314 0.009939508 0.02878835
-0.07964309 -0.04696495 0.14391199 -0.05796803 -0.08173941 0.04102423 -0.036558785 0.10013875
0.012479634 -0.0051798825 0.029479269 -0.08957648 0.03400017 0.019028407 0.029203398 0.00048879057
-0.011265901 -0.06786532 0.07214102 -0.028487382 0.0059854686 0.049325094 -0.017025411 -0.042721607
-0.08029691 -0.04108054 0.059969258 0.044884264 -0.03144883 -0.09328654 -0.043675907 0.10944023
00000000: ca06 a53c 5c41 a43b 50f7 b23d 071c 22bd
00000010: 026e 063d 00a0 e13d 1370 3abd 5b23 f63b
00000020: 403b c93c 47b8 143c 9d72 913d a0d7 993d
00000030: 30a6 f33d 2256 c6bd d554 14bd bc56 96bd
00000040: ab33 893d d7fc 9dbd 89a3 1c3d 4865 a23d
00000050: 0cec 203e 2f14 bd3d fdd1 3dbd 6334 8abd
00000060: 1c9c c73d 883d ffbb 43bf c93d 9acf 3abd
00000070: f18c 153e cece 54bd eddb be3d a27f 113d
00000080: f0e3 883d 2ee5 7ebd 44ed 8d3d d2ad 363c
00000090: c4db 613c 5d59 a43c 658b f43d aed9 ae3b
000000a0: 0ab2 b13c 82d1 853b 5a57 eb3c 70a2 5b3d
000000b0: 6d20 62bd eb1d 163e 2668 223d 28cb f2bc
000000c0: 75fd 353d 95b9 1cbb 49aa 8abd d9b0 babd
000000d0: d831 8b3d ffb6 10bd a0c5 29bd 3b97 b3bd
000000e0: 600f c13d 4ec7 93bc adac 10bd 3dc9 16bd
000000f0: 201c bbbd 7a03 293d c381 ad3d ee0a 003e
00000100: f239 7fbc 7008 17bd 0b97 b33b af24 a83d
00000110: d3b2 d5bc 2b27 f33d 6856 1abc cc55 23bd
00000120: 91a5 753d 64ea 1f3d 2a88 bf3c 3b53 d93d
00000130: 07f6 cb3d 9b48 aebd cee6 03bd 0a55 93bc
00000140: b1bd 463d f905 ad3d ba93 71bd 905c 0d3d
00000150: cb10 5a3c dd60 0c3e 9f09 95bc f5a2 8a3d
00000160: e336 0f3e b7e4 323e 1f25 263e 9767 823d
00000170: c82d d1bc d73e e13d 51d9 223c 8cd5 eb3c
00000180: eb1b a3bd 525e 40bd aa5d 133e e36f 6dbd
00000190: fe66 a7bd 0609 283d aabe 15bd 8c15 cd3d
000001a0: 6177 4c3c 01bc a9bb 827e f13c e073 b7bd
000001b0: c343 0b3d 76e1 9b3c f73b ef3c 2e22 003a
000001c0: 9d94 38bc f9fc 8abd acbe 933d 5f5e e9bc
000001d0: c021 c43b 1c09 4a3d e078 8bbc dafc 2ebd
000001e0: b572 a4bd 1144 28bd 53a2 753d 90d8 373d
000001f0: 7dd0 00bd 030d bfbd 82e5 32bd 3322 e03d

fc3.weight f4 [1, 128]
0.0838812 -0.184142 0.16781174 -0.049247786 0.05271689 0.07218433 0.084623106 0.0886419
0.0524261 -0.16936544 0.04501559 0.1253852 0.083870344 -0.024873095 -0.25698453 -0.092818625
0.0671772 -0.09355006 0.040134415 0.1824054 0.06482796 0.0864883 -0.117631204 -0.10596799
0.0639817 -0.0744986 0.10602681 -0.10065949 0.078850076 -0.26668662 0.058069754 -0.11946385
0.051576056 -0.14993316 0.06163022 0.14654768 -0.07005668 0.11515327 0.054998904 -0.21165918
0.046893653 -0.211475 0.11405938 0.05586364 -0.10059665 0.1237423 0.13298829 -0.07909211
0.0905558 -0.17395827 -0.20976043 -0.021561427 0.050822347 -0.06419928 -0.10981063 -0.104302175
0.094129466 -0.09091856 -0.20080492 -0.119788 -0.034278233 0.07142087 0.041997608 0.04747044
-0.10030874 -0.07321708 -0.06559878 0.06310885 -0.14824612 0.071554966 -0.04979657 -0.2352408
0.13145289 0.05067058 0.05085352 0.06142744 0.032626674 -0.045763027 0.055124026 0.13878675
0.06708871 0.056043144 -0.110486045 0.053376395 0.06253736 0.04275887 -0.0403978 0.08230613
0.06779339 0.058233887 0.07810213 0.048369844 -0.20513956 0.08863566 0.062248584 0.04736014
-0.0432739 -0.06321214 0.10807706 -0.14977102 -0.17646228 0.06872991 -0.18423523 0.05215326
0.06932777 -0.08067615 0.08296595 -0.06725438 0.07504983 -0.10797906 0.033849098 -0.08578061
-0.11196906 -0.06524576 0.07340373 -0.10912058 -0.13043146 0.12257498 0.06503454 0.012990133
-0.15694074 -0.048226938 0.07882599 0.053774875 -0.13016291 -0.13943739 0.05667165 0.070862725
00000000: e8c9 ab3d b88f 3cbe d7d6 2b3e 0cb8 49bd
00000010: aaed 573d 61d5 933d e14e ad3d e289 b53d
00000020: c0bc 563d 226e 2dbe 4462 383d fa64 003e
00000030: 37c4 ab3d a9c2 cbbc 7a93 83be b117 bebd
00000040: 3394 893d 2d97 bfbd fc63 243d 7bc8 3a3e
00000050: 86c4 843d c720 b13d a1e8 f0bd bf05 d9bd
00000060: d608 833d b992 98bd 9624 d93d 9026 cebd
00000070: 267c a13d 268b 88be 8dda 6d3d 77a9 f4bd
00000080: 6a41 533d 1488 19be f86f 7c3d 9810 163e
00000090: e079 8fbd 7ad5 eb3d 8846 613d 2fbd 58be
000000a0: 8f13 403d e78c 58be f797 e93d 46d1 643d
000000b0: 9e05 cebd 9a6c fd3d 152e 083e 0bfb a1bd
000000c0: 5275 b93d 1e22 32be 70cb 56be 97a1 b0bc
000000d0: 182b 503d ea7a 83bd 65e4 e0bd 619c d5bd
000000e0: f3c6 c03d 8333 babd ce9f 4dbe 6953 f5bd
000000f0: 5567 0cbd 1b45 923d af05 2c3d 5d70 423d
00000100: ab6e cdbd d6f2 95bd a758 86bd 363f 813d
00000110: d5cd 17be 698b 923d 7df7 4bbd f7e2 70be
00000120: 969b 063e f48b 4f3d c84b 503d 579b 7b3d
00000130: 8ca3 053d 0372 3bbd bbc9 613d 1d1e 0e3e
00000140: ce65 893d 7f8d 653d 8246 e2bd 35a1 5a3d
00000150: 9613 803d ed23 2f3d 2a78 25bd 1e90 a83d
00000160: 43d7 8a3d a886 6e3d 02f4 9f3d 751f 463d
00000170: 1b10 52be 9d86 b53d 5ff8 7e3d b5fc 413d
00000180: f93f 31bd 5e75 81bd 8157 dd3d 935d 19be
00000190: 87b2 34be 44c2 8c3d 29a8 3cbe a89e 553d
000001a0: b8fb 8d3d 8a39 a5bd 0dea a93d aabc 89bd
000001b0: bab3 993d 2024 ddbd 5aa5 0a3d bfad afbd
000001c0: 0950 e5bd 929f 85bd b254 963d 9c7a dfbd
000001d0: d38f 05be 9708 fb3d d430 853d 91d4 543c
000001e0: 13b5 20be 9c89 45bd 856f a13d 0b43 5c3d
000001f0: 6d49 05be adc8 0ebe 8820 683d 7a20 913d
