savedmodels/checkpoint_1545158393_actor_episode138_score36.181.pth (torch_old, 169478 bytes, 6 tensors)

fc1.weight f4 [256, 33]
00000000: 61d7 a5bc 91bb 19bd c423 e1bd 3183 0b3d
00000010: f322 01bd 99f6 273e 1d9b f9bd d920 1bbd
00000020: 0c65 123c cd24 8abd 715c 05be 976a 013d
00000030: 5d5c 33bd 0638 d73d dc98 343e cdd8 103e
00000040: 8bba 1ebd e824 1bbc 3168 88bd 89ac 5cbd
00000050: 2f70 77ba 8592 643d acf4 313e 25f6 87bd
00000060: 8c35 fc3c 1883 25bd 8b58 68bd 2045 523d
00000070: 84f8 01be 702a 013d c8ff 94bc 7400 e93c
00000080: 17b3 ecbe 2c6d efbd 2f7c f3bd 03ad 23bd
00000090: efa0 c63d 096d e33d 9a67 b13d dfde a93c
000000a0: 0996 923c 670d 0e3d 9a8e 1bbb 60aa aebd
000000b0: cb61 013e fbef cc3d 63c1 283c 9987 b03d
000000c0: 1453 d1bd d07b 9d3d 8366 db3c e6f4 7cbd
000000d0: 35e3 8cbb d8c8 a0bc 6f9d 6abd 187b 023d
000000e0: dc15 c73b 84af 9d3c 87a3 133d 1bad b2bd
000000f0: af50 71bc b395 3a3e ca5b 71bd 080e d83c
00000100: 1a4e 543d 9ab5 80be d832 f5bd f219 35bd
00000110: 7ac7 aebc b50f e43d 6d82 963d 92a5 82bd
00000120: cd1d 3e3d 08c4 90bd d976 0f3d 780c 48bd
00000130: 7813 3fbd 5254 df3b b83c 2e3d 98a9 69bd
00000140: 8e62 543d 89d0 9e3c 5514 ce3d 7f14 d53c
00000150: 26a4 c63b 1ac1 133d 581f 22bd a0b6 873d
00000160: 1467 bc3d a1b9 fabd 170f 953b afc0 73bc
00000170: e02d 17be 24b8 6ebd 40e4 d2bc 2841 063d
00000180: 5821 83bb 7ca1 12bd 8b90 36be e628 f53b
00000190: 3f0e 58bb d17d 853c 24ea 9ebd 204c 883c
000001a0: c85b 8b3d 3d19 a73d 1cca 9cbd 31e7 70bd
000001b0: e651 d5bc 66d9 d0bc 53b5 adbd e2c2 1b3d
000001c0: 74dc 1ebd e09a 2cbe e8ea 8c3c fd3e 3e3d
000001d0: 9298 883d db86 0d3d 490a 77bc fcde 65be
000001e0: 1cd5 783d c68c 44bd b4f9 08bd 7288 87bd
000001f0: f07c 8ebd 0f9e 323e f954 303d cf2a 70bd
00000200: 8c51 63bd ea82 5cbc 38cd 34bd 6ff2 453e
00000210: f516 b03c 803c 98bd 4c7f 2d3d 9f62 a639
00000220: 5bda 8d3d accb cfbd 6b8e e93d 00a5 01bd
00000230: 3f47 47bd 2e94 173d ade4 45bd 4319 bfbd
00000240: 1499 b139 1265 97bc f5f0 f43d 8d6b 34bd
00000250: 7e9c edb9 656c 17bc 15d9 133e 02b6 e33b
00000260: 111a 0ebd 072c 443d a586 4dbb 463d b7bb
00000270: d2cd db3d 6acb 0bbe 35a4 003e b460 46be
00000280: 3c13 6c3c b84f 373c e44c 523e 28a8 743d
00000290: 6c93 eebe 6f69 133d c8ce 013e d93b 77be
000002a0: fe04 5abc 057f c13d 014d 05bd c9f0 f6bd
000002b0: e5e9 dc3d 5432 003b d343 0d3d 86d1 c23c
000002c0: 1652 24bd eb8a edbd cb03 0ebd e57e fbbd
000002d0: f498 6f3d 6bb5 a4bc cecf 37bd d37a 6cbd
000002e0: d473 88bd 4238 16be 41c1 a9bd 7741 f0bc
000002f0: 237f 4cbc 80db 83bd 2552 a03d 22ed fdbd
00000300: 7265 e33c 7f48 073e e88c bf3c 6746 17bd
00000310: b44c 823c b5da 383e c941 4ebd 8c05 113d
00000320: 6f87 393c 2295 013d d776 bc3d 1a35 6e3d
00000330: d945 1d3e 12b5 0cbd f65a 703b 60c8 8f3d
00000340: 50fd a73d 22ba 5abd 5626 f7bc 38bd 96bd
00000350: ad6d dd3d 1ba1 03be 3472 b43d 1dd8 cd3d
00000360: 087e 063e 96b3 243d 1d50 ea3d 06e6 7dbc
00000370: 65f8 1bbd 247a 403d 6e12 c93c 1c11 3fbe
00000380: d92c 9b3d 1f74 be3c 0a5e cebc 90ba 223d
00000390: 60c3 a3bd 3880 463c 08cd 5bbe aacf 483b
000003a0: d499 ca3d b7fd cf3b 1435 fc3c efda 31bc
000003b0: 8515 9bbd f93f e8bb cf53 9a3d 9023 b0bd
000003c0: 89c8 b53b 7050 993d fb5f 69bb 8bbe 0ebc
000003d0: e135 583e 983b d7bc 7ffd ccbd fd85 453d
000003e0: 8650 823b ce5a c23c 3f6a 643d d402 05bd
000003f0: a83a 96bd d22c d8bc 5c9a 253e 4597 a43c
-0.020244302 -0.037532393 -0.1099315 0.03406066 -0.03152747 0.16402663 -0.12187789 -0.037873123
0.008935224 -0.067453004 -0.13023545 0.031595793 -0.043789256 0.105087325 0.17636436 0.14145203
-0.03875212 -0.009469248 -0.06660498 -0.05387548 -0.0009439019 0.055803794 0.17378491 -0.06638745
0.030787252 -0.040408224 -0.056725066 0.051335454 -0.12692457 0.031534612 -0.018188372 0.028442599
-0.46230385 -0.11690745 -0.118889205 -0.03995992 0.096986644 0.11104781 0.086623386 0.020736156
0.017893808 0.03468075 -0.002373612 -0.0852859 0.12634961 0.1000671 0.010300013 0.08619613
-0.10220924 0.07689631 0.02678228 -0.06175699 -0.004299546 -0.01962702 -0.057279047 0.031855673
0.006075604 0.019248731 0.036044624 -0.087244235 -0.014728709 0.18221168 -0.058925427 0.026373878
0.051832296 -0.2513855 -0.11972588 -0.044214197 -0.021335352 0.111358084 0.073490955 -0.06379236
0.04641514 -0.0706864 0.03502545 -0.048840016 -0.046649426 0.0068154717 0.042538375 -0.057046503
0.0518518 0.019386547 0.10062472 0.02601075 0.0060620485 0.036072828 -0.039580673 0.0662663
0.09199348 -0.12242437 0.004548918 -0.014877482 -0.14763594 -0.05828108 -0.025743604 0.03277698
-0.0040017776 -0.035798535 -0.17828576 0.007481682 -0.0032967476 0.016295346 -0.077595025 0.016637862
0.06804615 0.08159111 -0.07655737 -0.05881423 -0.026040029 -0.025494289 -0.084818505 0.03802765
-0.03878446 -0.16855955 0.017201856 0.04644679 0.066697255 0.034552436 -0.015078136 -0.22448343
0.060750112 -0.047985815 -0.03344126 -0.06617822 -0.06957424 0.17443107 0.043049786 -0.058634575
-0.05549769 -0.013458947 -0.044141024 0.19330762 0.021495322 -0.074334145 0.042357728 0.00031735466
0.069264136 -0.10146269 0.11404117 -0.031651497 -0.04865193 0.03700655 -0.048313785 -0.0933099
0.00033874123 -0.018480811 0.119600214 -0.04404788 -0.00045320758 -0.009242152 0.14438279 0.0069491873
-0.034692828 0.04789355 -0.0031360772 -0.005592021 0.107326165 -0.13651815 0.1256264 -0.19372827
0.014408883 0.01118844 0.20537144 0.05973068 -0.4659685 0.03598922 0.12676537 -0.24143924
-0.013306854 0.09448055 -0.03254414 -0.12057645 0.10786799 0.0019561248 0.03448851 0.02378155
-0.040117346 -0.11598762 -0.034671586 -0.122800626 0.058495477 -0.020106038 -0.044875912 -0.05773432
-0.066627175 -0.14669898 -0.082888134 -0.029328091 -0.012481484 -0.06438351 0.07828168 -0.12398745
0.027758334 0.13211249 0.023382619 -0.036932375 0.015905716 0.1805218 -0.050355706 0.03540568
0.011323794 0.031636365 0.092023544 0.05815611 0.15358676 -0.03435237 0.003667531 0.070206404
0.082026124 -0.053400166 -0.030169647 -0.07360309 0.108119346 -0.12854426 0.08810845 0.10050986
0.13134015 0.04021033 0.11441062 -0.015496736 -0.038078684 0.046991482 0.02454492 -0.1865887
0.075769134 0.02324873 -0.025191326 0.0397287 -0.07996249 0.012115531 -0.21464932 0.0030641356
0.09892622 0.006347384 0.030787028 -0.0108554205 -0.07572464 -0.0070877043 0.075355165 -0.08600533
0.0055475873 0.07486045 -0.0035610187 -0.008712421 0.21114303 -0.026273534 -0.10009288 0.048223484
0.0039768843 0.02372494 0.055765387 -0.0324734 -0.073354065 -0.02638856 0.16172165 0.020091662

fc1.bias f4 [256]
00000000: 2d23 8b3d f5ce 4d3e 4034 993b 1319 c33d
00000010: 1594 1a3e d80c 4bbe f7be 3ebe e88d f0bd
00000020: 4714 243d 365b 9b3d 57a8 c5bd 7c19 4d3d
00000030: 1f81 87bc 8bfe 1e3d ca17 2c3e 6de0 143d
00000040: c3c7 febd 1871 38bc 033a 393e 241a 9cbd
00000050: 6e12 863c fc53 fa3d dc0e 5fbd f3ae d2bb
00000060: f2b4 d13d daee 9fbd a26d 123d 6ee7 813d
00000070: 8b1a 1f3d d03c 023e d5b9 c83d f04e 00be
00000080: 0323 48be 61b1 e13c 6495 4bbd ed03 e0bc
00000090: d6f8 353e 4e2b b93d 4339 1dbd 47ee 333e
000000a0: 2a71 463c 56fd 42bd bff7 e8bc f205 5ebd
000000b0: 34a2 02be 0d88 23bd a7b1 2f3e 23a4 ae3d
000000c0: 37b2 2d3e 8ca5 debd 14f6 bfbd cece 363e
000000d0: 9c1e 5cbd 7dd9 65bd baeb 01be f5e2 1a3e
000000e0: 3bc2 82bd 08fc b53d 3651 0e3d 55a4 80bc
000000f0: e33c acbd 6b0c 083e a714 94bd e159 d73a
00000100: b949 ebbd d92e 9f3c bb1b 0b3e 9a0c 363e
00000110: e020 d43c 3b50 b8bc 9c72 d93d 7d72 e83d
00000120: e13c 50bd cf5f 61bd 3792 8e3d 6ce1 2d3e
00000130: 6cc7 813c 7ea4 403d 226c 5e3e 9c16 d9bd
00000140: 669a ca3c 3a4a fe3d f02a ac3c 450a 15bc
00000150: f571 0d3e 83cb 07be b22e a33d 5ccb 5c3d
00000160: 5167 433e b8a2 b23d 9219 243e b485 05bd
00000170: d3ac 3e3d 9ed7 86bd 1eb1 48be 0168 ef3d
00000180: d2c4 093e 47fa b6bc 4a5e 8d3d 748b 063d
00000190: 8bb7 aa3d f56e 27be 36f5 b73d dba4 76bd
000001a0: dedf 0fbe b950 5e3e c887 08bd 0bc2 103c
000001b0: 1762 d0ba 2af0 09be ca9c 3b3e dcae d33d
000001c0: ff32 d5bc 5043 03bc 931b 203d 3fc7 2dbd
000001d0: bdad 5f3d 3680 0abe dde8 39bd 71d7 32bd
000001e0: d8fa 1b3e 0b43 183c 0487 1d3e 2cd0 83bd
000001f0: 9fd1 17be d94f 143e a591 c63d c0a9 303d
00000200: 038e 013a 795a 313e ab6f a7bd d4c0 3bbe
00000210: 331d eb3d 63a9 363e c776 bd3d 0b38 cdbc
00000220: f015 13be f5a2 123d f6f2 4ebe c8b7 24be
00000230: 38d3 213e 2be9 14be 823e 1ebe c1c9 1ebd
00000240: 4539 e43d c845 dcbd a42f 4d3d 7c86 0bbc
00000250: 57d0 8d3d 7239 193e ca89 9c3d 9c6f 523c
00000260: 8f32 8a3b 8c5d 073e bfc2 193e 180e a4bc
00000270: 0768 993d 111b b83b 5ceb a03d 70c3 4fbe
00000280: 78b0 ee3a 1722 04be 2b17 a5bd 7b04 81be
00000290: 5b44 8e3d c3bb adbd ac41 313d 4097 68bd
000002a0: 03be 7f3d 22b2 d03d b2f1 2bbd d5d2 003e
000002b0: 16ca 8e3e 6f3f f63d 813b bb3d e6a5 183e
000002c0: 7700 583e 84f2 4dbd 2b21 313e 1a38 c7bd
000002d0: 604f 2ebc 4852 213e 46d5 23bd 857d 3a3d
000002e0: 2259 1f3d 5b3c 283e d738 c6bc bc68 8cbc
000002f0: b04f 053e 29fd 6c3d cd71 29bd f876 d93d
00000300: a040 f73d c0be 2f3e ba74 343e 2118 893c
00000310: 9253 64bd 7dc8 d439 e2bb 8b3d a87e b2bb
00000320: e270 6aba 7020 c33d 4cdc bb3c 81a8 d3bc
00000330: dd82 82bc 84b7 a93c 970e 093e 5e4c a03b
00000340: 57a6 9ebd dafa 55bc 38a8 4a3e 84de c83d
00000350: 2e12 1a3e 289d 913d 91af af3c fc98 0d3d
00000360: 1f9a b33d 3661 823d fd15 0a3e 3a10 0c3e
00000370: b09b af3d bd5a c8bd 6797 03bd 34f2 73be
00000380: fe56 263e 6a2b 93bd 147c 8dbd 8ba4 4dbd
00000390: 8faf 033d 7215 0fbb 7e33 08be 1abf 913d
000003a0: 170d 40be 0892 5bbe 79ea 023e 9132 f0bc
000003b0: b693 743d 9697 5fbc 1864 b03d af25 d5bd
000003c0: 615e 0ebd f9ad 12be e689 b53d a09c e03c
000003d0: 435c ce3d b58e 9d3d 97b9 073c 67c1 893d
000003e0: 90e2 1a3e a208 79bd 4c3d 6a3e 4067 90bd
000003f0: e002 8a3d 9707 16bd 3c26 ba3d c24b bc3d
0.067938186 0.20098479 0.004675418 0.09526267 0.15095551 -0.19829118 -0.18627535 -0.117458165
0.0400584 0.075857565 -0.09651249 0.050073132 -0.016541062 0.03881697 0.1680595 0.03634684
-0.12440445 -0.011257432 0.18088536 -0.076221734 0.01636621 0.1222305 -0.05445753 -0.006429547
0.10239591 -0.07809229 0.035749085 0.0634297 0.038843673 0.1271851 0.0980107 -0.12530112
-0.19544606 0.027550401 -0.049703017 -0.027345622 0.17770705 0.09041463 -0.038384687 0.17571364
0.012111941 -0.04760488 -0.028438447 -0.05420489 -0.12757188 -0.03992467 0.17157613 0.085274
0.16962515 -0.10871419 -0.093731076 0.17852327 -0.05374013 -0.056115616 -0.12687579 0.1512564
-0.06384703 0.08885962 0.034745418 -0.01570336 -0.08410051 0.13285987 -0.072305016 0.0016429984
-0.11488671 0.019431518 0.13584797 0.17778245 0.025894582 -0.022499194 0.10617563 0.11349962
-0.05083931 -0.05502301 0.06961482 0.16980523 0.015842162 0.047031872 0.21720937 -0.106000155
0.024731826 0.12416501 0.021016568 -0.009096687 0.13813002 -0.13261227 0.07967891 0.053904876
0.19082381 0.087224424 0.1602538 -0.032598212 0.046551537 -0.065840945 -0.19598815 0.11689759
0.13453987 -0.022336138 0.0690275 0.032847837 0.08335789 -0.1635092 0.08982317 -0.060215812
-0.14050242 0.21710481 -0.033332616 0.008835326 -0.0015898374 -0.13470522 0.18321529 0.10336086
-0.026025293 -0.008011654 0.039088797 -0.042426344 0.05460905 -0.13525471 -0.04538809 -0.043662492
0.15232408 0.009293328 0.15383536 -0.0643619 -0.14826058 0.14483584 0.09695748 0.043130636
0.0004942121 0.17319669 -0.08175596 -0.18335277 0.11480179 0.17838053 0.092511706 -0.025051137
-0.14363837 0.03579994 -0.2020987 -0.16085732 0.1580323 -0.14542072 -0.15453532 -0.038766626
0.11143736 -0.10755497 0.05009426 -0.00851595 0.06924503 0.1496332 0.07643469 0.012843993
0.004217453 0.13219279 0.15015696 -0.020026252 0.07490545 0.005618461 0.07857391 -0.20289397
0.0018210551 -0.12903629 -0.080610596 -0.2519873 0.069466315 -0.08483078 0.04327552 -0.05678487
0.06243707 0.10190226 -0.041978545 0.12580426 0.27888554 0.12023818 0.09142209 0.14907035
0.21093927 -0.05028011 0.17297809 -0.097274974 -0.010639042 0.15754044 -0.039998315 0.04552986
0.038903363 0.16429274 -0.024197025 -0.017139785 0.1301868 0.05785862 -0.041368295 0.106183946
0.12072873 0.17162609 0.17622653 0.016735138 -0.05574376 0.00040585166 0.06822945 -0.0054472275
-0.00089432125 0.09527671 0.022932194 -0.025837185 -0.015931541 0.02071739 0.13384472 0.004891916
-0.077465706 -0.013060296 0.19790733 0.098080665 0.15045998 0.07110053 0.021446021 0.034569725
0.08769631 0.06366198 0.1348495 0.13678065 0.08574617 -0.09782932 -0.03212681 -0.23822862
0.16244122 -0.07186015 -0.06908432 -0.05020575 0.032149848 -0.002183285 -0.13300893 0.07116528
-0.18754993 -0.21442425 0.12784757 -0.029320987 0.05971118 -0.013646981 0.08612841 -0.10407578
-0.034757975 -0.14324178 0.08864193 0.027418435 0.10076191 0.07693235 0.008283994 0.06726342
0.15125489 -0.06079925 0.22874945 -0.070509434 0.067388296 -0.036628332 0.09089324 0.09194137

fc2.weight f4 [128, 256]
00000000: 19c0 fdbd f6d7 e93d 74b1 bdbc 7361 bdbc
00000010: 26c6 36be 2637 d8bd 4e71 f63d 3240 073a
00000020: 4348 093d 4645 2d3e 7302 1d3e 59e0 fd3d
00000030: 1f47 2f3e 7cd1 2a3c 2752 74be 23ac e6bb
00000040: 2401 4b3d 5f71 53bd c211 84bd a292 5f3c
00000050: 3d52 f73d dde3 6a3d 901c 773d 41f3 483e
00000060: 9bac 71be 3c8a 02be d418 7dbc 47d7 5ebe
00000070: eef4 b0bd 0c38 f83d 6ffb 69bd c830 5a3e
00000080: f49e 003e 5364 993c e7bc 63bd 09f7 3cbc
00000090: 1639 1e3d f57a f5bd 85e3 6cbc 69f5 c33d
000000a0: 1044 47be b8c7 bcbe 9ca2 413d 89cb 803c
000000b0: db0e 90bc a772 a43d 18a3 7cbb 9be8 663d
000000c0: 84e5 7fbb 633f 6e3d 7e67 903d f9a7 0e3b
000000d0: 30da 30be 6181 bcbd 6bc2 e73c 422e 5b3e
000000e0: 9e24 cbbd 5355 fbbd 6e51 873d 0ec9 f9bc
000000f0: ca14 83bd c572 113e 314e 4a3d f75b 373d
00000100: 5fe1 573e 0daf 07be a544 e23d 08ae b83d
00000110: 231f 113d 9a4b 5abc 100f a43d 833e 8a3d
00000120: 8320 eb3c 89b1 783e 82bc 36bd a39d e83d
00000130: a841 bfbd 4894 ce3d b1d9 b63d b7f1 d43d
00000140: ad24 65be ea12 0bba af3f bd3d a173 c43d
00000150: 7c58 4ebc 6cd8 ab3c 3c28 c7bc f714 283e
00000160: 00b7 f8bb 3c79 0dbe 902b 0c3d 08f6 253d
00000170: 4c2b e33c 1b6a 943c 1009 0dbe 1083 a0bd
00000180: 3bcc ec39 0702 4d3d ae03 483d d533 273d
00000190: 1b12 2dbd f6ee 7b3d 2fcd 35b9 4015 183d
000001a0: d30f c83d 450b e03d 99b7 bd3d 16a7 2d3e
000001b0: 789a 083d f597 eb3d b676 073c a2be ef3d
000001c0: ef17 17bd 5067 f13d 08be 583d 1365 3fbb
000001d0: 2edb 063e 48ff 133d 6f3c e2bc 3da0 f83b
000001e0: 401d 433d 9122 c83d 07fd c9bd 527a dbba
000001f0: a2eb eabd 2e95 c83c 6094 d03c d04b 403e
00000200: 032e d4bd ada0 59bd 18ba ab3b aec3 bb3d
00000210: 4e4f 413d 287d d0bd 4619 debd 2f51 293e
00000220: e167 383e 5278 833e 0050 843d 3e30 eb3d
00000230: 0d43 debc 4880 b03d a316 8f3d 8e57 93bb
00000240: 5086 bf3d f871 5cbe a4f8 d5bd 2972 e7bd
00000250: c34a e6bc 0a9a b23d 4eb8 bdbd b1d9 29bd
00000260: c022 4bbe 6b92 483e 153a 0a3d f9d4 3cbb
00000270: 7dfb 65bd a8fc 253e f77b 08bd f4bf 133e
00000280: 6d00 03be ad12 48bd d700 89bc 7938 953e
00000290: be2b c0bd 103f 703e c19d 38bd e9ae 293d
000002a0: 55ef a7bd 0773 82bd c292 34be 3d17 4b3d
000002b0: 7612 9f3d fd6d 0dbe 80f4 593d cff0 7f3d
000002c0: f9f5 043e 80fb 053e 7596 523e 1b0d db3d
000002d0: 4ad0 82bd c997 673d 9279 b6bc a339 37be
000002e0: de91 a4bb dc02 c6bc 93c2 e73c df57 673d
000002f0: 8283 63bd 3b2f b9bc cac7 193e a63a d23c
00000300: af6e 313e 226d f8bc 62d2 90bd 143b c53c
00000310: 11b8 92bd 1412 edbd 81dd f73d 8574 4dbe
00000320: c4b6 9bbd d9c8 fb3c 6f4a 7e3d 3933 213d
00000330: dd80 5e3e 127c e23d 7225 41bd e0ee 41be
00000340: 8ff6 0abe de54 19bc ed6d 93bd bd3e 523e
00000350: b9c4 8d3d e7fd 16bd 378a 86be 4321 bd3d
00000360: 61b6 073c 3d1b 3a3b bef4 fa3c 377c 5cbd
00000370: b042 453d d654 153e 41c1 08be c2ce 0ebc
00000380: d0eb 903d 00ba 13be a231 fabc 1d97 033e
00000390: e95c ef3c ae5a fbbc 38a7 ca3d aac7 233e
000003a0: fdea ac3d 1cc5 423e e2c8 88bd c04b 233e
000003b0: 1428 653d 5970 81bc 5e59 ddbd ed64 5e3d
000003c0: b05b 373e 150d 00be 0f60 62bb ac5e 7ebc
000003d0: c35a 603c f42a 01be 7b2b c6bd 71b5 50bd
000003e0: f773 86bc fb55 3abc 256a 9f3c 8164 183d
000003f0: 4835 8a3d da5a a13d 3694 3b3e 0b6b 053e
-0.12390155 0.114181444 -0.023155905 -0.023117756 -0.17849025 -0.10557394 0.1203333 0.0005159407
0.03351618 0.16920957 0.15332966 0.123963065 0.17116974 0.0104259215 -0.23859464 -0.0070395633
0.049561635 -0.05162179 -0.064486995 0.0136458 0.120762326 0.057346214 0.060329974 0.19624044
-0.23601 -0.12748045 -0.015447814 -0.2176181 -0.08640467 0.12120065 -0.05712455 0.21307671
0.12560636 0.018724596 -0.055600073 -0.011533507 0.03862866 -0.11986343 -0.014458542 0.09568293
-0.19459558 -0.36871123 0.047274217 0.015722053 -0.017585209 0.08029681 -0.003854936 0.056374174
-0.0039046714 0.05816592 0.070509896 0.00217676 -0.17270732 -0.092043646 0.028290948 0.21404365
-0.099190935 -0.12272134 0.06607328 -0.030491378 -0.064004496 0.14203937 0.049390975 0.04476544
0.21082066 -0.1325037 0.11048249 0.09017569 0.035430085 -0.013323689 0.080106854 0.067502044
0.028702026 0.24286474 -0.04461337 0.11358192 -0.09338695 0.10086876 0.0892824 0.10397666
-0.22377272 -0.00053052476 0.09240662 0.09592367 -0.0125943385 0.020977221 -0.024311177 0.16414247
-0.0075901747 -0.13815778 0.034221232 0.040517837 0.027730606 0.018117001 -0.13772988 -0.07837498
0.0004516559 0.05005076 0.048831634 0.040820915 -0.042253595 0.061507188 -0.00017337942 0.03712964
0.09768643 0.109396495 0.09263534 0.1695827 0.033350438 0.11503593 0.008268049 0.11706282
-0.03688806 0.117872834 0.052915603 -0.0029204532 0.13169548 0.036132127 -0.027616708 0.0075874613
0.047635317 0.09772218 -0.09862714 -0.0016744828 -0.11470725 0.024485197 0.025461376 0.1877892
-0.103603385 -0.053131748 0.00524069 0.09168182 0.04719477 -0.10180122 -0.10844664 0.16534875
0.18008377 0.25677735 0.06460571 0.11483811 -0.027131582 0.08618218 0.069867395 -0.0044965213
0.0935179 -0.2152785 -0.10447815 -0.11301071 -0.028111821 0.08720787 -0.09263669 -0.041467372
-0.19837475 0.19587104 0.033746798 -0.0028813465 -0.05614804 0.16209662 -0.033321347 0.14428693
-0.12793131 -0.048845936 -0.016724033 0.29144648 -0.09383343 0.23461556 -0.04507232 0.041426573
-0.08199946 -0.06369596 -0.17634109 0.04958271 0.07767193 -0.13811488 0.05321169 0.062485512
0.12984456 0.13084221 0.20565207 0.10695859 -0.06387384 0.056541238 -0.022274766 -0.1789308
-0.0050222715 -0.024171285 0.028291022 0.056480285 -0.055545337 -0.022605529 0.1501762 0.025662731
0.17327379 -0.030325476 -0.07071377 0.024076022 -0.07164014 -0.11575714 0.121027954 -0.2006398
-0.07603219 0.03073542 0.062082704 0.03935549 0.21728845 0.11058821 -0.04715485 -0.1893878
-0.13570617 -0.009358613 -0.07198701 0.20531745 0.069222875 -0.036863234 -0.26277325 0.0923486
0.008283229 0.0028397583 0.03063428 -0.053829398 0.0481593 0.14583144 -0.1335497 -0.008716287
0.07076228 -0.14426422 -0.030541245 0.12850614 0.029219108 -0.030682888 0.09895176 0.15994135
0.08443258 0.19020504 -0.0667894 0.15946865 0.055946425 -0.015800642 -0.10808061 0.05429547
0.1790607 -0.1250499 -0.0034542119 -0.015525501 0.013693514 -0.12614042 -0.09676262 -0.050954286
-0.016412718 -0.011373038 0.019459793 0.037205223 0.06748444 0.07878657 0.18318257 0.13029115

fc2.bias f4 [128]
00000000: e9a8 103d 87ae 053d a8d9 66bd 6fd9 253d
00000010: 226e 5abd dd23 2b3d 04ab dcbc 1399 583c
00000020: 5f6a 88bc a1ca b7b9 b152 833c 164b a2bd
00000030: f8fa 09bd c081 ae3b af01 26bd c63a 5d3d
00000040: d911 e03c 862f 853d 9064 0cbd 6def fdbc
00000050: bf56 d8bc 83c0 08bd 8186 76bd d979 aebb
00000060: 6693 11bd cd50 cfbc c0a5 5bbd 7700 1b3d
00000070: e4f0 853c 3a9e 44bc 30b0 01bb 35ff c5bc
00000080: 53fe 81bd 8c5e 3bbd bda9 b7bd d2c2 75bb
00000090: 15b5 3bbd 7649 a6bc fd23 a8bc dc4a 4ebc
000000a0: 936e 4e3d 4b4d 8dbc fa23 193d b08d f2bc
000000b0: cbe9 dbbc 67cb 653d 6722 cc3c bb2a 14bc
000000c0: ed10 4c3d 8538 ae3d 4056 f23b bdc7 5ebd
000000d0: 684c c53b 67db d2bc b03f 18bc 8833 c53d
000000e0: 07c1 aabc 59b8 a33b a593 a73d 079c fabb
000000f0: 3671 0c3c 84d1 0d3d 9086 663b 85bf 963d
00000100: 9424 8abd e44f 8d3c acb9 8b3b e511 a03b
00000110: 449a 683c 07f5 903d c2f1 923c 747f 743d
00000120: 7be1 ff3c 0029 673d a7f9 4bbc d393 453d
00000130: 55d8 79bd 3826 443d fc63 323d a950 053d
00000140: a2da bdbc b1cd 98ba bd8d 693d d0c4 a3bb
00000150: 2e42 12bd d60b 2ebd 673b 603b 52c2 aa3c
00000160: d015 b73c dc9e a33c 1f51 8f3d d067 b43c
00000170: c2da bcbc 53f3 8bbd 848a dabc b73f ccba
00000180: 6fc5 3d3c fd09 713d d2b2 a8bb 2312 483b
00000190: 49c3 65bd 3663 ec3c d8a4 b2bb dd5a bebb
000001a0: e80a 2b3d f9be 963c 0eea 37bd e8ac 923d
000001b0: 0c81 663d 97d4 2dbb 00ac c7bc fc66 31bd
000001c0: 4790 a33d 723e f0bc 06b2 913d 4443 b93b
000001d0: 16c1 b13d 91e4 5f3c f46d f83b f8e0 4d3c
000001e0: 5a32 95bd 1bd9 243d 0017 4bbc 072d 703d
000001f0: 3863 0cbd 54d6 a3bd 9894 43bd ea8c 30bd
0.035317335 0.032637145 -0.056359917 0.040490564 -0.053327687 0.04178225 -0.026937015 0.0132200895
-0.016652284 -0.0003505545 0.016030641 -0.07924478 -0.033686608 0.005325526 -0.04052895 0.05401113
0.02735226 0.06503205 -0.03427559 -0.030997956 -0.026408551 -0.03338672 -0.060186867 -0.005324584
-0.03554096 -0.025307084 -0.05362487 0.03784224 0.016350217 -0.012000615 -0.0019788854 -0.024169544
-0.063473366 -0.045744464 -0.08967922 -0.0037500155 -0.04582699 -0.0202987 -0.020524973 -0.01259109
0.05039842 -0.01724877 0.037387826 -0.029608577 -0.02684488 0.056102183 0.024918748 -0.009043391
0.04982083 0.08506874 0.0073955357 -0.054389704 0.006021071 -0.025739385 -0.009292528 0.096289694
-0.020843996 0.004996341 0.08182458 -0.0076479944 0.0085719135 0.034623638 0.003517542 0.07360748
-0.06745258 0.017250009 0.004264077 0.0048849457 0.014196936 0.07077985 0.017937545 0.05969186
0.031235447 0.056435585 -0.0124496585 0.04823668 -0.060997326 0.04788801 0.043552384 0.032547627
-0.023175541 -0.001165798 0.057019938 -0.004997827 -0.035707645 -0.042491756 0.0034215094 0.020844612
0.022349268 0.019973211 0.069978945 0.022022158 -0.02305353 -0.0683352 -0.026677378 -0.0015582953
0.011582716 0.058847416 -0.00514827 0.0030528388 -0.05609444 0.028855901 -0.00545178 -0.0058091716
0.041758448 0.01840161 -0.044900946 0.071618855 0.056275412 -0.0026524418 -0.024374008 -0.043311104
0.07986503 -0.029326651 0.071140334 0.0056537706 0.08679406 0.013665334 0.007581467 0.012565844
-0.072849944 0.04024611 -0.01239562 0.05863669 -0.03427431 -0.07999864 -0.047749132 -0.043103136

fc3.weight f4 [4, 128]
00000000: 3ee8 883e a5ad 80be 7c86 62be 451c bb3d
00000010: 7b76 b1be fbac 1cbe 2e08 1a3e 37ce 7d3e
00000020: 9dfb 263c ad84 cebe 2a67 173e 7e55 863e
00000030: f880 143e 95bd 343f 5cd8 c6bb bfab 0b3f
00000040: d7a9 8dbc 958d 953d 1502 6d3e d2be 9d3d
00000050: b334 bb3e 09ae 2b3e 8a4e cabd 2a0e cebd
00000060: 8f27 243d 6c31 9b3c 4a20 a7bd 2307 a23b
00000070: 69b7 41be f794 883e 89ca 8b3d 9e80 aa3d
00000080: 7957 aabc 0019 d43e c620 9d3e 985d 01be
00000090: a215 69be 4699 94be 2083 bebd 9bb9 023e
000000a0: 0c6e 7bbe ab2f b6be 0891 0bbe 0709 57be
000000b0: c3d6 cc3e c560 b9bc d4cc 963c 1323 c1bd
000000c0: 2c43 0d3c 5c68 0bbf ff83 22be 0cff f53e
000000d0: 4443 ccbc 6041 8ebe ead8 81be 2c29 b6be
000000e0: 99c9 243f 3e31 8abe 92a6 a1b6 f7ef f1be
000000f0: 0350 253e 206c 14be 2f7f b0bc f65e 853e
00000100: 1d06 fe3e 8623 c63d e729 7bbe fdec f1bd
00000110: b997 e83e 6846 3b3e c76c 5fbe 5ee3 90bd
00000120: cdea b7bb 0afd 0a3f 7620 a9bc 100c 8b3d
00000130: 5296 b83e 6d66 34be 77d3 c3bc e6be 8fbe
00000140: 5f1b 51be 48c4 7b3e df36 d73e 581b 873e
00000150: 3bbd 85bd 312e 32bc da73 2b3e 24af 813e
00000160: 0009 18bf ccd1 a8bd 844c 983d 4406 58bd
00000170: 3d52 fdbd a80d e1ba 8fcf 413e b76a 68be
00000180: 817e b63e bf60 933e 1222 1a3f 6128 b43e
00000190: c5c2 8b3e 86a9 8cbe 0715 38be 22d5 71be
000001a0: 1f71 1dbe e471 04be 6c29 9b3d eb9e cb3d
000001b0: c6cd 763e 990e 823d c0c9 11bd 9fd1 303e
000001c0: 58ae 913e 8d5b dabd c8c2 8ebe 1f10 003e
000001d0: e461 913e 614e fd3c 050a 0a3f 7021 203e
000001e0: 321a 16be f863 ce3e a810 64be cddd b6be
000001f0: 1f1c a6be 04bf 24be b574 8b3d 2604 53be
00000200: 0bf4 aebc 0b44 01bf c8f7 13be 158d ff3d
00000210: d5e7 e63d d979 c23d 8bfc 6e3d a84e 39be
00000220: ca72 703e 30bb cabd febf 31be 4256 053e
00000230: efad 87bd c37e 3fbc e0e7 c73e 2249 85ba
00000240: 65dc 1dbd 2bbe 03be f7fb 2c3f e4cf afbd
00000250: eb4b 2cbe 07c6 9cbd 9764 27be e351 033d
00000260: e19e 8e3e ea47 02be 3569 c23d 4f4b 793e
00000270: 4566 99bd bdd3 b8be 29b2 34be 8d16 0ebe
00000280: 68d6 a73c 0e26 343d 24db 99bd 073d 283e
00000290: 0c86 303e c089 4e3d 5c55 0ebd c26c 72bd
000002a0: c477 01bd e0fb 9b3d 636b 6abe 9ab6 9fbc
000002b0: 7eb4 62be 8f01 12be 395f 2bbe e081 bc3d
000002c0: 46ed 01bf 06fc e7bd e91b b43d 1837 8d3e
000002d0: 4534 3ebc b219 a1be a39a 3fbc 0ef0 4bbf
000002e0: ef5d 99be 8243 1b3d b1d8 913e f5cf 6c3b
000002f0: 6748 12be 8b98 e7bd d4e5 3fbe 0ca6 e7bc
00000300: 2f28 323d 971d 543e 27c1 27bd 4afa 49be
00000310: 47bc 13be 7cc5 a3be d5e4 0fbe 984a 213d
00000320: 1866 5ebc 8fb6 88bd b380 7bbd 56b2 373e
00000330: 7433 23bc d621 073e e488 dcbe 0a7a a43e
00000340: 41c6 a53e bfb4 693d 1a76 e6bd 1338 5cbe
00000350: 964c c2bc 9119 8bbe 58a2 a53b 1a45 0cbe
00000360: 2bd5 363e e76b 723d 68ed eabd 676c 2e3e
00000370: 51a7 323e 1f75 14bf ea0c 103e cc2f 08be
00000380: 20cf 54bd fe7a c13c 0923 c9bd a2e8 3fbe
00000390: 487f d2bd bbdc 1abd a0f8 b6bd 50b2 073e
000003a0: b934 ec3d 564f 4cbe 302d 993e e506 223d
000003b0: 5301 183e 0cb3 01bd ce30 3dbd b973 ad3d
000003c0: 4765 04bd fa1f 56be 0b6a 983e a65d a03c
000003d0: d3d7 033e 1e7b d8be ea39 273e 3986 703e
000003e0: feea 54be 69f5 1a3e 90f9 f5b9 3574 083e
000003f0: 6592 ab3d f425 9a3d 468e 45be a395 f23d
0.26739687 -0.2513248 -0.22121614 0.09136251 -0.34660706 -0.15300362 0.15042183 0.24785696
0.010191825 -0.403356 0.14785448 0.262371 0.14502323 0.7060178 -0.0060682725 0.5455894
-0.0172929 0.07302395 0.23145325 0.07702412 0.36563644 0.16765608 -0.098782614 -0.10061295
0.04007679 0.018944465 -0.081604555 0.0049446984 -0.18917622 0.2667615 0.0682574 0.08325313
-0.020793663 0.41425323 0.30689067 -0.1263336 -0.22762159 -0.29023188 -0.09302354 0.12766115
-0.24553698 -0.35583243 -0.13629544 -0.20999537 0.400076 -0.022629151 0.018408217 -0.09430518
0.008621972 -0.54456115 -0.15870665 0.48046148 -0.024934418 -0.27784252 -0.25360805 -0.35578287
0.64370114 -0.26990694 -4.8175652e-06 -0.4725339 0.16143803 -0.14494371 -0.02154502 0.26049012
0.4961404 0.09674744 -0.24527703 -0.1181278 0.45428255 0.18288577 -0.21818839 -0.07074617
-0.005612707 0.54292357 -0.020645361 0.0678941 0.36052185 -0.17617197 -0.023904545 -0.2807533
-0.20420597 0.24586594 0.4203405 0.2638805 -0.065302335 -0.010875271 0.16743413 0.25328934
-0.5938873 -0.082431406 0.07436469 -0.05274035 -0.12369201 -0.0017170208 0.18926834 -0.22696958
0.3564339 0.2878475 0.6020824 0.35187057 0.27297035 -0.27473086 -0.17976771 -0.2361646
-0.15375184 -0.12934071 0.0757626 0.099424206 0.24101934 0.063504405 -0.035592794 0.17267464
0.28453326 -0.10661993 -0.2788298 0.1250615 0.28394997 0.030921163 0.5392154 0.15637755
-0.1465843 0.40310645 -0.22271979 -0.35716096 -0.3244333 -0.16088492 0.068093695 -0.20607051
-0.021356603 -0.5049445 -0.1444999 0.12478081 0.11274687 0.09495897 0.058346312 -0.18096411
0.23481289 -0.098989844 -0.17358395 0.13021186 -0.06624972 -0.011687937 0.39044094 -0.001016889
-0.038540263 -0.12865512 0.6757197 -0.08584574 -0.16825835 -0.07654958 -0.16346966 0.032060515
0.2785559 -0.12722746 0.09492723 0.24345134 -0.074902095 -0.36099043 -0.17646088 -0.1387579
0.020487979 0.043981604 -0.07512501 0.1642953 0.17238635 0.050424337 -0.034749374 -0.05918575
-0.031608358 0.07616401 -0.22892527 -0.01949625 -0.22139165 -0.14258407 -0.16735543 0.09204459
-0.50752676 -0.113273665 0.08794386 0.27581096 -0.011609142 -0.31464916 -0.011694583 -0.7966317
-0.29954478 0.037906177 0.28485635 0.0036134694 -0.14285432 -0.11308392 -0.18740016 -0.02827742
0.043495353 0.20714413 -0.04095569 -0.19724384 -0.14427291 -0.31986606 -0.14052136 0.03937778
-0.013574146 -0.06675445 -0.061402034 0.17939124 -0.009960998 0.13196501 -0.4307319 0.32124358
0.32377818 0.05705714 -0.11252995 -0.21505766 -0.02371816 -0.27167943 0.0050547533 -0.13698235
0.17854755 0.059184935 -0.11471063 0.1703354 0.17446639 -0.5799121 0.14067426 -0.13299483
-0.051955342 0.023618218 -0.098211356 -0.18741086 -0.10278183 -0.03780816 -0.0893414 0.13251615
0.115334935 -0.1995214 0.29917288 0.039557356 0.14844255 -0.031664893 -0.046189122 0.08469338
-0.032323148 -0.20910636 0.29768404 0.019575905 0.12875299 -0.4228143 0.16330686 0.23488702
-0.20792767 0.15132679 -0.0004691598 0.1332558 0.08377532 0.0752677 -0.19292554 0.11844947

fc3.bias f4 [4]
00000000: a1dc f43c 03e3 99bd 00e6 7f3d 6a33 68bc
0.02989036 -0.07514002 0.062475204 -0.014172414
