savedmodels/checkpoint_1545155274_actor_episode3_score1.273.pth (torch_old, 169478 bytes, 6 tensors)

fc1.weight f4 [256, 33]
00000000: 4463 893d a278 c0bc dee6 a1bd 794a cb3d
00000010: 701c 9a3c face 573d 34dc 8b3c 92c0 993d
00000020: a16e 4abd 1634 a2bb 3a5f 84bd c5e2 91bc
00000030: 8540 68bd 1418 da3d c8bb a13d ed4d 84bd
00000040: fa2f 6dbd af15 1bbc ce6a 8a3b ca95 1b3d
00000050: 583e 943d 3aa0 cebc 14f1 01bd c641 70bd
00000060: 97ac f2bc 51e5 f23c ca74 593c 01bd dd3c
00000070: fa18 bbbd 702a 013d bb35 c73b 7400 e93c
00000080: 94df c83c 2bb8 01bd ca4a 9ebc f4c8 23bd
00000090: 3398 903d 0f0a 493c 8988 e13c aa2b 363d
000000a0: 619a d93d d7b9 f83c 6aee 2abd 628e 07be
000000b0: 2078 0a3d d2b9 563d 0afe 8e3d 803e 473d
000000c0: af6f c0bb 87c0 5d3d ef9c 93bc 0b82 42bd
000000d0: 8860 7f3d ddc6 c4bc 6edd 383d ac07 f2bd
000000e0: 07fd 83bd cf92 adbd fd1f ab3d d9fc 883d
000000f0: 769d 183d 0579 813c ca5b 71bd 2ed5 d1bc
00000100: 1a4e 543d a436 b33c 6a10 a6bd dc06 a13d
00000110: 795b 38bd 3db9 b13d 6deb a73b 6954 92bd
00000120: 58a3 15bd 9324 f1bb 64c1 993d 1ffd b4bd
00000130: 2a32 72bd 4576 cbbd f561 153d 0666 a5bd
00000140: af68 5f3d 3a8d 573b 8366 093c b828 dbbc
00000150: ff17 423d 219c 2ebc 1208 90bd a1ed 84bd
00000160: ea6b 023d 9055 113b 80a3 56bd 4ed4 f3bc
00000170: 6650 a0bd fe4f 1ebd 11be acbd 2841 063d
00000180: fd9a c1bc 7ca1 12bd 422a 20bd da37 72bd
00000190: c989 6cbb 3e9c c63d 10bd c0bc 3186 de3c
000001a0: b67e 90bd 5be7 81ba 63a5 0c3d e006 1dbe
000001b0: 5bd5 773d 8e6a d83c c3aa 82bd 5e39 83bd
000001c0: ae98 aebd e595 ecbc 368d 9abc 9a51 a03c
000001d0: 147d ea3c 571f 1b3c ff98 76bc 97a1 143c
000001e0: b5d3 a63d 36d1 9f3c 8488 e83d e814 e5bb
000001f0: 2186 f5bb e0cc ae3d 04a8 893c 0d51 003d
00000200: 8c51 63bd 917b 513c 38cd 34bd 6dff 313d
00000210: 61ce 5c3c cedb 923d 4593 593d 8e84 67bc
00000220: 4677 1ebd e6ae debc a261 c83d b993 873c
00000230: e606 01bd 572d 903c 0e04 09be e422 b93b
00000240: 1eb7 543d 688c 20bc cda4 c83d 473d f33c
00000250: 1eb3 1bbc 1396 83bd 20d5 1f3d c3b4 a03c
00000260: c18e a6bc 2350 1e3b 9c16 a7bd 3176 9abc
00000270: d1d5 083e 6d92 c0bb fade a63c 5abb a1bd
00000280: 112e 4d3d b84f 373c 8d93 b93d 28a8 743d
00000290: ada0 073d ccf4 06be a6db 05bc 9ff9 eb3c
000002a0: 01a6 453d e64f c53a af24 213d 0c9b 483d
000002b0: f4c9 d13d ad1b 1b3d a145 c13c ec8c 053d
000002c0: 8170 50bc 847e 9ebc 9714 dfbd 0474 46bd
000002d0: 6a0b f33d d663 15bc 97e3 e43a b96c 13bd
000002e0: 9b29 4abd ba3c 8bbd 0153 003c 0ce1 28bc
000002f0: 9261 443d 4f6b 133d c6aa 4dbd 5d95 84bd
00000300: e3cd 09bc 1ace 3b3d e88c bf3c 30f5 47ba
00000310: b44c 823c 9ba5 e9bc a757 ecbd 2423 a5bd
00000320: b57c e03d 2039 a23c 1c2b 94bd 92c7 d03c
00000330: 42cd 16bc bbf3 633d d283 97bd d921 05bb
00000340: ff83 06bb 9f10 c1bc 96cb 80bd c3da 8cbd
00000350: 889a 523b 8ff4 593d 87c1 0cbd f57f 1bbd
00000360: cb7f 26bd 4b44 353d 07f6 dd3c 74f9 9dbc
00000370: 7165 f8bc 76c3 0b3c 6b34 afbd cd62 5b3d
00000380: c190 5c3d f00b f9bc e55f 553d 90ba 223d
00000390: 0c8e d7bc 3880 463c e759 523d ac52 2bbd
000003a0: 2d09 a7bd 6ad6 853c 1a1d 603d 4bfa 7dbc
000003b0: a891 69ba caa5 32bd d977 a43d 24e6 b0bd
000003c0: 13bf ddbd 10a2 a23c ca01 10be add6 8cbd
000003d0: b072 843d 9c44 803b 9fd7 68bd 971a 08bd
000003e0: 1f66 c2bd f78c a03c 5a19 273c d316 c23d
000003f0: 3fa3 03bc eb8a a1bd aef7 393d 01cc 04bd
0.067083865 -0.023495022 -0.079053625 0.09926314 0.018812388 0.052687623 0.017072774 0.07507433
-0.04942191 -0.004950057 -0.064634755 -0.017808327 -0.056702156 0.10649124 0.078971446 -0.06460176
-0.057907082 -0.009465619 0.004224158 0.037984647 0.072384536 -0.025222886 -0.03172405 -0.058656476
-0.029623313 0.029650362 0.013272474 0.027067663 -0.09135623 0.031534612 0.006079403 0.028442599
0.024520673 -0.031669777 -0.019322772 -0.039986566 0.0706028 0.012270465 0.027530925 0.044475235
0.106251486 0.030362053 -0.041731276 -0.13237908 0.033805966 0.052423306 0.06982048 0.04864359
-0.0058726887 0.054138687 -0.018019168 -0.0474873 0.06234792 -0.024020607 0.045133047 -0.118178695
-0.064447455 -0.08475267 0.08355711 0.06688852 0.03725954 0.015804777 -0.058925427 -0.025614347
0.051832296 0.02187664 -0.081085995 0.078626364 -0.04500911 0.086779095 0.0051245005 -0.07145006
-0.03653273 -0.0073590963 0.075075895 -0.088373415 -0.05912987 -0.099346675 0.036470372 -0.080761
0.054543193 0.0032890574 0.008386257 -0.026752815 0.047386166 -0.010657341 -0.07032789 -0.064906366
0.031841196 0.0022176243 -0.05240202 -0.02976432 -0.07827835 -0.038650505 -0.0843469 0.03277698
-0.023633474 -0.035798535 -0.0391028 -0.059135295 -0.0036092869 0.096977696 -0.023527652 0.027163597
-0.07055418 -0.0009910868 0.034337413 -0.15334654 0.060506206 0.026417997 -0.063802265 -0.06407426
-0.08525215 -0.028880069 -0.018866163 0.01957016 0.028624095 0.009467921 -0.015051126 0.009071729
0.08145849 0.01950894 0.11354163 -0.0069910176 -0.007492796 0.085351706 0.016803749 0.031327296
-0.05549769 0.012785808 -0.044141024 0.043456484 0.013476939 0.07170831 0.053118963 -0.014130725
-0.038687967 -0.027183007 0.09784247 0.016549932 -0.03150072 0.017599745 -0.13380453 0.0056499112
0.051932447 -0.0097991 0.09797058 0.029692305 -0.009503154 -0.06425109 0.03902161 0.019617444
-0.020331742 0.0024156652 -0.08158609 -0.018855186 0.13362814 -0.0058768303 0.020369995 -0.078970626
0.05009276 0.01118844 0.09061346 0.05973068 0.033112217 -0.1317932 -0.008170044 0.028805552
0.048254017 0.0015053719 0.039341625 0.04897599 0.102435976 0.03786819 0.023592772 0.032605097
-0.0127221355 -0.019347437 -0.10892599 -0.048450485 0.118674114 -0.009118041 0.0017462847 -0.035992358
-0.049356084 -0.06798692 0.00783229 -0.010307562 0.047944613 0.03599101 -0.05021169 -0.06473801
-0.008410904 0.04585085 0.023382619 -0.00076277833 0.015905716 -0.02852135 -0.11540156 -0.08063343
0.10961286 0.01980263 -0.07234785 0.025485788 -0.009204211 0.05565236 -0.073981896 -0.0020314364
-0.0020525453 -0.023567496 -0.06288831 -0.06877663 0.0032135565 0.053211745 -0.03436425 -0.037963826
-0.040649217 0.044254582 0.027094854 -0.019283988 -0.030321809 0.008530488 -0.0855492 0.05356102
0.053848986 -0.0304012 0.052093405 0.0397287 -0.02631285 0.012115531 0.05135527 -0.04182689
-0.08156047 0.016337592 0.054715253 -0.015501569 -0.0008909949 -0.04361514 0.080306716 -0.08637646
-0.1082746 0.019852668 -0.14063182 -0.06876884 0.064671874 0.003914429 -0.056846257 -0.033228483
-0.09492134 0.019598467 0.010198915 0.094770096 -0.008034526 -0.078878246 0.04540222 -0.032421116

fc1.bias f4 [256]
00000000: a4d6 bc3d ec91 183e ef08 75bc f4d9 f83d
00000010: 1845 143d a903 26be 0fcf 07be 07e7 82bd
00000020: c8cc 81ba f6d1 113e 7725 abbd 34a6 3bbc
00000030: 910b 0b3e e032 82bd bf97 ba3d 8502 b03c
00000040: 0e00 10bd 8d1e cebd 1ca7 4d3e 08ea c3bd
00000050: 63d8 0f3d e8b8 9b3d 18f6 5f3d 388b 883a
00000060: a91f 3dbc 0e23 33bd 5062 853d b421 25bd
00000070: bc66 a43d eced fe3d f378 8a3d 052b 4fbd
00000080: 6150 a1bd 8afa 59bd ce00 3e3d 0b07 043d
00000090: 424a 2e3e d280 c43d 14e4 efbc 7301 093e
000000a0: 0561 d2bd f390 3abd 9c02 123e 3cba f1bd
000000b0: 4140 37bd 2d57 15be e15e 9e3d 6c35 ef3d
000000c0: 8bc7 193e a005 0cbd 0401 f0bd bac0 c73d
000000d0: 1dc0 f4bd 0e59 31bd b316 10be 6abe 0e3e
000000e0: 1580 c63c 30c1 413d fda5 1a3d 73a6 2d3d
000000f0: e74c 89bd c74f 3a3e 07e5 04be 132e aaba
00000100: e9a8 cebd fc82 c5bd 9b7a 0d3e 9a58 123e
00000110: 6d95 a33d fc1b 6b3d a8b2 013e 70ef ee3d
00000120: dac2 88bd 68bf 5ebd 5e6c 923d 23e9 083e
00000130: 0e50 233e f779 393d 2fb5 283e d2b9 b7bd
00000140: 7c0c 9f3d b138 2b3e 0a78 823c f809 de3d
00000150: d9d2 ff3d a26f ffbd 4620 103e e5ab ad3d
00000160: 5efd cb3d 32de a73d bab9 f43d 221f b03d
00000170: e068 f43d 4da3 15be fed0 12be b99b cd3d
00000180: a773 473e edb1 3dbd 6fe5 163e 681b e7bb
00000190: 1798 c33d bafe 03bd ad96 c33d 9917 0cbd
000001a0: 74a8 f3bd e17d 0a3e 9600 4abd d457 123e
000001b0: 2234 2a3d 2af1 88bd aa33 093e 4687 213e
000001c0: aeb7 82bd f308 f13d 1b24 1a3d 0715 46bd
000001d0: da4e 113d 8886 29be dbb7 023d 6cd8 00be
000001e0: d63d 2b3e 6ea5 073e 108b 063e 8a47 373d
000001f0: 549a 57bd ee33 f93d 2e64 893d dd6a cc3d
00000200: ce4f 1fbd 495a 2b3e 2df0 dcbd d8e4 0dbe
00000210: da80 8f3d 3fbb 203e 01b5 503d df98 0ebd
00000220: d587 0cbe 7863 083e aed7 1fbe 6bac 93bd
00000230: 6a8a d33d 0827 d9bd 5ea1 bdbd 5715 8dbd
00000240: d329 b23d 0f24 35bd 28f8 503c 2b73 17bd
00000250: c10c b53d 95f9 2b3e dc94 873b b8c3 1c3d
00000260: 4693 89bb 9436 df3d 4b66 023e 9efa b93d
00000270: 2403 d83d 6f2d 01bd e815 0d3d 6b76 10be
00000280: bb36 453d 533b 6fbd 8c18 a1bc 62d0 01be
00000290: a8e9 833c 042c 913d aca5 b83d 6947 02bd
000002a0: 0f5e 803a 8c1b 253e 7418 aa3c 7e9e 0b3e
000002b0: edff 253e 716a 2c3e 0d7b e63d c8aa d73d
000002c0: 011c 2c3e 0cdc 18bc ca84 113e 4993 5fbd
000002d0: f8f7 3dbd 454b c03d f489 85bd cecb 97bb
000002e0: d32b 253d 1a6c 483d a4c6 1f3d 9b66 e1bb
000002f0: 7a6c c13d 4c7b 4a3e be10 16bd 4cc6 093e
00000300: 04a6 be3d fe98 043e 4211 253e 77e6 bebc
00000310: fdeb c6bc 4e37 82bd a832 f5bc 4609 bcbc
00000320: 8b38 13bd 9006 0e3e 609e 573d 647f 33bd
00000330: b860 b73d 3bb9 0e3d a95e 383d bb16 ae3d
00000340: c719 a6bd 26b7 1abc 5816 053e 12b7 df3d
00000350: 51ec 073e 7da9 05bd 2451 bc3c 6534 d43d
00000360: ac79 b13c c555 bd3d 7940 cd3d f6b6 773d
00000370: 7002 033e bc52 ccbd f05d 0dbe ad20 23be
00000380: f13c 2b3e ccc1 8fbd 249e 14be d1fc 073d
00000390: ce0b b9bc fc75 553d 3025 c1bc 6f60 fc3d
000003a0: 33e0 16be 9455 38be a7a0 3c3e da8f 78bd
000003b0: 1ead 983d ab42 2e3d a0ed 4a3d 8c65 a5bd
000003c0: 6080 1a3d 7737 a4bd 1881 113e 64f4 3c3d
000003d0: 4825 b33d 348a 033e 110a 843d 1da4 cd3d
000003e0: 983f 123e 7dbf c7bd 921c 113e 1909 b2bc
000003f0: 77de 2a3e 9a98 e8bb 1fec 3a3d f7c2 b73d
0.09220627 0.14899415 -0.014955743 0.12150946 0.036198705 -0.16212334 -0.1326258 -0.06391721
-0.0009902949 0.1424025 -0.08356755 -0.0114532 0.13578631 -0.0635736 0.091109745 0.021485576
-0.035156302 -0.10064421 0.20083278 -0.09566122 0.03511847 0.076036274 0.054678053 0.0010417467
-0.011543193 -0.043734603 0.06512892 -0.040315345 0.080274075 0.12447724 0.067613505 -0.050578136
-0.07876659 -0.05321745 0.046387486 0.03223328 0.17020515 0.09594883 -0.02928356 0.13379459
-0.10272411 -0.04554839 0.14258808 -0.118030995 -0.04473901 -0.14584036 0.077329405 0.11680111
0.15017526 -0.034185052 -0.11718944 0.097535565 -0.11950705 -0.04329782 -0.14071159 0.13939825
0.024230996 0.04730338 0.037755955 0.042395066 -0.06704121 0.18194495 -0.12977992 -0.0012983702
-0.10090811 -0.09644124 0.13816302 0.14291611 0.07987485 0.057399735 0.12665808 0.11666763
-0.0667779 -0.054381758 0.07149576 0.13370185 0.15948507 0.04528233 0.16475366 -0.08970989
0.07766053 0.16720845 0.01592638 0.10841745 0.12491388 -0.12472464 0.14074811 0.08480052
0.09960435 0.08196677 0.11949487 0.08599688 0.11934066 -0.14613076 -0.14337537 0.10039467
0.19477712 -0.04631226 0.1473596 -0.0070528276 0.09550493 -0.032225348 0.095502235 -0.034202192
-0.11897364 0.13524581 -0.049316965 0.14291316 0.041553624 -0.066866234 0.13398615 0.15774259
-0.0638269 0.11769285 0.03763209 -0.048359897 0.03547559 -0.16555226 0.03191362 -0.12582558
0.16722807 0.132467 0.13138986 0.04474596 -0.052637413 0.12168108 0.06708561 0.0998132
-0.038894467 0.1673366 -0.107879974 -0.13856828 0.07006998 0.15696429 0.05095387 -0.034813758
-0.13723691 0.13319194 -0.15609619 -0.072106205 0.10329135 -0.10603148 -0.09259294 -0.06888836
0.086993836 -0.04422384 0.012754478 -0.036975067 0.08840323 0.16794427 0.0041376185 0.03827259
-0.0041984646 0.10899082 0.12734334 0.090810046 0.10547474 -0.03153747 0.03444472 -0.14107673
0.0481479 -0.058406185 -0.019665025 -0.12677148 0.016102627 0.070884734 0.090159744 -0.031806383
0.0009793657 0.1612379 0.020763613 0.13634679 0.16210909 0.16837479 0.11253939 0.10530621
0.16807558 -0.009329807 0.14210811 -0.05458382 -0.04637906 0.093893565 -0.06520453 -0.0046324497
0.040324997 0.04893122 0.039007798 -0.0068786866 0.094445184 0.19773597 -0.03663706 0.1345455
0.09309009 0.12948987 0.16119865 -0.023303254 -0.02428245 -0.06358205 -0.029931381 -0.02295364
-0.035942595 0.13869691 0.052641273 -0.04382266 0.089539945 0.03484462 0.04501215 0.08500429
-0.081103854 -0.00944308 0.12996805 0.1092359 0.13273741 -0.03263234 0.02298791 0.10361556
0.021664463 0.09244875 0.10022063 0.06047722 0.12793899 -0.09976718 -0.13805366 -0.15930434
0.16722466 -0.07019386 -0.14513451 0.03320009 -0.022588637 0.05211447 -0.023577303 0.12323081
-0.14733963 -0.18001395 0.18420659 -0.060684063 0.074548945 0.04254405 0.049543023 -0.08076009
0.037720084 -0.080183916 0.14209402 0.046131507 0.08747345 0.12845689 0.064472325 0.10041068
0.14282072 -0.0975332 0.14171055 -0.021732854 0.16686426 -0.0070982696 0.04563534 0.089727335

fc2.weight f4 [128, 256]
00000000: 1603 acbb 9e72 b33d b16c 5fbd b008 873c
00000010: 9d19 d2bc db9e 783d 9df6 463d 88d6 a23d
00000020: dfd2 623c 6995 923d 19e9 b83d e37e 413c
00000030: aaff 7f3d 9b45 d8bc 387f 84bd 7f81 babc
00000040: 28ff 813d 6023 f63c 18dd f8bd dd20 18bd
00000050: ee7d 0f3d 431d 0c3d 69e0 123c c0c3 4abd
00000060: 4638 62bd b9dd 3ebd 1446 cfbb ff30 45bd
00000070: 8edd 48bd 14b3 a93d 097b 6a3d e9c1 303b
00000080: b556 c4bd fe64 2d3d e760 a73d f8a5 6a3d
00000090: 9383 823d 086f dfbc 1853 cebd fecd 6abd
000000a0: 8dff 03be 609e 193e 230d 18bd 54f2 553d
000000b0: ad0a 1dbd f322 323d 950c dd3c d3d6 3ebd
000000c0: b804 21bc 55b5 7fbc 183d a73c 9715 f43a
000000d0: df21 f23c dbd1 0a3e 09c5 2cbd a5e9 0d3e
000000e0: 8dca a2bd 2dde 8abc 40dd 6b3c 868c 113c
000000f0: 7984 f33d 181e a33d c84a 053e c801 833c
00000100: 73e9 febc 64c5 d13b 300f 9abb 1bb8 273d
00000110: 1d41 2b3c af8e 94bc 4eed 483c 956a 123c
00000120: 8af6 21bc 9305 8cbd 3554 64bc 932b da3d
00000130: 321b 1ebd 88fc b63c 2d48 a8bc 6e1b 353d
00000140: 579e abbb 6477 97bd f91a d3bb 71a8 e13c
00000150: 34df 563c f414 7b3b 63ac f4bc 8eac c73d
00000160: 7cdf fe3c 7ef4 2e3d 5dfa 0a3e 0b4e 73ba
00000170: b20c 97bd 289a 7ebd 98c1 18bc 7929 a73b
00000180: d1e2 023d 1b9b 593c b5d7 ecbb 2ef3 233d
00000190: 4da8 70bd 8be7 fd3c fecd 283d b534 55bc
000001a0: 6137 b7bd 0334 9b3c c55e a7bd be45 503d
000001b0: b79c e3bc 42dc 4b3d 5984 0e3d 5492 703d
000001c0: 824f 12bc 5b67 503c c08f 2b3d 0c8f 0bbd
000001d0: cf2c de3d 1485 d23d 6708 92bd c239 9ebd
000001e0: 94bf a5bd c59a 9c3b 67c7 4abd a651 46bc
000001f0: 239f 713d 4de4 983c e5ce c23c 9de1 063e
00000200: aaf8 d9bc 8ab7 833d 66e0 a1bd 9cd8 b7bd
00000210: 735d c43d bdcc 95bd 32a1 86bd 9e7a aa3d
00000220: 2081 4cbd 4251 f8bb d7c7 0b3e 5339 b33c
00000230: 4f7c 633d 06d1 2a3d b546 3bbd 9841 493c
00000240: f0d4 573d 029f 623d a415 dabd e70f 0bbd
00000250: 9a0d 84bd 8618 2d3d 7976 643c a01b a83d
00000260: 98ff b7bd cb4c 5c3d bd6d e1bb bf88 f83c
00000270: ef40 0b3e 704b a03d 0aaf 16bc c3c3 f03d
00000280: 81df 88bc ee03 493d f248 20bd dfd2 ca3d
00000290: aa39 1abd 18dc 5bbd 6f26 823c 6492 063a
000002a0: 940d 103d 203e 13bd 9785 503c 9a59 963c
000002b0: 80e3 96bb 38f4 b0bb 4e8b fa3c 2372 2c3d
000002c0: 80a6 883d 9100 c63d 9ddc 02be 4d7f 803d
000002d0: 01d9 bcbd 70c7 ccbd e97c 783d 6e70 8dbd
000002e0: 0e1b 023d 5223 fcbb 8159 283d abbf 0c3e
000002f0: 2a46 343c fc9b 2d3d 23bb c93d c8de 8ebc
00000300: 4249 c23b d0ab 9ebd 048a c9bd ce38 aebd
00000310: d99c 73bd 9278 aa3d 992e bc3d 0a81 1cbe
00000320: a2f1 10bd ec91 3cbd 5259 9f3d bbe9 c43b
00000330: 7d29 34bd e4de 54bc a006 41bd 054a 77bd
00000340: 4e8b d1bb fe54 b33c 6e0c 313d 52ae db3d
00000350: 002b 37bb 251c 973c 4e11 63bd 1979 bc3d
00000360: 92b4 b9ba 9141 7d3d 2df0 eebd cab9 863b
00000370: 9fb9 b639 758f 5a3b 2c27 aebd 6eee 723d
00000380: 9816 6d3d 396a 7fbd 55a4 3ebd 2434 423b
00000390: b914 863d 0f70 8ebd e132 e23d a6c7 be3d
000003a0: acbe 273d 95cd 8b3d 4e94 1f3c 2810 1ebd
000003b0: b624 723b ef03 9e3d 08f8 8abd 3dd3 433b
000003c0: ec27 3ebd f342 a0bc 0869 b1bd 2e9c 22bd
000003d0: a7dd 36bc b077 2dbd baee 4d3c dd90 e5bd
000003e0: be3f ccbd 8399 dd3c 9359 a63c 50d8 cc3d
000003f0: 0d30 4bbd 4227 703d c7af bb3d 510e 1dbd
-0.0052493913 0.08762096 -0.054547016 0.016483635 -0.025646979 0.06069837 0.048575033 0.07951075
0.013844221 0.07157404 0.09028835 0.011810037 0.06249968 -0.026400378 -0.064695776 -0.022766827
0.06347495 0.030046165 -0.12151545 -0.037140716 0.035032205 0.034207594 0.008964636 -0.049503088
-0.055229448 -0.04659817 -0.0063254926 -0.04814243 -0.049039416 0.082861096 0.05724624 0.0026971048
-0.095868506 0.04233264 0.081727795 0.057287186 0.06372752 -0.027274624 -0.100744426 -0.057325356
-0.12890454 0.15001822 -0.037121903 0.052233055 -0.03834026 0.04349036 0.026983539 -0.04659159
-0.009827785 -0.015607198 0.020414874 0.0018622157 0.029557167 0.13556616 -0.042180095 0.1385866
-0.0794879 -0.016951645 0.014396012 0.008883601 0.118905015 0.07964724 0.13016808 0.01599206
-0.031117177 0.0064017046 -0.0047015175 0.04094706 0.010452536 -0.018134443 0.012263609 0.008936544
-0.00988544 -0.06837001 -0.013936092 0.106528424 -0.038600154 0.022337213 -0.020542229 0.044215612
-0.0052373814 -0.07395819 -0.0064424244 0.02754614 0.013114739 0.003831205 -0.029867357 0.09749709
0.031112425 0.042713635 0.13572069 -0.00092813437 -0.07375468 -0.062158734 -0.0093235 0.0051013795
0.03195459 0.013281609 -0.0072278627 0.040026836 -0.058754254 0.030994197 0.041212074 -0.013013055
-0.089461096 0.0189457 -0.08172373 0.05084776 -0.027784688 0.0497706 0.034794185 0.0587333
-0.008930089 0.012719954 0.041885138 -0.034071967 0.1084839 0.10279289 -0.07130509 -0.0772586
-0.08093181 0.004779192 -0.04950657 -0.012104427 0.058989655 0.01866355 0.023780296 0.13172002
-0.02660783 0.06431492 -0.07904129 -0.08976862 0.095881365 -0.07314441 -0.06573714 0.083241686
-0.04992783 -0.007578046 0.13650452 0.02187792 0.05553847 0.041703247 -0.04572173 0.012283705
0.052693307 0.055327423 -0.10648659 -0.033950713 -0.06447907 0.042259715 0.013944262 0.08208394
-0.089842975 0.053784173 -0.006879537 0.030338643 0.13598989 0.078268886 -0.009197006 0.117560886
-0.016708137 0.049076013 -0.039132066 0.09903502 -0.03765265 -0.053676695 0.015887467 0.0005133508
0.0351692 -0.03594792 0.012727163 0.018353272 -0.004604757 -0.005400207 0.030584004 0.042101037
0.06672382 0.09668077 -0.1277947 0.06274281 -0.09221078 -0.09998977 0.060666 -0.0690621
0.031764083 -0.00769464 0.041100983 0.1374499 0.011003057 0.042385086 0.098501466 -0.017440215
0.005929143 -0.077476144 -0.098407775 -0.085069284 -0.059475753 0.08323778 0.09188575 -0.152836
-0.03538669 -0.0460376 0.077807084 0.006009308 -0.04398488 -0.012992594 -0.04712546 -0.060373325
-0.0063947802 0.021891113 0.043224744 0.10726608 -0.0027949214 0.018446038 -0.055436425 0.09202785
-0.0014168194 0.061830107 -0.11666904 0.0041115033 0.00034852044 0.0033349667 -0.08503565 0.059309416
0.057882875 -0.06235716 -0.046543438 0.002963313 0.06546921 -0.06954967 0.11044861 0.09315424
0.040953323 0.06826321 0.009739948 -0.038589627 0.003694815 0.07715594 -0.067855895 0.0029880546
-0.04642479 -0.019563174 -0.08662611 -0.039699726 -0.0111612445 -0.04235047 0.012569124 -0.11209271
-0.09973095 0.02705074 0.020306384 0.10002196 -0.04960637 0.05863119 0.09164386 -0.03834373

fc2.bias f4 [128]
00000000: c62a ac3c 70af 32bd 7999 dfbb 60c1 0cbd
00000010: 9fa8 56bd 3972 783d 9c3d b4ba 390d 15bd
00000020: 46e0 8fbc 3b0f 6b3d 8f1f 513d d896 46bd
00000030: 5417 0ebd 5553 913c 26a6 d7bc ebbc 103d
00000040: 6250 833c 3b06 503d bfec 26bd 40df 2abd
00000050: e357 c4bb d3ef 39bd 6ce2 a4bd a1f6 d1bb
00000060: e55c d9bc 47a0 b8bc 420b cbbc 802e 403d
00000070: 633a 97ba b2d4 913b e01e 0dbd e708 22bd
00000080: 8d0c 0ebd a10d 7cbc 5ce0 04bd 8001 603c
00000090: 38ab 8c3c ab57 c6bc 3d3c bb3b d966 e6bc
000000a0: 1dc4 8e3d 2fa9 8bbc bbf9 18bb f615 47bc
000000b0: 51e3 0abd 6949 3d3d abf0 173c 6e50 45bc
000000c0: de52 313c b8fb 3b3d 7950 da3c 218d e5bc
000000d0: d6c9 7ebb 4a2f 13ba 1002 1bbd c16b 723d
000000e0: 725e 9d3c 71aa ac3c b62b 493d 63d2 70bb
000000f0: 1d14 92bb f727 6d3d 00a7 953c 1c4d 5c3d
00000100: bc7b 3ebd 4eb1 4c3d f827 b0bc 1eda db3c
00000110: f319 1dba 1e92 e73b 7102 02ba 8530 943d
00000120: 4e12 4b3c 8672 893d 6834 a1bc 4d44 2c3d
00000130: e0c9 8dbd 3159 363d 5b73 6e3d 0770 ac3d
00000140: 7b9b 57bd 4eb0 16bc 1db3 5d3d 24c9 193d
00000150: 82bb 6fbc 3d2d 9abd 23ef da3c 7c24 d73c
00000160: 4eb1 963c 6ee3 2139 40f1 7f3d 88fd 713c
00000170: 1a0c 293d e91e 713d c057 23bd 95f2 333d
00000180: 949c cabc edff ba3c 4917 69bc f465 aebc
00000190: e469 63bd b4c3 4f3d 7f40 243d a7fe eebb
000001a0: d4ad 693d 82fa 6b3d 970a 27bd 57c9 a63d
000001b0: 1b96 423d 1ed8 1f3d 300e 26bc 7023 87bd
000001c0: 876e ef3c 795c 653c 7ed5 b53d 29ad 9a3c
000001d0: 26dc da3d 3ab1 163d d18e 2b3d 4928 2e3d
000001e0: a37f 51bd fdbe f33c 1494 073c 2348 863d
000001f0: b50f debb df17 e4bc 31f8 19bd 2dcd a7bb
0.02101649 -0.04362434 -0.0068237153 -0.034364104 -0.052406903 0.060655806 -0.0013751271 -0.036389563
-0.017562997 0.05738757 0.051055487 -0.0484837 -0.034690216 0.017739931 -0.026324343 0.035336416
0.01602954 0.05078719 -0.040753122 -0.041716814 -0.005991922 -0.04539473 -0.08050999 -0.0064075743
-0.026533553 -0.022537364 -0.024785642 0.046919346 -0.0011537786 0.004450404 -0.034453273 -0.03955927
-0.034679938 -0.015384109 -0.03244053 0.013672233 0.017171487 -0.024211725 0.005713968 -0.028125213
0.069709994 -0.017048446 -0.002334221 -0.012151232 -0.033908192 0.046212588 0.009273688 -0.012043102
0.01082298 0.045894355 0.0266497 -0.028021397 -0.0038877628 -0.00056146516 -0.037843764 0.059184793
0.019210074 0.021077367 0.04911395 -0.0036746494 -0.004457964 0.05789944 0.018268108 0.053784475
-0.04650472 0.04997378 -0.021503434 0.026837405 -0.00059929414 0.007066979 -0.000495947 0.07235817
0.012394501 0.06711297 -0.01967831 0.042057324 -0.0692327 0.044518653 0.05821548 0.08419805
-0.052638512 -0.009197308 0.054125894 0.03754534 -0.014632108 -0.0752816 0.026725357 0.026262514
0.018395092 0.0001543888 0.062485933 0.014769919 0.041271307 0.05886737 -0.039878607 0.043932516
-0.024732865 0.022827113 -0.014226743 -0.02128885 -0.055520907 0.050723746 0.04010057 -0.0072935405
0.05705054 0.05761195 -0.040781584 0.08143871 0.047506433 0.039024465 -0.0101352185 -0.06598556
0.029227508 0.013999098 0.08878611 0.018881397 0.10686521 0.03679011 0.041884247 0.042518888
-0.051147114 0.029754156 0.008275051 0.06556728 -0.006776775 -0.027843414 -0.03759021 -0.0051208944

fc3.weight f4 [4, 128]
00000000: 1ce3 5f3d 7584 5c3d e27d 23bd 08ce ae3d
00000010: ca08 b3bc 7d21 a3bc 66f9 b93c 2899 833c
00000020: 9e12 333a cad5 28bd 4bc3 863d 4ff3 a83d
00000030: bb24 c33c 5324 063d 501b 9438 e5be 9f3d
00000040: eced 733c bddd 2b3d d2ed b13c 402f 88bc
00000050: 5cb7 903a 3a74 213d 3df8 ca3c 1b3a a03b
00000060: f4d0 4dbd 55f0 a73c 2955 04bd 253a e4bc
00000070: f84c 3dbc ce5e 323d 4b64 f03c 4a57 a43c
00000080: 9e8b b8bc e229 0f3b b71e 7a3c c906 0abd
00000090: 3d9c 59bd 7fe6 09bd 1c41 adbc 92de 873d
000000a0: 1e7e cf3d 455d f4bc cf62 b83b 96cb 983c
000000b0: db16 103d 635b ab3d 0932 2a3d 74b7 07bd
000000c0: ca09 8f3c ac65 ca3c 4427 62bd 91b6 bf3b
000000d0: d172 e6bc 5321 303d cee6 63bc e46d 813d
000000e0: 09f7 433c 7610 12bd c80a 0ebd 5d3c c0bc
000000f0: b8b2 2f3d fc60 35bd 92cf bbbc 2e55 8c3d
00000100: 63e9 1bbb 74f9 bfbb 5d85 31bb cfbc 1b3d
00000110: c5c8 5e3d ec6d 683d f083 20bc ccac 31bd
00000120: 3150 343a 1da4 16be 80b2 0f3b 2f72 f3bc
00000130: f5a0 3a3d 52d5 853c 1a2b 073d 8014 cfbc
00000140: 6187 493c f600 9b3a 815e e83c a8ac 83bc
00000150: cde1 4abc eb2f 543c 01b3 7c3b 89a4 343d
00000160: 5104 3ebb 5cef e0bb 7bce 2a3d dc3f bdbb
00000170: 0c88 cfbc 2354 0bbc 3752 953d f8e8 943d
00000180: 11bd 6a3c 0108 2c3d 69e2 f53a 09b4 3a3d
00000190: f728 abbc 9707 fdbc e893 d63c 7d26 1abd
000001a0: 03cd 0dbd 69d1 15bd 3aee 8abc 33aa 803b
000001b0: a9e1 8b3d 2dbf a2bd 6482 b3bb 8b88 db3c
000001c0: ccd6 223d 9771 8e3c baa9 3fbd 6c33 503c
000001d0: d3f1 abbc 4082 9c3c 8aa8 b83c e0cf 65bc
000001e0: a6b7 f6bc 9319 bd3c e719 3abd 7656 f6bc
000001f0: c06c 77bd dea7 bbbc 0fdc 0c3d d02f 213d
00000200: f45f 1cbc c8bf 403d 4f37 6abc 7123 813b
00000210: 3700 223d 17ae 5a3d fba3 dcbc 2702 ed3c
00000220: 2de9 293d 96f6 86bd b44d 1abd cc64 a7bb
00000230: 2531 11bd 2d93 903c 4672 b43d 719a 5d3c
00000240: c2bb f5bc ba48 c3bc ba6e cf3d 1027 3c3d
00000250: 81cf 333d e473 1f3d b038 783d e53c d13d
00000260: 2705 733d c30c 0bbc 65a2 613d e703 ae3c
00000270: 4bb0 aa3a 0ea6 72bb 6470 3bbd 6266 383d
00000280: 25c5 b63c 55cc d3bc e0bb 36bd a133 463d
00000290: 4c39 203d 7240 a33d 8498 4b3d 5c14 23bd
000002a0: dc1c 70bd 20ed 323d 745e ec3c 797f ebba
000002b0: d8fa 373d e35c a1bc c1f8 c8bc 00db 8c3c
000002c0: 3300 25bd 1960 35bd 71a0 b8ba d4d0 343d
000002d0: f739 fe3a 8e4e 55bd 696b db3c 4100 5fbd
000002e0: c512 37bc 235d 4b3d 1350 8c3d d139 663d
000002f0: ed82 073a 6b4b 9abc 0272 1bbc d71b 1ebc
00000300: 9334 363d 6a23 4e3d a487 883d 1e1d 95bd
00000310: b786 d13c 061a 73bb 7e4d 913d 64bf 4fbb
00000320: a9e1 333c 5d6a 7fbd f99f 8b3c 3e56 513d
00000330: 97c5 323d 4a75 6b3d a47e a4bd da53 8e3d
00000340: 59ca 6f3d 34e1 2b3d 666b b9bc 985f ca3b
00000350: ceda 9dbc 662b 383d bc4f cf3b fe49 563d
00000360: e589 873d 41ea 723d 62c3 aabc 11d6 8e3d
00000370: 5bff 9e3c d561 20bd fd14 ddbc a3b2 e7bc
00000380: a339 a33a 1bdc 02bc 2a1b b63c be14 09bd
00000390: c2cb a53c 3965 523d 831e fa3b c47b af3d
000003a0: 0361 553d ed2f 80bd 2011 44bb 31b4 0fbd
000003b0: 50c5 ccbc b013 04be 73be 3dbb 5b56 243d
000003c0: cfdf 863c d46e 6ebd ad5a 383d 080d 35bd
000003d0: 2fdc 4cbd 457b c23a a089 593d 8cc1 b83d
000003e0: 0f8d 183d 65fa dabc f460 55bb 5c3c 1c3d
000003f0: 6677 7bba 90b1 133d 1aaf 173d 4854 7dbc
0.054659948 0.05383726 -0.039914973 0.08535391 -0.021854777 -0.01991343 0.02270193 0.016064242
0.0006831082 -0.04121951 0.06580218 0.082495324 0.023821225 0.032749485 7.062277e-05 0.07800082
0.014888268 0.041959513 0.021719847 -0.016624093 0.0011040973 0.039417483 0.024776572 0.004889739
-0.0502481 0.020500341 -0.032307778 -0.027859757 -0.011553995 0.043547444 0.029344698 0.020061154
-0.022527512 0.0021845032 0.015266112 -0.033697877 -0.053127516 -0.033667084 -0.02114921 0.06634249
0.10131477 -0.02982963 0.0056270133 0.018651765 0.035178047 0.0836704 0.041551623 -0.03313394
0.017460722 0.024706684 -0.055213228 0.005850621 -0.02813092 0.04300053 -0.013910009 0.06319788
0.011960753 -0.03566023 -0.03467825 -0.023466283 0.04289505 -0.044281945 -0.022926126 0.06852184
-0.0023790232 -0.0058585946 -0.0027087547 0.03802186 0.054390687 0.056745455 -0.009797081 -0.043377683
0.00068784045 -0.14711042 0.0021926463 -0.029717533 0.045563657 0.01633707 0.03300009 -0.02527833
0.012300343 0.0011825848 0.028365375 -0.01607354 -0.012382937 0.012950878 0.0038558843 0.044102225
-0.0028994272 -0.0068644714 0.04170082 -0.005775435 -0.025333427 -0.0085039465 0.07291072 0.07270998
0.0143273035 0.04199982 0.0018759492 0.04558185 -0.020893557 -0.030887408 0.026193574 -0.03763436
-0.034619343 -0.036576662 -0.016959298 0.0039265393 0.06830151 -0.0794662 -0.0054781903 0.026798507
0.039755628 0.017388148 -0.046792723 0.012707572 -0.020989334 0.019105077 0.022541303 -0.014026612
-0.030116867 0.023083484 -0.04543486 -0.030070525 -0.060406446 -0.022907194 0.03438955 0.03935224
-0.009544361 0.047057897 -0.014295413 0.0039409925 0.039550986 0.05338868 -0.02693366 0.02893169
0.04148214 -0.06590001 -0.03767176 -0.0051084515 -0.03544726 0.017648304 0.088108584 0.013525591
-0.029996756 -0.02383839 0.10128541 0.04593569 0.043899063 0.03892888 0.060600936 0.10216693
0.059331086 -0.008486929 0.055086512 0.021242095 0.001302251 -0.0037025246 -0.04576148 0.045019515
0.022310803 -0.025854269 -0.044612765 0.04838908 0.039117143 0.07971276 0.049705997 -0.039814338
-0.058621272 0.04368317 0.028853633 -0.0017967067 0.044916958 -0.019697612 -0.024532678 0.017194271
-0.040283393 -0.0442811 -0.0014085901 0.044144467 0.0019395937 -0.05207687 0.026784616 -0.0544436
-0.011173909 0.04964937 0.068512104 0.05620748 0.0005169351 -0.01883479 -0.009487631 -0.009650192
0.044483732 0.050326742 0.066664964 -0.07280944 0.025576932 -0.0037094369 0.070948586 -0.003169977
0.010979095 -0.062357295 0.017044054 0.051107638 0.043645468 0.057484902 -0.08031967 0.06949587
0.058542583 0.041962817 -0.02263422 0.0061759464 -0.019269373 0.044963263 0.0063266438 0.05231666
0.06618098 0.059305433 -0.020845119 0.06974424 0.019408872 -0.0391558 -0.026987547 -0.028283423
0.001245309 -0.007987048 0.02222975 -0.033467047 0.02023876 0.051366065 0.007633032 0.08568528
0.05209447 -0.06259141 -0.0029917434 -0.035083953 -0.02499643 -0.12898135 -0.0028952628 0.040121417
0.016464142 -0.058211163 0.04500835 -0.04420188 -0.05001467 0.0014837763 0.053109765 0.09021291
0.0372439 -0.026730726 -0.003255901 0.0381435 -0.0009592682 0.03605801 0.037032224 -0.015461989

fc3.bias f4 [4]
00000000: 4274 933c ca7b a5bd 2063 ac3c 9907 7dbd
0.017999772 -0.080802515 0.02104336 -0.061774824
