savedmodels/checkpoint_1545155274_actor_episode4_score1.305.pth (torch_old, 169478 bytes, 6 tensors)

fc1.weight f4 [256, 33]
0	0x3d6a7eb0	0.057249725
1	0xbd22a3f3	-0.039707135
2	0xbd989c73	-0.07451715
3	0x3dc50854	0.09620729
4	0x3c61b819	0.013776802
5	0x3d933530	0.07187879
6	0x3cfdda3f	0.030987857
7	0x3daa1f73	0.0830678
8	0xbd51f87b	-0.05126236
9	0xbc64046d	-0.013917071
10	0xbd8b3217	-0.06796663
11	0xbc3ac134	-0.011398602
12	0xbd9a9c1d	-0.075493075
13	0x3dc10d43	0.094263576
14	0x3d904774	0.070448786
15	0xbd8261b9	-0.06366295
16	0xbd8f0a92	-0.06984438
17	0xbb3cdae5	-0.0028816995
18	0x3baf3d32	0.005347871
19	0x3d066d28	0.032818943
20	0x3d993071	0.074799426
21	0xbcbf7977	-0.023373349
22	0xbcff5289	-0.031167286
23	0xbd69b09f	-0.057053205
24	0xbce1f93c	-0.027584665
25	0x3c9c1a54	0.019055523
26	0x3c864c4a	0.0163938
27	0x3cf558af	0.029949514
28	0xbdc38970	-0.095476985
29	0x3d012a70	0.031534612
30	0x3b518e03	0.0031975515
31	0x3ce90074	0.028442599
32	0x3be1b7ae	0.0068883514
33	0xbd23bd0d	-0.039975215
34	0xbd0937ea	-0.03350059
35	0xbd07dd17	-0.033169832
36	0x3d93e847	0.07222038
37	0x3c03a8f2	0.008035885
38	0x3d046b32	0.032328792
39	0x3d54abb8	0.051921576
40	0x3dcb7d5e	0.09936021
41	0x3d1ab19d	0.03776704
42	0xbd736f57	-0.059432354
43	0xbe131633	-0.14363937
44	0x3d1d9fae	0.03848236
45	0x3d579904	0.05263616
46	0x3d6b8c43	0.05750681
47	0x3d287656	0.04112848
48	0xbb5fd552	-0.0034154248
49	0x3d412c0a	0.04716114
50	0xbcc8eac9	-0.024526017
51	0xbd3ac9f6	-0.04560276
52	0x3d75e8b1	0.060036365
53	0xbd05d94c	-0.032677934
54	0x3d2e055d	0.042485584
55	0xbdff5ec5	-0.12469248
56	0xbd8b7c79	-0.06810851
57	0xbd9c0a41	-0.07619143
58	0x3dae1067	0.08499222
59	0x3d874344	0.06604627
60	0x3d1b7519	0.03795347
61	0x3cf9527b	0.030434838
62	0xbd715bca	-0.058925427
63	0xbcd78465	-0.026308248
64	0x3d544e1a	0.051832296
65	0x3c49979c	0.012304213
66	0xbd93245c	-0.071846694
67	0x3db803a6	0.08985071
68	0xbd2067d8	-0.039161533
69	0x3db87fb8	0.090087354
70	0x3ba86c28	0.0051398464
71	0xbd9565fe	-0.07294844
72	0xbd2abab1	-0.04168195
73	0xb929549c	-0.00016148615
74	0x3d9564ce	0.072946176
75	0xbdb24d1a	-0.08706112
76	0xbd8faf5f	-0.07015871
77	0xbdc400c6	-0.0957046
78	0x3ce6537c	0.02811598
79	0xbda0d465	-0.07853011
80	0x3d8a5724	0.06754902
81	0x3c2f1508	0.010686167
82	0x3c471723	0.012151512
83	0xbd1c48f6	-0.03815552
84	0x3d3a347d	0.045460213
85	0xbb164eae	-0.002293508
86	0xbd97b007	-0.074066214
87	0xbd822de4	-0.06356409
88	0x3cf46e9a	0.029837895
89	0xbb7e3c28	-0.003879318
90	0xbd08fa7f	-0.033442017
91	0xbd194668	-0.03742066
92	0xbdb319da	-0.08745165
93	0xbd1bf7aa	-0.038077988
94	0xbda837fe	-0.08213805
95	0x3d064128	0.03277698
96	0xbcc64ba6	-0.024205994
97	0xbd12a17c	-0.035798535
98	0xbd223858	-0.039604515
99	0xbd9be24b	-0.07611521
100	0x3b046a8f	0.0020205115
101	0x3dbe5877	0.09294217
102	0xbcda2e02	-0.026633266
103	0x3d3c8017	0.046020593
104	0xbd8dd938	-0.06926197
105	0xbbbba00d	-0.0057258666
106	0x3ca93d3f	0.020659087
107	0xbe24d342	-0.16096213
108	0x3d858d2f	0.06521069
109	0x3cf718e7	0.030163242
110	0xbd8d490a	-0.06898697
111	0xbd64d0d9	-0.055863235
112	0xbdbc14da	-0.091836646
113	0xbcbf1d6a	-0.023329455
114	0xbca3fd7f	-0.020018337
115	0x3cac6823	0.02104575
116	0x3cf40cc7	0.029791249
117	0x3c811f05	0.015761862
118	0xbc0d2d3e	-0.008616744
119	0xba30cb91	-0.0006744201
120	0x3dad0815	0.08448807
121	0x3cb3e9c6	0.021962058
122	0x3deea446	0.116524264
123	0x3b0b4c61	0.0021255242
124	0xbc01759d	-0.007901576
125	0x3db0f60c	0.0864068
126	0x3cd2fda0	0.025755703
127	0x3cf6c658	0.030123875
128	0xbd63518c	-0.05549769
129	0x3b7b4188	0.003833862
130	0xbd34cd38	-0.044141024
131	0x3cf1ef01	0.029532911
132	0x3cd0600c	0.025436424
133	0x3d9b1c9d	0.07573817
134	0x3d478b5f	0.0487169
135	0xbc0cfe29	-0.008605518
136	0xbd19252a	-0.037388958
137	0xbd19d3c9	-0.03755549
138	0x3db851bf	0.08999967
139	0x3ca602e9	0.02026506
140	0xbceeaee3	-0.029136127
141	0x3ccbae42	0.024863366
142	0xbe074ebd	-0.1321363
143	0xbc3e8446	-0.011628216
144	0x3d5bf436	0.053699695
145	0xbc600fb7	-0.013675622
146	0x3dd0fe24	0.102047235
147	0x3ccc41d6	0.024933737
148	0xbc8326ac	-0.016009651
149	0xbd803cc6	-0.062615916
150	0x3d2d595d	0.04232155
151	0x3c8ea78c	0.017413877
152	0xbc0b4037	-0.008499197
153	0x3b936143	0.0044976785
154	0xbda8b688	-0.0823794
155	0xbc5c877d	-0.013460037
156	0x3e12537c	0.1428966
157	0xbc643f4d	-0.013931108
158	0x3ca0b275	0.019616345
159	0xbda89e45	-0.082333125
160	0x3d8335d2	0.0640675
161	0x3c374fb8	0.01118844
162	0x3dc07678	0.09397596
163	0x3d74a828	0.05973068
164	0x3d1269e0	0.0357455
165	0xbdffee4c	-0.124966234
166	0xbb4b135d	-0.0030986883
167	0x3d002dd8	0.03129372
168	0x3d45295d	0.04813515
169	0xbbe7236b	-0.0070537827
170	0x3d12d3bf	0.035846468
171	0x3d87508a	0.066071585
172	0x3dc616aa	0.096722916
173	0x3d5ebae5	0.054377455
174	0x3c1897cc	0.009313535
175	0x3d057ce2	0.0325898
176	0xbc9541bf	-0.018219827
177	0xbc3f3897	-0.011671207
178	0xbdd4578f	-0.10368263
179	0xbd228bec	-0.03968422
180	0x3dfca870	0.123368144
181	0xbc1f67dd	-0.009729353
182	0x3aeb11d5	0.0017934392
183	0xbd25f6a4	-0.040518418
184	0xbd6e30fa	-0.058152176
185	0xbd825687	-0.0636416
186	0xbb06bb15	-0.0020558287
187	0xbc311caa	-0.010810057
188	0x3d26f25d	0.04075848
189	0x3cde9b19	0.027173566
190	0xbd492a93	-0.049112868
191	0xbd8c5303	-0.06851771
192	0xbb9022ef	-0.0043986957
193	0x3d52b1d2	0.051439114
194	0x3cbf8ce8	0.023382619
195	0xbb9c7786	-0.0047749905
196	0x3c824cb4	0.015905716
197	0xbd102931	-0.035195533
198	0xbe00058c	-0.12502116
199	0xbd98e06a	-0.074646786
200	0x3de7b995	0.11314694
201	0x3be28fe9	0.006914128
202	0xbd8a8f18	-0.06765574
203	0x3cd3bc3d	0.025846595
204	0xbc91209b	-0.017715743
205	0x3d4272e6	0.047472857
206	0xbdaef294	-0.08542362
207	0xbc269914	-0.010168333
208	0xbb3921f8	-0.0028249007
209	0xbcd1f89d	-0.025631243
210	0xbd6c8dca	-0.057752408
211	0xbd95369d	-0.07285807
212	0x3c1badbe	0.009501873
213	0x3d742601	0.059606556
214	0xbd357ab8	-0.044306487
215	0xbd0d2129	-0.034455452
216	0xbd076185	-0.033051986
217	0x3d361b78	0.04445979
218	0x3cb6c81f	0.022312222
219	0xbc884590	-0.016634732
220	0xbd067c8b	-0.032833617
221	0xb9f2f4c6	-0.00046340207
222	0xbda587c9	-0.080825396
223	0x3d4cf7d9	0.050041053
224	0x3d844de7	0.06460171
225	0xbd07fff2	-0.033203073
226	0x3d37e4dd	0.044895995
227	0x3d22ba90	0.0397287
228	0xbcc09a0f	-0.02351096
229	0x3c468038	0.012115531
230	0x3d1fc160	0.039002776
231	0xbd447c96	-0.047970377
232	0xbdbc62f1	-0.09198559
233	0x3cb3ab1f	0.021932183
234	0x3d44edd1	0.048078362
235	0xbc5bce9a	-0.013415957
236	0x3c19fee4	0.00939915
237	0xbd0299d3	-0.03188498
238	0x3d92c2f2	0.07166089
239	0xbdb5b703	-0.08872797
240	0xbe035073	-0.12823658
241	0x3c08dce0	0.008353442
242	0xbe15471c	-0.14577907
243	0xbd97c651	-0.07410873
244	0x3d84bdba	0.064815
245	0xba1c7cc5	-0.000596952
246	0xbd707f1d	-0.058714975
247	0xbd0ae9dd	-0.033914436
248	0xbdb4fd66	-0.088373944
249	0x3c90f82e	0.017696466
250	0x3c14dcf2	0.009085881
251	0x3dc7fe66	0.097653195
252	0xbc801502	-0.015635017
253	0xbda8f03f	-0.08248948
254	0x3d247af6	0.040156327
255	0xbce9070d	-0.028445745

fc1.bias f4 [256]
0	0x3db6efba	0.08932443
1	0x3e17dc0d	0.14830036
2	0xbc7e6a52	-0.015528278
3	0x3de68488	0.11255747
4	0x3d220ac9	0.039561067
5	0xbe2a1f70	-0.16613555
6	0xbe04f07e	-0.12982365
7	0xbd8e4490	-0.06946671
8	0xbb994eed	-0.004678598
9	0x3e09982e	0.13436958
10	0xbdb8c974	-0.09022799
11	0xbc5f5832	-0.013631867
12	0x3e0914f4	0.13386899
13	0xbd93e796	-0.07221906
14	0x3dbe0c72	0.092797175
15	0x3c9f47d2	0.019443426
16	0xbd0b71e8	-0.034044176
17	0xbdd4b47e	-0.10385989
18	0x3e520103	0.20508198
19	0xbdcb6b22	-0.09932543
20	0x3d0d4ab1	0.03449506
21	0x3d9046d9	0.07044763
22	0x3d534759	0.051581714
23	0xbb4174ad	-0.0029519007
24	0xbc119ca3	-0.008887443
25	0xbd29dfbc	-0.041473135
26	0x3d8709fe	0.06593703
27	0xbd26bfc6	-0.040710233
28	0x3d993693	0.07481112
29	0x3e028a0d	0.12747975
30	0x3d77ec46	0.060528062
31	0xbd3f4ac5	-0.046702165
32	0xbd8647e1	-0.065566786
33	0xbd820590	-0.06348717
34	0x3d3fb13a	0.046799876
35	0x3d05a785	0.032630462
36	0x3e2de0cf	0.16980289
37	0x3db85202	0.09000017
38	0xbcdd0f78	-0.026984915
39	0x3e08e883	0.13369946
40	0xbddba6dd	-0.10725186
41	0xbd4e7fcf	-0.050414857
42	0x3e104896	0.1409019
43	0xbdf429fc	-0.119220704
44	0xbd6f8a90	-0.058481753
45	0xbe1b06e9	-0.15139355
46	0x3d91a13d	0.07110832
47	0x3de8c288	0.11365229
48	0x3e186907	0.14883815
49	0xbcf8583e	-0.030315515
50	0xbdf4c943	-0.1195245
51	0x3dc75875	0.09733669
52	0xbdfc1ee0	-0.123105764
53	0xbd0217db	-0.03176103
54	0xbe1252be	-0.14289376
55	0x3e107e3f	0.14110659
56	0x3cea886e	0.028629508
57	0x3d42cdb9	0.047559474
58	0x3d31e143	0.043427717
59	0x3d35b09d	0.044357885
60	0xbd6e81eb	-0.05822937
61	0x3e3f70f7	0.18695436
62	0xbe0bb8e6	-0.13644752
63	0xbb89d775	-0.0042065927
64	0xbdd4e819	-0.103958316
65	0xbdbce5d1	-0.092235215
66	0x3e0e49c3	0.13895325
67	0x3e11004d	0.14160271
68	0x3d9455ab	0.07242902
69	0x3d5fadb2	0.054609008
70	0x3e01a92a	0.12662187
71	0x3dfaa6f3	0.12238874
72	0xbd983d96	-0.074336216
73	0xbd64083c	-0.055671915
74	0x3d95a047	0.07305961
75	0x3e088f50	0.1333592
76	0x3e2860c2	0.1644316
77	0x3d4048b9	0.046944354
78	0x3e286bc1	0.16447355
79	0xbdb04d2b	-0.086084686
80	0x3dacd3ad	0.084388115
81	0x3e34da32	0.1766136
82	0x3b6bbb5e	0.0035969834
83	0x3dd5069a	0.1040165
84	0x3df81119	0.12112636
85	0xbe02d998	-0.12778318
86	0x3e1005d2	0.1406472
87	0x3da7f36f	0.08200728
88	0x3dc35f1d	0.09539626
89	0x3da58c64	0.08083418
90	0x3df65105	0.12027172
91	0x3dbc6b82	0.09200193
92	0x3df00e64	0.11721495
93	0xbe19eeca	-0.15032497
94	0xbe10a940	-0.14127064
95	0x3dcc097e	0.09962748
96	0x3e44be4d	0.19213219
97	0xbd6d4a34	-0.057932094
98	0x3e1ce8f1	0.15323235
99	0xbc7ed8c6	-0.0155546125
100	0x3db736aa	0.08945973
101	0xbceeaf49	-0.029136317
102	0x3dc76dcf	0.09737741
103	0xbd0fec37	-0.03513738
104	0xbde7b625	-0.11314038
105	0x3e0721f3	0.13196544
106	0xbd55af26	-0.052168988
107	0x3e136d45	0.14397152
108	0x3d3094f0	0.043110788
109	0xbd8d6c13	-0.06905379
110	0x3e0145c7	0.12624274
111	0x3e23a55c	0.15981048
112	0xbd81f164	-0.0634487
113	0x3e03981d	0.12850995
114	0x3d357c1b	0.04430781
115	0xbd32cbfe	-0.043651573
116	0x3d233c66	0.039852522
117	0xbe2f0045	-0.17089947
118	0x3d32fd23	0.04369844
119	0xbdf42772	-0.11921586
120	0x3e2c8a5c	0.16849655
121	0x3dfd2a1f	0.123615496
122	0x3deed4c9	0.11661679
123	0x3d1938bb	0.037407618
124	0xbd7d9927	-0.061913636
125	0x3e01952f	0.12654565
126	0x3d711eab	0.058867138
127	0x3dc599c0	0.09648466
128	0xbd24d327	-0.040240433
129	0x3e2719f4	0.16318494
130	0xbdd79bb6	-0.105277464
131	0xbe0b3bb0	-0.13596988
132	0x3d98200b	0.07427987
133	0x3e1f1c6e	0.15538189
134	0x3d5bcfb9	0.053664897
135	0xbd1aaf6a	-0.037764944
136	0xbe13613b	-0.14392559
137	0x3e094bdb	0.13407843
138	0xbe24cb94	-0.16093284
139	0xbd887e62	-0.066647306
140	0x3ddc8656	0.1076781
141	0xbdd39ea0	-0.1033299
142	0xbdb8fe7d	-0.09032915
143	0xbd9935d8	-0.07480973
144	0x3da57ce9	0.08080465
145	0xbd246d74	-0.040143445
146	0x3cb8df4d	0.022567416
147	0xbd40cf42	-0.047072656
148	0x3db02859	0.08601446
149	0x3e2c11bc	0.1680364
150	0xb9ab1ff7	-0.00032639477
151	0x3d14be77	0.036314454
152	0xba8ffee1	-0.0010985994
153	0x3de0f3b7	0.10983985
154	0x3dfc466e	0.12318121
155	0x3db6def2	0.08929242
156	0x3dd73b54	0.10509363
157	0xbd0a2bd1	-0.033733193
158	0x3d277c53	0.04089005
159	0xbe136b5b	-0.14396422
160	0x3d36cb53	0.0446275
161	0xbd6207fc	-0.055183396
162	0xbcb1fc15	-0.021726647
163	0xbe020f86	-0.12701234
164	0x3c8587bd	0.016300077
165	0x3d9d579a	0.07682724
166	0x3da9720a	0.08273704
167	0xbd09f173	-0.03367753
168	0xbbeff83d	-0.0073232935
169	0x3e23c46d	0.15992899
170	0x3c848f59	0.016181635
171	0x3e0f18e8	0.13974345
172	0x3e1fd627	0.15609036
173	0x3e2e5b71	0.1702707
174	0x3de8f656	0.1137511
175	0x3dc87fee	0.09790026
176	0x3e2de608	0.16982281
177	0xbc28088f	-0.010255947
178	0x3e07f047	0.13275252
179	0xbd63821b	-0.055544
180	0xbd3e0689	-0.04639295
181	0x3dae64de	0.08515333
182	0xbd671d09	-0.056424174
183	0xba9e3086	-0.0012068904
184	0x3d3a1f80	0.045440197
185	0x3d6558c8	0.05599287
186	0x3d10439a	0.03522072
187	0xbbcaed8f	-0.00619287
188	0x3dc7f9e8	0.09764463
189	0x3e4827bb	0.19546406
190	0xbd10a6f6	-0.035315476
191	0x3e06d5c3	0.13167481
192	0x3dc755bf	0.09733152
193	0x3e033510	0.1281321
194	0x3e21f7a5	0.15817125
195	0xbcc25963	-0.023724264
196	0xbd00929c	-0.031389818
197	0xbd78e0f0	-0.060761392
198	0xbcef9130	-0.029244035
199	0xbca357a5	-0.019939253
200	0xbd347652	-0.04405815
201	0x3e11c1b0	0.14234042
202	0x3d5fc5b4	0.054631904
203	0xbd0e68ee	-0.034768037
204	0x3da34e86	0.079739615
205	0x3d18f3ae	0.037341766
206	0x3d22a93f	0.039712187
207	0x3da18790	0.078871846
208	0xbd9ef2d4	-0.077611595
209	0xbbddc55c	-0.006767912
210	0x3e08b441	0.13350011
211	0x3de408ac	0.111344665
212	0x3e0a2ff5	0.13494857
213	0xbd2f8abf	-0.042856928
214	0x3cc41fe9	0.023940997
215	0x3dc7e180	0.097598076
216	0x3c94f27d	0.018182034
217	0x3dc300a4	0.095216066
218	0x3dcf2db5	0.1011614
219	0x3d4b448f	0.04962593
220	0x3e016892	0.12637547
221	0xbdbfc4f5	-0.093637384
222	0xbe0f7811	-0.14010645
223	0xbe2a2d8b	-0.16618936
224	0x3e35b997	0.17746578
225	0xbd8efc33	-0.06981697
226	0xbe157878	-0.14596736
227	0x3cd3a022	0.025833193
228	0xbccc81be	-0.02496421
229	0x3d3516af	0.044211086
230	0xbc3a9599	-0.011388206
231	0x3ded8daf	0.115992896
232	0xbe19c330	-0.15015864
233	0xbe3d824c	-0.18506736
234	0x3e3fce9f	0.18731163
235	0xbd80ce7d	-0.062893845
236	0x3d99ee5b	0.07516166
237	0x3d12e075	0.03585859
238	0x3d5119c3	0.05104996
239	0xbd994497	-0.074837856
240	0x3d2305de	0.039800517
241	0xbd9f115c	-0.07766983
242	0x3e0d802c	0.13818425
243	0x3d469de8	0.048490435
244	0x3d9dbdda	0.07702227
245	0x3e040af6	0.12894806
246	0x3d7ea8be	0.062172644
247	0x3dcf4445	0.10120443
248	0x3e126d8c	0.14299601
249	0xbdced98b	-0.10100087
250	0x3e111ec0	0.14171886
251	0xbc767913	-0.015043515
252	0x3e2891d7	0.16461883
253	0xbb4841e6	-0.0030556857
254	0x3d2b525e	0.0418266
255	0x3db14f7d	0.08657739

fc2.weight f4 [128, 256]
0	0xbc065717	-0.008199475
1	0x3db4e114	0.08831993
2	0xbd49364c	-0.049124047
3	0x3c3d9552	0.011571245
4	0xbce8ab3a	-0.02840196
5	0x3d6cc5f3	0.057805967
6	0x3d4f3b4b	0.050593656
7	0x3db98ce1	0.09060074
8	0x3c34550f	0.011006608
9	0x3da6bc9c	0.08141443
10	0x3dd05f99	0.10174484
11	0x3c5bdb34	0.013418961
12	0x3d7ce46e	0.061741285
13	0xbd138859	-0.036018703
14	0xbd88b6d2	-0.06675495
15	0xbcb0433d	-0.021516437
16	0x3d88c741	0.0667863
17	0x3cf86e71	0.0303261
18	0xbdec8be4	-0.115501195
19	0xbd4021b7	-0.046907153
20	0x3d0663f1	0.032810155
21	0x3d1576f8	0.03649041
22	0x3c499ff7	0.012306205
23	0xbd6fcf95	-0.058547575
24	0xbd740937	-0.0595791
25	0xbd41cb03	-0.047312748
26	0xbc1ea59c	-0.009683039
27	0xbd7318f8	-0.059349984
28	0xbd55af5e	-0.052169196
29	0x3da05fb5	0.07830755
30	0x3d636a1f	0.055521127
31	0x3b48b26a	0.0030623921
32	0xbdd5a1b3	-0.10431232
33	0x3d50e743	0.0510018
34	0x3dc4c144	0.09607175
35	0x3d7f8cc8	0.06239012
36	0x3d81c9be	0.063373074
37	0xbcf717e5	-0.030162761
38	0xbddb27d9	-0.1070096
39	0xbd5427c0	-0.05179572
40	0xbe094ee9	-0.13409008
41	0x3e157691	0.1459601
42	0xbd00db82	-0.03145934
43	0x3d765e3c	0.060148463
44	0xbd10761a	-0.03526888
45	0x3d37682a	0.044777073
46	0x3cf5aba1	0.029989066
47	0xbd438ed4	-0.047743633
48	0xbc310702	-0.010804893
49	0xbcc41871	-0.023937436
50	0x3cbc36f6	0.022975426
51	0xbc3a9f04	-0.011390451
52	0x3cec6f65	0.02886171
53	0x3e0ab535	0.13545687
54	0xbd59c9d8	-0.05317101
55	0x3e0e3ed1	0.1389115
56	0xbdb39eae	-0.087705
57	0xbc515200	-0.012775898
58	0x3c4b3fad	0.012405318
59	0x3b44200a	0.0029926323
60	0x3df6a6d5	0.120435394
61	0x3db1e852	0.0868689
62	0x3e00da6f	0.12583326
63	0x3c4309c3	0.011904183
64	0xbcca8a86	-0.024724256
65	0x3c2567fd	0.0100955935
66	0xbace3232	-0.0015731512
67	0x3d357326	0.044299267
68	0x3c8c3267	0.017113877
69	0xbc3a66c8	-0.011377044
70	0x3c961854	0.018322147
71	0x3ba2ba6f	0.0049660723
72	0xbc46b058	-0.012127005
73	0xbda56cac	-0.08077368
74	0xbc4daa63	-0.01255283
75	0x3ddf9b97	0.10918348
76	0xbd214b3e	-0.039378397
77	0x3cca53bf	0.024698136
78	0xbc6a9870	-0.0143185705
79	0x3d3a995c	0.04555641
80	0x3a52b7ef	0.00080382725
81	0xbd98d3bd	-0.07462261
82	0xbc2c7e24	-0.010528121
83	0x3cffc3ae	0.031221237
84	0x3c8e934f	0.017404227
85	0xb85456ec	-5.062569e-05
86	0xbce69ccb	-0.028150937
87	0x3dc5ed7a	0.09664436
88	0x3d174b13	0.03693683
89	0x3d2e7d3e	0.04259991
90	0x3e0d7ef8	0.13817966
91	0xbbb8bb6e	-0.0056375777
92	0xbd95c30a	-0.073125914
93	0xbd878a2d	-0.06618152
94	0xbc0be606	-0.008538729
95	0x3bd5e7eb	0.006527891
96	0x3cea1c08	0.02857782
97	0x3ca17a97	0.019711776
98	0xbc172c68	-0.009226896
99	0x3d1f7860	0.038933158
100	0xbd82b67a	-0.06382461
101	0x3d100eb1	0.03517026
102	0x3d11b15e	0.03556954
103	0xbc4c98f1	-0.012487636
104	0xbdda1816	-0.10649125
105	0x3c3c6243	0.011498037
106	0xbdb7e927	-0.08980017
107	0x3d5b0ce2	0.053479083
108	0xbcb27b22	-0.02178723
109	0x3d3fba23	0.046808373
110	0x3cc3638d	0.02385118
111	0x3d7ca114	0.061677054
112	0xbafb7cf6	-0.0019187022
113	0x3bffd299	0.0078070876
114	0x3d432332	0.047640987
115	0xbcea9e13	-0.028639829
116	0x3dea8529	0.114511795
117	0x3dd1b04c	0.10238704
118	0xbdba9cb6	-0.091119215
119	0xbd9ec129	-0.07751686
120	0xbdb36fad	-0.08761535
121	0xbab91c16	-0.001412275
122	0xbd3c6e27	-0.046003487
123	0xbc8daa0a	-0.017292995
124	0x3d797f2e	0.060912304
125	0x3cb31a7e	0.021863218
126	0x3ce2512e	0.0276266
127	0x3e0f4f12	0.13995007
128	0xbcdb4adc	-0.026769094
129	0x3d7d2a9d	0.061808217
130	0xbda2dfcd	-0.07952843
131	0xbdbcdb7d	-0.092215516
132	0x3dd2b54d	0.10288487
133	0xbd9f9fb1	-0.077941306
134	0xbd836ebd	-0.06417606
135	0x3dadba5d	0.084828116
136	0xbd71cf1b	-0.0590354
137	0xbbe840ac	-0.0070877876
138	0x3e0f3eb4	0.13988763
139	0x3d44fe8c	0.048094317
140	0x3d5d4954	0.05402501
141	0x3d3ad58b	0.045613807
142	0xbd55e765	-0.05222263
143	0x3ca25e36	0.019820314
144	0x3d6c3037	0.05766317
145	0x3d6d6d4e	0.05796557
146	0xbdfe33da	-0.12412234
147	0xbd230699	-0.039801214
148	0xbd8133d3	-0.06308713
149	0x3d30bda6	0.043149613
150	0x3c8c8081	0.01715112
151	0x3da2a286	0.07941155
152	0xbdc390d0	-0.09549105
153	0x3d04c449	0.032413755
154	0x3b69d4fe	0.0035679932
155	0x3cb42726	0.021991324
156	0x3e07d3a2	0.13264325
157	0x3dafb0a9	0.08578617
158	0xbc49d409	-0.0123186195
159	0x3df167c5	0.117873706
160	0xbc532fcf	-0.012889816
161	0x3d5d2890	0.05399376
162	0xbd2c7864	-0.042107
163	0x3dd957d3	0.10612454
164	0xbd04c3e3	-0.032413375
165	0xbd65cd05	-0.056103725
166	0x3c70bf93	0.014694112
167	0xb9afcbc0	-0.00033530407
168	0x3d02f2ab	0.031969707
169	0xbcfff62f	-0.03124532
170	0x3b9a6904	0.004712226
171	0x3c85fe49	0.016356604
172	0xbc270fbc	-0.010196622
173	0x3b1e09cb	0.0024114724
174	0x3d137ab1	0.03600568
175	0x3d4d3332	0.05009765
176	0x3d8bfe8e	0.06835662
177	0x3dd1662e	0.10224567
178	0xbdf452d2	-0.11929859
179	0x3d816738	0.063185155
180	0xbdb45265	-0.08804778
181	0xbdc8e226	-0.098087594
182	0x3d6e1ba7	0.05813184
183	0xbd8f5e03	-0.07000353
184	0x3cf2906b	0.02960988
185	0xbba0c59d	-0.00490637
186	0x3d1f3d25	0.03887667
187	0x3e056cd3	0.13029794
188	0x3c39d0e6	0.011341309
189	0x3d47a1f9	0.048738454
190	0x3dce45fd	0.10071943
191	0xbcb45495	-0.022012988
192	0x3bc075db	0.0058734245
193	0xbda38ef8	-0.079862535
194	0xbdc4b296	-0.09604375
195	0xbdb64005	-0.088989295
196	0xbd833add	-0.06407712
197	0x3da11f49	0.07867295
198	0x3dc18a4a	0.09450205
199	0xbe34c645	-0.17653759
200	0xbd1b920c	-0.037981078
201	0xbd331dca	-0.04372958
202	0x3d9a93c3	0.075477146
203	0xbc5dc814	-0.013536472
204	0xbd4519db	-0.04812036
205	0xbc7d6c68	-0.015467741
206	0xbd69b387	-0.057055976
207	0xbd815bdc	-0.06316349
208	0xbab93cf1	-0.0014132542
209	0x3cb184e1	0.021669807
210	0x3d2b56e0	0.041830897
211	0x3ddb84c0	0.107186794
212	0xbb05b71e	-0.0020403336
213	0x3c3ca21a	0.011513257
214	0xbd739f67	-0.05947819
215	0x3dc9de48	0.0985685
216	0xbbb79b90	-0.0056032613
217	0x3d86715f	0.065645926
218	0xbdf9366f	-0.121685855
219	0x3b882a59	0.004155439
220	0x3a50c87f	0.00079644466
221	0x3b217a82	0.002463967
222	0xbdb8933e	-0.09012459
223	0x3d5d674b	0.054053586
224	0x3d4bbe25	0.049741883
225	0xbd57d351	-0.05269176
226	0xbd5f6067	-0.054535296
227	0x3ba11be5	0.0049166554
228	0x3d73ddc8	0.05953768
229	0xbd9fb45e	-0.07798074
230	0x3df25dd5	0.11834303
231	0x3dc4f4bd	0.096169926
232	0x3d428f07	0.047499683
233	0x3da10eeb	0.078641735
234	0x3bfb4967	0.0076686624
235	0xbd2197bd	-0.03945135
236	0x3bcd4319	0.006264102
237	0x3d98a6cd	0.0745369
238	0xbd84628f	-0.06464111
239	0xba2f47ee	-0.00066864386
240	0xbd1c7a12	-0.038202353
241	0xbcb6bd44	-0.022307046
242	0xbdca8960	-0.098894835
243	0xbd13e791	-0.03610951
244	0xbb10f2ce	-0.002211738
245	0xbd32fc6b	-0.043697756
246	0x3c5a46f2	0.013322579
247	0xbde7927f	-0.11307239
248	0xbdd4a1a0	-0.1038239
249	0x3cf7a97a	0.03023218
250	0x3c970517	0.018435044
251	0x3dd09bd3	0.10185971
252	0xbd440076	-0.047852002
253	0x3d612f5f	0.054976817
254	0x3dc7fc71	0.09764946
255	0xbd40b84c	-0.04705076

fc2.bias f4 [128]
0	0x3ca7f235	0.020501235
1	0xbd39ece4	-0.045391932
2	0xbbb0e33f	-0.0053981836
3	0xbd1a6934	-0.037697986
4	0xbd567037	-0.05235311
5	0x3d6cdc89	0.057827506
6	0xba91f9cc	-0.0011137067
7	0xbd16d95e	-0.03682839
8	0xbc77c761	-0.015123219
9	0x3d7492c3	0.059710275
10	0x3d558410	0.052127898
11	0xbd45a1fc	-0.048250183
12	0xbd0e27bb	-0.03470586
13	0x3c6ddacc	0.014517497
14	0xbcf027cd	-0.029315853
15	0x3d110f55	0.035415012
16	0x3c90a788	0.01765801
17	0x3d4f83ea	0.050662912
18	0xbd2e1262	-0.042498
19	0xbd2de224	-0.042451993
20	0xbc062683	-0.008187893
21	0xbd39940d	-0.045307208
22	0xbda58799	-0.08082504
23	0xbc2317a6	-0.009954369
24	0xbce7646f	-0.028246133
25	0xbcd9c7fd	-0.02658462
26	0xbce06233	-0.027390575
27	0x3d3c975c	0.046042785
28	0x3a437170	0.0007455563
29	0x3be06c64	0.0068488587
30	0xbd076ed6	-0.033064686
31	0xbd21071f	-0.03931343
32	0xbd18bc5d	-0.037289012
33	0xbc7057f8	-0.014669411
34	0xbcf4ff71	-0.02990696
35	0x3c6cf6b2	0.014463114
36	0x3c7c1a2a	0.015387097
37	0xbccc2ba6	-0.024923157
38	0x3b59ca41	0.0033232125
39	0xbcf0aaa3	-0.02937824
40	0x3d8ef167	0.069796376
41	0xbc99fcf6	-0.018797379
42	0xbbc32cd9	-0.005956274
43	0xbc7e6385	-0.015526657
44	0xbd1283c4	-0.035770193
45	0x3d4743aa	0.048648514
46	0x3b86b34d	0.00411073
47	0xbc4935cb	-0.012280892
48	0x3c53d572	0.012929307
49	0x3d3ffcfe	0.04687213
50	0x3cd87bc6	0.026426207
51	0xbce1c22c	-0.027558409
52	0xbb46605a	-0.0030269832
53	0x3a8a53e2	0.0010553563
54	0xbd1c2a8c	-0.038126513
55	0x3d757ff5	0.059936482
56	0x3c75354c	0.01496632
57	0x3ca0fc38	0.019651517
58	0x3d3ffd07	0.046872165
59	0xbbb99c0e	-0.005664355
60	0xbbc406d2	-0.0059822584
61	0x3d729f4a	0.05923394
62	0x3ca6e271	0.020371648
63	0x3d4a4ae1	0.049387816
64	0xbd4fec0b	-0.050762217
65	0x3d37c881	0.04486895
66	0xbcb63b14	-0.022244968
67	0x3ce8e073	0.028427338
68	0xbbeebea5	-0.00728591
69	0x3bef0e89	0.007295434
70	0xbb7b833c	-0.0038377782
71	0x3d94bbd9	0.072623916
72	0x3c7b91ff	0.015354632
73	0x3d8ab3b3	0.06772556
74	0xbc87ef98	-0.01659374
75	0x3d259e23	0.040434014
76	0xbd8c9da1	-0.06866003
77	0x3d288c2c	0.041149303
78	0x3d73834f	0.059451398
79	0x3da63997	0.08116453
80	0xbd63924f	-0.055559453
81	0xbc1110df	-0.00885412
82	0x3d5b7846	0.0535815
83	0x3d0f5b24	0.034999028
84	0xbc50b941	-0.0127394805
85	0xbd9d5d55	-0.07683817
86	0x3cba0d3d	0.02271139
87	0x3cdd4290	0.027009279
88	0x3ca42757	0.02003829
89	0xbb7d76c4	-0.0038675526
90	0x3d81be26	0.06335096
91	0x3c600071	0.01367198
92	0x3d2abf69	0.04168645
93	0x3d718f41	0.05897451
94	0xbd344f37	-0.044020858
95	0x3d32a224	0.04361166
96	0xbcbb387a	-0.022854079
97	0x3c8b2907	0.016987337
98	0xbc836c77	-0.016042931
99	0xbcbe67ff	-0.023242949
100	0xbd684dcb	-0.056714814
101	0x3d4954d9	0.049153183
102	0x3d1587dd	0.036506522
103	0xbc0b9dd7	-0.008521519
104	0x3d61d2b4	0.055132583
105	0x3d794864	0.060860053
106	0xbd1e1764	-0.038596526
107	0x3dab5e36	0.08367579
108	0x3d42b674	0.047537282
109	0x3d2bba60	0.041925788
110	0xbc523e35	-0.012832214
111	0xbd88a11f	-0.066713564
112	0x3cd2da0e	0.025738742
113	0x3c8a9431	0.016916366
114	0x3db0850e	0.08619128
115	0x3cafe076	0.021469336
116	0x3ddf2f42	0.108976856
117	0x3d11e06d	0.03561442
118	0x3d22eb32	0.03977508
119	0x3d28acd6	0.041180454
120	0xbd599123	-0.05311693
121	0x3cf45d5a	0.02982967
122	0x3c0f83b8	0.008759432
123	0x3d80c633	0.062878035
124	0xbbd3139d	-0.006441547
125	0xbcf6168f	-0.030040054
126	0xbd3333e5	-0.043750662
127	0xbbc182b7	-0.005905475

fc3.weight f4 [4, 128]
0	0x3d851ecf	0.06500017
1	0x3d73883c	0.059456095
2	0xbd3e8356	-0.04651197
3	0x3dc9d6a2	0.09855391
4	0xbcca2afe	-0.024678703
5	0xbcabbe6d	-0.020964826
6	0x3cd04fe3	0.025428718
7	0x3c9f0b99	0.01941471
8	0x3a376bb1	0.0006996943
9	0xbd3e0971	-0.046395723
10	0x3d8ad313	0.067785405
11	0x3db9c9b8	0.09071678
12	0x3cc13a4a	0.023587365
13	0x3d233ebe	0.039854757
14	0x3ae3c1b6	0.0017376456
15	0x3db01f05	0.085996665
16	0x3c78bfc5	0.01518244
17	0x3d30b40d	0.04314046
18	0x3cd0c861	0.025486173
19	0xbc95d893	-0.018291747
20	0x3b493f2e	0.0030707824
21	0x3d35a458	0.044346184
22	0x3cd62e8f	0.026145248
23	0x3baca5ed	0.0052688033
24	0xbd599207	-0.05311778
25	0x3cac9ef4	0.021071889
26	0xbd06565e	-0.03279721
27	0xbcfd826e	-0.030945983
28	0xbc5b2647	-0.013375825
29	0x3d7316fa	0.059348084
30	0x3cf81bbe	0.030286666
31	0x3cd24580	0.025667906
32	0xbcace963	-0.021107381
33	0x3ad0e855	0.0015938381
34	0x3c86cb92	0.016454492
35	0xbd227a8e	-0.03966766
36	0xbd62929c	-0.0553156
37	0xbd1144ed	-0.035466123
38	0xbcb039df	-0.02151197
39	0x3da16220	0.07880044
40	0x3debcafd	0.11513326
41	0xbd097342	-0.033557184
42	0x3bf86896	0.007580827
43	0x3cc9585d	0.024578268
44	0x3d3fbfb5	0.046813685
45	0x3dd38760	0.10328555
46	0x3d2c7659	0.042105053
47	0xbd0f2090	-0.034943163
48	0x3c8ade31	0.016951652
49	0x3cc4a867	0.024006082
50	0xbd6dab06	-0.05802443
51	0x3bf2e8ad	0.007412991
52	0xbcff208d	-0.031143451
53	0x3d3b0edd	0.04566847
54	0xbc97c31c	-0.018525653
55	0x3d85fd89	0.065424986
56	0x3c9a38ee	0.018825974
57	0xbd1f617f	-0.03891134
58	0xbd1510aa	-0.036392845
59	0xbcceeacc	-0.025258444
60	0x3d404c6f	0.046947893
61	0xbd546bab	-0.051860493
62	0xbcdfb6e6	-0.027308892
63	0x3d9af416	0.07566087
64	0xba737339	-0.0009286884
65	0xbb4a78cc	-0.0030894754
66	0xb7f19c54	-2.8802235e-05
67	0x3d32c4ad	0.043644596
68	0x3d8701e1	0.06592155
69	0x3d7dfb40	0.06200719
70	0xbc04b1cf	-0.0080990335
71	0xbd3dd650	-0.046346962
72	0x3afdc86e	0.0019362101
73	0xbe1d9780	-0.15389824
74	0x3b7c6adc	0.0038515842
75	0xbd0458bc	-0.032311186
76	0x3d499dce	0.04922276
77	0x3c967756	0.01836745
78	0x3d239a14	0.039941862
79	0xbcbfe19b	-0.023423007
80	0x3c847c14	0.016172446
81	0x3a8d553c	0.0010782848
82	0x3d085d7e	0.033292286
83	0xbc69b771	-0.014264927
84	0xbc765fd0	-0.015037492
85	0x3c739f88	0.014869578
86	0x3bc37c73	0.0059657632
87	0x3d580c63	0.052746188
88	0xbb06d0b0	-0.0020571165
89	0xbba265f0	-0.0049559996
90	0x3d472c87	0.04862645
91	0xbbbf5b67	-0.0058397534
92	0xbce9592a	-0.0284849
93	0xbbfe01ff	-0.007751703
94	0x3da1ae35	0.078945555
95	0x3da0897d	0.07838724
96	0x3c5ee185	0.013603573
97	0x3d49c57d	0.049260605
98	0x3a32081a	0.00067913684
99	0x3d40eaaa	0.047098793
100	0xbcdfafab	-0.027305445
101	0xbd088fad	-0.033340145
102	0x3cf778f0	0.030209035
103	0xbd210a0f	-0.039316233
104	0xbd15a42a	-0.036533512
105	0xbd290c25	-0.041271348
106	0xbc9ce811	-0.019153627
107	0x3ad16d1e	0.0015977954
108	0x3d903dd7	0.07043045
109	0xbda90fb0	-0.08254945
110	0xbb505d91	-0.0031794051
111	0x3cfacc5a	0.03061502
112	0x3d620d28	0.055188328
113	0x3c8b37fb	0.016994467
114	0xbd470c69	-0.04859582
115	0x3c5e1c96	0.01355662
116	0xbcc81084	-0.024421938
117	0x3cd8ad44	0.026449807
118	0x3ced072d	0.028934086
119	0xbc6bff27	-0.014404095
120	0xbd0a6f72	-0.03379769
121	0x3cd22fb3	0.02565751
122	0xbd4ce087	-0.050018813
123	0xbd00f62b	-0.031484764
124	0xbd853d9d	-0.065058924
125	0xbc9d9019	-0.01923375
126	0x3d24417f	0.040101524
127	0x3d3602be	0.04443621
128	0xbb9ba52b	-0.004749914
129	0x3d7682c2	0.060183294
130	0xbc86f552	-0.0164744
131	0x3c46f80d	0.012144101
132	0x3d393873	0.04521985
133	0x3d63e854	0.055641487
134	0xbce2f78c	-0.02770593
135	0x3d0d360f	0.034475382
136	0x3d56b252	0.052416153
137	0xbd9b5098	-0.075837314
138	0xbd16646d	-0.036716867
139	0xbb43528e	-0.0029803845
140	0xbd16d1d6	-0.03682121
141	0x3c905395	0.01761798
142	0x3dceb5d3	0.10093274
143	0x3c947c97	0.018125815
144	0xbcf3e56a	-0.02977248
145	0xbcb462ea	-0.022019822
146	0x3dee018c	0.11621389
147	0x3d547862	0.05187262
148	0x3d4d5bed	0.050136495
149	0x3d45ba63	0.048273455
150	0x3d916128	0.07098609
151	0x3de7b1f7	0.11313241
152	0x3d861bd9	0.0654828
153	0xbbcca0e8	-0.0062447675
154	0x3d6616d7	0.056174126
155	0x3ca67094	0.020317353
156	0x3abbcb9d	0.0014327649
157	0xbac79783	-0.0015227649
158	0xbd48253b	-0.04886363
159	0x3d6619bf	0.056176897
160	0x3cc50633	0.024050808
161	0xbcd84d99	-0.026404189
162	0xbd4b539c	-0.049640283
163	0x3d5d88cb	0.054085534
164	0x3d225bff	0.039638516
165	0x3db8ff30	0.09033048
166	0x3d569d1e	0.052395932
167	0xbd321365	-0.043475527
168	0xbd70a4d9	-0.05875096
169	0x3d475f8f	0.048675116
170	0x3d094777	0.03351542
171	0xbb76e8ed	-0.0037675456
172	0x3d720f40	0.059096575
173	0xbcb1f946	-0.021725308
174	0xbcc1e527	-0.023668839
175	0x3c90645e	0.017625984
176	0xbd2b3c3f	-0.041805502
177	0xbd3af551	-0.04564411
178	0xbb921daa	-0.0044591026
179	0x3d54ec79	0.05198333
180	0x3b37b8f0	0.0028033815
181	0xbd5b6959	-0.053567264
182	0x3d067305	0.032824535
183	0xbd637671	-0.055532876
184	0xbc0067b1	-0.007837222
185	0x3d6440bd	0.0557258
186	0x3d9ae738	0.07563633
187	0x3d83eef6	0.064420626
188	0x3a010c6d	0.0004922811
189	0xbcc1a325	-0.023637364
190	0xbc2b0ecf	-0.010440542
191	0xbc08d8d5	-0.008352478
192	0x3d3a44fe	0.045475952
193	0x3d5c2bab	0.053752583
194	0x3dad2b58	0.08455533
195	0xbda06eea	-0.07833655
196	0x3ce59d31	0.028029056
197	0x3a0bbff0	0.000533103
198	0x3da35e60	0.07976985
199	0xbbae59df	-0.005320772
200	0x3c50227a	0.012703532
201	0xbd8acd21	-0.067774065
202	0x3cb60c1d	0.022222573
203	0x3d68dcbb	0.05685113
204	0x3d5445b0	0.05182427
205	0x3d899300	0.06717491
206	0xbdb31eaa	-0.08746083
207	0x3d9c20b1	0.07623423
208	0x3d7cace9	0.061688337
209	0x3d4e0cbf	0.050305124
210	0xbcd7709c	-0.026298814
211	0x3bc0a544	0.005879076
212	0xbcaa2d13	-0.020773446
213	0x3d561907	0.05226996
214	0x3b6c6d85	0.003607602
215	0x3d7ee5b5	0.062230784
216	0x3d9fb659	0.07798452
217	0x3d9433a6	0.07236414
218	0xbcb85a79	-0.022504078
219	0x3da7a3f7	0.08185571
220	0x3cae6468	0.021288112
221	0xbd3dfc40	-0.046383142
222	0xbce5392f	-0.027981369
223	0xbceab862	-0.028652374
224	0x3b55e891	0.003263984
225	0xbc0ff42a	-0.008786241
226	0x3ce5a9cf	0.028035073
227	0xbd0b14e2	-0.033955462
228	0x3cbd125a	0.02308004
229	0x3d636962	0.055520423
230	0x3bdd4eec	0.006753793
231	0x3dc011c6	0.0937839
232	0x3d63d262	0.05562056
233	0xbd8b9432	-0.068153754
234	0xbb0f84c4	-0.0021899203
235	0xbd101b19	-0.035182092
236	0xbcc58f63	-0.024116224
237	0xbe0c87e4	-0.13723713
238	0xbbbadb31	-0.005702399
239	0x3d5b8747	0.053595807
240	0x3cbda0c2	0.023147944
241	0xbd77695f	-0.060403224
242	0x3d378af8	0.044810265
243	0xbd361d23	-0.04446138
244	0xbd6da707	-0.058020618
245	0x3aac9211	0.001316609
246	0x3d8a0034	0.0673832
247	0x3dd17bcb	0.1022869
248	0x3d237b02	0.03991223
249	0xbcd8e1cc	-0.026474856
250	0xbbac1b3d	-0.0052522705
251	0x3d216064	0.039398566
252	0xbb869481	-0.0041070585
253	0x3d1cf42a	0.03831879
254	0x3d3134c6	0.04326322
255	0xbc87db32	-0.016584013

fc3.bias f4 [4]
0	0x3c8ddad4	0.01731626
1	0xbdabea53	-0.08394303
2	0x3cba8584	0.022768743
3	0xbd7ae574	-0.06125398
