savedmodels/checkpoint_1545158393_actor_episode125_score33.590.pth (torch_old, 169478 bytes, 6 tensors)

fc1.weight f4 [256, 33]
00000000: 9c56 55bc 76bd 13bd e365 abbd 5d08 073d
00000010: ac11 b9bc 6cd5 063e e85f c4bd a14a b6bc
00000020: 974a c4bc 8612 89bd 6eef 08be 4438 aa3b
00000030: 4ced 5abd 1da0 b73d eff3 2b3e 78f1 283e
00000040: 6349 c63c 8833 573c 4851 15bd e263 47bd
00000050: c3b9 23bc 302e 713d 94f0 193e 2db0 6bbd
00000060: 9a52 6f3d 2da3 45bd 1fa2 83bd 1540 5d3d
00000070: 3525 e9bd 702a 013d 05f6 aabc 7400 e93c
00000080: 3719 e5be 390a fcbd 9c69 01be b5ea 43bd
00000090: 92fd dd3d b6d6 cf3d 3f58 453d 38d8 693c
000000a0: 5399 5d3c e3e7 ad3d d7cc 46bc 9143 c1bd
000000b0: 334d 153e 2b75 cd3d eb23 383c f215 c03d
000000c0: 48f3 bbbd 83b6 a03d 3820 5a3d 177f ddbc
000000d0: f5c7 7dbc 3c89 8039 6383 0fbd c2ca e43b
000000e0: 639e cabb 6fcb 973b 20ff 313d 9674 a2bd
000000f0: 3dcd d4bc 4150 443e ca5b 71bd 8a19 1a3d
00000100: 1a4e 543d 7c89 66be 084f 00be 0fd1 cebc
00000110: 2401 3fbc d3a3 bb3d d534 903d d962 99bd
00000120: 8701 6f3d 169d 8ebd cb09 383d 157a 65bd
00000130: 64a0 73bd 2a66 df3c e087 333d d64c 90bd
00000140: 44b8 4d3d 1885 9e3c a362 ce3d 09f3 b53c
00000150: d22f 93bc cd6f e03c 8436 6ebd fd4d 203d
00000160: f762 b53d fec0 00be ca3b 7d3c e749 b9bc
00000170: e82e 10be 03cf 30bd aaa1 22bd 2841 063d
00000180: f69a 9cbc 7ca1 12bd 534c 28be 3fb5 843c
00000190: 285c 81bc b53a f93c 8ea3 84bd 02c0 d53c
000001a0: 05dc 473d a85b d03d e607 c8bd d495 c1bd
000001b0: 4edd c7bc 6f63 01bd bd8f c4bd 6219 553d
000001c0: 52db 4abd f464 32be 0fcf 033d 781b 633d
000001d0: 0d82 9b3d 23dd d03c b7fe 163d 4e9c 54be
000001e0: 2c57 603d 13ec 81bd 2239 ecbc 9c01 22bd
000001f0: 070d 7fbd c5fd 283e cac9 f53c b803 31bd
00000200: 8c51 63bd 0661 d8b9 38cd 34bd 6b4b 203e
00000210: c0fc b43c d691 91bd e1c6 8d3d 2f77 70bb
00000220: 2cb1 873d 7fe7 98bd 9516 0e3e 4ab2 d5bc
00000230: 55e9 79bd 05a4 713d 0e82 d5bc a53b a7bd
00000240: 640e e5bb 98dd 4fbc 517b f93d c886 a5bc
00000250: 44a7 653b a9fd 32bb 2825 1a3e 957f 803c
00000260: 6526 c2bc 89a1 ec3c 7ce0 fbbc 76dd 9b3c
00000270: 2e0f c33d 5183 fdbd 5062 fe3d 6446 44be
00000280: fef8 9c3c b84f 373c 9432 503e 28a8 743d
00000290: 85a3 e6be e1a2 443d a516 0b3e 91b9 59be
000002a0: 089a 0abd d15c dd3d a054 1e3d 9ee0 acbd
000002b0: 8c10 d33d 9952 133b 79af d03c 030d 4a3c
000002c0: 4168 3abd 6837 d2bd eb46 b3bc 140c fabd
000002d0: e92b 813d d49f 71bc 7a16 83bd 3c57 71bd
000002e0: 3b78 86bb 7d2f 16be 80ea a4bd 9235 0dbc
000002f0: 7040 763c 479e 2dbd fe17 893d 2d40 d8bd
00000300: c1d2 4b3d f7ea 073e e88c bf3c 6d66 71bd
00000310: b44c 823c ed31 113e bdcd aebd 6b78 e43c
00000320: 6dbe 723b 4558 333d bf31 4f3d 1d4e 0b3d
00000330: 8881 0e3e a5e0 f6bb 3bfb 0d3d 1381 393d
00000340: 5203 3a3d 3c8c 84bc 1ce7 3abd e824 afbd
00000350: 610f c83d 3413 f4bd 041b d93d 27e2 fd3d
00000360: 1852 ea3d 113c ea3c ce96 023e 203f 3ebd
00000370: 5146 c0bd 51eb 343d c445 a63c 92aa 30be
00000380: b60b 8e3d 66f2 473c a19f c7bc 90ba 223d
00000390: af24 8dbd 3880 463c 9617 63be 51df 913c
000003a0: c90c b23d 13b0 3a3c e7c1 1f3d 06c5 6cbb
000003b0: 5564 94bd 39dd 9fba e20c ae3d 726a d1bd
000003c0: 7009 99bc 6aa6 613d 5a02 1c3a 6e8b 84bb
000003d0: e2a0 5b3e acd1 bbbc c02e cbbd 02a5 e53b
000003e0: f0e2 44bc 6c6a bc3c 2f0e 9d3d f4bd 54bc
000003f0: e298 90bd 4d9b 38bd 399d 133e a65b ba3c
-0.013021138 -0.036069356 -0.08369043 0.03296696 -0.022591434 0.13167351 -0.09588605 -0.022252383
-0.023961348 -0.06692986 -0.13372585 0.0051946957 -0.05344896 0.08966086 0.16792272 0.16498363
0.024204915 0.013134845 -0.03645447 -0.04867924 -0.0099930195 0.05888194 0.1503318 -0.05754106
0.058428384 -0.04825132 -0.064274065 0.05401619 -0.1138405 0.031534612 -0.020869264 0.028442599
-0.447458 -0.12306637 -0.12637943 -0.047831256 0.1083938 0.10148375 0.04817986 0.014272742
0.013525325 0.084914945 -0.012133799 -0.094367154 0.1458023 0.10032114 0.011239032 0.09379186
-0.091772616 0.07847311 0.053253382 -0.02703814 -0.015489568 0.0002451631 -0.03503741 0.0069821784
-0.006183432 0.0046324055 0.043456197 -0.07932393 -0.025976771 0.1917124 -0.058925427 0.037622012
0.051832296 -0.22513384 -0.12530148 -0.025246171 -0.011657987 0.09162106 0.07041327 -0.07489557
0.058351066 -0.069635555 0.044931214 -0.05602463 -0.059479132 0.027270395 0.043830752 -0.07045905
0.050224558 0.019350573 0.10077407 0.022210615 -0.017967138 0.02739706 -0.05815746 0.039136875
0.08856767 -0.1257362 0.015456149 -0.022618247 -0.14080393 -0.04316617 -0.039704956 0.03277698
-0.01911686 -0.035798535 -0.16435365 0.016199706 -0.015791014 0.030423502 -0.06476508 0.026092533
0.04879381 0.10173732 -0.097671315 -0.094524056 -0.024397518 -0.031588968 -0.095977284 0.05202616
-0.049525566 -0.17421323 0.03217989 0.055446118 0.075931646 0.025496071 0.03686401 -0.2076275
0.054770634 -0.06343856 -0.028835837 -0.039552316 -0.062268283 0.16503055 0.030003447 -0.043216437
-0.05549769 -0.0004127102 -0.044141024 0.1565377 0.022093177 -0.07107894 0.06922699 -0.0036692133
0.0662559 -0.074660294 0.13875802 -0.026085991 -0.06101354 0.05899431 -0.026062991 -0.08165673
-0.006990241 -0.012687109 0.12181724 -0.02020587 0.0035042325 -0.0027311838 0.15053236 0.015685836
-0.023699949 0.02888562 -0.03074669 0.0190265 0.0952438 -0.12378562 0.12421095 -0.19167477
0.019161697 0.01118844 0.20331794 0.05973068 -0.4504663 0.048006896 0.13582857 -0.21262194
-0.033838302 0.10808719 0.038654923 -0.0844128 0.103058904 0.0022479652 0.025474297 0.012332204
-0.04550958 -0.10264474 -0.021884402 -0.12209335 0.06307203 -0.014747579 -0.064007714 -0.058921084
-0.004103688 -0.14666553 -0.0805254 -0.008618729 0.015030012 -0.042387273 0.06694029 -0.105591156
0.049761537 0.13273226 0.023382619 -0.05893557 0.015905716 0.14179201 -0.08535335 0.027889451
0.0037039772 0.043785352 0.05058455 0.03401004 0.139166 -0.007534104 0.03466342 0.04528911
0.045413323 -0.01618015 -0.04563056 -0.08551961 0.09768558 -0.11917725 0.10600856 0.12396651
0.114414394 0.028593095 0.1275284 -0.04644692 -0.09388412 0.044169728 0.020296939 -0.17252567
0.069358274 0.012203788 -0.02436811 0.0397287 -0.068917625 0.012115531 -0.22176966 0.01780668
0.08693845 0.011394518 0.03900328 -0.0036128177 -0.07245699 -0.0012196667 0.08498551 -0.10225381
-0.018681258 0.055090345 0.0005951278 -0.0040449416 0.2144809 -0.022927128 -0.09921026 0.007008196
-0.012016997 0.022999965 0.07668721 -0.0129847415 -0.0706041 -0.04506998 0.14415444 0.02274878

fc1.bias f4 [256]
00000000: 6ea5 853d 8853 593e 6b0b 2bbc 40d1 dd3d
00000010: c579 183e 0295 61be ad6f 33be 0e81 e1bd
00000020: 78ff 413d 1407 ac3d e847 e7bd b8a2 643d
00000030: c992 8f3b 9a1b 2f3d 651f 283e 23fd 433d
00000040: 857c f0bd a29c 7fbc 3657 383e 2442 78bd
00000050: dafe 473c 5b23 0d3e 1810 4cbd c5d1 75bd
00000060: 6525 df3d 290f 9abd a864 0c3d 2e99 6a3d
00000070: e840 ac3c 8b6c 0c3e 1c78 c63d 0a06 00be
00000080: dd9a 3ebe e46d 1f3d 8b18 21bd 867c 65bd
00000090: 80cc 3a3e 9d6e b43d a2f2 25bd 4ffb 383e
000000a0: 313b ac3a 850f acbd 8dae 12ba 55e3 84bd
000000b0: 3df2 fcbd 5606 4cbd 956a 313e 39b5 cd3d
000000c0: efd6 2f3e 7cf5 d9bd 4852 a7bd 0654 353e
000000d0: 3ee4 8dbd a44d 02bd 293c 04be f49a 123e
000000e0: 98f4 91bd c226 8e3d 3f83 2b3d c097 92bb
000000f0: 16c5 ccbd 1932 0c3e e322 8cbd 3ea1 1e3c
00000100: d990 fabd 147f f63b 8f47 113e c764 303e
00000110: cfa4 1e3d 2625 60bc 4af8 f93d eede e83d
00000120: 0991 6abd 7a1d 82bd a3c9 933d 18a8 373e
00000130: 041a e13c fd5e 3e3d 633c 663e dd2d d4bd
00000140: cd01 783c 3269 ef3d 7fd7 103d 560f 88bc
00000150: 9c03 123e c245 0cbe f3c6 b33d 848a 4e3d
00000160: 6b9b 3a3e f5be a63d ebab 1b3e 16db a5bc
00000170: ed7b f03c 185b 78bd 86ff 3ebe 16ba c93d
00000180: c317 0e3e 7cac 07bd 151c ae3d ac5c cc3c
00000190: 5f5d bc3d 915a 22be 62b2 c43d 9f87 7fbd
000001a0: c37c 08be ed79 683e f2c9 f5bc 9f9c 3f3c
000001b0: 66a2 27bc 4124 09be 52a4 4b3e f7cb f63d
000001c0: c74b 34bd e7ef babc c4ac c63c f654 febc
000001d0: 84ef 613d 5fa6 10be 1e9b 3bbd 285b 1ebd
000001e0: 913e 213e 991b 1b3c 6cc3 233e 642f 72bd
000001f0: e6c0 11be aefb 113e fa40 f03d 9787 443d
00000200: 2137 dfb9 62ea 2f3e fa41 a1bd c0aa 25be
00000210: fca7 ed3d c6f8 2c3e ea2c b33d 3833 bdbc
00000220: 8e41 0fbe 592d 453d b441 5bbe 5c08 31be
00000230: 2d8f 333e fd59 11be 3ae4 1bbe e258 1dbd
00000240: baa4 ef3d 6bff f0bd 6d97 693d 7a96 fd3a
00000250: 81fd 923d 235d 223e 241d b73d d4bd aa3b
00000260: 7a93 423c ccbc 103e 86d5 203e 4180 4fbd
00000270: 9ea1 a13d 6b8e 893b cb75 a13d e031 51be
00000280: 5411 75ba 9580 f0bd 40e5 a2bd 34f7 77be
00000290: cc31 563d 4410 d1bd 4521 2f3d 8ba3 34bd
000002a0: 0707 5d3d dc14 e33d eea2 94bd dd37 003e
000002b0: 1f11 923e 826d fd3d 5f3e 963d 0a09 183e
000002c0: 0bab 553e de71 09bd f66a 1c3e d956 d8bd
000002d0: b669 babb b890 223e d7ca 56bd b522 1e3d
000002e0: d5eb 383d cd5b 303e c6ac fdbc a8c8 0fbd
000002f0: 142b f43d c2c7 763d 9bd7 38bd 970b fc3d
00000300: 45d2 f13d b449 243e 0fcd 4c3e 08ee e33c
00000310: 7181 8ebd 07c6 ebbb c2a0 663d d2c6 b3bb
00000320: e9c8 fabb 9289 b93d 6868 c73c f815 cebc
00000330: 6efe fdbc 3584 d4ba 3c5b 0b3e e9f2 153c
00000340: b9ec 85bd b9d7 fabc 469c 4f3e 8281 c53d
00000350: 8c42 153e 0561 563d 2e1d a23c e67c 303d
00000360: d58f af3d 246e 7b3d db15 ff3d baed 123e
00000370: 86f0 dc3d 9bc7 a9bd 892b f3bc 1c58 72be
00000380: 4f6c 323e 3ae5 bebd ed6a a5bd 66f0 31bd
00000390: 0bb6 ff3c 2177 6b3c 9afc ecbd 1c53 8d3d
000003a0: c77f 39be 3891 5abe 0afd 0e3e a422 70bc
000003b0: 99f4 863d 49a7 7ebc 260f 823d 3b55 b8bd
000003c0: 4cc8 09bd f348 0ebe b0b7 b73d 8810 b93c
000003d0: 63c0 f43d a6bb de3d faa0 003c 1253 783d
000003e0: 42e9 1b3e 4f66 8fbd 849f 723e 4e2a 8bbd
000003f0: 15b3 933d 8c9a 35bd 2c3f 943d 7d96 c63d
0.06525694 0.21223271 -0.010439734 0.10830927 0.14890201 -0.22029498 -0.1752307 -0.11010943
0.047362775 0.083997875 -0.11293012 0.055819243 0.004381512 0.042750932 0.16418226 0.04784883
-0.117425 -0.015601309 0.18002018 -0.06060995 0.012206757 0.13783018 -0.049820036 -0.060014505
0.10895804 -0.07522423 0.03427568 0.05727499 0.021027043 0.13713281 0.09690878 -0.12502304
-0.18613763 0.03892316 -0.039330047 -0.056026958 0.18242073 0.0881016 -0.040514596 0.18064617
0.0013140199 -0.084013976 -0.0005595468 -0.06488673 -0.12350891 -0.04981073 0.17325814 0.10044331
0.17171834 -0.106425256 -0.08169991 0.17707834 -0.06928299 -0.031812325 -0.12913574 0.14316922
-0.07126731 0.06940986 0.041873213 -0.0044736564 -0.09998529 0.13690986 -0.068425916 0.009681998
-0.12234659 0.007522473 0.14187454 0.17225944 0.038731392 -0.013680732 0.122055605 0.113706455
-0.057267223 -0.063532785 0.072161935 0.17935216 0.027478226 0.046477307 0.22483973 -0.1036031
0.015137148 0.11689986 0.035361763 -0.016608875 0.1425919 -0.13698485 0.08778181 0.050425068
0.1822335 0.08141891 0.152023 -0.02024607 0.029355967 -0.06063375 -0.18652162 0.09849946
0.13876252 -0.03312348 0.0850145 0.024946533 0.091974966 -0.15854861 0.09604336 -0.062385198
-0.13328843 0.22702761 -0.030003522 0.011695056 -0.01023159 -0.13392736 0.19886902 0.12050622
-0.04401758 -0.022819472 0.024252303 -0.031046372 0.05516006 -0.14125966 -0.04580223 -0.038661152
0.15746523 0.009467029 0.15992516 -0.059127226 -0.14233741 0.14256164 0.11731143 0.04798087
-0.0004257495 0.17179254 -0.07873912 -0.16178417 0.11604306 0.16891775 0.08748801 -0.023095712
-0.13989851 0.04813895 -0.21411783 -0.17288345 0.17535086 -0.14194484 -0.1522378 -0.038414843
0.11701341 -0.11767467 0.057029177 0.0019347214 0.07177258 0.15855841 0.08941105 0.0052106176
0.011875981 0.1413452 0.15706453 -0.05065942 0.07892154 0.0041978857 0.07883795 -0.20429182
-0.00093485904 -0.11743275 -0.07953882 -0.24215394 0.052293584 -0.102081805 0.042756338 -0.04410128
0.05396178 0.11087963 -0.07257639 0.1252131 0.28528687 0.123744026 0.07336115 0.14847198
0.20866029 -0.033555858 0.15275177 -0.1056344 -0.0056888713 0.15875518 -0.052439537 0.038607318
0.045146782 0.17222519 -0.030966174 -0.03510347 0.11922279 0.060249098 -0.045127492 0.12306898
0.11807684 0.1604374 0.20000099 0.027823463 -0.06958283 -0.0071952376 0.056305654 -0.0054863477
-0.007653345 0.090594426 0.024341777 -0.02515696 -0.03100511 -0.0016213717 0.13609022 0.009152153
-0.06539292 -0.030620443 0.20274457 0.09643842 0.14576167 0.05233862 0.019789305 0.043087862
0.08572356 0.061384335 0.124553405 0.14348498 0.10788064 -0.08290025 -0.029683845 -0.23666424
0.17424129 -0.09321065 -0.08077035 -0.043442152 0.031214735 0.014371664 -0.115716174 0.069006175
-0.1811515 -0.21344459 0.13963714 -0.0146566965 0.06589622 -0.015542814 0.063505456 -0.090006314
-0.033638284 -0.13895015 0.089705825 0.02259089 0.11950757 0.10875635 0.00785088 0.060626097
0.152257 -0.07001936 0.23693663 -0.06795178 0.072118916 -0.04433684 0.072386116 0.09696672

fc2.weight f4 [128, 256]
00000000: 1fac c7bd 6886 073e 905c dbbc 553c 06bc
00000010: a2f5 2dbe 49d7 aebd 88fa e03d 3a1d 213c
00000020: 3cf0 543d ee76 333e 923a 023e 54bd 013e
00000030: 1c68 103e 28e1 01bb 8712 71be 04ef 293b
00000040: bd5c a83d ea10 fcbc c06e 90bd ada9 3e3b
00000050: fa8a e83d 013d af3d 0e7f 9d3d 8908 5e3e
00000060: 132f 4ebe 22d9 d7bd 8cb3 fe3a 8f29 68be
00000070: 9665 63bd 58fd eb3d f2ee 2cbd b3cb 633e
00000080: f133 0e3e 7a1d 0b3b a7f6 acbd eb50 5abc
00000090: abd7 5b3d 472b 06be 15fb 73bb 11ef a73d
000000a0: e080 3abe 76cc cbbe 870a d33c c1da 143d
000000b0: cd2a 57bd e225 ac3d ec52 743c 2c95 803d
000000c0: 4701 243c 3b31 893d 2325 683d dec0 db3a
000000d0: 8f42 21be acb7 afbd c414 f03c f5af 443e
000000e0: 43a1 e0bd d9c7 b7bd f2a8 803d 701e cabc
000000f0: 52f2 4ebd b231 ca3d ae2d fe3c d052 a13d
00000100: ec57 3e3e 4aa5 04be 7bc1 ff3d af02 b93d
00000110: 80ba 173d 70d1 1dbd 48ac c03d 3f80 533d
00000120: fef7 383d 79d5 563e d3ad 8abd 0809 de3d
00000130: cb0c afbd ed1c d83d 65e4 953d 4ddb ee3d
00000140: a074 32be b7e5 513c c16a 033e 494e b73d
00000150: 4e97 1abb f61a ec3c 65c2 c3bb 2ba3 313e
00000160: 4660 9d3b 25c1 1bbe 7c6a 1a3d 9478 2c3d
00000170: 4d5f 203d 4dfc cd3b e68b f6bd 9063 9cbd
00000180: 7312 733c fa62 993d 7656 593d 1a91 1f3d
00000190: 5ec7 06bd a74f a63d 0b74 193c 069b 583d
000001a0: d129 e73d 2b2a ba3d 5dd7 ac3d 56f6 273e
000001b0: c0a0 f33c 1232 c33d dbd6 bc3c 25b9 e23d
000001c0: 8096 08bd dcc3 013e 997a ea3c 51c1 3a3c
000001d0: fd65 013e 197f 2b3d 0da7 fdbc 8fa3 b5bb
000001e0: 9dd1 3c3d d5ef dc3d 44fb c9bd 1c9f e93b
000001f0: 31a7 39bd 7e0a 0e3d 3b78 d43c 866a 583e
00000200: f44e c8bd 25f2 01bd d3f9 d2bb bee9 a23d
00000210: c7d8 3f3d d323 8ebd 18e4 dbbd cf89 2b3e
00000220: fd4f 3a3e 48b1 8d3e ed9d 983d 2dd1 9d3d
00000230: 44ee 8ebc a99c bd3d 42a1 913d e2aa ce3a
00000240: 0b21 de3d dd92 4dbe c3aa d3bd 0172 c6bd
00000250: f1db 2abd f69f c23d 4ec4 b9bd 9ed6 84bc
00000260: f2d8 27be 3e42 593e 1d32 863c d5f3 1b3d
00000270: 88e4 3abd 61bf 2d3e 6273 cfbc 7daf 1e3e
00000280: c08f f4bd 0a8f 1bbd d1a8 f6bc 0951 9d3e
00000290: d198 84bd 2141 623e 1146 c9bb d3bd 553d
000002a0: e2f5 c9bd a7a0 8cbd de3e fbbd e5cd 0c3d
000002b0: cf2c b63d 9bf1 16be f016 773d 9928 613d
000002c0: 491a 063e c2e6 143e 05e8 5b3e 6d49 ef3d
000002d0: 6002 53bd 8831 ac3d 59de 26bc 4d27 2fbe
000002e0: 014a c9bb 64ac a8bc 7eac 1b3d 8a86 663d
000002f0: 6fd1 65bd 7ab5 38ba f00d 273e f87f 223d
00000300: 34f0 2f3e 7cba a2bc 2b3a 96bd ffa4 8d3b
00000310: 0095 60bd 7148 d3bd d2ea 063e bdce 4ebe
00000320: 71e4 83bd 5ee6 a43c 6e5e 8b3d bc72 893d
00000330: 2df5 7a3e 7fd5 c63d fbf4 4dbd e666 4cbe
00000340: 4c99 f8bd 9706 cdbc 8c8f 94bd 8a7c 5b3e
00000350: 987c 863d 8728 1cbd 4b33 88be 663a 9a3d
00000360: 6c7e fb3b 63b7 023d 23d0 f23c b993 11bd
00000370: 280c 603d a2a4 0a3e f654 1cbe 2275 74ba
00000380: cb2a a83d 5b91 17be 4e85 0bbd cb60 143e
00000390: 0854 263d 7d10 dbbc 17a6 f23d 33b0 223e
000003a0: 48cd d83d a4b0 4f3e 6a97 bdbd 71b0 1e3e
000003b0: 7b1d 6a3d b409 0abd 1535 b8bd 789c 913d
000003c0: b8c9 363e 02bf f3bd 0e81 ebbb 4381 73bb
000003d0: acdf ce3a 0533 efbd bb1d a1bd c33d b2bd
000003e0: 8d52 92bc e357 13bc 38d5 c63c 609e 433d
000003f0: 2f4b b03d 3283 ad3d 8e32 3f3e c416 083e
-0.09749626 0.13234866 -0.026777536 -0.008193095 -0.16988233 -0.08537156 0.10985285 0.009833628
0.051986918 0.17525837 0.12717655 0.12669879 0.14102215 -0.0019818041 -0.23542224 0.0025929818
0.082208134 -0.030769784 -0.07052374 0.0029092834 0.11354633 0.085565574 0.076902494 0.21682943
-0.20135145 -0.10539462 0.0019432171 -0.22672103 -0.0555168 0.11522931 -0.042220064 0.22245674
0.13887002 0.0021227286 -0.08445483 -0.013324956 0.053672474 -0.13102446 -0.0037228514 0.08199895
-0.18213224 -0.3980443 0.025761856 0.036341432 -0.052531052 0.08405663 0.014912348 0.06278452
0.01001007 0.06698843 0.05667604 0.0016765853 -0.15748046 -0.085799545 0.029306777 0.19207747
-0.10968258 -0.08973665 0.06282224 -0.024672717 -0.050524063 0.0987276 0.031027641 0.07877123
0.18588227 -0.12953678 0.12488075 0.09033715 0.037043095 -0.038529813 0.0940786 0.051635977
0.04515838 0.20979871 -0.067714356 0.10841566 -0.08547362 0.10552392 0.073189534 0.11662922
-0.17427301 0.012811116 0.12833692 0.089504786 -0.002358872 0.02882145 -0.0059741014 0.173474
0.0048027365 -0.15210398 0.037699208 0.04210718 0.039153386 0.00628618 -0.12038402 -0.076361775
0.014835942 0.074895814 0.05306097 0.03895674 -0.032904975 0.08120661 0.009366046 0.052882217
0.11287273 0.09090074 0.08439515 0.16402563 0.029739738 0.095310345 0.02305167 0.1107047
-0.033346653 0.1267237 0.028622912 0.011398629 0.12636562 0.041869257 -0.030963445 -0.0055431793
0.04609834 0.10787932 -0.09862378 0.007129563 -0.04532546 0.034677975 0.025936237 0.21134385
-0.09780684 -0.031725068 -0.006438473 0.07954739 0.046837594 -0.06940427 -0.10736865 0.16751789
0.18194576 0.27674317 0.07451997 0.07705913 -0.017447598 0.09258396 0.071108356 0.001576748
0.10846146 -0.20075555 -0.103353046 -0.09689713 -0.04171366 0.095031664 -0.09070645 -0.016215619
-0.16391352 0.21216676 0.016381318 0.038074333 -0.0456281 0.16967537 -0.025323573 0.15496631
-0.11941481 -0.03797821 -0.030109795 0.30725887 -0.0647446 0.22095157 -0.006142386 0.052182984
-0.098613515 -0.068665795 -0.1226785 0.034376044 0.08895265 -0.14740603 0.06032461 0.054970358
0.13095964 0.14541152 0.21475227 0.11683927 -0.051515937 0.08407885 -0.010184848 -0.17104836
-0.006142855 -0.020590015 0.0380063 0.05628065 -0.056107935 -0.0007046085 0.1631391 0.03967282
0.17181474 -0.019864313 -0.073353134 0.0043226476 -0.054829597 -0.103165515 0.13175514 -0.20196052
-0.06440056 0.020129379 0.068051204 0.06711337 0.2450759 0.0970869 -0.05028246 -0.19961128
-0.12138614 -0.025027556 -0.07253942 0.21434227 0.06566733 -0.038124587 -0.26601633 0.0753067
0.007674983 0.031913172 0.029640263 -0.03554127 0.054699093 0.13539365 -0.15266785 -0.00093253155
0.08211287 -0.14801542 -0.034062676 0.14490049 0.040607482 -0.02674126 0.118480854 0.15887527
0.10586029 0.20282227 -0.092573956 0.15496995 0.05715702 -0.03370066 -0.089944996 0.07109922
0.17850387 -0.11901666 -0.0071870154 -0.0037155903 0.0015783212 -0.11679653 -0.07866999 -0.08703186
-0.017861629 -0.008993122 0.024271592 0.04775846 0.0860809 0.08472289 0.18671629 0.13289934

fc2.bias f4 [128]
00000000: be20 293d 4160 cd3c bb84 60bd c1d5 293d
00000010: c17d 53bd c32c 243d 9166 98bc f832 cf3c
00000020: 33b7 d0bb 6574 19ba 7dc5 1c3d 5ea5 a8bd
00000030: 64bc b1bc 7349 8a3c ebe6 38bd e80f 6d3d
00000040: d747 033d 7b24 983d 526a 0ebd 9dfe b8bc
00000050: d82d f6bc 42ab e0bc 0d2d 40bd 195f 1cbb
00000060: 48e5 e3bc 50f4 4bbc f3ac 40bd 9bac 263d
00000070: 5f44 ae3c 9362 43bb 129c 35bb aced bbbc
00000080: 88a2 61bd 65fd 27bd 94d7 8bbd 2775 34bc
00000090: ef9a 21bd 9099 1dbd 1e25 99bc a393 12bc
000000a0: 33d5 373d 8a07 b8bc 86ed 333d 39ed 03bd
000000b0: a377 edbb 80ba 6a3d 223b ba3c 5569 20bc
000000c0: 4ff3 563d 3349 b33d 33ce b03b 7693 3dbd
000000d0: 4be3 993b d91f 0cbd fd77 36bc d73c c13d
000000e0: 5da2 a8bc 50bb 843c 59e9 983d 6eb8 0abc
000000f0: 48fb c23c 0dc4 3c3d 0367 733c a235 903d
00000100: 9e9b 8fbd 1c4f a43c 63d0 2f3b 12f8 1c3c
00000110: daaf 003c 7b32 633d e97e a53c ff4a 873d
00000120: 9e31 033d 3c8c 653d 8619 1ebc 9881 433d
00000130: 2d74 80bd 970c f63c a4e2 553d d325 0c3d
00000140: dc71 dbbc cbc0 343b e5eb 2d3d 4e64 5ebb
00000150: fd65 edbc aaf4 0cbd f7a9 a23b ad64 283d
00000160: e758 053d d613 043d 64e7 933d 71c7 813c
00000170: 7428 7bbc 55ba 56bd de6f 0cbd 131d ccbb
00000180: 7de0 9c3b 5b80 6b3d 8807 793c 0c87 c33b
00000190: 18a6 53bd e540 a13c 7a48 bcbb 38d7 73bc
000001a0: 4229 3a3d 88d4 d63c 00ec 5abd e382 ab3d
000001b0: 4993 563d faae f038 895c 92bc e4c2 4fbd
000001c0: a421 9b3d e031 b3bc 6c1f 963d 52fc 813c
000001d0: 34cf af3d 6d95 7a3c 6c68 863c 3b01 bf3c
000001e0: c13f a0bd a304 d13c 5db4 81bc f1b7 593d
000001f0: 4981 3cbd b182 a3bd ba42 28bd d9cd 44bd
0.04129099 0.025070312 -0.05481408 0.041463617 -0.0516336 0.04008175 -0.018603595 0.025292858
-0.0063694953 -0.0005853831 0.038274277 -0.08234666 -0.021696277 0.016880726 -0.045142096 0.057876498
0.032050934 0.07428833 -0.034769364 -0.022582347 -0.030051157 -0.027425412 -0.046917964 -0.0023860394
-0.02781929 -0.012448385 -0.047039937 0.040691953 0.021272836 -0.0029813393 -0.0027711433 -0.02294048
-0.055086643 -0.04101314 -0.06828228 -0.011014259 -0.039454397 -0.038476527 -0.018694457 -0.008946332
0.044881057 -0.022464532 0.043927692 -0.032208655 -0.007246928 0.057306767 0.022733275 -0.009790738
0.05247813 0.08754196 0.0053956746 -0.046283208 0.004696285 -0.03421006 -0.011137006 0.094354324
-0.020585233 0.016202599 0.074663825 -0.008466823 0.02380146 0.046085406 0.014856103 0.0704148
-0.070121035 0.020057254 0.002682709 0.009580629 0.007854426 0.055468064 0.020202117 0.06606101
0.03202974 0.05604194 -0.00964964 0.047731012 -0.06272159 0.0300353 0.052218094 0.03421576
-0.02678769 0.0027580734 0.042461295 -0.0033934298 -0.028979296 -0.034413017 0.004964109 0.041111637
0.032555487 0.03224548 0.07221869 0.015842171 -0.015329469 -0.052423794 -0.034286372 -0.006229052
0.0047875033 0.057495456 0.0151995495 0.0059670266 -0.05167207 0.019684264 -0.0057459446 -0.014882855
0.045449503 0.02622439 -0.053447723 0.08374574 0.052386556 0.00011476684 -0.01786639 -0.05072297
0.07574776 -0.021874368 0.07330212 0.015867386 0.08584443 0.015294415 0.016407214 0.023316016
-0.0782466 0.025514906 -0.015833074 0.053153936 -0.046021733 -0.07983912 -0.04107926 -0.048047874

fc3.weight f4 [4, 128]
00000000: 57e9 8a3e 5710 84be c38d 41be c86e b43d
00000010: 8cfc 9ebe 0334 bdbd a6b8 303e 12d8 763e
00000020: 34a8 6c3d dc7e ccbe 6dcd a83d ab3d 7f3e
00000030: 2dee d63d 72c2 063f 72b0 513c 1445 d23e
00000040: 6d34 c3bc cfa0 243d 878c 873e 25d8 8e3d
00000050: fcd0 2c3e 11b5 053e abfa b6bd 5ec6 78bd
00000060: 6ece 853d 085e 953b 0b9d 78bd 8eb2 993c
00000070: 7e5c 3dbe a1e5 7c3e 22c1 3f3d 1193 823d
00000080: 299f d0bc bb30 b93e dbfc 8b3e 6faa 4bbd
00000090: 0e61 29be 6e07 82be 4293 93bd 61c1 e23d
000000a0: ee04 79be 8b3e a9be 0db2 1bbe 8060 22be
000000b0: cd62 b33e 1885 1bbd 9555 14bc 774d 94bd
000000c0: a588 69bd 240f f6be afaf 0bbe bc9b fa3e
000000d0: 849d 8fbc de5e 8cbe d6dd 63be 3beb b2be
000000e0: f748 ec3e dbd5 60be f1c1 c13c 1c07 e4be
000000f0: 095f d53d d57d 1bbe 72bb 55bc 51d3 773e
00000100: 9c29 e73e b85a 023e 3f91 42be 8fd2 f2bd
00000110: 2ae7 c33e 0db4 273e eb0a 57be c436 74bd
00000120: ebf4 95b9 d488 f03e 68d7 03ba 655a f23d
00000130: 1574 a93e 502c edbd 7b67 88bd a59c 65be
00000140: 55be 3abe b6de 643e 0f3b d53e 8f44 843e
00000150: f17e 6fbd 8c25 22bc e7d5 1e3e 194b 873e
00000160: 2b90 00bf fcde a2bd 8b68 5f3d 57d1 40bc
00000170: d6fe efbd 33ed ec3c 624c 4c3e 535c 34be
00000180: 59fb a93e 5764 853e 383a 163f 177a aa3e
00000190: e0da 2e3e dae6 63be d14a 2cbe adb9 48be
000001a0: 52e9 d5bd 013c 1ebe 5f4f b83d ee64 bf3d
000001b0: e2a4 703e 6b45 703d ed72 32bd a704 513e
000001c0: b49e 7a3e 03b9 99bd 54e9 79be d617 ed3d
000001d0: 38bd 8e3e b7f6 893c 6038 053f 1f7e 283e
000001e0: 05e7 51be e3f3 cc3e ef17 3cbe 63db 97be
000001f0: 1d6b 91be 8fce 07be d8b7 303d 343c 0cbe
00000200: d7af 01bc 03c5 f2be c410 05be 7b7c e53d
00000210: 2f83 f43d 03b4 cd3d b2a2 053e 4523 27be
00000220: 5698 403e 34a3 d2bd 8478 f4bd 1a19 c83d
00000230: b999 9ebd 31b2 be3d 737b 943e ff14 64bd
00000240: b4f7 03bd 22ef 0abe 7cb8 2c3f 38cf e0bd
00000250: 4a72 62be 037c d1bd e51d 1dbe 55f5 8e3d
00000260: a2ed 823e e230 14be ba43 df3d 80d1 7e3e
00000270: 9c24 87bd 4d14 adbe f6ce 3cbe 47b6 03be
00000280: dceb f13c 5d0a be3c e97b b1bd 0523 2a3e
00000290: 3870 203e aeaa 7a3d 20d8 cabc 5d5b 47bd
000002a0: a15a a9bc ec50 933d 14a0 69be d7bd 92bb
000002b0: 15a3 57be 9050 febd 3b82 1ebe 6805 c13d
000002c0: 8b29 01bf b95b d3bd 2388 dd3d 62b7 883e
000002d0: 287d 6abc 0b90 a0be afb9 ca3a 1387 29bf
000002e0: 5d7e 8cbe aa58 113d d12f 973e 1e8f 3abc
000002f0: b2e7 84bd 450f d5bd bd86 2bbe dc6b 8dbc
00000300: 7f85 853d e7bd 593e 68cf 07bd 714f 30be
00000310: fcb3 91bc 6445 75be a9bd 12be 5ad7 043d
00000320: 81e6 07bd 1bb4 97bd 4ebe 3ebd 36fd 3e3e
00000330: 781d 233c 9f20 d93d 6188 cfbe 86c8 9a3e
00000340: 06c5 aa3e 4db7 333d 3531 c6bd 1b29 25be
00000350: 92c3 12bd 9e25 89be db33 753d 36a4 a3bd
00000360: 181b 373e 6649 643d 83fd 0bbe f020 c93d
00000370: 4cd9 293e ae0c 0abf e8b9 213e 13ec 81bd
00000380: 99ff 29bd 5ae0 353d 2bcf aebd 047b 39be
00000390: 0db1 48be 0a8c 95bc 9160 aabd a8f7 183e
000003a0: 9857 dc3d 447b 44be a749 8d3e edda 8f3b
000003b0: 23b0 fd3d e7fd aabc ab4e 45bd 99b9 ba3d
000003c0: e0fb b4bc 9a01 40be 7657 973e 436a b23c
000003d0: 4788 153e 0864 a8be 7ea4 323e 760e 633e
000003e0: 8f7b 4cbe df53 0b3e 06c4 45bb 500c 043e
000003f0: 1936 953d 737c 613d c44c 02be 8f40 183e
0.2713115 -0.25793716 -0.18901734 0.08810192 -0.31052053 -0.09238436 0.17257938 0.24105862
0.0577776 -0.39940536 0.08242307 0.24925868 0.10494647 0.5264045 0.0127984155 0.41068327
-0.02382871 0.04019242 0.264744 0.0697482 0.16876596 0.13057353 -0.0893453 -0.060736053
0.06533514 0.0045583285 -0.060696643 0.0187619 -0.18492314 0.24696971 0.046815045 0.06375707
-0.025466518 0.3616999 0.2734135 -0.049723085 -0.1654093 -0.25396293 -0.072058216 0.1107204
-0.24318287 -0.3305553 -0.1520464 -0.15857124 0.35036317 -0.037968725 -0.0090536075 -0.07241338
-0.05701508 -0.48058426 -0.13641237 0.4894694 -0.017531164 -0.27416128 -0.22252592 -0.34945092
0.46149418 -0.2195658 0.023652049 -0.44536674 0.10418517 -0.1518472 -0.013045179 0.24201705
0.45148933 0.12729919 -0.1900072 -0.11856567 0.38262302 0.16377278 -0.21000259 -0.05962254
-0.00028601973 0.46979392 -0.00050293515 0.11833648 0.33096376 -0.115807176 -0.06660362 -0.22423036
-0.18236668 0.22350582 0.4164662 0.25833556 -0.05847067 -0.009896647 0.15511285 0.26424482
-0.5021998 -0.07952687 0.05454306 -0.0117686605 -0.11718528 0.0289217 0.19951013 -0.17613344
0.33199576 0.26053116 0.58682585 0.33296272 0.17075682 -0.22256032 -0.16825415 -0.1960208
-0.10444893 -0.15452577 0.08999514 0.09345423 0.23500398 0.058659952 -0.043566633 0.20411931
0.24474603 -0.07505991 -0.24405414 0.11576812 0.27878737 0.016841276 0.52039146 0.16454361
-0.20498283 0.4002982 -0.18368505 -0.29659566 -0.28402033 -0.1326239 0.043144077 -0.1369484
-0.007915459 -0.47415933 -0.12994677 0.112053834 0.11939084 0.100441 0.13050345 -0.16322048
0.18808112 -0.10285035 -0.11937049 0.09770413 -0.07744164 0.09311331 0.29000434 -0.055684086
-0.03221865 -0.13567784 0.67469 -0.10977024 -0.2211391 -0.102287315 -0.15343435 0.06980387
0.25571924 -0.14471772 0.1090159 0.24884605 -0.065987796 -0.3380455 -0.18438324 -0.12862502
0.029531412 0.023198301 -0.08666212 0.16614921 0.15667808 0.06119793 -0.02476126 -0.048671115
-0.020673098 0.07193169 -0.22814971 -0.004478197 -0.21058305 -0.1241771 -0.15479366 0.09424859
-0.50454015 -0.10320229 0.10816982 0.2670241 -0.014312066 -0.31359896 0.0015466715 -0.6622173
-0.27440158 0.035484947 0.2952867 -0.011386661 -0.06489505 -0.10403303 -0.16750617 -0.017263345
0.06519603 0.21263848 -0.033156782 -0.17217804 -0.017786019 -0.23952252 -0.14330162 0.032431938
-0.03317881 -0.07407399 -0.046568207 0.1865128 0.009955756 0.10601925 -0.40533736 0.30231112
0.33353442 0.04387598 -0.09677354 -0.16128962 -0.03583104 -0.26786512 0.059863906 -0.07990305
0.17881429 0.05573406 -0.13670926 0.098207355 0.16586798 -0.539256 0.15793574 -0.06343856
-0.041503523 0.04440341 -0.08535608 -0.18113333 -0.1959879 -0.018255252 -0.083192 0.14938223
0.10758895 -0.19187647 0.27595255 0.0043901117 0.12387111 -0.020873023 -0.048170727 0.09117431
-0.02209276 -0.18750611 0.29558915 0.021779185 0.14602767 -0.32888818 0.17445561 0.22173485
-0.19969009 0.13606213 -0.0030176654 0.12895322 0.07285709 0.055050325 -0.12724596 0.14868377

fc3.bias f4 [4]
00000000: 2a52 f23c c2f8 a2bd eb83 7c3d 65b9 96bc
0.029580195 -0.07957603 0.061649244 -0.01839895
