savedmodels/checkpoint_1545158393_actor_episode131_score35.146.pth (torch_old, 169478 bytes, 6 tensors)

fc1.weight f4 [256, 33]
0	0xbc5b5620	-0.013387233
1	0xbd4123d1	-0.047153298
2	0xbdbb071f	-0.091322176
3	0x3d2619d7	0.040551987
4	0xbcad5933	-0.021160698
5	0x3df9ca8b	0.12196835
6	0xbdd5e152	-0.10443367
7	0xbd2f6dad	-0.042829204
8	0xbcd641c2	-0.026154403
9	0xbd8fbee9	-0.07018835
10	0xbe09006f	-0.13379072
11	0x3a9e000f	0.0012054461
12	0xbd3046a3	-0.043036114
13	0x3dd2501d	0.10269187
14	0x3e213a03	0.15744786
15	0x3e2232cb	0.15839688
16	0xba8a83b6	-0.0010567817
17	0x3c31d19a	0.010853196
18	0xbd4b30f0	-0.049607217
19	0xbd5cdffa	-0.05392454
20	0xbc63e7ad	-0.013910216
21	0x3d9b7d62	0.07592274
22	0x3e24b6a7	0.16085301
23	0xbd88a413	-0.0667192
24	0x3d2a39d0	0.04155904
25	0xbcea5877	-0.028606636
26	0xbd6eeed5	-0.058333237
27	0x3d3e7938	0.046502322
28	0xbdf2c73d	-0.11854408
29	0x3d012a70	0.031534612
30	0xbc5ad047	-0.013355321
31	0x3ce90074	0.028442599
32	0xbef712cc	-0.48256528
33	0xbdf10d1e	-0.1177008
34	0xbdf6d16e	-0.12051664
35	0xbd33a4e1	-0.043858413
36	0x3dd43f64	0.10363653
37	0x3dd9559a	0.1061203
38	0x3d6039af	0.05474251
39	0x3c9b145d	0.018930608
40	0x3bede1b6	0.007259573
41	0x3d8aa057	0.06768864
42	0xbc95a5fd	-0.018267626
43	0xbdcdc5a5	-0.10047463
44	0x3e13213c	0.14368147
45	0x3de276cb	0.11057814
46	0x3bf3f689	0.0074451608
47	0x3dc03dcf	0.09386789
48	0xbdc8182d	-0.09770236
49	0x3d8f44c9	0.069955416
50	0x3d11a977	0.035562005
51	0xbd3905c1	-0.045171503
52	0xbac74946	-0.0015204332
53	0xbbeab08e	-0.0071621602
54	0xbd1cb2d8	-0.038256496
55	0x3c12c8b7	0.008958987
56	0xb99c58ad	-0.00029820707
57	0x3c172c2b	0.009226839
58	0x3d0ac9b2	0.033883758
59	0xbdaafb5d	-0.08348725
60	0xbca19efa	-0.019729126
61	0x3e407b5e	0.18797061
62	0xbd715bca	-0.058925427
63	0x3d00824f	0.031374272
64	0x3d544e1a	0.051832296
65	0xbe76ee6c	-0.24114388
66	0xbdff58da	-0.12468119
67	0xbd2758b6	-0.040856086
68	0xbcabf59c	-0.02099114
69	0x3dd92085	0.10601906
70	0x3d8f0292	0.06982912
71	0xbd9cbf1a	-0.07653637
72	0x3d3b281b	0.045692544
73	0xbd823f9b	-0.06359788
74	0x3d0c1bcd	0.0342062
75	0xbd55368b	-0.05205397
76	0xbd4bd380	-0.04976225
77	0x3c45145e	0.012028782
78	0x3cf236af	0.02956709
79	0xbd8a3670	-0.067486644
80	0x3d40cc69	0.04706994
81	0x3c0abbe7	0.008467651
82	0x3db00e95	0.08596531
83	0x3ceaa019	0.028640794
84	0xbbec1e82	-0.0072057853
85	0x3cd161af	0.025559274
86	0xbd524bad	-0.0513417
87	0x3d685593	0.056722235
88	0x3dbb22ca	0.09137495
89	0xbdf1ee10	-0.11812985
90	0x3c353d2c	0.011061948
91	0xbc9c8483	-0.019106155
92	0xbe1a5e3d	-0.15075012
93	0xbd624850	-0.055244744
94	0xbd32cbc7	-0.04365137
95	0x3d064128	0.03277698
96	0xbbe6a128	-0.0070382543
97	0xbd12a17c	-0.035798535
98	0xbe2c15ff	-0.16805266
99	0x3cdb48f4	0.026768185
100	0xbc5ec3e6	-0.0135965105
101	0x3cc0721d	0.023491913
102	0xbd8f29ea	-0.06990416
103	0x3d18d57c	0.03731297
104	0x3d77259a	0.060338594
105	0x3dbd2483	0.0923548
106	0xbdaeb92d	-0.08531413
107	0xbdbabaa2	-0.09117629
108	0xbcdce865	-0.026966283
109	0xbcc8cdd5	-0.02451221
110	0xbdcbcd2c	-0.09951243
111	0x3d294480	0.041325092
112	0xbcffd1b4	-0.031227924
113	0xbe2e13d1	-0.16999747
114	0x3d02fb8b	0.03197817
115	0x3d74af5d	0.059737552
116	0x3d76a8d7	0.060219612
117	0x3d2aba5b	0.04168163
118	0x3c255a07	0.010092265
119	0xbe63cac3	-0.22245316
120	0x3d4dbaea	0.050227083
121	0xbd2d1275	-0.04225393
122	0xbcc011a4	-0.023445912
123	0xbd7c66dc	-0.06162153
124	0xbd87d30d	-0.066320516
125	0x3e3368e5	0.17520483
126	0x3d14fdef	0.036374982
127	0xbd2af987	-0.041741874
128	0xbd63518c	-0.05549769
129	0xbbde4e44	-0.0067842323
130	0xbd34cd38	-0.044141024
131	0x3e2b3820	0.16720629
132	0x3d149c07	0.03628161
133	0xbd99f234	-0.075169
134	0x3d4f4590	0.05060345
135	0xbab3e9f4	-0.001372634
136	0x3da4892f	0.08033978
137	0xbdb60ffd	-0.08889768
138	0x3df65585	0.1202803
139	0xbc710721	-0.014711172
140	0xbd4b45a7	-0.049626973
141	0x3d7cb237	0.061693396
142	0xbcba1772	-0.022716258
143	0xbdbee329	-0.09320671
144	0xbc57bccb	-0.01316757
145	0xbc31a364	-0.010842178
146	0x3de98bab	0.11403593
147	0xbd14f0f4	-0.036362603
148	0x3b2f772c	0.0026773913
149	0xbbbaa557	-0.0056959796
150	0x3e1deb87	0.15421878
151	0x3c75df75	0.01500689
152	0xbcfe76b3	-0.03106246
153	0x3d0fc921	0.03510392
154	0xbcbb7a97	-0.022885604
155	0x3d0591f4	0.032609895
156	0x3dbf1e33	0.09331932
157	0xbe110992	-0.14163807
158	0x3e00bf08	0.12572873
159	0xbe45f63d	-0.19332214
160	0x3c41aa60	0.011820406
161	0x3c374fb8	0.01118844
162	0x3e51e26d	0.20496531
163	0x3d74a828	0.05973068
164	0xbeef40a1	-0.46728995
165	0x3d304ad8	0.043040127
166	0x3e0cdcfb	0.13756172
167	0xbe71a4c0	-0.23598003
168	0xbd0f0d06	-0.03492453
169	0x3dcf9e6e	0.1013764
170	0x3bd7e3f2	0.0065884525
171	0xbde971cf	-0.113986604
172	0x3ddf57fc	0.109054536
173	0xbbd439fa	-0.006476638
174	0x3cc8e344	0.024522431
175	0x3cb56925	0.022144863
176	0xbd255cdd	-0.040371764
177	0xbddb1f2c	-0.10699305
178	0xbc6345a6	-0.013871586
179	0xbdf6710f	-0.12033283
180	0x3d73895b	0.059457164
181	0xbcdd222b	-0.026993832
182	0xbd4448ed	-0.04792111
183	0xbd7bccd6	-0.061474644
184	0xbd4ef4e1	-0.050526503
185	0xbe111b95	-0.14170678
186	0xbdaa634d	-0.08319721
187	0xbc835979	-0.016033875
188	0x3c19d6c5	0.009389584
189	0xbd23d3d4	-0.039996937
190	0x3db9dda1	0.090754755
191	0xbde6e51d	-0.11274169
192	0x3d501a15	0.050806124
193	0x3e013303	0.12617116
194	0x3cbf8ce8	0.023382619
195	0xbd75adb3	-0.059980106
196	0x3c824cb4	0.015905716
197	0x3e1e7db4	0.1547764
198	0xbd763647	-0.060110357
199	0x3d2b639e	0.04184305
200	0x3c240d97	0.010013006
201	0x3cf2912d	0.02961024
202	0x3da2d8ef	0.07951533
203	0x3d8616ff	0.06547355
204	0x3e199d41	0.15001394
205	0xbc2aa5b6	-0.010415485
206	0x3cbf1e8e	0.02333
207	0x3d5e86b5	0.054327685
208	0x3d83c1e3	0.06433465
209	0xbc97e911	-0.018543752
210	0xbd278955	-0.040902454
211	0xbd9f0e7b	-0.07766434
212	0x3dded347	0.10880142
213	0xbdf68a44	-0.12038091
214	0x3ddc0d08	0.10744673
215	0x3df21946	0.11821227
216	0x3dd8645c	0.10566017
217	0x3cbd4c03	0.023107534
218	0x3de4ce68	0.11172181
219	0xbd31f6fb	-0.04344843
220	0xbd99ecdd	-0.07515881
221	0x3d8975d8	0.0671193
222	0x3d112a40	0.035440683
223	0xbe3e8544	-0.18605524
224	0x3d9665fb	0.0734367
225	0x3cb5c556	0.022188824
226	0xbcc1af9a	-0.023643304
227	0x3d22ba90	0.0397287
228	0xbda197b1	-0.07890261
229	0x3c468038	0.012115531
230	0xbe6bc874	-0.23025686
231	0x3c4dfcd7	0.012572489
232	0x3da8d7a7	0.082442574
233	0x3c050fdd	0.008121458
234	0x3d36afa5	0.0446011
235	0xbbe9e6b6	-0.0071380986
236	0xbda6cb12	-0.08144201
237	0xbb350ab9	-0.00276248
238	0x3d9e7e2c	0.07738909
239	0xbdabd829	-0.08390839
240	0xbc523422	-0.012829812
241	0x3d72946c	0.059223577
242	0xbb627250	-0.0034553
243	0xbbc56f6c	-0.0060252454
244	0x3e5fbfaa	0.21850458
245	0xbd10f90c	-0.03539376
246	0xbdcd0baa	-0.1001199
247	0x3cef7eca	0.029235262
248	0xba7f0a98	-0.00097290566
249	0x3c966d3e	0.018362638
250	0x3d884bf0	0.06655109
251	0xbd091d91	-0.033475462
252	0xbdbfceeb	-0.09365638
253	0xbd23d86b	-0.040001314
254	0x3e1b676d	0.15176173
255	0x3cac5152	0.02103487

fc1.bias f4 [256]
0	0x3d9508f9	0.07277102
1	0x3e52eda6	0.20598468
2	0x3ad6d18c	0.0016389354
3	0x3dd0c498	0.10193747
4	0x3e1a299e	0.15054938
5	0xbe62a6c6	-0.22133932
6	0xbe3da930	-0.18521571
7	0xbdd54216	-0.104129955
8	0x3d57f9e7	0.05272856
9	0x3da3514b	0.0797449
10	0xbdedf7d0	-0.11619532
11	0x3d7273f7	0.059192624
12	0xbb0df5b0	-0.0021661334
13	0x3d2e0842	0.042488344
14	0x3e2d56c5	0.16927631
15	0x3d4b9ec7	0.04971197
16	0xbe04c492	-0.1296561
17	0xbc95dfed	-0.018295253
18	0x3e3c9c0d	0.18418904
19	0xbd86c192	-0.06579889
20	0x3ca1ba81	0.019742252
21	0x3e040aa5	0.12894686
22	0xbd578177	-0.0526137
23	0xbcd8f0df	-0.026482044
24	0x3de12bb1	0.109946616
25	0xbd8c1bd5	-0.06841246
26	0x3d035f62	0.032073386
27	0x3d6a3ba8	0.0571858
28	0x3d18a9d4	0.037271336
29	0x3e0b0805	0.13577278
30	0x3dcc67c6	0.09980731
31	0xbdfb943e	-0.12284134
32	0xbe3ead43	-0.18620782
33	0x3d1ca5df	0.038244125
34	0xbd2972fb	-0.04136942
35	0xbd1bc9da	-0.038034298
36	0x3e3d34f7	0.18477236
37	0x3dc6d472	0.097084895
38	0xbd125e6e	-0.035734586
39	0x3e35fbbe	0.17771813
40	0x3c3b77d4	0.0114421435
41	0xbd8291e3	-0.06375482
42	0xbc7a6e42	-0.015285077
43	0xbd80c05d	-0.062866904
44	0xbe011920	-0.1260724
45	0xbd4bf237	-0.04979154
46	0x3e3503ea	0.17677274
47	0x3dbc1507	0.09183698
48	0x3e34d8b5	0.17660792
49	0xbdea6fe4	-0.11447123
50	0xbda2b4d3	-0.07944646
51	0x3e39e636	0.18154225
52	0xbd898362	-0.067145124
53	0xbd3ffc14	-0.04687126
54	0xbe00a30f	-0.12562202
55	0x3e236e7e	0.15960118
56	0xbd87527b	-0.06607529
57	0x3dab2b39	0.083578534
58	0x3d5da2f5	0.054110486
59	0xbb80a7cf	-0.0039262543
60	0xbdbdf327	-0.09274893
61	0x3e082609	0.1329576
62	0xbd7ede38	-0.062223643
63	0x3a666dd0	0.0008790167
64	0xbdf7f63b	-0.121075116
65	0x3c27a113	0.010231274
66	0x3e1042dc	0.14088005
67	0x3e32ba3e	0.17453858
68	0x3d08a383	0.033359062
69	0xbc83827a	-0.016053427
70	0x3df275d9	0.11838884
71	0x3df29ffd	0.118469216
72	0xbd36f86b	-0.044670504
73	0xbd786a29	-0.060648117
74	0x3d93b115	0.0721151
75	0x3e34e8af	0.17666887
76	0x3d0485e6	0.032354258
77	0x3d5890ec	0.052872583
78	0x3e60f8a9	0.21969856
79	0xbdcc6778	-0.099806726
80	0x3c281b47	0.01026041
81	0x3dffefbb	0.12496897
82	0x3d0a2a45	0.033731718
83	0xbbd6e36e	-0.0065578735
84	0x3e19e9c6	0.15030584
85	0xbe0c71dc	-0.13715309
86	0x3da1d7b2	0.07902469
87	0x3d3f95f6	0.046773873
88	0x3e41434e	0.18873331
89	0x3d9fd01f	0.07803368
90	0x3e258d35	0.16167147
91	0xbcdc413e	-0.026886579
92	0x3d167693	0.036734175
93	0xbd799173	-0.060929727
94	0xbe471053	-0.19439821
95	0x3de2a4d2	0.11066593
96	0x3e0cafa0	0.1373887
97	0xbca1debe	-0.019759532
98	0x3d9d0776	0.07667439
99	0x3cf199e2	0.029492322
100	0x3daca4a3	0.084298395
101	0xbe21dab2	-0.15806082
102	0x3dc35dbf	0.09539365
103	0xbd71f811	-0.059074465
104	0xbe0b729c	-0.13617939
105	0x3e58c940	0.21170521
106	0xbcf01c3e	-0.029310342
107	0x3c03c4ed	0.008042556
108	0xbc7809e6	-0.015139079
109	0xbe072a64	-0.13199764
110	0x3e3a65c6	0.18202886
111	0x3ddfcc94	0.10927692
112	0xbd386677	-0.045019593
113	0xbcadae5a	-0.021201301
114	0x3d00e1ab	0.031465214
115	0xbcf77b30	-0.030210108
116	0x3d5f6f22	0.054549344
117	0xbe1232e2	-0.14277223
118	0xbd107aaa	-0.03527323
119	0xbcffa55a	-0.031206775
120	0x3e1d399e	0.1535401
121	0x3b9d3cb9	0.0047984985
122	0x3e2230da	0.15838948
123	0xbd88887a	-0.06666656
124	0xbe19359e	-0.1496186
125	0x3e0bba81	0.13645364
126	0x3de02907	0.10945325
127	0x3d2f9971	0.042870943
128	0x3a999c09	0.0011719476
129	0x3e358d09	0.17729582
130	0xbd9b4213	-0.07580962
131	0xbe362684	-0.1778813
132	0x3dea9604	0.114543945
133	0x3e3c9a48	0.18418229
134	0x3db90ee8	0.09036046
135	0xbc88c616	-0.016696017
136	0xbe15a3d9	-0.14613284
137	0x3d0a40f4	0.03375335
138	0xbe5686fe	-0.20949933
139	0xbe21a7bc	-0.15786642
140	0x3e2e2c29	0.17009033
141	0xbe0cada0	-0.13738108
142	0xbe14b66f	-0.14522718
143	0xbd21f391	-0.039538924
144	0x3ddf9602	0.109172836
145	0xbde82e7d	-0.11336992
146	0x3d5d1837	0.05397817
147	0xbbd7a918	-0.006581437
148	0x3d7e04da	0.062016346
149	0x3e1c1914	0.15243942
150	0x3db9c614	0.090709835
151	0x3a2fb8dd	0.0006703267
152	0x3c705b06	0.014670139
153	0x3e134b2d	0.14384146
154	0x3e1ae0d0	0.15124822
155	0xbd2a1229	-0.041521225
156	0x3dad6d2e	0.0846809
157	0x3c1afa34	0.009459067
158	0x3db19541	0.08671046
159	0xbe59e028	-0.21276915
160	0x3b8e5497	0.00434358
161	0xbdfec5b0	-0.1244005
162	0xbda8ed73	-0.08248415
163	0xbe7e1406	-0.24812326
164	0x3d895dbe	0.06707333
165	0xbdbc0adf	-0.09181761
166	0x3d0dd519	0.034627054
167	0xbd37046a	-0.044681944
168	0x3d620fd0	0.05519086
169	0x3dce8077	0.100830965
170	0xbd7368e2	-0.059426196
171	0x3e016ecb	0.1263992
172	0x3e9011bc	0.2813853
173	0x3def5435	0.11685983
174	0x3dc4775d	0.09593079
175	0x3e174dcc	0.14775771
176	0x3e5702ed	0.2099721
177	0xbcfd395a	-0.030911136
178	0x3e271916	0.16318163
179	0xbdcb1ed2	-0.09917988
180	0xbaa07a3f	-0.0012243463
181	0x3e139c5a	0.14415112
182	0xbd47922e	-0.048723392
183	0x3d4b1b93	0.049586844
184	0x3d2cf1c5	0.042222757
185	0x3e2eb710	0.1706202
186	0xbcbf5b05	-0.023358831
187	0xbce06889	-0.027393596
188	0x3e09cc24	0.1345678
189	0x3d83602a	0.06414826
190	0xbd4c2405	-0.04983904
191	0x3dedafc3	0.116057895
192	0x3df98ef0	0.12185466
193	0x3e29923e	0.16559693
194	0x3e43d227	0.19123136
195	0x3cb1679e	0.021655854
196	0xbda0083a	-0.07814069
197	0xb9925fc9	-0.00027918656
198	0x3d7cfa18	0.061761945
199	0xbb4008bc	-0.002930208
200	0xbc3974eb	-0.011319379
201	0x3db26a41	0.087116726
202	0x3d004087	0.031311538
203	0xbcf38910	-0.029728442
204	0xbcaae95a	-0.020863224
205	0x3c684286	0.014176017
206	0x3e0f5cf2	0.140003
207	0x3a6d58da	0.00090540724
208	0xbd8f5917	-0.069994144
209	0xbcafd023	-0.021461552
210	0x3e4b4f74	0.19854528
211	0x3db57c88	0.08861643
212	0x3e1b6b5f	0.15177678
213	0x3d7c76cb	0.061636727
214	0x3cbba144	0.022904046
215	0x3d180ef4	0.037123635
216	0x3dc75a30	0.09733999
217	0x3d4d871a	0.05017767
218	0x3e07ed5d	0.1327414
219	0x3e0bccba	0.13652316
220	0x3dce36e7	0.100690655
221	0xbdc7d9d3	-0.097583435
222	0xbcf2310a	-0.0295644
223	0xbe70d34a	-0.235181
224	0x3e27bc67	0.16380464
225	0xbdb76681	-0.08955098
226	0xbd9d0187	-0.07666307
227	0xbcdd5473	-0.027017808
228	0x3cf89c0b	0.030347845
229	0x3b2675b0	0.0025399737
230	0xbdfa9975	-0.12236301
231	0x3d73ef96	0.05955466
232	0xbe411f9e	-0.18859717
233	0xbe55a669	-0.20864262
234	0x3e16a545	0.14711483
235	0xbcd1cd37	-0.02561055
236	0x3d715f6a	0.058928885
237	0xbca80bf6	-0.020513516
238	0x3d8b8f21	0.06814409
239	0xbdd89007	-0.10574346
240	0xbd2a64b0	-0.04159993
241	0xbe1a9022	-0.15094045
242	0x3db76d9f	0.089564554
243	0x3cc5283f	0.024067042
244	0x3def5ae3	0.11687257
245	0x3dc86738	0.097853124
246	0x3bac1963	0.00525205
247	0x3d690405	0.0568886
248	0x3e2032ee	0.15644428
249	0xbd921da7	-0.07134562
250	0x3e6ede6d	0.23327036
251	0xbd7e2be9	-0.062053595
252	0x3d8ffdfb	0.07030865
253	0xbd4dbdfd	-0.050230015
254	0x3db2f91f	0.08738922
255	0x3dc1c8c1	0.09462119

fc2.weight f4 [128, 256]
0	0xbde97d89	-0.11400897
1	0x3dfb5269	0.12271578
2	0xbcd3b5a0	-0.025843441
3	0xbc3c3024	-0.011486087
4	0xbe32e07b	-0.17468445
5	0xbdcd65f3	-0.10029211
6	0x3dd88095	0.105714
7	0x3b37e6fe	0.0028061266
8	0x3d5fd347	0.05464485
9	0x3e2d8600	0.16945648
10	0x3e085f9d	0.13317724
11	0x3e0171a1	0.12641002
12	0x3e190070	0.14941573
13	0x3bd21991	0.006411739
14	0xbe7f4857	-0.24929939
15	0x3c2da64f	0.010598733
16	0x3d8c00a6	0.06836061
17	0xbd1bba8d	-0.038019706
18	0xbd609c2f	-0.05483645
19	0x3bf9de66	0.007625389
20	0x3e0662bd	0.13123603
21	0x3d92d82d	0.071701385
22	0x3d89be10	0.06725705
23	0x3e55d264	0.20881039
24	0xbe5f3bae	-0.2180011
25	0xbdf494cb	-0.119424425
26	0xbaf58dfb	-0.001873433
27	0xbe699314	-0.22810012
28	0xbd80cdc9	-0.062892504
29	0x3df58fed	0.11990342
30	0xbd27e3f3	-0.040988874
31	0x3e67566a	0.22591558
32	0x3df23eb1	0.11828364
33	0x3d35fdce	0.0444315
34	0xbd239c81	-0.039944176
35	0xbb4da919	-0.0031381308
36	0x3d5b6e7d	0.053572167
37	0xbdf3e380	-0.119086266
38	0xbba08d1c	-0.004899634
39	0x3dae9dd7	0.08526199
40	0xbe4127b9	-0.18862809
41	0xbebfac45	-0.3743612
42	0x3d09066f	0.0334534
43	0x3ced0560	0.028933227
44	0xbc9d9c46	-0.019239556
45	0x3dbbcdd8	0.09170121
46	0x3c078ea0	0.008273751
47	0x3d893e98	0.06701392
48	0x3a894c9e	0.0010475104
49	0x3d6b143b	0.05739234
50	0x3d9085fd	0.07056806
51	0x3acee30f	0.0015784221
52	0xbe29b147	-0.16571532
53	0xbdaa1098	-0.08303946
54	0x3d093913	0.033501696
55	0x3e4e66e6	0.2015644
56	0xbdc20afa	-0.0947475
57	0xbdfb63b3	-0.122748755
58	0x3d8320ee	0.06402765
59	0xbc9dbd86	-0.01925541
60	0xbd5f32ac	-0.054491684
61	0x3e18192d	0.14853354
62	0x3d1a8c19	0.037731264
63	0x3d844de0	0.06460166
64	0x3e470fe4	0.19439656
65	0xbe00a8ec	-0.12564439
66	0x3ded57fb	0.115890466
67	0x3db5eca4	0.08883026
68	0x3d64832a	0.05578915
69	0xbd10ec40	-0.035381556
70	0x3db0dc05	0.086357154
71	0x3d83a196	0.064273044
72	0x3cf144c7	0.02945174
73	0x3e63d82e	0.22250435
74	0xbd5817e2	-0.05275715
75	0x3ddc26c1	0.10749579
76	0xbda97633	-0.08274498
77	0x3dc793ee	0.09745012
78	0x3da78007	0.08178716
79	0x3de88ce2	0.11354996
80	0xbe4bc231	-0.19898297
81	0xb9bfe43e	-0.00036600413
82	0x3e03ac57	0.12858711
83	0x3dc1b520	0.09458375
84	0xbc01f9b9	-0.007933074
85	0x3cb87349	0.02251591
86	0xbc6df043	-0.014522615
87	0x3e2d9849	0.16952623
88	0xbc08c535	-0.008347799
89	0xbe187c1a	-0.14891091
90	0x3d1ee9df	0.038797256
91	0x3d35a85f	0.044350024
92	0x3d0a7808	0.033805877
93	0x3bd4d08c	0.0064945873
94	0xbe06a25b	-0.13147871
95	0xbda27d16	-0.079340145
96	0x3c522e6f	0.012828453
97	0x3d858c8e	0.06520949
98	0x3d68d4cd	0.056843568
99	0x3d4e71d5	0.050401527
100	0xbcf4f65a	-0.029902626
101	0x3d930118	0.07177943
102	0x3b682bf0	0.003542658
103	0x3d49902e	0.049209766
104	0x3dd3c086	0.10339455
105	0x3dd814ae	0.10550819
106	0x3da803d7	0.082038574
107	0x3e26feb7	0.16308104
108	0x3d1892f7	0.03724953
109	0x3dee9c0d	0.11650858
110	0x3ce515cc	0.027964495
111	0x3df02f6a	0.117277935
112	0xbcfca575	-0.030840615
113	0x3df92537	0.12165301
114	0x3d2aaecb	0.0416706
115	0x3c16a6b8	0.009195022
116	0x3e03fcf8	0.12889469
117	0x3d31be6d	0.043394495
118	0xbcbfdb1b	-0.023419907
119	0x3aa13e38	0.0012301868
120	0x3d4cdfb0	0.050018013
121	0x3dcc3335	0.099707045
122	0xbdcae5ad	-0.099070884
123	0xbc0c18e1	-0.0085508535
124	0xbd939f3d	-0.07208107
125	0x3d0bf0fa	0.03416536
126	0x3cb99c10	0.022657424
127	0x3e4ba3a1	0.19886638
128	0xbdc73d23	-0.09728458
129	0xbd3d81af	-0.046266254
130	0xbb2f7d32	-0.0026777503
131	0x3dad5bc1	0.08464766
132	0x3d548cf5	0.05189224
133	0xbdc9f81b	-0.098617755
134	0xbde02943	-0.1094537
135	0x3e24607d	0.16052432
136	0x3e3c99d7	0.1841806
137	0x3e8a41ef	0.27003428
138	0x3d871051	0.06594909
139	0x3e08524b	0.13312642
140	0xbc7dde5f	-0.015494912
141	0x3dbbc84b	0.09169062
142	0x3d89c820	0.06727624
143	0xbb4d2b11	-0.0031306187
144	0x3dcf4753	0.10121026
145	0xbe546d42	-0.20744804
146	0xbdcf44ab	-0.10120519
147	0xbddb831d	-0.10718367
148	0xbd15a7b3	-0.036536884
149	0x3dbdeef0	0.09274089
150	0xbdbefaf8	-0.09325212
151	0xbcbb98d6	-0.022900026
152	0xbe3f1298	-0.18659437
153	0x3e4cf4af	0.20015214
154	0x3d00c465	0.031437296
155	0x3b27ee86	0.0025624349
156	0xbd55f367	-0.05223408
157	0x3e311225	0.17292078
158	0xbcd86372	-0.026414607
159	0x3e168c39	0.14701928
160	0xbe045271	-0.12922074
161	0xbd31b983	-0.04338981
162	0xbcb1db3e	-0.021710988
163	0x3e9d7304	0.30751812
164	0xbdac2987	-0.08406358
165	0x3e615bca	0.22007671
166	0xbd30dc22	-0.043178685
167	0x3d3577bd	0.044303644
168	0xbd8c5abc	-0.06853244
169	0xbd85e44d	-0.065376855
170	0xbe1e4c19	-0.15458716
171	0x3d5438df	0.05181205
172	0x3dae705f	0.08517527
173	0xbe161069	-0.14654697
174	0x3d8a17fd	0.06742857
175	0x3d75dc8f	0.060024794
176	0x3e01d17c	0.12677568
177	0x3df64c5d	0.12026284
178	0x3e5bc60a	0.21462265
179	0x3df59e33	0.11993065
180	0xbd612067	-0.054962542
181	0x3d938b3e	0.07204293
182	0xbc8fd434	-0.017557241
183	0xbe420c3e	-0.18949983
184	0xbbf927d7	-0.007603626
185	0xbcb629b4	-0.022236682
186	0x3cc8aa1b	0.024495175
187	0x3d762c4d	0.060100842
188	0xbd7ecd3c	-0.062207446
189	0xbc926094	-0.017868318
190	0x3e177c01	0.14793397
191	0x3d2645e7	0.040594008
192	0x3e26392a	0.16232744
193	0xbcd7728a	-0.026299734
194	0xbd8e41ce	-0.06946145
195	0x3ca7e2e7	0.020493938
196	0xbd74f94c	-0.05980806
197	0xbddf0f56	-0.10891597
198	0x3e062ab2	0.13102224
199	0xbe519048	-0.20465195
200	0xbd959d21	-0.073053606
201	0x3d2f82c6	0.042849325
202	0x3d8b8537	0.06812518
203	0x3d6318c8	0.055443555
204	0x3e69eb1e	0.22843596
205	0x3de15cc2	0.1100402
206	0xbd10c2b4	-0.035341933
207	0xbe485a8f	-0.19565795
208	0xbe065a22	-0.1312032
209	0xbc869b02	-0.016431335
210	0xbd990958	-0.07472485
211	0x3e440714	0.19143325
212	0x3d8b4126	0.067995355
213	0xbd17b66c	-0.037039205
214	0xbe894203	-0.26808175
215	0x3dabe468	0.083931744
216	0x3bb40336	0.005493547
217	0x3ba71b80	0.005099714
218	0x3cc5d228	0.024148062
219	0xbd19993a	-0.037499644
220	0x3d39c47d	0.0453534
221	0x3e0ae38e	0.13563368
222	0xbe0a4e3b	-0.13506405
223	0xbbb0cd17	-0.0053955424
224	0x3da7f6ea	0.08201392
225	0xbe192988	-0.14957249
226	0xbce5402a	-0.027984697
227	0x3e108213	0.1411212
228	0x3cffbf66	0.031219196
229	0xbcb048b5	-0.021519044
230	0x3dcb688c	0.0993205
231	0x3e248c76	0.16069207
232	0x3dd909a9	0.10597546
233	0x3e425e05	0.18981178
234	0xbdaa2550	-0.08307898
235	0x3e178edc	0.1480059
236	0x3d800faa	0.06252988
237	0x3c7b037b	0.015320654
238	0xbdd91834	-0.106003195
239	0x3d96bebc	0.073605984
240	0x3e438cf1	0.19096734
241	0xbddb072f	-0.106947295
242	0xb96dd708	-0.00022682187
243	0xbbf79fb4	-0.00755688
244	0x3ba041da	0.0048906626
245	0xbdf633e5	-0.12021617
246	0xbdb9627b	-0.09051987
247	0xbda46305	-0.08026699
248	0xbc776f17	-0.0151021695
249	0x3a331eba	0.0006832887
250	0x3caeb209	0.021325128
251	0x3d333f00	0.043761253
252	0x3d9be707	0.07612424
253	0x3d99c613	0.07508483
254	0x3e3dce68	0.18535769
255	0x3e0d2ce0	0.1378665

fc2.bias f4 [128]
0	0x3d19467d	0.03742074
1	0x3cd2631c	0.025682025
2	0xbd740a90	-0.059580386
3	0x3d2fdd78	0.04293582
4	0xbd3474c6	-0.044056676
5	0x3d3e42d9	0.04645047
6	0xbcf49124	-0.029854365
7	0x3c8d3147	0.017235411
8	0xbc0293b0	-0.007969782
9	0xbb4a6338	-0.0030881893
10	0x3cc2ce8d	0.023780132
11	0xbdad0e20	-0.0844996
12	0xbcc5e0d2	-0.024155054
13	0x3c608525	0.013703619
14	0xbd33d767	-0.043906596
15	0x3d5318e2	0.051537402
16	0x3ce5db2f	0.028058616
17	0x3d912153	0.07086434
18	0xbd1ca666	-0.038244627
19	0xbcc64366	-0.02420206
20	0xbcdd2e7d	-0.026999706
21	0xbcc1c35a	-0.023652721
22	0xbd4b6b44	-0.049662843
23	0xbbca96e5	-0.006182539
24	0xbd202884	-0.03910114
25	0xbc8ecb62	-0.017430965
26	0xbd569017	-0.05238351
27	0x3d2e3ab9	0.04253647
28	0x3c9ba850	0.019001156
29	0xbc802dc5	-0.015646825
30	0xba921f41	-0.001114823
31	0xbca51dac	-0.02015575
32	0xbd8604b7	-0.06543868
33	0xbd401c18	-0.046901792
34	0xbd9300fb	-0.071779214
35	0xbb67b46f	-0.003535535
36	0xbd2bab1d	-0.041911233
37	0xbd09c856	-0.03363832
38	0xbcac2298	-0.02101259
39	0xbc726953	-0.014795619
40	0x3d28b281	0.04118586
41	0xbc63f9e6	-0.013914561
42	0x3d29fbf4	0.041500047
43	0xbd03f054	-0.032211617
44	0xbc9aea47	-0.01891054
45	0x3d7a171f	0.061057206
46	0x3cd1908d	0.025581622
47	0xbc0a5cee	-0.008445008
48	0x3d48ecee	0.04905408
49	0x3db2bc93	0.08727374
50	0x3bc080d2	0.0058747316
51	0xbd5302d2	-0.05151636
52	0x3c02d9da	0.00798651
53	0xbceb2ffe	-0.028709408
54	0xbc36b971	-0.011152611
55	0x3db0d863	0.086350225
56	0xbcaf0eca	-0.021369357
57	0x3c462b10	0.012095228
58	0x3d9fa82c	0.07795748
59	0xbc33d264	-0.010975454
60	0x3ca0d613	0.019633329
61	0x3d1f3f07	0.038878467
62	0x3bc821a9	0.006107528
63	0x3d9dc931	0.0770439
64	0xbd91790f	-0.07103168
65	0x3c81cbb2	0.0158442
66	0x3ae7b665	0.0017678259
67	0x3bcc4f17	0.006235014
68	0x3c4ce752	0.012506323
69	0x3d6fb151	0.05851871
70	0x3c5cdd09	0.013480433
71	0x3d8357ac	0.064132065
72	0x3d0a37a6	0.033744477
73	0x3d848d69	0.06472284
74	0xbc545d52	-0.012961702
75	0x3d3ce463	0.046116244
76	0xbd893698	-0.06699866
77	0x3d138a26	0.03602042
78	0x3d368a65	0.044565577
79	0x3cf57143	0.029961234
80	0xbcb6ca7d	-0.02231335
81	0x3b39785f	0.0028300507
82	0x3d8aa6ca	0.06770094
83	0xbc175a0c	-0.009237777
84	0xbd026c0e	-0.03184133
85	0xbd19f684	-0.03758861
86	0x3aad1a10	0.001320662
87	0x3cf96029	0.03044136
88	0x3cecda70	0.028912753
89	0x3d13f308	0.036120445
90	0x3d95123a	0.07278867
91	0x3c8284ae	0.015932407
92	0xbcb0e99b	-0.021595767
93	0xbd722629	-0.059118424
94	0xbcf0b570	-0.029383391
95	0xbbce591f	-0.006297245
96	0x3c44b7b7	0.012006692
97	0x3d6b595d	0.05745827
98	0x3bf31904	0.0074187536
99	0x3c0eafd4	0.008708913
100	0xbd640d91	-0.055677
101	0x3c63693c	0.01388007
102	0xbbe109b5	-0.0068676122
103	0xbbcf6ebe	-0.00633034
104	0x3d2825ad	0.041051555
105	0x3cbda3aa	0.02314933
106	0xbd64215b	-0.055695873
107	0x3d9747bc	0.07386729
108	0x3d69a273	0.05703969
109	0xbae6cf3f	-0.0017609372
110	0xbc6b3555	-0.014355977
111	0xbd3d4eeb	-0.04621784
112	0x3d9790df	0.07400679
113	0xbcec3462	-0.028833572
114	0x3da02d04	0.07821086
115	0x3b90f452	0.0044236565
116	0x3db5b3d8	0.08872193
117	0x3c46decb	0.012138079
118	0x3c5250e3	0.012836668
119	0x3c5c03f9	0.0134286815
120	0xbda4185c	-0.08012459
121	0x3cea0fc7	0.028571976
122	0xbc3c4762	-0.011491628
123	0x3d74cb01	0.059763912
124	0xbd36939d	-0.04457437
125	0xbda7b28a	-0.081883505
126	0xbd33826b	-0.04382555
127	0xbd3a0cc6	-0.045422338

fc3.weight f4 [4, 128]
0	0x3e889f36	0.26683968
1	0xbe879947	-0.2648413
2	0xbe3f46cd	-0.18679352
3	0x3dacd45a	0.0843894
4	0xbea98a29	-0.3311322
5	0xbddd8707	-0.1081677
6	0x3e224ae3	0.1584888
7	0x3e7985e8	0.24367487
8	0x3d1d4339	0.038394187
9	0xbeca8438	-0.39554
10	0x3dc54ef5	0.096342005
11	0x3e88041e	0.2656564
12	0x3e08f95f	0.13376378
13	0x3f1e1e36	0.6176485
14	0x3ca9fb8c	0.02074983
15	0x3efdd238	0.49574447
16	0xbcd040dd	-0.025421554
17	0x3d7bd4b5	0.06148215
18	0x3e858fe8	0.26086354
19	0x3db0eb43	0.086386226
20	0x3e852488	0.26004434
21	0x3e263673	0.16231708
22	0xbdb9c5fe	-0.09070967
23	0xbdac1535	-0.084024824
24	0x3d59e7a3	0.05319942
25	0x3c2c076d	0.010499817
26	0xbd744830	-0.059639156
27	0x3c845a1b	0.016156247
28	0xbe3cc25e	-0.1843352
29	0x3e86b920	0.26313114
30	0x3d71ef7b	0.059066277
31	0x3d8cdf3d	0.06878517
32	0xbcce3db3	-0.025175905
33	0x3ecf4d91	0.40488866
34	0x3ea2d031	0.31799462
35	0xbd977f57	-0.07397335
36	0xbe2cd78d	-0.16879101
37	0xbe8e3b29	-0.2777951
38	0xbdaf3468	-0.085549176
39	0x3de65ece	0.11248551
40	0xbe7f3d84	-0.2492581
41	0xbeae0c52	-0.33993775
42	0xbe121b71	-0.1426828
43	0xbe431bec	-0.1905362
44	0x3ec0a30b	0.37624392
45	0xbd2871c7	-0.04112413
46	0x3bb84006	0.0056228666
47	0xbda3c2ed	-0.079961635
48	0xbcc932bf	-0.02456033
49	0xbf067bd8	-0.5253272
50	0xbe1a5639	-0.15071954
51	0x3f06b0bc	0.52613425
52	0xbc9b3e2b	-0.018950542
53	0xbe872cd6	-0.26401395
54	0xbe762203	-0.24036412
55	0xbec54801	-0.38531497
56	0x3f0a039b	0.5391175
57	0xbe768013	-0.24072294
58	0x3bf3191d	0.007418765
59	0xbeed9013	-0.46398982
60	0x3dfdaa36	0.12385981
61	0xbe1d66e8	-0.15371287
62	0xbbc4f62c	-0.0060107913
63	0x3e84fb29	0.2597287
64	0x3efb8374	0.49123728
65	0x3dfc16ca	0.12309034
66	0xbe62953d	-0.22127242
67	0xbde88d17	-0.11355036
68	0x3ee65bbe	0.4499187
69	0x3e187b19	0.14890708
70	0xbe57a7dd	-0.21060129
71	0xbd82efee	-0.06393419
72	0xb9af82dc	-0.000334761
73	0x3ef5cca9	0.48007706
74	0x3b029fb5	0.0019931619
75	0x3dd35ab3	0.10320034
76	0x3ebbf06b	0.36706862
77	0xbe083b9f	-0.13303994
78	0xbd2afe4b	-0.04174642
79	0xbe845ba1	-0.25851157
80	0xbe476a7f	-0.19474219
81	0x3e70b59a	0.23506775
82	0x3eea7354	0.45791113
83	0x3e895c10	0.2682805
84	0xbd70ea0c	-0.058816954
85	0xbb3fb8e5	-0.0029254493
86	0x3e0998e6	0.13437232
87	0x3e8ce36a	0.27517253
88	0xbf0c2d66	-0.5475677
89	0xbd9cf2d7	-0.076635055
90	0x3d88e346	0.06683974
91	0xbcb71328	-0.022348002
92	0xbdf0f96d	-0.11766324
93	0x3c83aa82	0.016072515
94	0x3e45f8e8	0.19333231
95	0xbe41446c	-0.18873757
96	0x3eb72485	0.3577005
97	0x3e93f1a2	0.2889529
98	0x3f176ee9	0.5915361
99	0x3eb06b1b	0.34456715
100	0x3e57a2df	0.21058224
101	0xbe805d2e	-0.2507109
102	0xbe29efc7	-0.16595374
103	0xbe63235f	-0.22181462
104	0xbdfe595d	-0.124193884
105	0xbe0f7a04	-0.14011389
106	0x3d990a61	0.07472683
107	0x3dcb385d	0.0992286
108	0x3e812f4d	0.252314
109	0x3d78ecb1	0.0607726
110	0xbd0da3b6	-0.034579955
111	0x3e3891e1	0.18024398
112	0x3e82a6b8	0.2551782
113	0xbda30242	-0.07959415
114	0xbe8ab9e9	-0.27094963
115	0x3de09e9c	0.10967752
116	0x3e906873	0.28204688
117	0x3c35cded	0.01109646
118	0x3f07f543	0.53108615
119	0x3e20b8a6	0.15695438
120	0xbe2b8bc6	-0.16752538
121	0x3ecc2211	0.3986974
122	0xbe52521d	-0.20539136
123	0xbea77049	-0.32702854
124	0xbe91a624	-0.28447068
125	0xbe132fd6	-0.14373717
126	0x3d73f5a9	0.05956045
127	0xbe1f1c87	-0.15538226
128	0xbc61a036	-0.013771107
129	0xbee7f119	-0.4530113
130	0xbe0e1a87	-0.13877307
131	0x3de4a83b	0.111649
132	0x3dec4e9e	0.115384325
133	0x3db43574	0.08799258
134	0x3dcb6973	0.09932222
135	0xbe27d315	-0.16389115
136	0x3e4c92f9	0.1997794
137	0xbdc18cda	-0.094506934
138	0xbe068e42	-0.13140205
139	0x3df3cb23	0.1190398
140	0xbd9a00e7	-0.07519703
141	0x3c412502	0.0117886085
142	0x3ea8eeed	0.32994786
143	0xbc85554f	-0.01627603
144	0xbcf8254a	-0.030291218
145	0xbe0b3435	-0.13594134
146	0x3f2f3218	0.6843581
147	0xbdc98236	-0.09839289
148	0xbe81eb94	-0.25375044
149	0xbda4ba49	-0.080433436
150	0xbe22b514	-0.15889388
151	0x3d5ed829	0.054405365
152	0x3e82b690	0.2552991
153	0xbe0288eb	-0.12747543
154	0x3dd72c84	0.105065376
155	0x3e7ee14e	0.24890634
156	0xbd8eafc0	-0.069671154
157	0xbeafdc63	-0.3434783
158	0xbe32f690	-0.17476869
159	0xbe0ccdbd	-0.13750358
160	0x3d07a2ca	0.033114232
161	0x3d21704a	0.039413728
162	0xbd98b24e	-0.07455884
163	0x3e291250	0.16510892
164	0x3e1fa488	0.15590107
165	0x3d824737	0.063612394
166	0xbd204289	-0.039125953
167	0xbd6212ad	-0.055193592
168	0xbccf483a	-0.025302995
169	0x3d967cb0	0.07348001
170	0xbe69de20	-0.2283864
171	0xbb01cc24	-0.0019805515
172	0xbe4c6495	-0.19960244
173	0xbdfc943d	-0.12332962
174	0xbe1fdf20	-0.15612459
175	0x3dbf43ef	0.09339129
176	0xbef4ec1f	-0.47836396
177	0xbde37128	-0.11105567
178	0x3dcf456b	0.10120662
179	0x3e8b2605	0.27177444
180	0xbc503cae	-0.01270978
181	0xbe9e6921	-0.30939582
182	0x39c83e62	0.00038193451
183	0xbf367fc0	-0.7128868
184	0xbe9e5636	-0.3092515
185	0x3d095ea4	0.033537522
186	0x3e94a319	0.29030684
187	0xbc41abc6	-0.011820739
188	0xbde63511	-0.1124059
189	0xbdd9aec6	-0.106290385
190	0xbe2c67f4	-0.1683653
191	0xbcffebf6	-0.031240445
192	0x3d1f6679	0.038916085
193	0x3e5f7000	0.21820068
194	0xbd1b727e	-0.037950985
195	0xbe3a7412	-0.1820834
196	0xbdb0e7d4	-0.08637968
197	0xbe9d9133	-0.3077484
198	0xbe084413	-0.13307218
199	0x3d35a79f	0.04434931
200	0xbcb1d101	-0.021706106
201	0xbdb2b7ff	-0.08726501
202	0xbd34af62	-0.04411257
203	0x3e3a17a8	0.18173087
204	0xbc2c589a	-0.010519171
205	0x3df2d04f	0.11856138
206	0xbed3cae4	-0.4136573
207	0x3e9f20b3	0.31079635
208	0x3ea55669	0.32292488
209	0x3d44b357	0.048022594
210	0xbde11cda	-0.10991831
211	0xbe4ade7d	-0.19811435
212	0xbd0323b7	-0.032016482
213	0xbe8a79c9	-0.2704604
214	0x3d117798	0.035514444
215	0xbdd543a4	-0.10413292
216	0x3e303686	0.17208299
217	0x3d592bc8	0.05302027
218	0xbe040173	-0.12891178
219	0x3df0029e	0.11719249
220	0x3e295118	0.16534841
221	0xbf0ecf4c	-0.5578506
222	0x3e254e89	0.1614324
223	0xbdbc7686	-0.09202294
224	0xbd50b781	-0.050956253
225	0x3cc8649c	0.024462037
226	0xbdc049f4	-0.093891054
227	0xbe394420	-0.18092394
228	0xbe38b106	-0.18036279
229	0xbca0d222	-0.01963145
230	0xbda6a84e	-0.0813757
231	0x3e12e475	0.14344962
232	0x3de33aac	0.11095175
233	0xbe466760	-0.19375372
234	0x3e92f1f3	0.28700218
235	0x3c5e985f	0.013586133
236	0x3e0899b6	0.13339886
237	0xbcb7bfc6	-0.022430312
238	0xbd5fb10c	-0.054612204
239	0x3dc41be2	0.09575631
240	0xbca1fb52	-0.01977316
241	0xbe48a2ea	-0.19593397
242	0x3e980bf4	0.2969662
243	0x3c9a0587	0.018801464
244	0x3e0ee3c3	0.13954072
245	0xbebd6b07	-0.36995718
246	0x3e244889	0.16043295
247	0x3e648b3c	0.22318739
248	0xbe44d3b5	-0.19221385
249	0x3e100936	0.14066014
250	0xbb0e04f5	-0.0021670435
251	0x3e0606f7	0.13088594
252	0x3da36c23	0.0797961
253	0x3d7d35da	0.061818935
254	0xbe2087d0	-0.15676808
255	0x3e031132	0.12799528

fc3.bias f4 [4]
0	0x3cf42444	0.029802449
1	0xbd9e13a8	-0.07718593
2	0x3d7d1ea9	0.061796818
3	0xbc668d97	-0.014071844
