savedmodels/checkpoint_1545158393_critic_episode137_score36.117.pth (torch_old, 169980 bytes, 5 tensors)

fcs1.weight f4 [256, 33]
000000 78 04 81 bc a6 70 6a 3d f9 98 98 3d a7 ac 2a bd
       -0.015749201 0.057236336 0.07451052 -0.04166856
000010 a1 5a aa bd 4b a3 3d bd b7 ca 03 3e b1 cb 01 3d
       -0.08318067 -0.046298306 0.12870298 0.031688396
000020 29 dc 9a 3d ab 24 33 3d 87 d2 ba bc de 99 39 bd
       0.075615235 0.04373614 -0.022805465 -0.045312755
000030 19 da 97 bc 60 5d 9f 3d d6 8d bf 3d 85 cf 0d bc
       -0.018536614 0.07781482 0.09353225 -0.008655434
000040 d1 c4 9d 3d 97 0a 74 3c 35 14 a2 bc 94 9f 1e bd
       0.077035554 0.014895103 -0.019785026 -0.038726404
000050 76 87 45 bd 2e 7f d5 bb 63 59 39 bc 73 36 f0 3d
       -0.04822489 -0.006515405 -0.011312815 0.11729135
000060 6e 3e 56 3a 8f 7b 0a 3d 6a 05 48 bd fa 2c 92 3c
       0.0008172755 0.03380924 -0.04883329 0.017843712
000070 6d d5 40 bd 80 6a 4e bd b5 e7 a1 bd be 99 25 3d
       -0.04707854 -0.050394535 -0.07905523 0.040429823
000080 86 5f e9 3c a9 63 22 3c 3c 16 84 bd 75 ed 61 3d
       0.028487932 0.009911456 -0.06449553 0.055158097
000090 26 09 03 3d cf 04 0e 3d ee ae e8 3c be 3b 12 3d
       0.031991147 0.034672555 0.028403725 0.035701506
0000a0 44 d7 ae bc 1b bd 9a 3c 17 42 14 bc 11 fa 1a 3c
       -0.021342881 0.018889 -0.00904896 0.009459035
0000b0 15 79 ef 3c f7 3a 1f 3d 49 34 8c 3c 0f ba 52 3d
       0.029232541 0.038874593 0.017114775 0.05144697
0000c0 9c 78 63 3d 87 3a c6 3c bb 5f 2d 3d 6c 3e 0e 3d
       0.055534944 0.02419783 0.042327624 0.0347275
0000d0 7b b2 e9 bb 7d 22 f2 ba 06 df 19 3c 1d 8f 35 3d
       -0.0071318722 -0.0018473413 0.009391552 0.044325937
0000e0 3d 76 4b bb 7d ae 9e bc 0e 17 94 3c 13 05 7d bd
       -0.0031045817 -0.019370312 0.0180774 -0.061772417
0000f0 9c 83 ad bd a8 6d 95 3d 30 f6 a3 3c 6a bb 90 3d
       -0.08472368 0.07296306 0.020014852 0.070669964
000100 a0 9a 9d 3b 1b bb 84 bc d7 49 7c 3d d0 ad 21 bd
       0.0048096925 -0.0162025 0.061593857 -0.0394724
000110 0c a0 63 3d 45 5b d1 b9 12 cc 4d 3d ef fd 51 3d
       0.055572554 -0.00039931588 0.050243445 0.05126756
000120 25 69 47 bd 2d 58 e7 bc 54 03 db bc f9 26 fe 3b
       -0.048684258 -0.028240288 -0.026734985 0.0077561107
000130 15 fb 3d 3c 26 a4 2d bd eb ef bf 3c a5 4b 25 bd
       0.011595507 -0.042392872 0.023429831 -0.040355343
000140 cf 4c 19 3c 18 e9 be 3b 3e 8a e4 3c 4b 0c 66 bd
       0.0093566915 0.005826127 0.02789795 -0.056164067
000150 0f d6 83 bb ea 1f 8d bd 07 87 83 bd ed fa 56 3d
       -0.0040233205 -0.06890853 -0.06422239 0.052485395
000160 cb de e1 bc 74 1b ce bc a1 f7 2e 3c d4 a1 c5 bd
       -0.027572056 -0.025159575 0.0106791565 -0.09650007
000170 4d bf 60 3d 6f ff 8f 39 04 49 90 bc 40 2e 51 bb
       0.05486994 0.00027465398 -0.017612942 -0.0031918436
000180 f3 fb 88 3d 1e 99 5e bd c1 f3 6b 3e 45 e0 81 3d
       0.066886805 -0.054345243 0.23042203 0.06341604
000190 f4 c5 a0 3b 75 75 c3 3d 37 48 15 3d 0c d8 aa bc
       0.0049064104 0.095438875 0.036445823 -0.020854972
0001a0 31 35 1b 3d 91 4a 07 3d a4 1e 80 bc 51 a7 68 3c
       0.037892524 0.033030096 -0.01563961 0.014200048
0001b0 97 f8 a5 bc a7 65 33 3c 8b 12 ad 3c 23 ea 50 bc
       -0.020260138 0.010949529 0.021127006 -0.012751135
0001c0 e4 cf 3b bd 17 3a 5d 3d f8 38 93 bd 90 8f 92 bc
       -0.045852557 0.054010477 -0.071886 -0.017890722
0001d0 f1 7d 95 bc 82 56 85 bd a5 4a 77 bc 46 52 e6 3c
       -0.01824853 -0.06510641 -0.01509348 0.028115403
0001e0 86 d3 06 3d 1d b7 2c bd d4 86 02 bd fa 93 fb bc
       0.03291657 -0.042166818 -0.031866863 -0.03071021
0001f0 7e c2 be bc 74 4b 76 3c 22 80 31 3c 66 6b 36 bd
       -0.0232861 0.015032638 0.010833772 -0.044536017
000200 b8 a0 ca bc 05 83 bc 3d 80 c6 33 bc ce cc 20 3d
       -0.02473484 0.092046775 -0.010972619 0.039257817
000210 47 97 03 bd 59 2d 43 3c 05 13 56 3d aa e6 94 bc
       -0.03212669 0.011912667 0.052264232 -0.018176395
000220 15 ea 6b bd 04 3c 83 3d e2 48 d5 3c 3f ff 03 3d
       -0.057596285 0.064079314 0.02603573 0.032225844
000230 df 2e d9 bd 7f d5 83 3d d4 98 b8 bc 1b 5a fa 3c
       -0.10604643 0.064372055 -0.022533812 0.030560544
000240 81 69 35 3c d8 58 bc bc d8 c0 ca 3a dd f4 ae bb
       0.011072517 -0.022991583 0.0015468849 -0.0053392486
000250 44 19 aa bc dd 98 a5 bc dc 27 d8 bb 6d 4d a6 bc
       -0.020764 -0.020214492 -0.0065965485 -0.020300591
000260 ea c9 a4 ba 0c 2b 24 3d 02 14 b1 3c 3d ff 63 bc
       -0.0012572382 0.040080115 0.021615986 -0.013915834
000270 39 99 6d 3c 29 68 ab 3c 09 f0 0b bd 49 ae 34 3d
       0.014501863 0.02092369 -0.034164462 0.044111524
000280 f5 d7 67 bd 58 d9 92 3c 25 83 53 bd 94 a1 88 3c
       -0.056602437 0.017925903 -0.05163874 0.016678609
000290 14 29 9c be 94 71 b8 bd 75 76 b4 3d bf 7b 93 bb
       -0.3050009 -0.09006038 0.088116564 -0.0045008357
0002a0 d3 f2 8a bc 57 16 0a bd 51 bc f0 bc 7f 9b 36 3d
       -0.01696149 -0.03371271 -0.029386671 0.044581886
0002b0 f1 1b 43 bb 47 5d 16 bd 72 44 28 3d 0a fc 93 bc
       -0.0029771293 -0.03671005 0.0410809 -0.018064518
0002c0 67 ca 9c 3b 92 a8 40 bc 4d c4 22 3e 13 70 09 be
       0.0047848704 -0.01175894 0.15895195 -0.13421659
0002d0 e5 2a e3 bc 12 b7 1f 3c 0a 2d b0 3c de 7f 2a bd
       -0.027730415 0.009748237 0.021505851 -0.04162585
0002e0 b8 9e 7d 3c 39 45 9d bb ab 88 77 ba 6c 46 9a 3b
       0.015479736 -0.0047995117 -0.00094426674 0.004708102
0002f0 3d 72 d2 3c f9 56 fa bc d1 47 a6 3b b8 a6 bd bd
       0.025689239 -0.03055905 0.005074479 -0.09260315
000300 44 98 71 3d eb 6c 15 3d a4 1a 44 3d d6 24 61 bd
       0.058983102 0.036480825 0.04787697 -0.05496677
000310 c8 80 19 3c c8 8b 41 3d 80 1f e8 3c 4c 8c be bc
       0.009369083 0.047252446 0.028335333 -0.023260258
000320 ba a0 43 bd 15 f6 df bb 19 fb 80 bd b3 09 a0 3d
       -0.047760703 -0.006834755 -0.06297893 0.0781435
000330 bd 04 65 3d 2d 7c 04 3d e0 a4 85 bc 9e 85 36 bd
       0.055912722 0.032344986 -0.01631397 -0.04456102
000340 fa eb 87 3b c8 c7 43 bd 6d b6 51 3c 8c 71 57 3d
       0.0041480036 -0.047797948 0.012799841 0.05259852
000350 62 e2 59 bd c2 ab e4 bb 2c 48 00 3b 0a c4 22 3d
       -0.05319441 -0.006978483 0.0019574268 0.03973774
000360 22 c5 00 3c 05 f4 98 3c 31 9a bb bd e9 74 25 3c
       0.0078595 0.018671045 -0.09160269 0.010098674
000370 2e c5 b5 3c 6e 8f 88 bc 24 aa f1 3c 9e 60 88 bc
       0.02218875 -0.016669955 0.029500075 -0.016647633
000380 0b be 2b bd 30 6e b6 3d d0 b5 54 3c 64 81 43 bd
       -0.041929286 0.08907735 0.012982801 -0.04773082
000390 e8 db eb bd 80 9d be 3a 7b ba 9e 3d 30 f5 83 bd
       -0.11516553 0.0014542788 0.07750412 -0.0644325
0003a0 da 0b 10 3d 11 bd 09 3e 06 b0 08 bd 0b 98 9d bd
       0.035167553 0.1345103 -0.033370994 -0.076950155
0003b0 19 44 15 bd d5 f7 89 3d 4a 31 3b 3d 8e 72 89 3d
       -0.036441896 0.06736723 0.045701303 0.06711303
0003c0 a2 af aa bc f4 87 86 bd 07 68 11 3d d7 0d dc bc
       -0.020835701 -0.065689 0.0354996 -0.026862068
0003d0 92 ac 4f 3d 9c 0c 2a bc 42 54 80 bd 63 33 2d bc
       0.050701685 -0.010378983 -0.06266071 -0.010571334
0003e0 37 31 50 bc 25 6d 81 3c 13 1b 7b 3c 3e fa 00 3c
       -0.012707046 0.015799114 0.015326279 0.007872162
0003f0 39 e3 8f 3c f3 82 95 3c b2 f6 42 bd d2 4e 9f bd
       0.017564403 0.018250918 -0.04759855 -0.07778706

fcs1.bias f4 [256]
000000 20 5f 8d 3c b0 69 41 3e 20 4b a9 bb 63 ab 3f 3e
       0.017257273 0.18887973 -0.0051664263 0.18717723
000010 6e c3 92 bc fc 4b 4d be 68 64 60 be eb e3 26 be
       -0.017915454 -0.20048517 -0.21913302 -0.16297881
000020 aa 36 42 3d c3 38 87 3d 7f ab 97 bd 01 5b b4 bc
       0.047415413 0.06602623 -0.07405757 -0.02201605
000030 d9 5a ac 3d 3c 34 28 bd 79 77 75 3d 18 04 b6 bc
       0.08415765 -0.04106544 0.05992839 -0.022218749
000040 86 05 17 be db 77 0c be 78 91 de 3d ea 7a 1c be
       -0.14748201 -0.13717596 0.1086759 -0.15281263
000050 03 09 13 3c b9 7f b3 bb ad c9 94 3d 25 93 c6 3c
       0.0089743165 -0.005477872 0.07265029 0.024240086
000060 f0 65 1e bd ff 0c 80 bd b3 c9 63 3d 49 c9 95 bd
       -0.038671434 -0.06252479 0.055612277 -0.07313783
000070 65 04 56 3d 43 68 fa 3c 27 90 a0 3d c4 49 46 bd
       0.052250285 0.030567294 0.07839995 -0.048410192
000080 40 6c 24 be 6c 15 ad bd 70 72 b3 3d 8e c1 9b bd
       -0.16056919 -0.084513515 0.087620616 -0.07605277
000090 05 92 24 3e 8b 42 af 3d 16 6c 03 be e9 3f 5a 3d
       0.16071327 0.08557614 -0.128342 0.053283606
0000a0 3f 3a d6 bd c3 0e 0d be 0b f7 7a 3d 4a c3 16 be
       -0.10460328 -0.13775162 0.061270755 -0.14722934
0000b0 ca e2 39 bd f2 ab 34 be c2 f4 aa 3d 85 fd 97 3d
       -0.0453823 -0.17643717 0.08347465 0.07421402
0000c0 a9 98 f2 3d 01 e3 f0 bd 0b 70 ec bd 45 47 d9 3c
       0.11845524 -0.117620476 -0.11544808 0.026523242
0000d0 3d 29 15 be 5e b0 a4 bd e5 c5 3a be a8 1e e2 3d
       -0.14566512 -0.08041452 -0.18239553 0.110410035
0000e0 21 42 94 bd 2d 3e 80 bd c1 5e 5d 3d 57 ff 30 3d
       -0.072391756 -0.06261859 0.054045442 0.04321226
0000f0 25 68 01 be 99 aa de 3d 26 ae 33 be 73 16 6f bd
       -0.12637384 0.10872383 -0.17546901 -0.05837102
000100 00 91 08 be c4 bb 05 be 40 08 58 3d 06 59 13 3e
       -0.13336563 -0.13059908 0.052742243 0.14389428
000110 fa 68 5d 3d ed 21 d3 bc 46 25 64 3d be 4f 03 3e
       0.05405519 -0.025773013 0.05569961 0.12823388
000120 60 c2 34 bd 09 52 05 be 96 42 65 3c 00 45 84 3d
       -0.044130683 -0.13019575 0.013992926 0.06458473
000130 96 6c 81 3d e6 3a bb bd 59 3b 4a 3e 97 5f f9 bd
       0.06319539 -0.09142093 0.19749202 -0.121764354
000140 ca 9c b5 3a 85 d0 e4 3d 6f 38 8f bd bd 9b 83 3d
       0.0013855931 0.111725844 -0.06993186 0.06426189
000150 29 fa db 3d f5 7c 94 bd fa 75 09 3e 1a ab 87 3d
       0.10741074 -0.07250396 0.1342391 0.06624432
000160 80 a1 cd 3d f2 30 04 3e dc a1 e7 3d e4 56 1e 3d
       0.10040569 0.12909296 0.11310169 0.038657084
000170 fd 73 08 3e 16 40 5e be 91 89 73 be 7a f3 b8 3b
       0.13325496 -0.21704134 -0.23782946 0.005644259
000180 8f b7 48 3e bc 48 e7 bd 28 18 34 3e 2c fa 97 bd
       0.19601272 -0.1129317 0.1758734 -0.074207634
000190 86 b2 49 bb 53 4f c4 bd 68 b0 17 bb 8e b8 c5 bd
       -0.0030776574 -0.095854424 -0.0023145918 -0.09654342
0001a0 45 95 fd bd d7 26 18 3d d0 2a 05 bd 93 d4 20 3d
       -0.123819865 0.037146416 -0.032511532 0.039265227
0001b0 60 a7 76 3d a2 94 c8 bd 49 b8 ae 3d 8c 08 4a 3e
       0.060218215 -0.097939745 0.08531243 0.19729823
0001c0 25 79 c1 bd 34 27 03 3e 9b 36 97 3d e8 76 20 be
       -0.094469346 0.12807924 0.07383462 -0.15670359
0001d0 e0 c2 b7 3c 70 ef 40 be d4 30 1a bc 30 47 0d be
       0.02243179 -0.18841338 -0.009411056 -0.13796687
0001e0 7d 4a 09 3e aa d6 c4 3c b6 e2 0c 3e f2 1c 5d bd
       0.13407321 0.024028141 0.13758358 -0.053982683
0001f0 17 23 0f be 8f 26 e0 3d 2e c1 95 3c fe 99 60 3d
       -0.1397823 0.109448545 0.018280592 0.05483436
000200 75 91 3d 3b 26 c0 b6 3d 28 5c d0 bd a3 94 65 be
       0.002892581 0.08923368 -0.101738274 -0.22419982
000210 31 be 04 3c ad 9f c7 3d 47 a6 1f bc 19 39 79 bc
       0.008101986 0.097472526 -0.009744233 -0.015211367
000220 f9 1f 2e be e7 0f 5e 3d 08 3d 6c be 4f ce fe bd
       -0.17004384 0.054214384 -0.23070157 -0.12441694
000230 cb fe ce 3d 0a 86 50 be d2 f8 09 be 4e e6 1a be
       0.10107192 -0.20363632 -0.13473824 -0.15126917
000240 87 27 fc 3d 8d b7 0d be a2 3a 08 bd 5a 4a 4b 3b
       0.12312227 -0.1383955 -0.03325904 0.0031019659
000250 7a 74 8c 3d d3 de f5 3d 66 12 32 3d eb 0c b4 3c
       0.06858154 0.12005391 0.043474577 0.021978816
000260 ed e5 e4 bd d9 38 c8 3d f3 c0 28 3e 2a b7 74 bb
       -0.11176667 0.09776468 0.16479854 -0.003734062
000270 8e 8c e0 3d 00 71 a9 bd fa 3d 6b bc 89 94 bb bd
       0.10964309 -0.08273506 -0.014358038 -0.0915919
000280 39 17 9d 3d 25 94 9c bd bb 8a a8 bd 82 bd 46 be
       0.07670445 -0.07645444 -0.08229586 -0.19408229
000290 c1 8a d3 bc e4 01 31 3d e4 cf 03 3e f4 43 00 3c
       -0.025822999 0.043214694 0.12872273 0.007828701
0002a0 3c 58 d1 bc 73 30 7b 3d c5 60 80 3c c2 86 2c 3e
       -0.025554769 0.0613255 0.015671143 0.16848281
0002b0 ee 6b 46 3e 25 e2 2b 3e 5d fb f9 3c 4f 61 16 3d
       0.1937711 0.16785486 0.030515367 0.036713894
0002c0 aa 12 1d 3e 7d 08 9a bc c1 c5 33 3e 08 7d f0 bd
       0.15339151 -0.018802876 0.17555906 -0.11742598
0002d0 df 57 38 3a 2d 2a 07 3d 26 0f 01 be 0d 71 48 bd
       0.0007032137 0.032999206 -0.12603435 -0.04893594
0002e0 ab 63 91 bc f7 fc e7 bc 56 9d 71 bd 67 15 5a bc
       -0.01774772 -0.028318865 -0.058987938 -0.013310767
0002f0 69 48 33 bc 4b 09 60 3e 14 70 67 bd 90 86 0b 3e
       -0.010942557 0.21878545 -0.05650337 0.1362555
000300 d3 68 1e bd d6 6e 2a 3e cb 5a 3e 3e 45 43 4b bd
       -0.038674187 0.16643843 0.18589322 -0.0496247
000310 e1 67 ab bc 5e 97 fd bd 53 31 87 b9 2a 3c 0d be
       -0.020923557 -0.123823866 -0.00025785956 -0.13792482
000320 c6 f8 c9 bd 31 eb 92 3c b2 67 ce 3c 68 5b ba bd
       -0.09861903 0.017934414 0.02519593 -0.090994656
000330 c3 ff f9 3d ba 52 5e 3d 6a c9 a1 bd 1a c2 ba 3d
       0.12206986 0.054278113 -0.07899745 0.09119053
000340 ea 34 20 be 1e db 83 bc ed 81 59 3e 62 71 a7 3d
       -0.15645185 -0.016095694 0.21240969 0.08175923
000350 37 44 83 3d 5d b4 b4 3c 10 fd 26 bd 76 5c 0f 3e
       0.06409495 0.02205866 -0.040768683 0.14000115
000360 2c 47 2d 3c 7d 36 07 3d 54 c8 bf 3c 5c 80 62 bc
       0.010576051 0.03301095 0.023410954 -0.013824549
000370 c5 1f 5f 3d 3a 34 f9 bd bb aa 02 be 6f 04 2c be
       0.054473657 -0.121681646 -0.12760441 -0.16798566
000380 2e 26 3e 3e ae 4d ae bd 22 b7 1c be 01 8a 1c 3d
       0.18569252 -0.0851091 -0.15304235 0.03821755
000390 1c 80 a8 bd 9b 33 74 3d 69 eb 77 bd d4 77 87 3d
       -0.0822756 0.059619527 -0.06052724 0.06614652
0003a0 bb a8 42 be b1 fc 49 be 06 2f b6 3d 65 e4 a2 bd
       -0.19009678 -0.197253 0.08895688 -0.07953719
0003b0 82 1d 5a bd 8a 75 2e 3d be a7 56 3c 7f dd b8 bd
       -0.053250797 0.042592563 0.013101516 -0.09026622
0003c0 ed 13 8a 3d 08 41 de bd 9c 98 11 3e a3 e0 7a bd
       0.06742082 -0.108522475 0.14218372 -0.061249387
0003d0 07 6e 03 3d c2 23 20 3e cc 38 ee 3d 9a 0f c6 3d
       0.032087352 0.1563864 0.11631927 0.096709445
0003e0 22 72 a6 3d d8 65 f2 bd 68 22 98 3d d6 8f ba bd
       0.08127238 -0.118358314 0.074284375 -0.09109466
0003f0 a4 b1 11 3e c3 f1 8a bd 9d bf a3 3d c0 f0 c7 3c
       0.14227921 -0.06784394 0.07995532 0.02440679

fc2.weight f4 [128, 260]
000000 20 e3 d0 3c 3d 89 d6 3b ec 7d c1 3d be 46 59 bb
       0.025498927 0.006547122 0.09447846 -0.0033153738
000010 e0 e1 dc 3d 74 85 96 be 36 c8 90 bd d6 fc a5 3d
       0.1078527 -0.29398692 -0.07069437 0.08104865
000020 aa 5b 79 bc 8f da 9a bd 96 4e 00 3d ce 5f f2 3b
       -0.015219608 -0.07561218 0.031324945 0.0073966747
000030 4f 46 1d bd 19 23 7d 3d 56 eb 15 bd e6 90 f7 3b
       -0.03839713 0.06180105 -0.036601387 0.007555115
000040 b0 d5 0c bc 22 9b 73 bd e2 75 82 3c 7f 39 e9 3d
       -0.008595869 -0.059474118 0.015925352 0.1138792
000050 0c f2 9f 3d e8 1e 0a bd 68 ed 2c 3d 93 d3 38 be
       0.07809839 -0.03372088 0.042218596 -0.18049459
000060 0f 01 28 3d d4 0e b2 bb 04 c4 97 3d 24 c5 82 be
       0.041016635 -0.0054338966 0.07410434 -0.2554103
000070 ee da 95 3d a5 36 15 bd db 1b 23 3d 8a 38 24 3d
       0.07317148 -0.036429066 0.039821487 0.040092982
000080 bd e1 83 3c a7 21 d9 3c 50 77 9a 3c 3f f4 5d bc
       0.016098851 0.026505305 0.01885572 -0.013547002
000090 89 75 5d bc 0b 31 1c bd 9d cf 98 3d 90 06 2a bd
       -0.013516792 -0.03813271 0.07461474 -0.041510165
0000a0 72 b6 a2 bd a8 5f 34 bd 68 1d 22 bd 90 6a 2d bc
       -0.07944955 -0.044036537 -0.039578825 -0.0105844885
0000b0 3d 29 70 bb e4 01 65 3d 4a 1a 06 3d 0e cf 49 bd
       -0.0036645674 0.055910006 0.032739915 -0.04926973
0000c0 61 8e 8d bd 9c 15 93 3a 1b 46 0b 3d db dd a2 3d
       -0.06911922 0.001122165 0.034002405 0.07952472
0000d0 de af 7c 3d 06 0e 92 bd 28 6e ac bb 99 50 72 bd
       0.061691158 -0.07131581 -0.005262155 -0.059158895
0000e0 8f 8e 95 bd 8c f9 67 3d cb df a0 bd 05 b8 1b 3d
       -0.073025815 0.05663447 -0.07855185 0.03801729
0000f0 e0 38 89 bc df 75 f5 3d a8 14 62 3d 18 0b 66 3d
       -0.016750753 0.11985373 0.05519548 0.056162924
000100 d9 d5 c9 3c a6 ab 60 bc 71 ab 45 bd 7a 17 98 3d
       0.024638103 -0.013712799 -0.048259202 0.07426353
000110 eb 5b b4 bd 4b 47 f3 bd 55 79 c0 bd c2 9a 31 3d
       -0.088065945 -0.118788324 -0.09398142 0.04336048
000120 01 78 1e bb f1 40 93 3d 57 87 82 bd 79 9b 70 bd
       -0.0024180415 0.07190121 -0.0637347 -0.05874202
000130 59 01 b4 bc af a9 2b 3d 6a ef 5e 3d 7a 1e 69 bd
       -0.021973299 0.04190987 0.05442754 -0.05691383
000140 81 6d 9a bd 16 eb 6a bc 7a 54 fd bc 62 9f e3 bd
       -0.075404175 -0.014338275 -0.03092407 -0.11114384
000150 92 a2 a5 bd 37 0d 84 3d 68 6c e9 3c 04 bb d2 bc
       -0.080876485 0.06447833 0.028494075 -0.025723942
000160 ae fd 51 bd 3a 74 11 be 69 a4 de 3d 40 80 4f be
       -0.05126732 -0.14204493 0.108712025 -0.20263767
000170 f0 72 34 bc 66 20 59 be 75 5f 49 3d 32 5e 1a b9
       -0.011013731 -0.21203765 0.0491633 -0.00014721675
000180 b6 0f 8d 3c 0d b1 9e bd da 99 3e 3d cd 4e 6d 3d
       0.017219406 -0.077486135 0.046533443 0.05793648
000190 16 15 c2 bd 37 0e 6c bd 51 7c 77 bb 1a 3e d2 3c
       -0.09476678 -0.057630744 -0.0037763307 0.025664378
0001a0 c5 96 82 bd 22 e4 ca 3d 38 2f d4 3d 51 92 32 3d
       -0.06376413 0.09906794 0.10360569 0.04359657
0001b0 15 71 b0 3d b9 d1 a5 3c 53 12 5f bd 02 b9 2c 3d
       0.08615319 0.020241605 -0.054460835 0.042168625
0001c0 fc bb 93 3d 8a 10 e4 3b a4 a6 55 bd c2 80 d9 bd
       0.072135895 0.0069599794 -0.052160874 -0.10620262
0001d0 3a 2f 81 bd 52 d8 c0 bd b3 c0 4f bc 62 e9 b1 bc
       -0.06307836 -0.0941626 -0.01268022 -0.02171773
0001e0 37 e3 54 bc 55 70 98 3b ab d7 23 bd b1 b8 91 bd
       -0.012993625 0.004652063 -0.0400006 -0.07115305
0001f0 d0 da 58 3d 3a b7 8b bc bb 8b c1 3d 71 9a 76 3d
       0.05294305 -0.017055143 0.094504796 0.06020588
000200 a7 e1 88 3d 5a ab a1 3d 10 10 7f bd d1 7f c4 3d
       0.06683665 0.07894011 -0.062271178 0.095946915
000210 ce 79 ef 3d ed e8 a1 bd e1 a4 4c be a4 fb 8e 3d
       0.11693154 -0.07905755 -0.19984771 0.069815904
000220 36 5a 69 3d 96 1f 8c 3c 66 fc d3 3c 04 7d 0b 3d
       0.056970797 0.017104905 0.025877189 0.03405477
000230 d0 2b 34 bd 95 2c 20 be 58 63 0f bd 42 07 da bc
       -0.043987095 -0.15642007 -0.03500685 -0.026614789
000240 e0 c2 87 3d bb 55 dc bc 39 b8 12 bb 9c e8 0e 3d
       0.06628966 -0.026896348 -0.0022387637 0.034889802
000250 84 29 07 be 54 11 06 bc 9c ea 7b bd 56 33 44 3d
       -0.1319943 -0.008182842 -0.061503038 0.04790052
000260 3a 9d d3 bc ec 60 0c 3e c4 74 04 3d f7 ac 52 3d
       -0.025831807 0.13708848 0.03233792 0.051434483
000270 a4 e1 e7 bd 93 2b ff bc f8 b7 92 3d 35 e1 c2 3d
       -0.113223344 -0.031148707 0.071639955 0.09515611
000280 ff 05 74 ba ad c5 16 3e 62 be 25 bd c2 e0 d3 bd
       -0.0009308755 0.14723845 -0.040464766 -0.103456035
000290 b8 04 42 3d 21 60 e6 bd 9b 2f 2e 3d 63 15 89 3d
       0.04736778 -0.11248804 0.04252587 0.06693532
0002a0 5e fa b2 3d 5a d4 9f bd db a4 b5 3d 63 14 84 bd
       0.0873916 -0.07804175 0.08869334 -0.06449201
0002b0 47 e7 b6 bc a8 4d 3b bc 34 57 1a 3d dc 1a 85 bd
       -0.022327079 -0.011432089 0.03768082 -0.06499264
0002c0 ca 52 61 bc 6a cb 80 bc f3 b7 39 3c e5 03 70 bd
       -0.013752649 -0.015721995 0.011335361 -0.058597464
0002d0 71 5f 43 bd ce 82 e9 3c 54 be 69 bd ca 47 92 3d
       -0.047698442 0.028504755 -0.057066277 0.07142599
0002e0 1f bd 5d bd 17 fa 01 be 15 1c bb bd 37 e6 93 3d
       -0.054135438 -0.12693058 -0.091362156 0.07221644
0002f0 b4 cb 18 3d 70 a2 9d 3d 4f 1d 6d bc c7 8e 44 bc
       0.03730364 0.07696998 -0.01447232 -0.011996931
000300 95 c6 94 bd 20 47 11 3e 43 c6 93 3b 2e 6c 4f bc
       -0.07264439 0.14187288 0.0045097186 -0.012660069
000310 cc c2 eb 3d f8 01 f9 bd 3f 16 63 3d e8 61 41 3d
       0.11511764 -0.12158579 0.055441137 0.04721251
000320 17 29 40 3c c3 d1 26 3d 0b d3 97 bc e5 a6 8f 3d
       0.011728547 0.040727388 -0.01853325 0.070142545
000330 70 e3 17 bd 41 e9 48 3d 3b 49 ec 3b 9d 63 6a 3c
       -0.037082136 0.049050573 0.007210878 0.014305976
000340 96 c4 9a bd 80 b8 aa 3c 09 da 4a bc f0 18 67 3b
       -0.07557027 0.02083993 -0.012381085 0.0035262667
000350 18 c2 bc 3d ac 4a 39 bd 73 62 8f 3d 5f 05 77 3c
       0.09216708 -0.04523723 0.070011996 0.015076964
000360 d7 c3 ed 3c cb 50 b1 bd e0 e5 c9 bd 47 dd d2 bd
       0.029024048 -0.08657988 -0.09858298 -0.102961116
000370 4d c2 99 3b 73 28 dd 3d 0d e4 92 bd 93 ad 8f 3c
       0.004692352 0.10798731 -0.071724035 0.017538821
000380 86 7e 8a 3c ee 8d 07 be b4 2f d9 3b b9 97 bc 3c
       0.016906034 -0.13237736 0.006628001 0.023021566
000390 17 9e 7f bd 77 74 b1 3c 70 70 7e 3d 5a a4 1c 3d
       -0.062406626 0.02166198 0.062118948 0.038242675
0003a0 a3 c7 d6 3c 36 34 08 3d 86 e9 a4 bd 22 eb 9b bd
       0.026218241 0.033252917 -0.080523536 -0.076132074
0003b0 35 6e ae 3d a5 77 0e bd ac f8 36 be f0 5d 32 3d
       0.08517114 -0.03478207 -0.17868298 0.043546617
0003c0 e9 e9 32 be 9b 90 9f 3d 26 4f 18 bd 1d 54 fe bd
       -0.17472042 0.07791253 -0.037184857 -0.12418387
0003d0 14 4e 65 3c 86 38 0a 3d e3 0c 3d bd 7d 36 08 3c
       0.013995666 0.03374531 -0.046154868 0.008313772
0003e0 a9 d3 19 3d 6f 4c 90 3d 35 82 39 bd 02 a0 7d 3d
       0.03755537 0.070458286 -0.04529019 0.061920173
0003f0 1b 96 87 3c a6 5e 46 bb ed a3 37 bd 34 cc a6 bc
       0.016551068 -0.0030268817 -0.044834066 -0.020361044

fc2.bias f4 [128]
000000 60 83 9b 3c 94 9a 84 3b 52 89 b0 3d 07 1c 22 bd
       0.018983543 0.0040467475 0.08619942 -0.03957751
000010 4d 1e 04 3d d1 52 df 3d ea d1 36 bd a4 e4 06 3c
       0.03225546 0.10904468 -0.044633783 0.008233223
000020 b2 99 c5 3c 4a 4d 49 3c 78 7b 8e 3d d0 6c 97 3d
       0.02412114 0.012286494 0.069571435 0.07393801
000030 8a 54 f1 3d c8 6d c0 bd 4d c9 0d bd e8 cb 95 bd
       0.11783703 -0.09395939 -0.034615804 -0.07314283
000040 16 76 8a 3d f6 ee 96 bd 51 40 1d 3d 90 b9 a0 3d
       0.06760804 -0.07369797 0.038391415 0.07847893
000050 67 c7 1f 3e f3 9d ba 3d 26 5d 40 bd 5a 26 86 bd
       0.1560341 0.09112158 -0.046963833 -0.06550284
000060 85 4e c6 3d cb 8e ff bb 63 72 c9 3d 68 4e 39 bd
       0.09682945 -0.0077990047 0.09836271 -0.04524079
000070 be 65 14 3e 6d 0d 4b bd b7 4e c0 3d 20 14 15 3d
       0.14491937 -0.04957335 0.09390014 0.036396146
000080 72 e6 8a 3d 99 8b 78 bd 8c 3c 8e 3d 7c 4f 2b 3c
       0.06782235 -0.060680006 0.06945142 0.010455962
000090 b7 29 78 3c 8f f6 ab 3c 98 13 f5 3d 75 9f c4 3b
       0.015146664 0.020991592 0.11966628 0.006000454
0000a0 2d 67 b5 3c 3c 1f af 3a 89 2a e9 3c 0f 61 57 3d
       0.022143925 0.0013360749 0.028462665 0.052582797
0000b0 b7 5f 66 bd 0a 31 15 3e 4f 60 1f 3d c6 95 fa bc
       -0.056243625 0.14569488 0.038910206 -0.030588996
0000c0 28 98 3d 3d df 57 3b bb 0b 98 90 bd 26 ce b5 bd
       0.046287686 -0.002858631 -0.0706025 -0.0887721
0000d0 3b 2e 88 3d 1d 90 12 bd e6 b7 25 bd 25 1a b2 bd
       0.06649443 -0.03578197 -0.040458582 -0.08696393
0000e0 a9 9c bf 3d 41 2b 51 bc e2 05 10 bd ea c8 09 bd
       0.093560524 -0.01276666 -0.03516186 -0.033638872
0000f0 d7 ca ba bd ea 69 26 3d d7 0d ad 3d 4e 59 fd 3d
       -0.0912072 0.04062835 0.08449905 0.12370549
000100 23 56 84 bc 71 ff 13 bd 92 25 82 3b c5 9d a5 3d
       -0.016154354 -0.03613228 0.003971764 0.08086733
000110 28 43 c0 bc 9f 89 f1 3d 5b 39 20 bc 05 5c 26 bd
       -0.023469523 0.11793827 -0.0097793 -0.0406151
000120 44 3f 76 3d 0d 80 1a 3d 11 1c b2 3c 63 c6 d8 3d
       0.06011893 0.037719775 0.021741899 0.10584714
000130 b1 7e c9 3d 90 de aa bd 9f c9 ee bc a9 a5 8e bc
       0.098386176 -0.08343232 -0.029148875 -0.017412977
000140 86 0e 46 3d b9 59 aa 3d 42 7d 6e bd 01 aa 06 3d
       0.048353694 0.083178945 -0.058224924 0.032876972
000150 a3 27 52 3c 8f 2f 0b 3e 08 7e 9a bc 52 8b 89 3d
       0.012826833 0.13592361 -0.018858925 0.06716026
000160 66 0d 0e 3e 1a c3 31 3e 3c fd 24 3e 96 30 83 3d
       0.13872299 0.17359582 0.16112226 0.064057514
000170 0f 46 c5 bc 69 6c e0 3d b8 ed 0c 3c c9 7c f1 3c
       -0.024081258 0.109581776 0.008601598 0.029478448
000180 eb 1b a3 bd a5 d4 38 bd 52 65 12 3e a0 9b 68 bd
       -0.07964309 -0.04512467 0.14296463 -0.05678904
000190 62 1e a4 bd c5 70 27 3d 5c 0f 19 bd ab 6d cc 3d
       -0.080136076 0.04087903 -0.037368163 0.09981855
0001a0 bd b1 46 3c fc f0 bd bb e4 00 f1 3c e0 73 b7 bd
       0.012127337 -0.00579655 0.02941937 -0.08957648
0001b0 5e ff 09 3d e2 71 ab 3c d7 73 fe 3c 8d f6 9a 3a
       0.033690803 0.020928327 0.031061096 0.0011822745
0001c0 cc a7 44 bc 8c 61 8b bd 79 7c 94 3d 73 73 e7 bc
       -0.0120028965 -0.06805715 0.07250304 -0.028253293
0001d0 3d 52 90 3b f3 50 45 3d 3e b1 96 bc da fc 2e bd
       0.004404335 0.048172902 -0.018395063 -0.042721607
0001e0 c2 fb a0 bd ff f1 28 bd e4 bd 74 3d 41 82 31 3d
       -0.07860519 -0.04124641 0.059751406 0.04333711
0001f0 bc 3a 03 bd 8e 11 be bd 33 bf 2e bd e9 8f e0 3d
       -0.032038435 -0.09280692 -0.04266281 0.10964949

fc3.weight f4 [1, 128]
000000 0e 6c ab 3d a6 84 3c be d2 a1 2b 3e 0c b8 49 bd
       0.08370219 -0.18409976 0.16760948 -0.049247786
000010 b1 0b 4f 3d b2 50 93 3d 7b 11 ae 3d 61 55 b5 3d
       0.05054826 0.07193126 0.08499428 0.08854175
000020 94 c1 57 3d af 79 2c be 87 04 36 3d 6e aa 02 3e
       0.052674845 -0.16843294 0.04443791 0.12760326
000030 9a 5f ab 3d e7 ea a4 bc 63 6e 82 be 1b 17 bf bd
       0.08367844 -0.020131541 -0.25474843 -0.09330579
000040 2c 7c 85 3d 73 a1 c7 bd 99 32 23 3d 61 83 3a 3e
       0.065178245 -0.09747591 0.039843176 0.1821418
000050 03 ea 83 3d 52 81 b0 3d 82 a6 ec bd 22 42 d3 bd
       0.064411186 0.08618416 -0.11555196 -0.10315348
000060 3f 83 81 3d 0a b3 9b bd dd 65 da 3d 31 38 ca bd
       0.06323861 -0.07602508 0.1066396 -0.09873999
000070 66 01 a1 3d ce 37 85 be 54 22 6d 3d b0 65 f7 bd
       0.07861595 -0.26019138 0.057894066 -0.12079942
000080 07 71 53 3d 58 ca 18 be 47 ce 7e 3d c7 62 16 3e
       0.051621463 -0.14920938 0.06220844 0.14686118
000090 bf 62 8a bd 69 e3 ec 3d 11 3d 62 3d 32 01 5a be
       -0.067571156 0.115668125 0.05523402 -0.21289518
0000a0 7d f3 43 3d 41 46 61 be 05 b3 ea 3d a5 cd 63 3d
       0.04783963 -0.21999456 0.114599265 0.05561604
0000b0 9b f6 cd bd 18 90 fc 3d ea eb 07 3e b4 e4 a5 bd
       -0.10056802 0.12332171 0.13273588 -0.08100262
0000c0 a5 7c bd 3d dc bc 32 be 5c 23 52 be b9 5a cf bc
       0.0925229 -0.17454857 -0.20521301 -0.025311815
0000d0 9f cc 4e 3d 3f 8d 87 bd d0 08 e1 bd 05 d5 ba bd
       0.05048811 -0.066187374 -0.10988009 -0.091226615
0000e0 8d b0 bf 3d be c8 c1 bd d3 56 4c be 14 d2 fb bd
       0.09359846 -0.09462117 -0.19954996 -0.122959286
0000f0 d6 61 09 bd 84 bc 92 3d 23 c2 31 3d 39 b8 42 3d
       -0.03354057 0.07164863 0.043398034 0.04753897
000100 f5 f8 c8 bd 48 d1 9c bd a5 5f 89 bd 60 5c 80 3d
       -0.0981311 -0.07657105 -0.06707696 0.06267619
000110 46 df 19 be a4 59 93 3d 2b 2a 4e bd 47 57 74 be
       -0.15026578 0.07194832 -0.050333183 -0.23861419
000120 57 76 04 3e 02 a7 4f 3d 0e 66 4f 3d 4d 21 7a 3d
       0.12935768 0.05069638 0.050634436 0.061066914
000130 64 24 06 3d 5a 74 42 bd 88 3c 5c 3d dc 9c 0e 3e
       0.03274955 -0.047474243 0.053768665 0.13927025
000140 a2 c4 89 3d f1 24 65 3d 66 a1 e0 bd 6d e8 58 3d
       0.06726958 0.055943433 -0.10968284 0.052956033
000150 d8 30 80 3d 03 c7 2f 3d 90 8a 35 bd 44 bc a7 3d
       0.06259316 0.0429144 -0.044321597 0.08190206
000160 eb 5c 8a 3d f6 69 6d 3d f1 56 9f 3d 40 8e 4d 3d
       0.06756004 0.05796238 0.07780255 0.05018449
000170 4d c4 4e be 3f 54 b5 3d 6b 05 80 3d 2e 6a 43 3d
       -0.2019207 0.08853959 0.062510334 0.047708683
000180 f9 3f 31 bd 5e 08 81 bd 83 77 dc 3d 6a 24 18 be
       -0.0432739 -0.06300424 0.107649826 -0.14857641
000190 33 4f 33 be bb 51 8c 3d 75 5f 3c be 63 2f 54 3d
       -0.17510681 0.06851526 -0.18395789 0.051803004
0001a0 1e 46 8d 3d ca a5 a4 bd 3c 46 ab 3d aa bc 89 bd
       0.068981394 -0.08039434 0.083630055 -0.06725438
0001b0 02 71 99 3d d2 df d1 bd 08 57 0c 3d da b3 b1 bd
       0.07492258 -0.102477685 0.034262687 -0.08676882
0001c0 fd 6c e2 bd 77 e6 81 bd 4f 26 97 3d e8 93 db bd
       -0.11055944 -0.06342786 0.07380354 -0.1072157
0001d0 c0 f0 04 be 1f 93 fa 3d 68 6a 86 3d 91 d4 54 3c
       -0.12982464 0.12235092 0.06563264 0.012990133
0001e0 49 29 20 be d8 13 4c bd da 66 a3 3d 41 dd 5d 3d
       -0.15640749 -0.049823612 0.07978602 0.054166082
0001f0 9c 1e 05 be 5a 3d 0e be 0d 4c 65 3d 60 ac 90 3d
       -0.12999958 -0.13890591 0.05598073 0.07064128
