savedmodels/checkpoint_1545158393_critic_episode120_score32.094.pth (torch_old, 169980 bytes, 5 tensors)

fcs1.weight f4 [256, 33]
-0.018656231 0.04558938 0.04998176 -0.028813357 -0.08536403 -0.04875786 0.1024672 0.05364661
0.0646509 0.050305065 -0.010463009 -0.022985995 -0.04211927 0.0836999 0.082559735 -0.03183965
0.068558395 -0.026952436 -0.036858756 0.017280232 -0.01414962 -0.017015785 -0.009815284 0.12258295
-0.0068074916 0.03305452 -0.04365829 0.0041293874 -0.05901777 -0.050394535 -0.06534095 0.040429823
0.024097115 0.012910088 -0.065114275 0.052895278 0.031305697 0.03799452 0.03792883 0.033404376
-0.02822191 0.02242628 -0.012803639 0.008172966 0.023153415 0.040989004 0.02171432 0.05203047
0.05531976 0.024913559 0.0315313 0.05126354 -0.010157004 -0.014941617 0.012264916 0.042450983
-0.0023959747 -0.01918648 0.014437511 -0.057216667 -0.083189145 0.073821396 0.020014852 0.06913543
0.0048096925 -0.018190144 0.055853188 -0.037375648 0.04924503 -0.0042460356 0.04146239 0.050176747
-0.0537058 -0.03478334 -0.01958537 0.0154843815 0.017004566 -0.023936983 0.025103936 -0.041831806
0.014347374 -0.0013506506 0.028194293 -0.0120490575 -0.013000082 -0.049341675 -0.06426465 0.0017981844
-0.05625369 -0.013767718 0.0041211466 -0.097843155 0.062134784 0.005169995 -0.024551399 -0.0031918436
0.061991442 -0.054345243 0.21615951 0.063531816 0.0027340024 0.09025914 0.036178418 -0.016999656
0.03847754 0.02948804 -0.023697382 0.018200347 -0.028045977 0.0054633804 0.022461401 -0.00048404324
-0.04592529 0.0503594 -0.07511223 -0.016383946 -0.027491754 -0.06343954 -0.019783186 0.029364599
0.032544494 -0.054983694 -0.03222877 -0.038712814 -0.010983005 0.014766705 0.010425841 -0.048033483
-0.02473484 0.092454374 -0.010972619 0.04576897 -0.021644363 0.01204248 0.054153617 -0.019432716
-0.046020538 0.07415768 0.029793449 0.026080731 -0.10956911 0.07113211 -0.013618914 0.029036276
0.011538274 -0.012511236 -0.0012515999 -0.0048399633 -0.011015541 -0.02320993 -0.002065346 -0.032403424
-0.002932578 0.038244262 0.035536293 -0.025713854 0.011905526 0.0110746175 -0.020196825 0.046004362
-0.05891901 0.017925903 -0.05353158 0.016678609 -0.28726387 -0.08985943 0.088609904 -0.0070862765
-0.01763678 -0.030582909 -0.02174704 0.04435223 -0.0068429923 -0.062035706 0.036344483 -0.016413402
0.007897553 -0.0026393696 0.1596897 -0.12774213 -0.026967743 0.010992517 -0.016244465 -0.043381818
0.024573734 -0.0027610997 0.0021854811 0.018405952 0.020963144 -0.04139197 -0.0054919207 -0.087870374
0.05848578 0.02604002 0.04787697 -0.054469448 0.009369083 0.05590304 0.0305768 -0.020066543
-0.040789105 -0.008372902 -0.061439626 0.0979732 0.062557474 0.03023809 -0.016773349 -0.038892124
0.008224728 -0.049639083 0.019446537 0.05372512 -0.048617482 -0.0046726833 0.033660185 0.03635144
-0.0055279313 0.018136635 -0.06709316 -0.007218249 0.017591618 -0.034413386 0.033325385 -0.01267417
-0.0389545 0.09020999 0.0124261435 -0.04773082 -0.11629817 0.0014542788 0.08107242 -0.055875234
0.028155323 0.12712586 -0.026346385 -0.06870928 -0.037660893 0.05936355 0.03765764 0.09224194
-0.02853905 -0.07376091 0.040595952 -0.029387357 0.052575223 -0.01594207 -0.07044402 -0.008556479
-0.020455599 0.0069916425 0.028552203 -0.008810698 0.022470966 0.0062184464 -0.023684375 -0.09240899
00000000: f4d4 98bc eebb 3a3d adb9 4c3d fd09 ecbc
00000010: 56d3 aebd 52b6 47bd 53da d13d 8cbc 5b3d
00000020: b167 843d af0c 4e3d 0a6d 2bbc 204d bcbc
00000030: 4185 2cbd da6a ab3d 1415 a93d 4b6a 02bd
00000040: 5868 8c3d 5bcb dcbc 35f9 16bd 468f 8d3c
00000050: cfd3 67bc b064 8bbc 49d0 20bc c50c fb3d
00000060: 6111 dfbb 2d64 073d 09d3 32bd d04f 873b
00000070: 9ebc 71bd 806a 4ebd 7ad1 85bd be99 253d
00000080: 5067 c53c d584 533c a25a 85bd b8a8 583d
00000090: 673a 003d 24a0 1b3d 435b 1b3d 07d3 083d
000000a0: a331 e7bc 51b7 b73c 5bc6 51bc e7e7 053c
000000b0: 3bac bd3c 16e4 273d 3be2 b13c e71d 553d
000000c0: f996 623d 8517 cc3c f726 013d b8f9 513d
000000d0: 9069 26bc afcd 74bc c9f2 483c 15e1 2d3d
000000e0: c905 1dbb f72c 9dbc 4f8b 6c3c 065c 6abd
000000f0: 125f aabd ac2f 973d 30f6 a33c e096 8d3d
00000100: a09a 9d3b 7f03 95bc 50c6 643d 3517 19bd
00000110: 28b5 493d 5422 8bbb 78d4 293d 2286 4d3d
00000120: 9dfa 5bbd fa78 0ebd 7f71 a0bc 34b2 7d3c
00000130: 294d 8b3c 7e17 c4bc c5a6 cd3c d457 2bbd
00000140: 4011 6b3c 5008 b1ba b8f7 e63c 6969 45bc
00000150: 4cfe 54bc 7f1a 4abd 2f9d 83bd 0eb1 eb3a
00000160: 456a 66bd ff91 61bc af0a 873b fe61 c8bd
00000170: 0b81 7e3d 1069 a93b 0420 c9bc 402e 51bb
00000180: bdea 7d3d 1e99 5ebd eb58 5d3e f81c 823d
00000190: f32c 333b c9d9 b83d d22f 143d dd42 8bbc
000001a0: a09a 1d3d e790 f13c 0321 c2bc e518 953c
000001b0: adc0 e5bc 2806 b33b f900 b83c 2fc7 fdb9
000001c0: 281c 3cbd a945 4e3d 71d4 99bd a037 86bc
000001d0: 6336 e1bc 97ec 81bd 5910 a2bc 078e f03c
000001e0: 604d 053d 9536 61bd 5102 04bd 5491 1ebd
000001f0: 10f2 33bc 0df0 713c 26d1 2a3c c2be 44bd
00000200: b8a0 cabc b858 bd3d 80c6 33bc 3e78 3b3d
00000210: 854f b1bc d24d 453c 2fd0 5d3d 5c31 9fbc
00000220: 0880 3cbd fbdf 973d 6411 f43c 42a7 d53c
00000230: c565 e0bd b6ad 913d de21 5fbc 7cdd ed3c
00000240: 070b 3d3c edfb 4cbc b90c a4ba 8e98 9ebb
00000250: 877a 34bc c022 bebc c25a 07bb 74b9 04bd
00000260: 7f30 40bb 04a6 1c3d 818e 113d dca5 d2bc
00000270: 650f 433c 5072 353c d073 a5bc 126f 3c3d
00000280: 0f55 71bd 58d9 923c ee43 5bbd 94a1 883c
00000290: 4014 93be 3908 b8bd 1c79 b53d ff33 e8bb
000002a0: 027b 90bc 0289 fabc d926 b2bc afaa 353d
000002b0: 2e3b e0bb 2719 7ebd f4dd 143d 6675 86bc
000002c0: bd64 013c 46f9 2cbb b285 233e d5ce 02be
000002d0: 75eb dcbc f519 343c 1d13 85bc 22b1 31bd
000002e0: db4e c93c 91f3 34bb 4a3a 0f3b 14c8 963c
000002f0: e6ba ab3c a08a 29bd 92f5 b3bb 62f5 b3bd
00000300: c98e 6f3d e151 d53c a41a 443d 5b1b 5fbd
00000310: c880 193c 96fa 643d 337c fa3c 9762 a4bc
00000320: 7a12 27bd 7f2e 09bc 1ea8 7bbd 2ca6 c83d
00000330: 221e 803d dfb5 f73c 4368 89bc 594d 1fbd
00000340: 02c1 063c 5a52 4bbd 584e 9f3c df0e 5c3d
00000350: 2023 47bd 4f1d 99bb 43df 093d 3fe5 143d
00000360: a623 b5bb 4893 943c 2368 89bd 1087 ecbb
00000370: 4c1c 903c 0df5 0cbd 3380 083d 52a7 4fbc
00000380: c18e 1fbd 04c0 b83d 0697 4b3c 6481 43bd
00000390: bc2d eebd 809d be3a 4c09 a63d 6edd 64bd
000003a0: fea5 e63c 482d 023e 60d4 d7bc 73b7 8cbd
000003b0: 4f42 1abd 3227 733d e63e 1a3d 58e9 bc3d
000003c0: baca e9bc f60f 97bd f147 263d c1bd f0bc
000003d0: 1e59 573d f298 82bc f444 90bd 7930 0cbc
000003e0: 8092 a7bc 261a e53b 4fe6 e93c bf5a 10bc
000003f0: 0815 b83c 1cc4 cb3b bc05 c2bc ed40 bdbd

fcs1.bias f4 [256]
0.030971684 0.18734556 -0.010061788 0.18758522 -0.019808223 -0.19998899 -0.22026576 -0.15855314
0.040282167 0.085992865 -0.07926093 -0.016148143 0.09232195 -0.046285067 0.065344356 -0.01417375
-0.13352221 -0.13444804 0.105956905 -0.14072587 0.015336079 0.0014763026 0.065436214 0.023803737
-0.045822814 -0.058185343 0.05801584 -0.06631699 0.05486861 0.031454954 0.07624896 -0.0496921
-0.15161966 -0.08683294 0.085795306 -0.06754983 0.16919675 0.1043647 -0.12269373 0.050712526
-0.09555378 -0.123236015 0.06104269 -0.14259535 -0.04931905 -0.17042854 0.08455169 0.08836518
0.12221237 -0.10173718 -0.12086119 0.02504913 -0.14498639 -0.07424155 -0.17483205 0.10824247
-0.07489051 -0.062170453 0.05107852 0.039024197 -0.12792242 0.10518144 -0.17190793 -0.0516255
-0.14173673 -0.12457211 0.05458579 0.1357578 0.056049183 -0.021434212 0.06803184 0.12436687
-0.04418479 -0.132731 0.012014186 0.07302397 0.05689908 -0.0925688 0.19196773 -0.12142797
0.007819021 0.11668137 -0.069791846 0.066985875 0.109661266 -0.07977585 0.13385817 0.060632236
0.104012765 0.12442261 0.11074439 0.041228887 0.12947825 -0.21749213 -0.23395625 0.011549224
0.19469474 -0.105922565 0.1693247 -0.06941552 0.012454471 -0.090785824 0.001034757 -0.09180625
-0.1285929 0.050245576 -0.033690028 0.042558424 0.056885533 -0.091485605 0.09247678 0.19270666
-0.096500285 0.12534718 0.07091688 -0.15107441 0.021947064 -0.18319963 -0.011245289 -0.13730708
0.13012391 0.036371253 0.14238732 -0.046659593 -0.13394965 0.104711704 0.019906752 0.05071718
-0.0022179207 0.098467246 -0.09481451 -0.21814452 0.010331234 0.10089619 -0.016382262 -0.021286925
-0.16006407 0.055945113 -0.22310676 -0.10889127 0.08974637 -0.19186682 -0.13048147 -0.15049034
0.11851304 -0.14040184 -0.031680755 -0.00090434426 0.06817975 0.13008356 0.04011976 0.013494433
-0.118546195 0.09667596 0.16280037 0.01244922 0.107202336 -0.077873185 -0.021487778 -0.09600256
0.080410875 -0.07851317 -0.080602 -0.19308656 -0.029332675 0.043892015 0.12568627 0.0051745446
-0.023444252 0.07335654 0.017859478 0.16377564 0.19022249 0.16023701 0.03201561 0.04090658
0.14777276 -0.020224214 0.17040077 -0.11402373 -0.0017284206 0.04277027 -0.11664004 -0.052971926
-0.011775314 -0.021186696 -0.059277453 -0.012121515 -0.001779675 0.2185448 -0.06445854 0.12946399
-0.027151559 0.16024084 0.18068469 -0.042198543 -0.021829596 -0.123924166 -0.00057559495 -0.13660663
-0.098603934 0.033961486 0.034329627 -0.09253175 0.12455655 0.050872628 -0.079643466 0.09149973
-0.14886934 -0.013433272 0.20857716 0.078361474 0.05971827 0.021729236 -0.036158785 0.13419574
0.011506646 0.03457285 0.03145181 -0.024069479 0.0639391 -0.11816465 -0.13710998 -0.16544612
0.18128507 -0.07233921 -0.15888752 0.036978044 -0.073251575 0.06463099 -0.06238914 0.07187517
-0.17966452 -0.19389719 0.088814765 -0.06600355 -0.020402495 0.03472319 0.010565877 -0.08794382
0.06471361 -0.11007102 0.1389757 -0.061614633 0.050808087 0.15758014 0.11112061 0.09135071
0.087849855 -0.10882096 0.07666738 -0.08300343 0.14020303 -0.069724135 0.08088376 0.027384546
00000000: 54b8 fd3c 84d7 3f3e 33da 24bc 5716 403e
00000010: db44 a2bc eac9 4cbe 598d 61be c15b 22be
00000020: eafe 243d 071d b03d 8e53 a2bd 1c49 84bc
00000030: 4a13 bd3d 6995 3dbd 43d3 853d 0439 68bc
00000040: 0cba 08be bfac 09be efff d83d 711a 10be
00000050: 2d44 7b3c 7f80 c13a 6c03 863d 0e00 c33c
00000060: b4b0 3bbd c153 6ebd 04a2 6d3d 34d1 87bd
00000070: e8bd 603d e9d6 003d 6a28 9c3d f289 4bbd
00000080: 2f42 1bbe 78d5 b1bd 73b5 af3d 9157 8abd
00000090: ea41 2d3e 29bd d53d da46 fbbd f0b7 4f3d
000000a0: b3b1 c3bd 2a63 fcbd e607 7a3d 8404 12be
000000b0: c602 4abd d284 2ebe 7029 ad3d cef8 b43d
000000c0: 7b4a fa3d 955b d0bd 1286 f7bd d533 cd3c
000000d0: 5077 14be f40b 98bd 2c07 33be 3aae dd3d
000000e0: 3260 99bd 72a6 7ebd b637 513d d6d7 1f3d
000000f0: 18fe 02be 5e69 d73d a208 30be 4375 53bd
00000100: 6f23 11be aa1f ffbd 5995 5f3d 1804 0b3e
00000110: d493 653d cd96 afbc 4754 8b3d 0fb4 fe3d
00000120: 1cfb 34bd a3ea 07be 26d7 443c 978d 953d
00000130: 020f 693d b694 bdbd 3093 443e 3aaf f8bd
00000140: 5a1b 003c a4f6 ee3d 07ef 8ebd e42f 893d
00000150: 1696 e03d 8561 a3bd 1e12 093e 8259 783d
00000160: a504 d53d 48d1 fe3d f4cd e23d 9fdf 283d
00000170: f295 043e 42b6 5ebe 3a92 6fbe f538 3d3c
00000180: 0f5e 473e eeed d8bd 7463 2d3e b929 8ebd
00000190: d60d 4c3c ebed b9bd afa0 873a ea04 bcbd
000001a0: dbad 03be 4ece 4d3d 8efe 09bd be51 2e3d
000001b0: ce00 693d ce5c bbbd 7764 bd3d e554 453e
000001c0: f1a1 c5bd 035b 003e df3c 913d 40b3 1abe
000001d0: 54ca b33c af98 3bbe 293e 38bc 3a9a 0cbe
000001e0: 343f 053e 06fa 143d fbcd 113e 211e 3fbd
000001f0: 192a 09be 1773 d63d 7c13 a33c d1bc 4f3d
00000200: 895a 11bb 32a9 c93d 1c2e c2bd 4761 5fbe
00000210: 5644 293c a9a2 ce3d 1834 86bc eb61 aebc
00000220: d6e7 23be b426 653d 1976 64be 6302 dfbd
00000230: f2cc b73d bc78 44be ef9c 05be 241a 1abe
00000240: f7b6 f23d 80c5 0fbe aec3 01bd 8411 6dba
00000250: d3a1 8b3d a034 053e 9e54 243d c117 5d3c
00000260: 59c8 f2bd 0cfe c53d 24b5 263e d0f7 4b3c
00000270: e68c db3d fa7b 9fbd 2307 b0bc fd9c c4bd
00000280: 75ae a43d 83cb a0bd a912 a5bd 7cb8 45be
00000290: 144b f0bc 1dc8 333d e7b3 003e 3a8f a93b
000002a0: 290e c0bc f43b 963d 0a4e 923c cdb4 273e
000002b0: afc9 423e 2c15 243e cd22 033d a88d 273d
000002c0: be51 173e 40ad a5bc 8a7d 2e3e 4685 e9bd
000002d0: 2c8c e2ba e12f 2f3d f9e0 eebd 17f9 58bd
000002e0: 3fed 40bc b98f adbc eacc 72bd 5299 46bc
000002f0: fc43 e9ba 35ca 5f3e d702 84bd 3592 043e
00000300: f26c debc 2d16 243e 6805 393e 61d8 2cbd
00000310: fbd3 b2bc f4cb fdbd 86e3 16ba 9ce2 0bbe
00000320: dcf0 c9bd 331b 0b3d 399d 0c3d 4981 bdbd
00000330: 8117 ff3d d15f 503d 1d1c a3bd 3664 bb3d
00000340: 3471 18be 3a17 5cbc 4095 553e fb7b a03d
00000350: 259b 743d 8301 b23c 3c1b 14bd 9c6a 093e
00000360: 5f86 3c3c 439c 0d3d 9dd3 003d 5b2d c5bc
00000370: 81f2 823d 4f00 f2bd 8f66 0cbe b56a 29be
00000380: cba2 393e 9426 94bd 69b3 22be 4a76 173d
00000390: ec04 96bd 415d 843d c18b 7fbd 4a33 933d
000003a0: faf9 37be fc8c 46be 84e4 b53d df2c 87bd
000003b0: 2223 a7bc e739 0e3d 801c 2d3c e41b b4bd
000003c0: 9288 843d ea6c e1bd a54f 0e3e a05f 7cbd
000003d0: 241c 503d b05c 213e 3493 e33d 1516 bb3d
000003e0: a0ea b33d 86dd debd ca03 9d3d b4fd a9bd
000003f0: 6291 0f3e 87cb 8ebd 62a6 a53d 8e55 e03c

fc2.weight f4 [128, 260]
0.030589353 0.0012754585 0.09411952 -0.004254895 0.10758843 -0.29717258 -0.084224954 0.090138756
-0.021601425 -0.078253455 0.037939828 0.007291675 -0.058102503 0.061512373 -0.03546475 0.0056786058
-0.007685586 -0.06923985 0.015390047 0.12631725 0.07998775 -0.0145052085 0.036682144 -0.18744932
0.037795115 -0.0076804482 0.06883951 -0.26109406 0.06495364 -0.041032773 0.042826235 0.03967333
0.0060971626 0.021872548 0.010022792 -0.01667938 -0.011382101 -0.050686423 0.0631022 -0.047314856
-0.09289886 -0.057860974 -0.0051245154 -0.010349605 -0.0078734765 0.060375653 0.03509974 -0.042470615
-0.0672116 0.0008271094 0.019409223 0.07457937 0.037583824 -0.07906531 -0.0032821982 -0.06496909
-0.06123215 0.06460527 -0.07948358 0.03306687 0.008233081 0.11202068 0.053157914 0.055142347
0.04624612 -0.035269164 -0.033966042 0.07265996 -0.09087943 -0.111845404 -0.082123846 0.04360422
-0.01530989 0.07246256 -0.069692925 -0.05666541 -0.025048977 0.04360782 0.049900703 -0.050729036
-0.07361497 -0.014615961 -0.023751685 -0.10880299 -0.07500116 0.0613456 0.029165462 -0.034784865
-0.04763213 -0.14621195 0.107379034 -0.20967658 -0.012725246 -0.2214632 0.0511156 -0.012737127
0.019839916 -0.08540319 0.044517305 0.055663344 -0.0963276 -0.047142126 -0.0069432585 0.0191757
-0.06698736 0.10461369 0.09805418 0.03729261 0.08574397 0.010269344 -0.043788593 0.03873835
0.071596414 0.004638593 -0.050391264 -0.112736955 -0.06134908 -0.09767274 -0.01216046 -0.023814091
-0.016916161 -0.00016112435 -0.041746233 -0.071682744 0.046741486 -0.017031217 0.10224002 0.05411021
0.066028416 0.062028904 -0.049281698 0.08974826 0.10912139 -0.077468455 -0.2000995 0.0658338
0.062883206 0.041463092 0.025891634 0.029670287 -0.047156017 -0.15114252 -0.02012228 -0.051521163
0.06463801 -0.01804692 -0.013514535 0.037641298 -0.14056027 -0.0061133537 -0.07037977 0.045843184
-0.03568147 0.13488543 0.018294 0.059572272 -0.12808546 -0.036321647 0.07049166 0.091878265
-0.016789086 0.14651729 -0.035406698 -0.1000845 0.05496967 -0.1099314 0.04296764 0.068987794
0.07727256 -0.0812058 0.09208467 -0.06597004 -0.021159776 -0.022422034 0.04786195 -0.04266019
-0.016179066 -0.024982397 0.009112381 -0.07191581 -0.051882006 0.04020055 -0.051302083 0.07459614
-0.058872536 -0.113696516 -0.10235591 0.06536329 0.04106191 0.07312859 0.0031427504 -0.016546227
-0.06678443 0.13561764 -0.0031450684 -0.0082869595 0.11066701 -0.12595092 0.059481863 0.036896467
0.0062040053 0.028552111 -0.0170971 0.070976645 -0.046499647 0.049020603 0.0038727305 0.010073045
-0.07510017 0.021495955 -0.013169675 0.0026105293 0.08838174 -0.05164331 0.053947523 0.0097931195
0.023699796 -0.09379775 -0.098562576 -0.1019463 8.0773774e-05 0.095992096 -0.07691033 -0.019464884
0.017012231 -0.12784363 0.0014288656 0.0060180477 -0.056588747 0.018782262 0.06388396 0.043037467
0.01833194 0.0060891123 -0.08361107 -0.085960254 0.08648344 -0.035519857 -0.19181913 0.042405374
-0.17327572 0.07793232 -0.04353737 -0.11110948 -0.0030480702 0.03184921 -0.049418382 0.0070447796
0.037191898 0.060926933 -0.044830773 0.060542285 0.015221167 -0.009584644 -0.050201736 -0.021397974
00000000: 8696 fa3c 492d a73a bcc1 c03d a56c 8bbb
00000010: 5357 dc3d 0127 98be 227e acbd ab9a b83d
00000020: 79f5 b0bc 5943 a0bd cb66 1b3d 01ef ee3b
00000030: e4fc 6dbd 66f4 7b3d 7c43 11bd 9913 ba3b
00000040: 5ed7 fbbb 9fcd 8dbd 8926 7c3c 4f59 013e
00000050: 9ed0 a33d 41a7 6dbc 0440 163d b7f2 3fbe
00000060: 0dcf 1a3d 45ac fbbb bbfb 8c3d 1fae 85be
00000070: 6a06 853d fb11 28bd 906a 2f3d 8080 223d
00000080: b5ca c73b 0f2e b33c a336 243c 32a3 88bc
00000090: fe7b 3abc 919c 4fbd ba3b 813d 39cd 41bd
000000a0: c241 bebd a1ff 6cbd 8deb a7bb 6491 29bc
000000b0: c1ff 00bc 764c 773d bfc4 0f3d abf5 2dbd
000000c0: 3ca6 89bd 5fd2 583a 1700 9f3c 12bd 983d
000000d0: 7ff1 193d feec a1bd 261a 57bb 840e 85bd
000000e0: 90ce 7abd c54f 843d 4ac8 a2bd 2071 073d
000000f0: 0be4 063c 196b e53d 1dbc 593d f1dc 613d
00000100: 926c 3d3d 6676 10bd fa1f 0bbd bfce 943d
00000110: ff1e babd 340f e5bd 8c30 a8bd 579a 323d
00000120: 55d6 7abc 4067 943d 2abb 8ebd fd19 68bd
00000130: 8333 cdbc 1d9e 323d ae64 4c3d 40c9 4fbd
00000140: 72c3 96bd c977 6fbc e592 c2bc 1ad4 debd
00000150: 359a 99bd 8645 7b3d 68ec ee3c 937a 0ebd
00000160: e919 43bd 96b8 15be 8ae9 db3d 75b5 56be
00000170: 8d7d 50bc 40c7 62be 975e 513d 62af 50bc
00000180: 5287 a23c dee7 aebd c757 363d 3fff 633d
00000190: 6847 c5bd 1a18 41bd 4684 e3bb 5c16 9d3c
000001a0: ab30 89bd b43f d63d a1d0 c83d 23c0 183d
000001b0: 899a af3d c040 283c ab5b 33bd 1bac 1e3d
000001c0: 24a1 923d 57ff 973b 1267 4ebd a2e2 e6bd
000001d0: 2c49 7bbd a508 c8bd ab3c 47bc c515 c3bc
000001e0: c393 8abc 7df3 28b9 19fe 2abd 67ce 92bd
000001f0: 0074 3f3d 0d85 8bbc 3763 d13d aba2 5d3d
00000200: e839 873d 0512 7e3d 9bdb 49bd f0cd b73d
00000210: 097b df3d c8a7 9ebd e2e6 4cbe dfd3 863d
00000220: e9c8 803d 34d5 293d b11a d43c 1a0f f33c
00000230: ab26 41bd 1bc5 1abe 7bd7 a4bc db07 53bd
00000240: ef60 843d 22d7 93bc 116c 5dbc c32d 1a3d
00000250: 08ef 0fbe 8752 c8bb 4523 90bd 10c6 3b3d
00000260: bc26 12bd 681f 0a3e 4cdd 953c 0e02 743d
00000270: d628 03be 02c6 14bd ee5d 903d ac2a bc3d
00000280: 4489 89bc a108 163e 9d06 11bd 1af9 ccbd
00000290: e027 613d b723 e1bd d6fe 2f3d 7949 8d3d
000002a0: 1341 9e3d 3a4f a6bd e396 bc3d 4d1b 87bd
000002b0: 4457 adbc 6aae b7bc e40a 443d 74bc 2ebd
000002c0: f689 84bc e2a7 ccbc 194c 153c 9948 93bd
000002d0: 3a82 54bd 55a9 243d 2222 52bd dcc5 983d
000002e0: 5424 71bd b8d9 e8bd fa9f d1bd 30dd 853d
000002f0: 8930 283d 71c4 953d 9af6 4d3b f48b 87bc
00000300: 46c6 88bd 5adf 0a3e 7e1d 4ebb 07c6 07bc
00000310: 63a5 e23d 47f9 00be 41a3 733d c020 173d
00000320: f84a cb3b 1ee6 e93c 380f 8cbc 345c 913d
00000330: 6a76 3ebd d4c9 483d a3cd 7d3b 6a09 253c
00000340: 1ece 99bd 4918 b03c 9fc5 57bc 6a15 2b3b
00000350: 7c01 b53d ef87 53bd 14f8 5c3d 5273 203c
00000360: 1326 c23c 0919 c0bd 2ddb c9bd 39c9 d0bd
00000370: 1765 a938 8197 c43d 2a83 9dbd d274 9fbc
00000380: 3c5d 8b3c 71e9 02be c648 bb3a 0b33 c53b
00000390: 9ac9 67bd 42dd 993c 98d5 823d 0e48 303d
000003a0: dd2c 963c 2d87 c73b 483c abbd ee0b b0bd
000003b0: 3b1e b13d 457d 11bd 3c6c 44be 42b1 2d3d
000003c0: 316f 31be fb9a 9f3d 3e54 32bd 5e8d e3bd
000003d0: 22c2 47bb 5174 023d ee6a 4abd e5d7 e63b
000003e0: 8856 183d 858e 793d 79a0 37bd 30fb 773d
000003f0: 3462 793c e908 1dbc 56a0 4dbd ce4a afbc

fc2.bias f4 [128]
0.00972759 0.006169839 0.07610143 -0.03957751 0.03656332 0.09924681 -0.041603822 0.0022454257
0.02058689 0.010357555 0.0624567 0.06877632 0.10790337 -0.08860598 -0.03560042 -0.07059815
0.06524641 -0.072125025 0.033237293 0.072133295 0.14631839 0.08648791 -0.043258943 -0.062068652
0.090830214 -0.006159893 0.09500453 -0.03870782 0.13511981 -0.05509703 0.0847136 0.036345802
0.061092462 -0.059109483 0.063462734 0.005748967 0.011419282 0.019940501 0.11349676 0.005486894
0.017214496 0.003167387 0.024013104 0.04383509 -0.052764215 0.1365467 0.036478695 -0.025742754
0.048953313 -0.008476226 -0.07293633 -0.08133545 0.06757863 -0.032366574 -0.03665001 -0.08185419
0.08720697 -0.004305921 -0.035533797 -0.030527515 -0.08958465 0.034516957 0.082168035 0.11556488
-0.018454233 -0.03590821 0.010034656 0.07200122 -0.02154846 0.11657697 -0.008621515 -0.04232533
0.06004158 0.033546545 0.018055256 0.1050773 0.09020082 -0.08247248 -0.03327844 -0.021916443
0.043228477 0.08224373 -0.053232387 0.030667534 0.014066805 0.13036057 -0.017515974 0.06510133
0.12897752 0.16395313 0.15126099 0.06276013 -0.016886896 0.105297245 0.0028608048 0.021599282
-0.07964309 -0.04529084 0.1332429 -0.05176061 -0.076506905 0.038727134 -0.03733732 0.08912023
0.006371841 0.0003817692 0.020252842 -0.07475533 0.025966635 0.017174346 0.0261145 0.002708191
-0.010551294 -0.061068647 0.072135255 -0.029118784 0.01050992 0.041694928 -0.022137051 -0.042721607
-0.07704578 -0.039259683 0.058712754 0.034899198 -0.02881063 -0.09157254 -0.046825994 0.10105686
00000000: 7860 1f3c 5c2c ca3b 11db 9b3d 071c 22bd
00000010: 6bc3 153d e941 cb3d c568 2abd fe27 133b
00000020: d6a5 a83c bcb2 293c 99d2 7f3d 99da 8c3d
00000030: 71fc dc3d 0d77 b5bd bfd1 11bd c395 90bd
00000040: e99f 853d 49b6 93bd d423 083d 9fba 933d
00000050: 7dd4 153e 9320 b13d 4a30 31bd b33b 7ebd
00000060: 3105 ba3d edd8 c9bb bc91 c23d 178c 1ebd
00000070: d95c 0a3e 6cad 61bd 537e ad3d 56df 143d
00000080: 173c 7a3d c91c 72bd c0f8 813d d561 bc3b
00000090: f117 3b3c 435a a33c fd70 e83d 67cb b33b
000000a0: 6a05 8d3c f093 4f3b 21b7 c43c 6c8c 333d
000000b0: 4a1f 58bd e6d2 0b3e af6a 153d 78e2 d2bc
000000c0: 4583 483d dedf 0abc a55f 95bd 3393 a6bd
000000d0: aa66 8a3d d092 04bd 521e 16bd 2ba3 a7bd
000000e0: 9199 b23d af18 8dbb e38b 11bd d714 fabc
000000f0: 2878 b7bd a761 0d3d b747 a83d 48ad ec3d
00000100: 552d 97bc 7d14 13bd 6668 243c 6075 933d
00000110: 6586 b0bc e8bf ee3d 4141 0dbc 535d 2dbd
00000120: 29ee 753d 1a68 093d 9ee8 933c c432 d73d
00000130: 35bb b83d 55e7 a8bd f94e 08bd 1d8a b3bc
00000140: 5810 313d 676f a83d 340a 5abd 7b3a fb3c
00000150: 7578 663c 3e7d 053e a97d 8fbc d953 853d
00000160: af12 043e 54e3 273e 29e4 1a3e 6288 803d
00000170: 6356 8abc 15a6 d73d 577c 3b3b faf0 b03c
00000180: eb1b a3bd e382 39bd d470 083e ef02 54bd
00000190: a7af 9cbd 58a0 1e3d 05ef 18bd ab84 b63d
000001a0: e0ca d03b 3228 c839 4ae9 a53c 5319 99bd
000001b0: fbb7 d43c 37b1 8c3c 13ee d53c e87b 313b
000001c0: 56df 2cbc 1e23 7abd a6bb 933d 848a eebc
000001d0: cd31 2c3c 4dc8 2a3d c358 b5bc dafc 2ebd
000001e0: 2eca 9dbd c3ce 20bd c97c 703d 76f2 0e3d
000001f0: 4504 ecbc 628a bbbd 9dcc 3fbd e6f6 ce3d

fc3.weight f4 [1, 128]
0.08437084 -0.1838173 0.16691245 -0.049247786 0.047883183 0.06957463 0.08847902 0.08973838
0.057344895 -0.16231747 0.04624275 0.13916317 0.08174741 -0.019987017 -0.21909986 -0.10182882
0.0737156 -0.10107187 0.0407265 0.18373977 0.062071867 0.08930697 -0.1081769 -0.10013795
0.079325445 -0.08028113 0.1092945 -0.08076113 0.077256836 -0.24135987 0.05559538 -0.13417397
0.050658952 -0.1285676 0.06459058 0.15117852 -0.069059394 0.11983925 0.05505809 -0.21552123
0.051931057 -0.23396254 0.11892576 0.055013683 -0.08663299 0.12189674 0.14124656 -0.07808622
0.10562553 -0.15542059 -0.19071333 -0.041876268 0.052250892 -0.074467815 -0.09641608 -0.076814055
0.09245575 -0.110681415 -0.20838249 -0.1254464 -0.0511078 0.075987615 0.054995794 0.047418814
-0.084085755 -0.059177745 -0.076823294 0.0633312 -0.14985916 0.07196887 -0.051516943 -0.21853466
0.12574014 0.054514483 0.053026106 0.05825623 0.0343838 -0.049129736 0.056892883 0.14812262
0.07064199 0.057628643 -0.11920801 0.05173536 0.06529828 0.041353874 -0.037295274 0.08100008
0.066074744 0.055745512 0.07511498 0.055317476 -0.19514126 0.091138974 0.060991805 0.049390346
-0.0432739 -0.058978688 0.10639124 -0.13450481 -0.18816079 0.07248744 -0.17754026 0.051927652
0.067142956 -0.07571904 0.08946188 -0.057663005 0.07413512 -0.06765969 0.0372051 -0.08199191
-0.10301014 -0.057607546 0.07289672 -0.085293554 -0.13899226 0.12238456 0.069705516 0.012990133
-0.14009954 -0.05294199 0.095275074 0.05443666 -0.1035653 -0.12416429 0.070815615 0.07247962
00000000: 9eca ac3d 9a3a 3cbe 19eb 2a3e 0cb8 49bd
00000010: 2821 443d 257d 8e3d 7d34 b53d c1c8 b73d
00000020: 7be2 6a3d 8d36 26be 0a69 3d3d ca80 0e3e
00000030: 306b a73d d0bb a3bc b75b 60be a18b d0bd
00000040: 34f8 963d c5fe cebd d5d0 263d 4726 3c3e
00000050: 123f 7e3d 93e6 b63d da8b ddbd 2015 cdbd
00000060: 6175 a23d 6f6a a4bd cbd5 df3d 1766 a5bd
00000070: d538 9e3d 0b27 77be fbb7 633d e764 09be
00000080: c37f 4f3d 3aa7 03be 1148 843d 8bce 1a3e
00000090: 036f 8dbd 486e f53d 9784 613d 99b1 5cbe
000000a0: a9b5 543d e093 6fbe 598f f33d 0756 613d
000000b0: a36c b1bd ffa4 f93d f0a2 103e abeb 9fbd
000000c0: 3352 d83d 9326 1fbe 5b4a 43be 7386 2bbd
000000d0: 0805 563d 9582 98bd cb75 c5bd b050 9dbd
000000e0: 7159 bd3d f0ac e2bd 3862 55be 0575 00be
000000f0: 6a56 51bd 659f 9b3d 4543 613d 3b3a 423d
00000100: 2735 acbd 5d64 72bd 8855 9dbd cab3 813d
00000110: ae74 19be 6a64 933d 6e03 53bd 8dc7 5fbe
00000120: 06c2 003e 944a 5f3d e731 593d 169e 6e3d
00000130: 07d6 0c3d 433c 49bd 8308 693d 75ad 173e
00000140: bfac 903d 030c 6c3d 5423 f4bd 75e8 533d
00000150: 1bbb 853d ae62 293d eec2 18bd 5fe3 a53d
00000160: 3252 873d 6855 643d e2d5 993d 9494 623d
00000170: 1cd3 47be 12a7 ba3d 8bd2 793d 884d 4a3d
00000180: f93f 31bd a393 71bd a7e3 d93d a1bb 09be
00000190: 39ad 40be 4c74 943d 1dcd 35be 17b2 543d
000001a0: 3f82 893d 9612 9bbd ca37 b73d 0b30 6cbd
000001b0: 27d4 973d 2a91 8abd 6064 183d 60eb a7bd
000001c0: fbf6 d2bd e4f5 6bbd e04a 953d 63ae aebd
000001d0: fd53 0ebe c2a4 fa3d c4c1 8e3d 91d4 543c
000001e0: 4176 0fbe b3d9 58bd 941f c33d faf8 5e3d
000001f0: 0b1a d4bd d949 febd c707 913d 3270 943d
