savedmodels/checkpoint_1545158393_critic_episode118_score31.435.pth (torch_old, 169980 bytes, 5 tensors)

fcs1.weight f4 [256, 33]
000000 5f 57 93 bc c3 87 31 3d 36 79 48 3d 72 86 e2 bc
       -0.017985998 0.043342363 0.04894372 -0.027652
000010 f6 a9 ae bd b3 e5 3b bd 34 87 d1 3d 90 3c 52 3d
       -0.08528511 -0.045873355 0.10230866 0.05132729
000020 70 b0 7f 3d 95 7d 66 3d 92 ac ae bb 0d 1d ac bc
       0.062424123 0.056272108 -0.0053306306 -0.021009946
000030 f8 d0 15 bd f7 2b a7 3d a9 ac a4 3d d5 00 07 bd
       -0.03657624 0.081626825 0.08040745 -0.032959778
000040 a8 44 89 3d 0d 07 14 bd ae 63 1f bd 66 55 a3 3c
       0.06702548 -0.036139537 -0.03891342 0.019938182
000050 5b 46 4f bc f8 f9 19 bc f3 0f b9 bb 7e 7a 00 3e
       -0.012651051 -0.009397976 -0.0056476532 0.12546727
000060 32 1b 1d bc 39 f1 03 3d 6d a0 43 bd f4 19 73 3b
       -0.009589003 0.03221247 -0.047760416 0.0037094327
000070 0f 0c 6c bd 80 6a 4e bd 4e f5 84 bd be 99 25 3d
       -0.057628687 -0.050394535 -0.06492101 0.040429823
000080 5d 38 fe 3c 45 60 4b 3c 68 8a 82 bd dd 7b 53 3d
       0.031032735 0.012413089 -0.06374055 0.051631797
000090 27 b1 f8 3c 0c f0 1b 3d 6b a9 28 3d e5 53 04 3d
       0.03035791 0.038070723 0.041177195 0.03230657
0000a0 8b 36 ea bc ad c4 cd 3c 5a a8 58 bc f6 d5 d6 3b
       -0.028590461 0.025118196 -0.013223732 0.006556268
0000b0 50 ff c8 3c 7b 18 2f 3d 54 db aa 3c 28 85 59 3d
       0.024535805 0.042747956 0.020856537 0.053105503
0000c0 ee da 60 3d c9 06 e9 3c fd 8b e5 3c 09 bd 5b 3d
       0.054896288 0.028445618 0.028020853 0.053647075
0000d0 84 73 30 bc 23 f2 75 bc a0 da 33 3c d9 c9 37 3d
       -0.010769729 -0.015011343 0.010977417 0.04487023
0000e0 e3 e0 69 bb 01 a7 91 bc c3 95 78 3c b1 dc 6f bd
       -0.0035687021 -0.017779829 0.015172425 -0.058560077
0000f0 18 0e a7 bd e0 8f 95 3d 30 f6 a3 3c e6 45 8a 3d
       -0.08156985 0.073028326 0.020014852 0.06751613
000100 a0 9a 9d 3b 7c 64 88 bc f4 48 6e 3d b6 c6 25 bd
       0.0048096925 -0.016649477 0.058175042 -0.04047271
000110 11 49 4f 3d 36 de 9f ba 86 0c 35 3d 0e 45 37 3d
       0.05060679 -0.0012196961 0.044201396 0.04474359
000120 7c 14 51 bd f3 98 1c bd 73 af 9e bc 8e ff 91 3c
       -0.051044926 -0.0382318 -0.01937077 0.017822053
000130 89 63 a0 3c 5c 71 ca bc 0a 67 d8 3c 64 5d 25 bd
       0.019578712 -0.024712257 0.02641632 -0.040372267
000140 5b e1 3f 3c 6a ee aa 38 5c 5e bb 3c f4 5e 89 bc
       0.011711444 8.15064e-05 0.022872142 -0.01676891
000150 7f b0 46 bc 03 66 47 bd f5 20 74 bd 09 2b ce 3b
       -0.012127041 -0.04868127 -0.059601743 0.0062917513
000160 37 44 63 bd 86 20 89 bc 38 7f f1 3b 8e 72 c4 bd
       -0.055484977 -0.016739141 0.007369902 -0.09592162
000170 ae 38 84 3d e8 56 e4 3a f9 30 b8 bc 40 2e 51 bb
       0.06456123 0.001742092 -0.02248429 -0.0031918436
000180 95 fa 85 3d 1e 99 5e bd e9 cf 60 3e fb 18 83 3d
       0.06541935 -0.054345243 0.21954311 0.06401249
000190 c1 6a d3 3a 0f 21 b6 3d 26 47 17 3d 35 94 84 bc
       0.0016129838 0.08893024 0.036933087 -0.016183952
0001a0 a9 34 14 3d 6d 5e e8 3c eb 85 c0 bc 5c a2 74 3c
       0.036183033 0.028365338 -0.023501357 0.014931288
0001b0 1c 62 b0 bc 0a 7f 23 3c 18 54 b4 3c 06 72 95 ba
       -0.021531157 0.009979019 0.022012755 -0.001140178
0001c0 b1 fd 35 bd 43 34 4a 3d 62 93 9c bd 83 cf 98 bc
       -0.044431392 0.049366247 -0.076452985 -0.018653637
0001d0 64 b8 eb bc 45 0b 7b bd 3b cf 93 bc 31 01 d3 3c
       -0.028774448 -0.061290044 -0.018043151 0.025757404
0001e0 38 56 05 3d 8b 00 63 bd 9b 78 f6 bc af b8 1a bd
       0.032552928 -0.05542044 -0.030086806 -0.037773784
0001f0 2d 16 2f bc 2e c3 89 3c 7b c3 1c 3c 56 3c 46 bd
       -0.010686439 0.016816702 0.009568091 -0.048397385
000200 b8 a0 ca bc 6e 1a bf 3d 80 c6 33 bc da 27 40 3d
       -0.02473484 0.09331213 -0.010972619 0.046913005
000210 5b 45 b0 bc cc 77 47 3c 38 23 58 3d 37 7c a1 bc
       -0.021517446 0.012174558 0.052767962 -0.01971255
000220 0d ae 3c bd c7 57 96 3d 3d c5 e6 3c a3 f3 cb 3c
       -0.046064425 0.07340961 0.028170222 0.024896448
000230 e5 9c df bd 62 31 92 3d 4c 8e 71 bc bb 05 f4 3c
       -0.10918597 0.07138325 -0.014743399 0.029787889
000240 3d 9b 52 3c da 65 3a bc 2f 85 a9 ba fe c4 af bb
       0.0128543945 -0.011376822 -0.0012933369 -0.0053640595
000250 45 9b 71 bc e0 7e 9a bc 56 d2 c3 39 83 0f ff bc
       -0.014746492 -0.018859327 0.0003735001 -0.031135326
000260 1b ad f0 39 a5 a6 13 3d eb 63 02 3d e7 51 c7 bc
       0.0004590534 0.036047596 0.03183357 -0.024331046
000270 35 bd 4e 3c f1 e3 78 3c a2 d6 9f bc 42 65 3e 3d
       0.012618353 0.015191064 -0.019511525 0.046483286
000280 a9 d5 70 bd 58 d9 92 3c 1e 3a 5d bd 94 a1 88 3c
       -0.058797512 0.017925903 -0.054010503 0.016678609
000290 81 c4 92 be a8 12 bb bd 4f 26 b6 3d a8 92 ce bb
       -0.28665546 -0.09134418 0.088940255 -0.006304104
0002a0 3a 89 9b bc cd ad 05 bd 79 41 c2 bc 5f f9 38 3d
       -0.018986333 -0.032636452 -0.02371286 0.045159694
0002b0 2b 2b f5 bb d1 17 7c bd 1f 1b 0f 3d 5b 42 8e bc
       -0.0074819527 -0.06154615 0.034937974 -0.017365625
0002c0 a0 4d cc 3b 56 6e 6d ba 5c 8f 21 3e 44 ae 00 be
       0.0062348396 -0.0009057274 0.15777344 -0.12566477
0002d0 80 2e d4 bc 1b a4 4c 3c 2b 72 e0 bc 81 3b 27 bd
       -0.02590108 0.012490298 -0.02739819 -0.04082823
0002e0 c5 8d b4 3c 77 52 cf bb 76 38 00 bb a4 94 89 3c
       0.022040257 -0.0063269692 -0.0019564903 0.01679451
0002f0 5a 6a a9 3c be f8 1e bd 69 50 cc bb df 24 b9 bd
       0.020680595 -0.038811438 -0.0062351716 -0.09040236
000300 f8 e3 73 3d eb d7 ca 3c a4 1a 44 3d 8a 70 63 bd
       0.05954358 0.02476116 0.04787697 -0.055527247
000310 c8 80 19 3c 15 34 6b 3d 81 b8 d0 3c d6 1f b0 bc
       0.009369083 0.057422716 0.025478603 -0.021499556
000320 94 46 39 bd 18 be f6 bb e3 33 89 bd dc 62 c9 3d
       -0.045233324 -0.007529985 -0.0669935 0.09833309
000330 4d 0a 6e 3d 61 cc d5 3c 03 aa cb ba ea 7c 17 bd
       0.058115292 0.026098432 -0.0015538338 -0.03698436
000340 4c 60 31 3c 86 46 3a bd 42 1d a5 3c a7 85 45 3d
       0.010826182 -0.045477413 0.020155553 0.048223164
000350 b7 6c 44 bd be fb d6 bb ab 28 18 3d c9 02 1b 3d
       -0.04795524 -0.0065607717 0.03714816 0.037844453
000360 9f df fa 39 38 45 95 3c 8d c0 8f bd ca 13 43 bb
       0.00047850327 0.018221483 -0.07019148 -0.0029766434
000370 98 6b af 3c ec e3 02 bd 73 76 0d 3d a2 4e 35 bc
       0.02141361 -0.031955644 0.03453679 -0.011066111
000380 3a 1f 2e bd 2a 51 b7 3d 53 f9 01 3c 64 81 43 bd
       -0.04251025 0.08951028 0.007932979 -0.04773082
000390 e2 be ec bd 80 9d be 3a 44 8e af 3d a3 78 74 bd
       -0.115598455 0.0014542788 0.08572057 -0.05968536
0003a0 3a cc ce 3c fc 2e 05 3e d0 d2 a8 bc 5c d3 94 bd
       0.025243867 0.13006204 -0.020608336 -0.07266876
0003b0 92 cd 0c bd 19 65 67 3d c6 3f 15 3d b2 02 c3 3d
       -0.034375735 0.0564929 0.036437772 0.095219985
0003c0 55 85 be bc 76 a5 8e bd e2 0f 43 3d e3 71 fc bc
       -0.023256937 -0.06965153 0.04762257 -0.030816024
0003d0 ec 2a 59 3d 5c 9f 9c bc 71 01 8c bd 72 57 54 bc
       0.05301945 -0.019118957 -0.068362124 -0.012960302
0003e0 2d a2 ba bc 37 b8 03 3c 8d c8 03 3d 69 ee 92 bc
       -0.02278241 0.008039526 0.032173682 -0.017935948
0003f0 4a a2 3d 3c c3 d4 45 3c f6 41 4a bc ac 66 cf bd
       0.011574337 0.012074652 -0.012344828 -0.10127005

fcs1.bias f4 [256]
000000 8e 94 00 3d ea 2e 3e 3e f2 60 d9 bb 28 f7 40 3e
       0.031391673 0.18572584 -0.0066338712 0.18844283
000010 26 31 a6 bc 4a df 4d be fd d5 60 be 5a 7b 1f be
       -0.020287108 -0.2010471 -0.2195663 -0.15574399
000020 fc a7 20 3d ba 51 b2 3d 85 08 99 bd b8 b0 5c bc
       0.039222702 0.08706994 -0.07472328 -0.013469867
000030 05 63 bf 3d 0a fc 3d bd a4 3b 84 3d a4 c2 5b bc
       0.09345058 -0.04638294 0.06456688 -0.013413105
000040 e0 ec 05 be 68 3b 0b be 8f b1 d9 3d d2 e7 0f be
       -0.13078642 -0.1359688 0.1062957 -0.14053276
000050 5e e2 8e 3c c9 5d 3c 3b 03 b7 89 3d 01 a8 c0 3c
       0.017441925 0.0028742424 0.0672436 0.02351761
000060 b5 38 3f bd 67 4f 7a bd 04 85 78 3d 43 e2 84 bd
       -0.04668494 -0.06111088 0.06067373 -0.064884685
000070 58 bd 5a 3d e2 df 12 3d ab 95 9b 3d 8a 95 47 bd
       0.05340323 0.035858043 0.07596906 -0.048726596
000080 b6 cb 17 be d3 e3 ac bd 75 26 ae 3d e6 10 8e bd
       -0.14823803 -0.084418915 0.08503429 -0.06936817
000090 48 b5 2d 3e d3 01 d9 3d 7c 4f f2 bd cc 8a 41 3d
       0.16963685 0.10596051 -0.11831567 0.047251508
0000a0 98 91 c3 bd 46 9a fb bd eb 0f 7f 3d 46 45 13 be
       -0.09549254 -0.12285285 0.06227104 -0.14381894
0000b0 27 a4 45 bd ce 80 2e be 77 cd ae 3d f5 a0 b5 3d
       -0.04825225 -0.17041323 0.08535283 0.08868591
0000c0 9a 4b 00 3e d9 de ca bd 03 3e ee bd 89 fe a2 3c
       0.1252884 -0.09905786 -0.116329215 0.019896762
0000d0 0b 2b 16 be dc a5 97 bd 24 9f 33 be 18 2b df 3d
       -0.14664857 -0.07404682 -0.17541176 0.10896891
0000e0 4a 07 9d bd 57 74 7f bd df a5 4f 3d 8f ed 1d 3d
       -0.07667406 -0.06236681 0.050695296 0.03855663
0000f0 6e d1 03 be 14 ef d6 3d 54 a0 30 be 5a 28 5a bd
       -0.1287286 0.10494819 -0.1724866 -0.05326114
000100 c3 f3 12 be c1 7d ff bd 2e 53 60 3d ca 07 0a 3e
       -0.143508 -0.124751575 0.054766826 0.13479534
000110 93 a3 68 3d 3c 02 b3 bc ef 8b 92 3d de 76 00 3e
       0.05679662 -0.021851651 0.071555965 0.12545344
000120 e6 c9 34 bd 7a 99 04 be e5 ad 1f 3c 5e 97 94 3d
       -0.044137858 -0.12949172 0.0097460495 0.072554335
000130 8d 91 77 3d 20 d4 c6 bd ee 7f 43 3e 56 49 f5 bd
       0.060441542 -0.097084284 0.1909177 -0.11976878
000140 40 79 0e 3c 0e f3 ef 3d a8 16 8d bd ba 39 8b 3d
       0.0086959 0.11716281 -0.06889087 0.0679812
000150 a7 08 e7 3d 7a c6 a6 bd 56 cc 07 3e 7d 00 77 3d
       0.11280947 -0.08143325 0.13261542 0.0603032
000160 fe e1 d8 3d 16 92 fb 3d 5b b2 e3 3d 7a 83 2e 3d
       0.105899796 0.12283723 0.11118003 0.042605855
000170 f9 8e 04 3e b3 32 5c be ee 56 70 be 2c b1 20 3c
       0.12945165 -0.21503715 -0.23470661 0.009807866
000180 81 96 45 3e 93 bf d9 bd 40 7c 2d 3e 9e b1 85 bd
       0.19295694 -0.10632243 0.16941929 -0.065280184
000190 f7 4b 7a 3c d2 78 bf bd 8e a0 9f 3a c5 7b bb bd
       0.0152769005 -0.093492165 0.0012178586 -0.091544665
0001a0 a1 85 04 be 0e 67 55 3d 87 66 0a bd 2e 9d 3f 3d
       -0.129416 0.052100234 -0.033789184 0.046780758
0001b0 5b f3 63 3d 78 b2 b8 bd 54 7b c1 3d de 1b 45 3e
       0.055652004 -0.09018415 0.09447351 0.19248912
0001c0 48 55 c2 bd e0 b8 01 3e 63 93 90 3d 8b 24 1c be
       -0.09488922 0.1266818 0.07059362 -0.15248315
0001d0 55 44 a7 3c 69 49 39 be f8 dd 3c bc 1d a0 0f be
       0.020418325 -0.1809441 -0.011527531 -0.14025922
0001e0 ce b4 06 3e c7 78 16 3d 14 9d 10 3e 03 2a 41 bd
       0.13154909 0.036736276 0.1412242 -0.047159206
0001f0 7f 48 08 be 2a 7e d7 3d b5 cf a4 3c 3f 6a 56 3d
       -0.13308905 0.10522111 0.020118574 0.052347418
000200 5d 87 6a bb aa ad c8 3d 16 27 c0 bd 09 30 62 be
       -0.003578625 0.09798749 -0.09382455 -0.22088636
000210 a2 7f 32 3c 16 4f d2 3d ad 11 7d bc cc e6 a9 bc
       0.010894688 0.10268991 -0.015446109 -0.020739935
000220 1f 63 25 be 5f b6 6c 3d 19 88 66 be b7 b1 e2 bd
       -0.16151093 0.05779111 -0.22512855 -0.11069053
000230 0c da bb 3d f5 e2 47 be 1f 3d 04 be a6 eb 1a be
       0.091724485 -0.19520171 -0.12913941 -0.15128955
000240 df 8d f2 3d 02 0b 12 be e0 e3 03 bd d0 2c 90 ba
       0.11843466 -0.14262012 -0.03219974 -0.0010999683
000250 a4 bc 86 3d b0 ce 06 3e dc bf 2f 3d 8a 84 51 3c
       0.06578949 0.13164783 0.04290758 0.012787947
000260 5b 54 f6 bd 25 5e c9 3d ba 40 27 3e d1 a0 5e 3c
       -0.12027808 0.0983241 0.16333285 0.013588146
000270 e9 a5 d3 3d 86 8f a1 bd 6d 33 91 bc 43 af c3 bd
       0.10334379 -0.07888703 -0.017724717 -0.09554913
000280 e8 c9 a3 3d b6 7b a4 bd 21 1d a7 bd b2 57 43 be
       0.07997495 -0.080314085 -0.08159853 -0.19076422
000290 4b ad dc bc b4 c8 3c 3d 3b a2 00 3e 3b 2b aa 3b
       -0.026938101 0.046089843 0.12561886 0.0051931418
0002a0 a9 a6 be bc 4f 73 93 3d d5 3a 8e 3c be 79 28 3e
       -0.02327283 0.07199728 0.017362038 0.16452691
0002b0 2b 6d 42 3e 32 61 22 3e c4 5d 03 3d 8e 59 2a 3d
       0.18986957 0.1585739 0.032071844 0.041589312
0002c0 c1 02 1a 3e f4 6c 97 bc ed 50 2e 3e 92 03 eb bd
       0.15040113 -0.01848457 0.17023058 -0.1147529
0002d0 7e 68 23 bb 9e c1 2c 3d 8b a0 eb bd 42 9d 58 bd
       -0.0024934108 0.042176835 -0.115052305 -0.052884348
0002e0 56 c2 35 bc 34 3c af bc e8 18 6c bd 73 c6 42 bc
       -0.011093697 -0.021391012 -0.05764094 -0.011888134
0002f0 0c 40 7c 3a 0b 1d 5f 3e 9d 3e 89 bd 67 ce 03 3e
       0.0009622581 0.21788423 -0.06701396 0.12871705
000300 64 53 e4 bc a7 ce 23 3e 6e 54 38 3e da bb 2a bd
       -0.027871795 0.159968 0.18000957 -0.041683055
000310 8f 7f b0 bc 03 63 fa bd f8 e4 7d 3a dc ab 0d be
       -0.0215452 -0.12225916 0.0009685303 -0.1383509
000320 d7 d5 ce bd b3 0f 1f 3d 1a 23 0c 3d 99 98 b9 bd
       -0.100993805 0.03883333 0.034213163 -0.09062309
000330 4e 79 00 3e 68 9e 4c 3d 57 83 9c bd 41 fd ba 3d
       0.12546274 0.049955755 -0.076422386 0.091303356
000340 01 12 10 be 95 c1 5b bc a2 9b 54 3e d0 b7 a6 3d
       -0.14069368 -0.013412853 0.20762494 0.08140528
000350 a3 9c 72 3d 41 48 b1 3c 2f e9 10 bd cb e7 07 3e
       0.05923141 0.021640899 -0.03537863 0.13272016
000360 e9 b1 45 3c ff 68 15 3d c4 5e 0e 3d 3b 33 b8 bc
       0.012066343 0.036477085 0.034758344 -0.022485366
000370 72 c7 87 3d 8a ac f4 bd ec 2b 0a be 67 41 2b be
       0.06629838 -0.11946972 -0.13493317 -0.16724168
000380 a4 c0 38 3e bd 0d 92 bd 80 3c 23 be e1 08 1e 3d
       0.18042237 -0.071315266 -0.15941048 0.038582686
000390 ff dc 8c bd 9a 26 81 3d 35 f6 7d bd 08 d8 96 3d
       -0.06878089 0.06306191 -0.06200238 0.073654234
0003a0 31 60 37 be 33 11 47 be 75 12 b4 3d a9 c8 82 bd
       -0.17907788 -0.19440155 0.08792583 -0.06385929
0003b0 a6 8d 91 bc c4 db 12 3d a6 da 36 3c 16 a3 b3 bd
       -0.017767739 0.035854116 0.011160528 -0.087713405
0003c0 0e 9c 7f 3d 30 0d de bd 64 b6 0d 3e 0d 51 71 bd
       0.062404685 -0.10842359 0.13839108 -0.058915187
0003d0 dd db 72 3d b6 f8 21 3e 6f cc e0 3d 60 5a b8 3d
       0.05929171 0.15817532 0.109764926 0.09001613
0003e0 16 48 b3 3d ec 12 dd bd 2e 75 a0 3d 84 5c a8 bd
       0.08753984 -0.10794625 0.0783485 -0.08220771
0003f0 e9 39 0d 3e 63 64 8f bd 9f 6a aa 3d 1e 8c fe 3c
       0.13791622 -0.07001569 0.083211176 0.031072672

fc2.weight f4 [128, 260]
000000 4a 32 fa 3c f7 9e 50 3b df c3 c0 3d 8b 94 81 bb
       0.030541558 0.0031833032 0.094123594 -0.0039544753
000010 39 32 db 3d 06 d2 97 be cc a0 a9 bd d1 13 b4 3d
       0.107029386 -0.29652423 -0.08282623 0.08792842
000020 73 4e ac bc 09 68 a7 bd 00 8a 1b 3d 57 72 d7 3b
       -0.021033501 -0.0817414 0.037973404 0.0065749097
000030 f7 0b 6e bd 8e af 7c 3d 1f 28 16 bd dc 74 dd 3b
       -0.05811688 0.06169086 -0.036659356 0.0067583155
000040 34 f3 ba bb d2 01 8d bd fd a6 8b 3c b7 64 01 3e
       -0.0057052616 -0.06885113 0.0170474 0.12636076
000050 98 8d a0 3d 49 e7 35 bc 97 99 17 3d a3 33 3c be
       0.07839507 -0.011102506 0.03701171 -0.18379073
000060 a5 87 18 3d 6c af 08 bc c9 bf 8d 3d 97 ea 86 be
       0.037238736 -0.008342605 0.06921346 -0.26350853
000070 0b 19 85 3d 87 cb 31 bd fe 87 2e 3d 52 1d 24 3d
       0.06498917 -0.04340699 0.04261016 0.040067025
000080 80 a0 a2 3b a9 ac 9b 3c 96 bf 46 3c cb bc 96 bc
       0.0049629807 0.01900323 0.012130639 -0.01840057
000090 b1 d9 54 bc 1f 13 41 bd 9d b9 7b 3d 0b 97 4c bd
       -0.012991355 -0.047137376 0.06145631 -0.049948733
0000a0 ed 3c bc bd 67 67 71 bd 64 52 6e bb a3 02 5a bc
       -0.09191308 -0.058936503 -0.0036365027 -0.013306293
0000b0 0a fb df bb f9 22 7b 3d 65 07 0e 3d 1b 7f 34 bd
       -0.006835346 0.06131265 0.03467502 -0.04406653
0000c0 f1 bf 87 bd d4 08 c3 3a 40 11 62 3c f5 a7 93 3d
       -0.06628407 0.001487995 0.013798058 0.0720977
0000d0 c8 61 22 3d ff 6b a0 bd 27 fe a0 bb f4 b0 84 bd
       0.039644033 -0.078330986 -0.00491311 -0.06479064
0000e0 b3 3b 84 bd e0 40 89 3d 95 78 a2 bd 43 b9 0d 3d
       -0.06456699 0.06701827 -0.079331554 0.034600507
0000f0 44 6d 99 3b c9 f9 e5 3d 2f e9 5b 3d 08 77 64 3d
       0.004682215 0.11229283 0.053689178 0.05577758
000100 18 5b 41 3d 40 58 17 bd 10 5a 08 bd 27 ce 93 3d
       0.047206014 -0.036949396 -0.033289015 0.07217055
000110 16 49 b5 bd 8a 01 e5 bd 0d 31 ab bd 39 08 36 3d
       -0.08851831 -0.11181934 -0.08358965 0.044441435
000120 2a 69 55 bc 63 d8 91 3d 4c f4 8e bd 5a be 5c bd
       -0.013025561 0.071213506 -0.0698019 -0.05389247
000130 fc 60 e2 bc ab 07 44 3d 6b 1d 4c 3d ad f0 73 bd
       -0.027634136 0.047858875 0.049832743 -0.0595557
000140 7a ba 97 bd fd d1 71 bc e3 a5 04 bd 95 23 d1 bd
       -0.074086145 -0.014759538 -0.032384764 -0.10211865
000150 fc 80 97 bd 03 1f 7b 3d 50 d4 e8 3c 50 43 fa bc
       -0.07397649 0.061308872 0.028421551 -0.030549675
000160 a5 e8 41 bd 98 8d 12 be c3 0c de 3d 92 65 54 be
       -0.047341008 -0.14311826 0.10842278 -0.20741871
000170 ee 5f 3a bc 4b 75 66 be da af 51 3d 73 e2 75 bc
       -0.0113754105 -0.22505681 0.051193096 -0.015007603
000180 d0 ca a8 3c 52 92 a7 bd b1 f3 35 3d c7 d2 6a 3d
       0.020604521 -0.08182205 0.044421855 0.05732992
000190 71 90 bb bd 20 58 30 bd 81 98 dd bb 6a ab 95 3c
       -0.091584094 -0.043052793 -0.0067625646 0.018270213
0001a0 29 6b 89 bd 8a fb d1 3d 3c 5c cb 3d 8d 7f 2a 3d
       -0.06709892 0.102530554 0.09929702 0.04162555
0001b0 d5 3a af 3d 4d f1 56 3c c6 79 33 bd d7 a3 23 3d
       0.08556143 0.013119054 -0.043817304 0.03995117
0001c0 26 1d 92 3d 42 77 a6 3b 66 39 4b bd a5 c4 db bd
       0.07134466 0.0050801346 -0.049615286 -0.10730866
0001d0 d4 c0 7c bd 0d 3f c6 bd 51 ce 40 bc be cd bb bc
       -0.061707333 -0.09679995 -0.01176794 -0.022925254
0001e0 5e 7d 5a bc d3 8d c7 3a 0e 22 37 bd 23 ef 95 bd
       -0.013335554 0.0015224762 -0.04471021 -0.07321002
0001f0 04 7b 3d 3d 44 8f 8c bc be 3c d5 3d a5 68 55 3d
       0.046259895 -0.017158158 0.10411976 0.05210175
000200 b3 f4 86 3d bc 5b 86 3d 0e b9 48 bd cb e6 b7 3d
       0.065896414 0.06560466 -0.049004607 0.08979567
000210 9c 9e dd 3d f8 5b 9c bd dd 47 4b be b9 33 87 3d
       0.10821268 -0.07634729 -0.19851632 0.06601662
000220 5c ad 7a 3d 1d d0 29 3d 3d 29 da 3c 8c 4a e9 3c
       0.061200485 0.041458238 0.026630992 0.02847793
000230 92 ee 2c bd c5 06 19 be 04 5d 93 bc 1d 67 60 bd
       -0.042219706 -0.14943989 -0.01798869 -0.054785836
000240 ce 3e 85 3d cc af 91 bc 78 36 55 bc 21 62 18 3d
       0.0650612 -0.017784022 -0.013013475 0.037202958
000250 b9 75 0f be dc da ce bb 12 47 90 bd 78 da 36 3d
       -0.14009751 -0.006312711 -0.070448056 0.04464194
000260 67 9d 19 bd 9b 92 09 3e 5b bc ac 3c cb 59 78 3d
       -0.037503626 0.13434832 0.021085909 0.06063251
000270 09 bc 00 be 9f ae 07 bd 52 17 92 3d c4 f7 bd 3d
       -0.1257173 -0.033125516 0.07133354 0.09275773
000280 ab b5 62 bc 42 fe 17 3e 73 c7 f5 bc d3 db d0 bd
       -0.013837258 0.14843085 -0.030002331 -0.10198178
000290 d1 b1 66 3d e4 77 ef bd 70 4f 30 3d 6d 9a 8e 3d
       0.056321923 -0.11692789 0.043044508 0.06963048
0002a0 82 2c a1 3d bb 36 a4 bd ff 17 be 3d 5c 55 85 bd
       0.07869817 -0.080182515 0.09281921 -0.06510422
0002b0 1b 5d b0 bc 1d 9f b9 bc c6 98 43 3d 6f ac 37 bd
       -0.021528771 -0.022658879 0.047753118 -0.04484218
0002c0 9d a0 85 bc eb 76 b9 bc 87 e8 14 3c e2 fe 93 bd
       -0.016311938 -0.022639712 0.009088642 -0.072263494
0002d0 65 24 57 bd bf e0 29 3d 2d ea 51 bd 66 0d 98 3d
       -0.052524943 0.0414741 -0.051248718 0.074244305
0002e0 19 b8 63 bd c6 a5 f2 bd ef 5c d4 bd 97 da 87 3d
       -0.05559549 -0.11848025 -0.10369288 0.066334896
0002f0 8c 31 2d 3d 8e 6f 95 3d bd e0 cd 3b 62 72 84 bc
       0.04228358 0.07296668 0.0062828944 -0.016167823
000300 51 f7 8a bd af d3 0a 3e 74 1c 28 bb 64 55 00 bc
       -0.06785453 0.13557313 -0.0025651725 -0.007832859
000310 39 ab e0 3d 46 30 fb bd 12 ba 74 3d ef 02 16 3d
       0.10970158 -0.12265067 0.059747763 0.03662389
000320 bc aa 40 3b fb fb f9 3c 5c c7 92 bc aa 73 94 3d
       0.002939864 0.030515661 -0.017917328 0.07248624
000330 de f9 2c bd 4d 75 49 3d d9 a1 dc 3b 19 d0 33 3c
       -0.04223048 0.049184132 0.006733161 0.010974907
000340 35 65 9c bd b7 96 b3 3c c5 fb 3f bc c2 1c 9d 3a
       -0.07636491 0.021922452 -0.011717741 0.001198672
000350 bd fe b4 3d 8e c0 48 bd 3e 40 60 3d 51 ea 1b 3c
       0.0883765 -0.04901176 0.054748766 0.009516315
000360 77 ae c5 3c bd ce bd bd 26 55 c8 bd 35 a7 d9 bd
       0.024131043 -0.09267948 -0.09781866 -0.10627595
000370 cf 64 4d ba d5 26 c3 3d 1a 10 9c bd ef f2 6e bc
       -0.0007835151 0.09528891 -0.07620259 -0.014584287
000380 ae b6 88 3c 49 95 01 be e3 86 b2 3a 4d 87 ed 3b
       0.016688671 -0.12654604 0.0013620522 0.007248795
000390 ee 0b 62 bd 9f eb 96 3c 50 cd 81 3d db 38 35 3d
       -0.05518716 0.0184229 0.063379884 0.044243675
0003a0 29 d6 9e 3c 7a da ce 3b 13 d1 a9 bd 61 36 ad bd
       0.019389229 0.0063126655 -0.08291831 -0.084576376
0003b0 f2 d8 b0 3d e9 5c 11 bd 92 7a 42 be 40 71 2c 3d
       0.08635129 -0.035488997 -0.1899207 0.04210019
0003c0 6b 37 31 be b0 29 9e 3d 6d 4d 29 bd 3a 3d d0 bd
       -0.17306297 0.07722795 -0.041333605 -0.10167928
0003d0 dc 1d e5 ba b0 09 ff 3c ae ef 49 bd e5 a0 e9 3b
       -0.0017480212 0.031132549 -0.049300842 0.007129776
0003e0 c0 40 11 3d aa fe 7f 3d ea 73 38 bd 96 14 70 3d
       0.03546214 0.062498726 -0.04503242 0.058613382
0003f0 85 2e 8e 3c d0 66 1c bc 41 0f 43 bd c3 41 ad bc
       0.017356167 -0.009545997 -0.04762197 -0.021149522

fc2.bias f4 [128]
000000 e1 0a 1c 3c 68 55 be 3b 23 30 99 3d 07 1c 22 bd
       0.009524078 0.005808521 0.074798845 -0.03957751
000010 58 89 13 3d fa 5d c8 3d fa d1 30 bd 51 d0 a4 3a
       0.036019653 0.097835496 -0.043169 0.001257429
000020 d2 93 a2 3c c0 a7 19 3c 4f 93 80 3d a9 a9 89 3d
       0.019845877 0.009378374 0.06278097 0.06721813
000030 25 0f da 3d 9f e4 b4 bd 92 43 0b bd a6 b8 8e bd
       0.1064742 -0.088326685 -0.033999987 -0.06968813
000040 a8 26 86 3d 5a 61 98 bd bb 01 0a 3d 07 eb 90 3d
       0.06550342 -0.07440443 0.033693057 0.07076078
000050 76 65 14 3e b9 cb b1 3d 6b 8a 30 bd 60 1d 7f bd
       0.1449183 0.08681435 -0.043100756 -0.062283874
000060 85 a5 ba 3d d3 f5 6d bb 4f 0c c0 3d ba eb 21 bd
       0.091136016 -0.0036309853 0.09377348 -0.039531447
000070 71 f2 08 3e 4a 22 65 bd 3d ee ab 3d 8a a9 10 3d
       0.13373734 -0.055940904 0.0839505 0.035317935
000080 37 31 77 3d ec b2 71 bd c3 81 80 3d 57 10 b9 3b
       0.06034967 -0.059008524 0.0627475 0.0056477
000090 bc db 40 3c 6e b1 9f 3c 98 62 e6 3d c9 58 84 3b
       0.011771139 0.019493785 0.11249274 0.0040389043
0000a0 98 ac 84 3c 09 3a 53 3a f8 0f c2 3c 20 8a 2d 3d
       0.01619558 0.0008057659 0.023689255 0.042368054
0000b0 9a b0 5a bd c4 c1 0a 3e 29 3f 17 3d c4 98 df bc
       -0.053391077 0.13550478 0.03692547 -0.027294524
0000c0 e0 47 3d 3d 4e f2 1e bc e2 68 9d bd 86 e4 a4 bd
       0.046211123 -0.009701325 -0.076860204 -0.080514
0000d0 8e 1a 89 3d 78 f7 fb bc 77 34 18 bd 7c 3b a3 bd
       0.06694518 -0.03075765 -0.03715941 -0.0797033
0000e0 1f 9f b0 3d 82 90 93 bb 6a 08 12 bd fe 1b 01 bd
       0.086241 -0.0045033107 -0.035652556 -0.031520836
0000f0 7d 6b bb bd 79 ff 0d 3d c2 a1 a6 3d 2f 23 ea 3d
       -0.09151361 0.034667466 0.081363216 0.11432492
000100 05 c6 74 bc 54 02 12 bd da 20 29 3c f7 55 90 3d
       -0.01493979 -0.03564675 0.010322774 0.070476465
000110 74 a9 a7 bc 8f 77 ec 3d 27 cf f9 bb 6f 1f 2f bd
       -0.020466544 0.115462415 -0.0076235714 -0.042754587
000120 29 e1 75 3d cc 7b 0a 3d 94 7e 8d 3c 53 27 d5 3d
       0.060029183 0.03380947 0.017272271 0.10407891
000130 b2 59 b6 3d f1 a3 a8 bd f6 9b 06 bd 93 74 b4 bc
       0.08903827 -0.08234394 -0.03286358 -0.022028243
000140 a5 f0 2f 3d 2f 54 a8 3d 0f e5 58 bd 1d e7 f5 3c
       0.042954106 0.08219182 -0.052952822 0.03001743
000150 20 ba 49 3c b5 c8 03 3e 6a 68 93 bc 6f 4b 85 3d
       0.012312442 0.12869532 -0.017994124 0.065085284
000160 13 a1 02 3e ec 76 26 3e 34 70 19 3e 97 bb 81 3d
       0.12756757 0.16256303 0.14984208 0.06334608
000170 19 83 81 bc be b0 d4 3d c8 9b 20 3b f8 2a ac 3c
       -0.015809583 0.103852734 0.0024506915 0.021016583
000180 eb 1b a3 bd 3b 03 32 bd 3b 2e 07 3e 56 bd 57 bd
       -0.07964309 -0.043460112 0.1320123 -0.0526708
000190 df 1d 9d bd cc 3a 13 3d b1 b6 1e bd a9 fe b0 3d
       -0.07671713 0.035944745 -0.038748447 0.086423226
0001a0 4b fb aa 3b b8 35 8c 39 3c f3 a9 3c 8c 94 9b bd
       0.0052179447 0.00026742904 0.020745866 -0.075966924
0001b0 c3 33 ca 3c 83 f4 8d 3c 89 33 cb 3c bc ac 5d b9
       0.024682885 0.017328506 0.024804847 -0.00021140551
0001c0 e4 65 18 bc e9 35 7a bd 10 50 91 3d 3c 73 f8 bc
       -0.009301636 -0.06108657 0.07095349 -0.030328386
0001d0 ba 8b e6 3b 5d 91 27 3d ec 8f ae bc da fc 2e bd
       0.0070356997 0.040910114 -0.021308862 -0.042721607
0001e0 f7 07 9d bd a1 f8 1f bd 4a b4 65 3d 74 a0 0f 3d
       -0.07667535 -0.03905547 0.05608014 0.03506513
0001f0 fa 23 f1 bc 06 83 ba bd ee c2 47 bd 94 17 ca 3d
       -0.0294361 -0.09107022 -0.048769884 0.098677784

fc3.weight f4 [1, 128]
000000 ab 9d ac 3d 32 9f 3b be f4 96 2a 3e 0c b8 49 bd
       0.0842851 -0.18322447 0.16659147 -0.049247786
000010 fb d6 44 3d 1b b0 8d 3d 3a 93 b8 3d fe 7e b8 3d
       0.048056584 0.06918355 0.09012456 0.09008597
000020 03 b3 68 3d 6f 08 24 be 1c 47 3d 3d 3c 05 10 3e
       0.056811344 -0.16018842 0.046210393 0.14064497
000030 d1 87 a6 3d b2 7e bc bc fe 03 60 be 61 49 cf bd
       0.08131374 -0.023009632 -0.21876523 -0.10121418
000040 6c 54 9c 3d bd 15 d7 bd 29 a9 26 3d 91 4a 3c 3e
       0.0763329 -0.10502193 0.040688667 0.1838782
000050 e0 cf 7c 3d ce aa b6 3d 98 ec e1 bd 35 3e cc bd
       0.061721683 0.08919297 -0.11031455 -0.099728025
000060 3e a2 a2 3d d8 2b a6 bd 4a 72 df 3d 45 4b aa bd
       0.079411015 -0.08113831 0.10910471 -0.08315138
000070 13 a2 9d 3d 70 c9 76 be ad 3d 63 3d 59 bd 12 be
       0.07696929 -0.2410028 0.05547874 -0.14330043
000080 1e f0 4c 3d 64 b4 07 be c3 d4 84 3d 01 a2 1c 3e
       0.05003368 -0.13252407 0.064858936 0.15296175
000090 39 0a 91 bd 49 f1 f5 3d 83 19 61 3d d8 06 5e be
       -0.07082028 0.12008912 0.05495597 -0.21682298
0000a0 56 e2 59 3d 47 e5 73 be de f3 f3 3d 04 68 61 3d
       0.053194366 -0.23817931 0.11911748 0.055030838
0000b0 46 2c af bd cd e4 f8 3d be b3 12 3e 96 b1 9b bd
       -0.08553366 0.12153015 0.14326379 -0.07602231
0000c0 ba a8 e2 3d 87 f1 22 be 4e 14 46 be 3c d1 2a bd
       0.11067338 -0.15912448 -0.19343683 -0.041703448
0000d0 01 42 56 3d 4b 34 9b bd 44 8d c2 bd 6a 3e 97 bd
       0.05230904 -0.075783335 -0.094996005 -0.073849514
0000e0 58 12 bd 3d 2f 61 e6 bd 98 db 4f be aa a1 fc bd
       0.092320144 -0.11249005 -0.20298612 -0.123355225
0000f0 56 d4 4a bd 26 5f 9d 3d ef 82 64 3d b7 2d 43 3d
       -0.049518906 0.07684164 0.05578893 0.04765102
000100 bd 9e a8 bd ae d8 77 bd 8d fb 9b bd bd 74 81 3d
       -0.08233402 -0.060509376 -0.07616339 0.06321094
000110 13 35 1a be cb de 93 3d 4f d4 46 bd 31 75 59 be
       -0.15059309 0.07220229 -0.048542317 -0.21236111
000120 d0 95 00 3e ea 0c 62 3d d6 d6 5a 3d 6a c7 6f 3d
       0.12557149 0.055188097 0.05342754 0.058539785
000130 09 b1 0c 3d 35 76 4a bd fd 5f 78 3d 5b f6 17 3e
       0.03434852 -0.049429137 0.060638417 0.14840071
000140 5a 02 92 3d f4 2f 6d 3d 3b 28 f4 bd ef 21 53 3d
       0.07129355 0.05790706 -0.11921736 0.051546033
000150 42 12 86 3d 09 71 29 3d a1 cc 20 bd 21 26 a3 3d
       0.06546451 0.041367564 -0.03925765 0.07966257
000160 6c e3 86 3d 16 ac 62 3d 7a 0b 99 3d ea 54 64 3d
       0.06586346 0.055339895 0.07472892 0.055745043
000170 16 02 4a be 5c 82 bb 3d 1f ea 7c 3d 61 8b 4a 3d
       -0.19727358 0.091557235 0.061746713 0.04944933
000180 f9 3f 31 bd b5 84 79 bd 57 2e d9 3d 4f 10 07 be
       -0.0432739 -0.060917575 0.10604542 -0.13189815
000190 bc 3d 41 be d6 95 94 3d 8c bd 32 be c7 8b 54 3d
       -0.18871206 0.072551414 -0.17455119 0.051891115
0001a0 94 87 87 3d 92 60 92 bd d7 54 bb 3d 07 6d 5f bd
       0.06617656 -0.071473256 0.09147041 -0.054547336
0001b0 b6 08 99 3d d9 d1 8c bd 0e 31 1a 3d 48 d1 9c bd
       0.074723646 -0.06875963 0.03764444 -0.07657105
0001c0 44 f3 d0 bd f0 18 76 bd af 43 97 3d cd d0 a6 bd
       -0.10202649 -0.060082376 0.073859565 -0.08145294
0001d0 cc a9 01 be ed a4 fa 3d 55 16 92 3d 91 d4 54 3c
       -0.12662429 0.12238488 0.07133166 0.012990133
0001e0 a3 1a 11 be e1 f1 55 bd 8d 6c c0 3d 39 18 60 3d
       -0.14170317 -0.052232627 0.093957044 0.0547106
0001f0 2f 11 cd bd f5 67 00 be ad 0e 89 3d 3f 3c 94 3d
       -0.10013043 -0.12539656 0.06692252 0.072380535
