savedmodels/checkpoint_1545158393_actor_episode130_score34.930.pth (torch_old, 169478 bytes, 6 tensors)

fc1.weight f4 [256, 33]
00000000: fff9 a1bc 095f 39bd 9b1f babd 2a42 1c3d
00000010: 918f e0bc f80d fe3d 9214 d4bd efc6 08bd
00000020: 3a48 b8bc 1113 a0bd b947 12be bdb9 943b
00000030: c006 52bd 98c9 c63d 08e5 213e 2f54 223e
00000040: 95d2 093b da0b 723c 06b2 49bd 1f3d 6bbd
00000050: 3134 3abc bd05 963d ffbe 193e 53e2 88bd
00000060: 581e 563d 7e26 03bd 615a 7abd 6df2 483d
00000070: 5cfd f2bd 702a 013d 965a 82bc 7400 e93c
00000080: 93ac f2be 2a6c f1bd b5e1 f8bd fa92 3cbd
00000090: 5645 d73d d0b4 d83d d1dd 583d 15d7 883c
000000a0: 270b 133c 93a7 863d c664 9cbc af87 d1bd
000000b0: 9f4c 133e 6d7a dd3d b085 fc3b 56b6 c13d
000000c0: 66bc c7bd 387b 983d 7aca 0e3d 1e26 1abd
000000d0: b29d afbb bbe5 86bb 2cb1 06bd 8a4b b33b
000000e0: 455a 9bba 6151 e93b 08f9 063d 634d a7bd
000000f0: dcb8 aebc 02ee 403e ca5b 71bd 490f 073d
00000100: 1a4e 543d fa09 79be 094a 01be 5709 1abd
00000110: ee89 88bc 1546 d43d 44e6 8a3d 94e3 a9bd
00000120: 1fcb 4a3d e3d0 83bd b15b 0c3d edab 66bd
00000130: a35b 68bd 4dd0 293c 6a55 e33c 0401 8bbd
00000140: f82b 5b3d da41 233c 2d23 b43d f64d 153d
00000150: b756 79bc ce1d ea3c 5102 66bd a76d 623d
00000160: 8b3a bf3d 1d3b ffbd a5d9 653c 65be adbc
00000170: 32a4 16be af84 59bd e2d5 34bd 2841 063d
00000180: 505f 16bc 7ca1 12bd aeca 2cbe 2b23 ff3c
00000190: 4993 26bc 0b53 d73c bb4d 96bd b2f8 293d
000001a0: 4a9f 563d 52e8 c33d 1eb2 adbd 1a64 b7bd
000001b0: cf55 b9bc 04ff bcbc 36e1 bbbd b1d4 243d
000001c0: 80e4 fbbc 344b 2cbe 9f9c 0a3d 2e77 8b3d
000001d0: 1dd9 8b3d 3a71 1c3d 6b50 673c cd2d 5fbe
000001e0: 86ed 5b3d a6c3 1bbd 8825 c9bc 420c 52bd
000001f0: 47a0 6fbd 9290 313e 0d5b 233d e83b 24bd
00000200: 8c51 63bd 829b 28bc 38cd 34bd 62b1 2b3e
00000210: 21e7 0f3d 2e13 91bd 02ab 5c3d 1d10 c9bb
00000220: 7567 a23d ed09 b3bd a16b fb3d d03d 21bc
00000230: d2de 5cbd 326a 843d 5f48 a9bc 7010 babd
00000240: 99ac 93bc 36c3 1ebc 26d6 f13d 9604 06bd
00000250: 399e b03b 8387 aabb 60b3 1e3e 619c 273c
00000260: 0697 d8bc 32b6 123d f72e abbc f8ab e13c
00000270: 9183 b73d e229 13be 9cd8 003e b40c 41be
00000280: 9c47 5c3c b84f 373c e4f8 4c3e 28a8 743d
00000290: e49a edbe 7eee 333d e241 0d3e fca0 6cbe
000002a0: eef8 13bd 9461 d13d 8e05 6a3c f3aa debd
000002b0: 7e85 d63d 36c4 cfba fd35 fd3c 8888 ee3c
000002c0: f2df 1ebd 7715 d0bd ea45 51bc 7f0a fabd
000002d0: 020a 793d b493 f4bc 991d 38bd c9cd 79bd
000002e0: c187 2dbd a664 0fbe 9536 bbbd 2537 1abc
000002f0: e618 603c 4fdd 22bd c588 c43d 39d6 e2bd
00000300: a50f 563d b5f3 023e e88c bf3c 3aa3 7bbd
00000310: b44c 823c dff1 243e 0b6a 86bd 3173 1e3d
00000320: 3912 fe3b baf9 063d 2b25 983d 014f 7b3d
00000330: 8ff2 163e b00e c1bb 93e9 c33c d2a8 543d
00000340: a640 7d3d 9ce5 70bc 61c2 3abd 300f a5bd
00000350: 9373 d43d 3faf f3bd fb87 d93d 63b4 db3d
00000360: fe11 e63d ad25 be3c e632 e63d 6150 4cbd
00000370: c7c1 9ebd db71 803d 1e32 023d 700f 42be
00000380: 8ad0 903d f00c 9a3c 92b6 afbc 90ba 223d
00000390: 92a9 9abd 3880 463c ef59 66be 8d27 223c
000003a0: 1d6e b03d 571a eb3b 1ec9 293d 4377 18bc
000003b0: 6473 afbd 61e4 86bb c636 a53d 8826 acbd
000003c0: 599b 58bc f5f7 673d 7465 623b 9aec f5bb
000003d0: 3605 5d3e 830e 06bd c2c6 cfbd c107 c93c
000003e0: b75f f239 dc96 c23c ba7f 803d 3219 d5bc
000003f0: fe5e c0bd 61a5 44bd 71b7 203e 4966 913c
-0.019772528 -0.04525665 -0.090880595 0.038149036 -0.027412208 0.12405008 -0.10355486 -0.033392843
-0.022495378 -0.07816137 -0.14285173 0.0045387433 -0.05127597 0.0970642 0.15810025 0.15852426
0.0021030058 0.014773333 -0.049242042 -0.057431336 -0.011364982 0.07325313 0.15014265 -0.06683793
0.05227503 -0.03201913 -0.06112135 0.04905932 -0.11864731 0.031534612 -0.015912335 0.028442599
-0.4739729 -0.11788209 -0.12152425 -0.046038605 0.10511272 0.10581362 0.052945916 0.016704122
0.008974827 0.06574931 -0.019091021 -0.10230958 0.14384697 0.108143665 0.0077063665 0.09458606
-0.09752731 0.07445377 0.034861065 -0.037634008 -0.005359375 -0.0041167415 -0.032883808 0.0054716514
-0.0011852464 0.007120297 0.03295234 -0.08169057 -0.021328382 0.18840793 -0.058925427 0.03297356
0.051832296 -0.24320212 -0.12625898 -0.037606563 -0.016667333 0.103649296 0.06782201 -0.0829536
0.049510118 -0.06436326 0.03426713 -0.056316305 -0.056728017 0.010364604 0.02775069 -0.06787303
0.05350873 0.009964431 0.08795772 0.036451302 -0.015218428 0.028578665 -0.056154553 0.055280354
0.09337338 -0.12462447 0.014028941 -0.021208951 -0.14711073 -0.053105053 -0.044149287 0.03277698
-0.009177998 -0.035798535 -0.16874191 0.0311447 -0.010166951 0.026284715 -0.07339045 0.04149694
0.052398004 0.09565796 -0.08481239 -0.0895464 -0.022623925 -0.02307082 -0.09173815 0.0402419
-0.030748606 -0.16825563 0.03384077 0.06809841 0.068285204 0.03819392 0.014118294 -0.21794815
0.053693317 -0.03802838 -0.02455403 -0.05128122 -0.05850246 0.17340305 0.039881755 -0.040096194
-0.05549769 -0.010290982 -0.044141024 0.16766885 0.03513253 -0.07083736 0.053874023 -0.006135954
0.07929889 -0.087421276 0.12276388 -0.009841397 -0.053923436 0.06465568 -0.020664392 -0.090851665
-0.018026637 -0.009690097 0.11808424 -0.032719217 0.0053899554 -0.0052041425 0.15498114 0.010230155
-0.026439201 0.035818286 -0.020896418 0.027547821 0.08960641 -0.14371446 0.1258263 -0.18852502
0.013444807 0.01118844 0.20016819 0.05973068 -0.46407235 0.043928616 0.13794664 -0.23108286
-0.03612607 0.1022369 0.014283551 -0.1087245 0.1047468 -0.0015851322 0.030909533 0.029117838
-0.03878779 -0.10160344 -0.0127730165 -0.12209033 0.06080056 -0.029855587 -0.0449501 -0.060987268
-0.042365793 -0.14003238 -0.0914127 -0.009412562 0.013677811 -0.039761838 0.09596399 -0.11076016
0.052261014 0.1278828 0.023382619 -0.06143496 0.015905716 0.16107891 -0.06563195 0.038684074
0.007753637 0.032953 0.07428964 0.06135464 0.14740966 -0.0058916435 0.023915088 0.051918812
0.06182923 -0.014703181 -0.04559553 -0.080595374 0.103736065 -0.1189866 0.10621639 0.107277654
0.112339005 0.023211325 0.11240177 -0.049881343 -0.07751804 0.06271716 0.031786077 -0.18951201
0.07071026 0.018804997 -0.021449361 0.0397287 -0.07551874 0.012115531 -0.22495244 0.009897125
0.086147524 0.007174771 0.041451566 -0.009305778 -0.08566931 -0.0041165804 0.08067088 -0.08405787
-0.0132206315 0.056632955 0.0034545334 -0.0075050117 0.21584019 -0.032728683 -0.10145332 0.02453983
0.0004622915 0.023753576 0.06274362 -0.02601299 -0.09393118 -0.04800928 0.15694977 0.017748969

fc1.bias f4 [256]
00000000: 51cc 8f3d e590 543e 9548 03ba 1496 c93d
00000010: 1540 153e 2e24 64be 0f32 3abe 5f6b dbbd
00000020: 8536 653d 6d24 a43d 43f6 ecbd 39ea 6d3d
00000030: ed72 e339 01f1 2c3d 686e 2c3e 0f7f 4c3d
00000040: b460 01be e735 91bc 2fb6 3e3e 5595 84bd
00000050: 747b 9b3c bad1 053e 2fd2 56bd 6adc 0cbd
00000060: 99d0 e33d 2f49 94bd 1eec 033d 298a 623d
00000070: b0c4 1a3d 21fd 093e dd12 d73d 98ee fdbd
00000080: c98e 3bbe 20bd 233d d2c2 24bd 95c7 22bd
00000090: 4b88 3d3e 94b7 c73d 8db1 0fbd 96ff 363e
000000a0: 5096 f43b b8ad 86bd fad4 29bc eb31 8abd
000000b0: bcc6 01be b155 4fbd 2de9 313e 2b2a bd3d
000000c0: 048b 373e f5f3 e5bd 762a a3bd 09dc 383e
000000d0: 90b6 91bd bfd3 3bbd 28e6 febd 6bc3 203e
000000e0: 10f8 8abd 8760 b13d 907c 553d 15bb 5d3a
000000f0: ed31 c5bd 6f06 093e 341f 80bd 04b4 273b
00000100: 6876 fdbd 7e34 a63b 26b1 123e bb82 303e
00000110: 999e 0f3d 955d 81bc 3d68 fa3d f6d0 f03d
00000120: dc6b 41bd 6dbd 76bd 7b21 913d 78ee 343e
00000130: 8fdc d73c 8ec5 503d 7e2c 613e 55b2 d4bd
00000140: 5a86 5b3c 8c46 f83d edc3 163d 16a0 f1bb
00000150: 7aac 143e fa00 0fbe 6105 963d 7e89 3f3d
00000160: 2c33 3d3e 68b6 9b3d 067d 213e ea19 debc
00000170: 0a01 033d d737 70bd 24fe 48be d080 d33d
00000180: 9955 0d3e 6843 abbc d520 a43d d67c f03c
00000190: 74e7 b03d 215f 1ebe e891 c43d eb9c 72bd
000001a0: 89c2 0abe d322 5a3e ef74 04bd 0fce d13b
000001b0: 7b89 80bc f113 08be 59e8 3b3e 8e27 eb3d
000001c0: d8db 42bd ee7f bcbc ce65 033d 90b5 f6bc
000001d0: 744e 603d 8a21 11be fc7b 18bd 0a4c ffbc
000001e0: 8bc1 1b3e 325c d63b 5ba4 233e 67b2 84bd
000001f0: d170 18be 9ccd 0f3e 6880 e33d 8dcb 3d3d
00000200: 4c65 1538 0f59 353e 69ba 96bd 8456 32be
00000210: ee9a e83d d3c1 3b3e 3ead b43d 1f11 88bc
00000220: c463 14be 0a2f 193d 8313 56be c954 22be
00000230: 772e 323e 3399 09be 5724 13be 6101 1bbd
00000240: bf57 e73d 8043 e9bd 5f80 623d dbba 7bbb
00000250: 580d 803d 5d4b 1b3e eb68 ba3d 10cb cb3b
00000260: 7e74 5a3c feae 133e 12d1 1e3e 5455 2abd
00000270: b260 ae3d eb2b 053c 02aa af3d 71ea 5bbe
00000280: 19af 923b 4dff fcbd 03d6 a3bd 40c0 7cbe
00000290: 0666 7e3d 250d cabd d512 063d d853 1fbd
000002a0: 5775 5e3d 6a40 d23d 500e 82bd 268e fd3d
000002b0: bec3 8f3e 53ad f03d 4eaf ba3d 0b4f 193e
000002c0: 0959 543e 0f91 05bd 3e14 253e 0d9f c9bd
000002d0: 0ada 1eba f9ef 173e d805 45bd 5d97 4b3d
000002e0: 4c71 303d a93e 2e3e dc83 c0bc d634 01bd
000002f0: 0f6c 093e ddb5 803d e310 4cbd 72c9 f53d
00000300: dad5 f83d 1d3f 2c3e d7df 463e 2ec5 b13c
00000310: 7b5f a3bd bb09 883a 5f57 793d a496 a83a
00000320: d254 6ebc e77a b03d 2033 f73c 0ac3 01bd
00000330: 48da b1bc f5c8 1b3c 0a0b 113e 1905 5a3b
00000340: 4e19 8dbd e699 d6bc 3cf5 4a3e b5c9 ba3d
00000350: a8bb 193e f292 753d 9590 ad3c da96 273d
00000360: 214a c63d 734c 5d3d 2a1d 083e 1829 0d3e
00000370: 1b44 d03d 0b79 c2bd 5eb2 04bd 1cf4 73be
00000380: 3068 273e 1672 c2bd ea90 9ebd b734 05bd
00000390: 1f85 c73c e185 c03a 63db f2bd adee 803d
000003a0: 41b5 42be cb43 58be bca1 1a3e f2f9 a3bc
000003b0: f343 743d 9bcd 99bc 1184 8a3d 1ea3 d0bd
000003c0: f14e 14bd a3d8 18be f870 b63d 29a1 9d3c
000003d0: b768 f03d 59c3 d33d 59d1 5e3b 6be8 613d
000003e0: d54c 203e da02 96bd aa96 6f3e 7dc1 7dbd
000003f0: 7fa9 8c3d 6c12 44bd b7ae af3d fabd be3d
0.07021392 0.20758398 -0.0005008069 0.09843078 0.14575227 -0.22279426 -0.18183158 -0.10713839
0.055960197 0.0801476 -0.11570408 0.0580847 0.0004338244 0.042222027 0.16838992 0.04992586
-0.12634546 -0.017725898 0.18624185 -0.06473795 0.018979765 0.13068286 -0.05244654 -0.03438989
0.11123771 -0.07240521 0.0322076 0.05530754 0.037785232 0.13475467 0.10501645 -0.12399024
-0.18316187 0.039975286 -0.040224858 -0.039741118 0.18509023 0.097518116 -0.035081435 0.17870936
0.0074642077 -0.06576103 -0.010365719 -0.06747802 -0.12673467 -0.05061883 0.17374106 0.092365585
0.17924124 -0.11228172 -0.07967083 0.18052687 -0.07114899 -0.045856234 -0.124462426 0.15699546
-0.067855954 0.08660989 0.052120745 0.00084583584 -0.09628663 0.1338136 -0.062559515 0.0025589475
-0.123761 0.0050721755 0.1432539 0.1723737 0.03506336 -0.015791694 0.12226913 0.11758606
-0.047222003 -0.060239244 0.07086464 0.17669094 0.026350288 0.050969653 0.21989629 -0.10385577
0.013398731 0.12122831 0.036807943 -0.00737382 0.1451892 -0.13965216 0.07325245 0.046761982
0.18476552 0.076031506 0.15770349 -0.027111966 0.031983413 -0.058647003 -0.19628197 0.103273034
0.13802184 -0.020906165 0.08014075 0.029356401 0.08637896 -0.15465976 0.09598142 -0.05923168
-0.13550772 0.21302347 -0.03233808 0.006402738 -0.015690556 -0.13288857 0.18350352 0.11482154
-0.04757294 -0.02301022 0.03207951 -0.030115873 0.05476232 -0.1417295 -0.037227616 -0.031164188
0.1521055 0.0065417523 0.15980665 -0.0647934 -0.14886786 0.14043278 0.11108476 0.0463367
3.561871e-05 0.17709754 -0.07359774 -0.17415816 0.113576755 0.18335657 0.08822106 -0.016609726
-0.14491183 0.037398376 -0.2090588 -0.15852655 0.17400537 -0.13437347 -0.14369331 -0.037843112
0.11296033 -0.11389828 0.055298205 -0.0038410935 0.06252545 0.15165468 0.09102043 0.0062192753
0.013333438 0.14422223 0.15509441 -0.04158528 0.08514537 0.008128147 0.08577348 -0.21476151
0.0044764397 -0.12353382 -0.07999804 -0.24682713 0.062109016 -0.09865788 0.032732803 -0.03889832
0.054311123 0.10266192 -0.06350386 0.12380628 0.28079027 0.11751809 0.09115468 0.14971559
0.20737089 -0.03260904 0.16121003 -0.0984479 -0.0006059712 0.14837636 -0.048101276 0.0497049
0.0430768 0.1701609 -0.023500375 -0.03154453 0.13420127 0.06284688 -0.049820792 0.12001313
0.12150164 0.16820951 0.19421326 0.021700468 -0.07977196 0.0010378876 0.06087434 0.0012862277
-0.01454659 0.08617192 0.030175745 -0.031680144 -0.02171053 0.009508361 0.14164367 0.0033267199
-0.06889592 -0.026196431 0.19820112 0.09120504 0.15012991 0.05995459 0.021187106 0.040915348
0.09682108 0.054027986 0.13292375 0.13785207 0.1016924 -0.09495743 -0.032396667 -0.23823589
0.16348338 -0.094944164 -0.07742484 -0.032520976 0.02435547 0.0014688337 -0.11858251 0.06295524
-0.19014455 -0.21119611 0.1510076 -0.020016644 0.059635114 -0.018774798 0.06763471 -0.10187362
-0.036208097 -0.1492639 0.08908266 0.019241886 0.11738723 0.10339994 0.0033999293 0.05515329
0.15654309 -0.07324763 0.23397318 -0.061952103 0.06868266 -0.04786913 0.08578246 0.09313579

fc2.weight f4 [128, 256]
00000000: 64fa e9bd f613 ff3d 6d19 e3bc 8805 b6bb
00000010: a9ea 2ebe 46ff c7bd 0798 d33d 54b8 923b
00000020: 9a75 523d 1379 303e 4b96 053e f389 013e
00000030: f1d0 193e b9ba 003c b414 7fbe ba84 5e3c
00000040: b918 873d dee3 09bd 9dff 5dbd b9e1 123c
00000050: 9433 073e 9700 9c3d 051c 893d 33d0 5b3e
00000060: 08e6 59be ff93 ecbd 5c18 d3ba b9f0 66be
00000070: 0adc 76bd 0ad7 f93d 60b8 21bd 933a 693e
00000080: c458 ea3d 51dd 2c3d f189 2dbd f04a 8bbb
00000090: 7fc8 5f3d b588 eebd 1ea4 4bbb 6934 ae3d
000000a0: fbb1 3cbe b2e5 c5be cbe5 f63c 2ce5 0b3d
000000b0: 1147 a9bc 4205 ba3d db31 3f3c 3a1b 8e3d
000000c0: ccb1 3a3b 93d3 5f3d fb46 903d 7e72 9e3b
000000d0: df79 21be 4e7c acbd 8507 1b3d 730a 4f3e
000000e0: 8a7d bcbd c512 f1bd 882c 883d 9613 b0bc
000000f0: 4586 53bd b95c 123e c9d8 1a3d 6490 8b3d
00000100: 9df0 463e a4d0 f7bd 7ac2 ef3d ae4c b63d
00000110: 2bde 693d c405 10bd b43d b23d 65af 7e3d
00000120: d3c0 083d 7feb 623e 8a8f 5ebd d2d3 e13d
00000130: d6b0 a5bd 1515 c63d a8a4 a53d f499 ee3d
00000140: d574 47be 6387 7f3b d7b4 063e 2220 ce3d
00000150: d55c fabb efc7 c73c d0d0 45bc be41 323e
00000160: b18c 24bb fdb6 17be abe4 253d 000f 3f3d
00000170: 51e6 063d 1164 cf3b d1ca 04be 2205 a7bd
00000180: 41fa 523c a4b7 893d 60cc 6b3d 0b91 5a3d
00000190: 9372 f2bc 3ebd 973d 9b38 bb3b 3db2 543d
000001a0: 9003 df3d 1604 d23d 4d2a a73d b93d 203e
000001b0: a63b 1d3d 10db f03d 2d3a fc3c 35a2 f13d
000001c0: 75f8 f5bc 022b 003e 68dc 283d 3362 3a3c
000001d0: e837 033e c18c 423d ae41 b6bc c4db 073b
000001e0: 8402 573d a4ae d33d 5a6b c8bd fbd7 54bc
000001f0: 526b 8ebd 3447 053d 938e cf3c aae0 4e3e
00000200: 2120 c1bd 54f5 37bd 772d c7ba 3ba4 a63d
00000210: c791 543d 3e7f c0bd b94d d7bd 0097 243e
00000220: 1990 373e f023 8c3e ad4b 893d 89dd 053e
00000230: 80e9 71bc 1cbf be3d efd3 8e3d 5816 53ba
00000240: 7372 d23d 5faf 54be 4441 d0bd adf3 d8bd
00000250: 9f8c 22bd 0516 c73d 616d b6bd 51be afbc
00000260: d8c6 39be 3804 533e c1d6 ff3c d092 dd3a
00000270: d4e4 3cbd 71bc 323e 6175 c6bc 6f61 123e
00000280: a07f 05be b487 23bd a326 c3bc f82c 9c3e
00000290: 3407 adbd b409 603e 6be2 18bd 8409 463d
000002a0: 023d 8dbd 24fa 8cbd 0d14 1abe 1765 503d
000002b0: d72f b13d 2bca 17be 0c18 883d 1e69 723d
000002c0: 0678 053e 87e4 fa3d c38c 5a3e 4abf f13d
000002d0: d75b 4cbd 2ea1 9d3d f183 91bc b858 3abe
000002e0: 9548 8ebb 33f6 a6bc e625 cc3c 4ab3 6b3d
000002f0: cf1b 77bd 2ef4 86bc 88ca 1a3e 4dcc 2d3d
00000300: e05e 283e b55b dcbc 7085 8cbd 6ce6 9c3c
00000310: d6ae 6cbd dc0e d9bd 8a66 083e 7341 51be
00000320: 5ac4 95bd b2f2 203d 8f67 8f3d 726a 793d
00000330: e72a 693e 02e2 e53d 2913 23bd c126 49be
00000340: fcc8 04be 9f85 9dbc ee1f 94bd a7f5 493e
00000350: 80b1 8b3d c8da 15bd f066 88be c3b2 a83d
00000360: 4d62 bf3b a966 e73b 1e1b c83c 8cdc fabc
00000370: 4478 403d fe2b 0c3e 2ba8 0abe 04b4 c1ba
00000380: 11ef ab3d 21d0 1dbe a4d4 d9bc 19b6 143e
00000390: 91cf 113d 9254 c3bc 161d cf3d 1ca0 1f3e
000003a0: 7c42 de3d b39a 493e 3358 a4bd 0b30 193e
000003b0: 149d 813d 2fdb 733c 0002 dabd 224c a03d
000003c0: ceb0 3f3e 2dc2 d1bd 04e3 6c3a da0b a5bb
000003d0: c420 933b 51f6 edbd 99d3 bbbd dffb b7bd
000003e0: 461c 66bc 7fca 2fba 81fa b43c 32a4 343d
000003f0: 1fb0 963d 7b56 8f3d 91c1 403e 2f9a 0c3e
-0.11424711 0.12454979 -0.027722085 -0.0055548586 -0.17081703 -0.097654864 0.10331731 0.00447754
0.051381685 0.17233686 0.13045613 0.1265028 0.15021111 0.007857018 -0.24910241 0.013581449
0.06596512 -0.033664577 -0.05419885 0.008964949 0.13203269 0.076173 0.066947974 0.2146614
-0.21279156 -0.115516655 -0.0016105282 -0.22552766 -0.06026844 0.121992186 -0.039482474 0.2277625
0.11442712 0.04220325 -0.04236788 -0.0042508766 0.054634567 -0.116471685 -0.0031073163 0.0850609
-0.18427269 -0.38651806 0.03013887 0.034154102 -0.02066377 0.09083034 0.011669601 0.06938787
0.0028487323 0.054645132 0.070447885 0.004835426 -0.15769146 -0.08422147 0.037848968 0.2021883
-0.09203632 -0.11771158 0.06649119 -0.021493714 -0.05164172 0.14293183 0.0378044 0.0681465
0.19427724 -0.12100342 0.11707015 0.08901344 0.05709664 -0.03516175 0.08703175 0.062178988
0.033387017 0.22160147 -0.05433611 0.1102673 -0.080903694 0.0967199 0.08088046 0.11650458
-0.19478162 0.003899061 0.13154922 0.100647226 -0.007640461 0.024387328 -0.012073711 0.17407891
-0.0025108273 -0.14815898 0.040501278 0.046645164 0.03293449 0.0063290675 -0.12967993 -0.08155276
0.012877048 0.0672448 0.057567954 0.05336098 -0.029595649 0.07409142 0.005713535 0.051927794
0.10889351 0.102546856 0.08162365 0.15648545 0.038386963 0.11760533 0.03078946 0.11798517
-0.0300257 0.12516406 0.04122582 0.011375952 0.12814295 0.047497515 -0.022248115 0.0020730356
0.052492633 0.103360444 -0.09786101 -0.012990947 -0.069540635 0.032538608 0.02533654 0.2020289
-0.09429956 -0.044911698 -0.0015196045 0.08136793 0.051896837 -0.093992695 -0.10512871 0.16073227
0.17926063 0.27371168 0.06703887 0.1307279 -0.014765143 0.09313795 0.06974017 -0.00080523407
0.10275736 -0.20770024 -0.101686984 -0.105933525 -0.039684888 0.09720997 -0.08907581 -0.021453055
-0.18142259 0.20607078 0.031230332 0.0016904715 -0.046116665 0.17454697 -0.024225892 0.1429498
-0.13036966 -0.03992434 -0.023822134 0.30503058 -0.084486395 0.21878701 -0.037325304 0.04834892
-0.06896402 -0.06883648 -0.15046711 0.050877657 0.08651703 -0.14823215 0.066452116 0.05918228
0.13034067 0.122506194 0.21342759 0.118040636 -0.049892273 0.07696758 -0.01776311 -0.18197906
-0.0043421485 -0.020381069 0.024920415 0.05754403 -0.060329255 -0.016473856 0.15116322 0.042431165
0.16442442 -0.026899198 -0.06861389 0.019152842 -0.057783924 -0.10598537 0.13320366 -0.20435123
-0.07312842 0.039293952 0.07002174 0.06089253 0.22770272 0.11224748 -0.039813194 -0.1964369
-0.12967294 -0.019228755 -0.072326526 0.19722615 0.06820965 -0.0365856 -0.26641035 0.08237221
0.005840576 0.0070617986 0.024426993 -0.030622743 0.046989694 0.13688657 -0.13540713 -0.001477838
0.08395208 -0.15411426 -0.026590653 0.1452259 0.03559834 -0.023844037 0.101129696 0.1558842
0.10852525 0.1968792 -0.08024635 0.14959733 0.063287884 0.0148838 -0.10644913 0.07827021
0.1871979 -0.10242114 0.00090365135 -0.005036813 0.00448999 -0.11619247 -0.091712184 -0.089835875
-0.014044827 -0.00067058945 0.022092106 0.0441019 0.07357811 0.06998917 0.1882384 0.13730691

fc2.bias f4 [128]
00000000: 7bdf 233d 7724 d13c 76e0 6cbd e677 353d
00000010: c90e 3bbd 3cc4 3d3d e8f4 dfbc bffb a13c
00000020: ed00 e4bb 0647 95ba 5ce9 f23c cd62 adbd
00000030: dd11 b8bc ce18 693c 4181 2ebd ab87 5a3d
00000040: a5fa f23c 7c35 943d 4cdd 1cbd b957 b2bc
00000050: fa5a e8bc fc21 c5bc be6f 50bd b8de b6bb
00000060: 52a9 0cbd 1619 66bc aad9 4fbd c69c 273d
00000070: c4f9 9b3c 08b9 67bc 3157 ebba 9ca9 a7bc
00000080: a21c 85bd 7334 43bd c063 9dbd f03e 75bb
00000090: 4137 2fbd 1606 17bd 17a0 b1bc f7ad 86bc
000000a0: f077 2d3d e3e1 86bc aa34 263d 08b1 0abd
000000b0: 2dc0 46bc fa31 7d3d 6f47 d43c a7ab fcbb
000000c0: 3661 403d 28e1 af3d 7db3 be3b cf72 4fbd
000000d0: 1ac7 0f3c 0a46 f6bc f6f1 4fbc e87d ad3d
000000e0: c920 abbc 542b ff3b 3144 a03d a7cb 48bc
000000f0: 5f44 933c 6459 213d 7a76 ea3b 8eb7 993d
00000100: 4749 93bd 8f73 5a3c f761 03ba f1f4 a43b
00000110: 7dee 543c 453a 723d a917 8c3c 19c9 853d
00000120: 96ea 0c3d e077 823d 32c4 37bc 7964 3f3d
00000130: 7a8b 8abd 2561 063d 5044 433d 6345 013d
00000140: 7ecd bbbc 03b1 d73b ec43 8b3d 05ad 07bc
00000150: 637a 01bd a5ed 1abd d874 383b 0e2f 083d
00000160: 5c23 d63c 4ad6 0e3d 39e4 943d 039b 933c
00000170: a3c4 9dbc 7fb1 71bd 556a debc d33c 9fbb
00000180: 65dd 303c 1794 6f3d c41f 113c b538 243c
00000190: e45c 4fbd be9f 683c b153 7dbb 0914 ddbb
000001a0: 3e77 283d 2663 b63c 65ee 55bd 2f2c 9c3d
000001b0: 9318 703d 3641 1539 287a 81bc e703 3fbd
000001c0: 13ea 9b3d ee45 d3bc a127 9d3d b16f f93b
000001d0: d6d9 b53d 0721 883c c573 6a3c ab42 803c
000001e0: 2402 a2bd 06c0 e83c c3fa 6dbc 0d45 6a3d
000001f0: ba5c 47bd 7a8c aabd 3074 34bd ab43 41bd
0.04000805 0.025530083 -0.05783125 0.044303797 -0.045668397 0.04632972 -0.02733846 0.019773362
-0.006958118 -0.0011388964 0.02965229 -0.084661104 -0.022469455 0.014227105 -0.042603735 0.05335204
0.029660532 0.07236764 -0.038296983 -0.021770345 -0.028363694 -0.024064057 -0.050887816 -0.0055807494
-0.034341164 -0.014044067 -0.05074469 0.040920995 0.019039996 -0.014143236 -0.0017955062 -0.020466618
-0.06499602 -0.04765744 -0.076850414 -0.0037421547 -0.042777304 -0.03687104 -0.021682782 -0.016440375
0.04235071 -0.016465133 0.040577568 -0.033860236 -0.012130779 0.06181524 0.025912968 -0.0077108922
0.046967708 0.08587867 0.0058197365 -0.0506466 0.008775497 -0.030062694 -0.012691965 0.0847128
-0.020889657 0.0077871475 0.078255065 -0.012255586 0.017976938 0.03939189 0.007155237 0.075057134
-0.07191711 0.013333215 -0.00050118513 0.005034082 0.012996313 0.0591376 0.017101126 0.06532497
0.034403406 0.063705206 -0.01121621 0.046726678 -0.06764884 0.032807488 0.04767257 0.031560313
-0.022925135 0.0065823807 0.068000644 -0.008280997 -0.031610858 -0.03782429 0.0028145816 0.033248
0.026139908 0.03487233 0.072700925 0.018018251 -0.019258803 -0.059007164 -0.027150312 -0.0048595457
0.010794972 0.05849084 0.008857671 0.010023286 -0.050625697 0.014198242 -0.003865462 -0.006746773
0.041129343 0.022264075 -0.052229304 0.07625615 0.058617186 0.0001423404 -0.015805319 -0.04663458
0.076130055 -0.025790181 0.07673574 0.0076121916 0.088794395 0.016617311 0.014309828 0.01565679
-0.079105645 0.028411876 -0.014525118 0.05719476 -0.048672415 -0.08327575 -0.044056118 -0.047183674

fc3.weight f4 [4, 128]
00000000: 01dc 893e 3260 87be dd95 41be 6b33 b93d
00000010: f764 a6be 3e93 cbbd a858 253e 56c3 793e
00000020: 0038 413d 81fc ccbe 1e81 b63d 832e 883e
00000030: 2801 053e 7a4f 1b3f bceb 663c 2a45 f73e
00000040: 34e0 bcbc 81aa 713d 6101 873e 6eed aa3d
00000050: 20ad 773e ebd1 233e 72da b1bd 9423 9fbd
00000060: a325 7b3d 0254 f53b 81c5 74bd 38fd 733c
00000070: af73 3abe 460f 863e fa80 663d c1d0 8e3d
00000080: c78f dabc 13b8 cc3e 676a a03e 8499 82bd
00000090: 8c51 29be 8165 8dbe 479a 9dbd d3b3 e93d
000000a0: 0695 81be 9550 acbe 76bf 12be 89e0 3fbe
000000b0: d645 bf3e b320 29bd b845 1f3c 5034 9bbd
000000c0: 7700 f6bc 716a 02bf 9ad2 14be 2453 043f
000000d0: d2f4 86bc 56e6 87be bff6 70be 5266 c1be
000000e0: 5b24 063f a7d6 6ebe 6543 5a3c 910e ecbe
000000f0: ccc9 013e 114f 1bbe 7f42 b3bb 7f36 833e
00000100: 65a2 fa3e 4235 023e 3797 5cbe 9f7e eebd
00000110: d160 e43e 9a0e 283e a26f 57be 2b1f 81bd
00000120: b6b7 f7b9 b1e9 f63e 785e 393b 34dc da3d
00000130: ef0b bd3e 349c 01be e430 28bd 1ef0 81be
00000140: 04a8 3ebe 4f66 733e 495c ea3e ca09 8a3e
00000150: fd70 6ebd 4f29 a63a b5ce 1b3e 72ce 8d3e
00000160: 798e 08bf f64c 9cbd f44a 883d 93b6 a8bc
00000170: 8bf9 f2bd ccf8 5f3c d495 463e cf75 3ebe
00000180: 3a9a b63e 9920 943e e2d6 163f be01 af3e
00000190: 766a 543e 72f4 7ebe c6ef 2bbe 1cc4 5ebe
000001a0: b2ce f2bd 0734 11be e9ad 9c3d 8600 cd3d
000001b0: b675 7e3e 6056 813d 7830 15bd 3b5c 3e3e
000001c0: d625 813e 5898 a7bd 9730 87be 08d5 eb3d
000001d0: eae6 903e 850b fe3b 4556 083f 3d26 263e
000001e0: 5ba3 32be 44d9 ce3e 89d5 4ebe 0b2b a3be
000001f0: bf80 91be eb7d 18be 97cf 513d 1256 1ebe
00000200: 0c21 62bc 639f eabe 4d4a 0dbe 0cca e83d
00000210: de73 f13d c37a c63d 63ad d23d 7641 2cbe
00000220: 0a3c 493e 0c1a c3bd 4090 01be a708 ed3d
00000230: 48bf 99bd 0ea0 c33c b586 a43e cda7 b4bc
00000240: 81fd fabc a9af 09be 8d71 2f3f b183 c6bd
00000250: b836 81be de03 a4bd 1a27 20be c172 6e3d
00000260: 88c3 823e 81f1 04be e679 d63d 72f8 7e3e
00000270: a123 8abd aede afbe b61b 33be e2e2 05be
00000280: 7f21 033d a99c 083d fe9d 9fbd d178 2c3e
00000290: 66e4 223e dc84 8c3d af2c 0ebd 81fb 55bd
000002a0: 6e48 c9bc 7813 963d d0bf 68be 5ffa 70bb
000002b0: 5083 4fbe d07b fabd dc0e 21be 1302 c53d
000002c0: 4c04 f7be c352 dfbd cbb3 d43d cc10 8c3e
000002d0: d534 34bc 6969 9ebe 978e 103b 3d1c 33bf
000002e0: 2bfc 9cbe 6327 0a3d 827a 963e efba 5ebc
000002f0: dd96 d4bd 91ee d7bd 5b85 2cbe 6d30 eabc
00000300: 1154 183d f52c 5a3e 12df 22bd 9d4a 3abe
00000310: c0e7 92bd 48b3 99be 8d9b 0bbe 0413 313d
00000320: ed85 aabc 6617 b1bd c073 3abd 2c1c 3e3e
00000330: 2d06 0bbc fc7f e93d a0c0 d3be 3305 9f3e
00000340: c4cc a73e 2600 513d db0b dfbd 5f41 48be
00000350: a036 05bd 1d42 88be c4a5 2d3d 1581 c7bd
00000360: 88a0 303e f292 663d a773 03be bad1 ee3d
00000370: d4ee 2d3e 76d5 0cbf cd36 2b3e 18b4 acbd
00000380: b1bf 46bd cb97 e03c 1e53 bebd 1e64 3ebe
00000390: 0b8c 38be c189 b7bc e767 aebd b322 173e
000003a0: caae ec3d db67 45be 2085 923e effd 3d3c
000003b0: 6082 073e b861 bbbc 165d 54bd cf83 c83d
000003c0: 7675 a0bc 5073 49be bc71 983e efd4 5b3c
000003d0: be4d 0f3e daf0 babe 1c1f 293e 791c 653e
000003e0: e433 3cbe 0515 123e 882e 283b 84d5 043e
000003f0: 99ae a33d 9a65 673d 851d 16be 8df6 0a3e
0.26925662 -0.2644058 -0.18904825 0.0904301 -0.32498905 -0.099401936 0.16147101 0.24390921
0.047172546 -0.40036395 0.08911346 0.26597986 0.12988722 0.60668147 0.014094289 0.48294955
-0.023056127 0.059000496 0.2636824 0.08346067 0.24187136 0.15998046 -0.08684243 -0.07770458
0.06131519 0.007486821 -0.059758667 0.014891915 -0.18208192 0.26183528 0.056275345 0.069734104
-0.026679887 0.39984187 0.3133118 -0.06376937 -0.16535014 -0.27616504 -0.07695442 0.11411252
-0.25309008 -0.3365523 -0.14330849 -0.18737997 0.37357968 -0.04129095 0.009721212 -0.07578337
-0.030029519 -0.50943667 -0.14533463 0.5168936 -0.016474161 -0.2654292 -0.23531626 -0.37773377
0.52399224 -0.23324071 0.013321732 -0.46104863 0.12674636 -0.1516688 -0.0054705734 0.25627515
0.48952022 0.12715629 -0.21542059 -0.11645245 0.44605115 0.1641182 -0.21038678 -0.06304773
-0.00047248387 0.48225167 0.0028285068 0.10686532 0.36923167 -0.12657243 -0.04106225 -0.25378507
-0.1861878 0.23769496 0.45773533 0.26960593 -0.058213223 0.0012677106 0.15215571 0.27696568
-0.53342396 -0.07631867 0.06654921 -0.02059487 -0.11864003 0.013670158 0.19393092 -0.18599628
0.3566454 0.2893112 0.58921635 0.34181017 0.20743737 -0.24897936 -0.16790685 -0.21754497
-0.1185583 -0.14180003 0.07650358 0.100098655 0.2484959 0.06315303 -0.036423177 0.1858987
0.2522418 -0.08183354 -0.2640426 0.11515242 0.28301173 0.007752838 0.53256637 0.16225524
-0.17445128 0.40400136 -0.20198645 -0.31868777 -0.28418538 -0.14891784 0.051223364 -0.1546252
-0.013801824 -0.45824727 -0.13797875 0.113666624 0.11789678 0.09691384 0.10286977 -0.16821846
0.1965181 -0.095264524 -0.12652683 0.11573916 -0.07507187 0.023880031 0.32134023 -0.02205267
-0.030638458 -0.13445915 0.6853264 -0.09693087 -0.2523706 -0.0800855 -0.15639916 0.058214907
0.25539804 -0.12982751 0.10472469 0.24899462 -0.06745077 -0.3434958 -0.1749104 -0.1307483
0.032014366 0.033352528 -0.077938065 0.16842963 0.1590744 0.068612784 -0.034710582 -0.052241806
-0.02457067 0.07327932 -0.2272942 -0.0036770327 -0.20264935 -0.122306466 -0.15728325 0.09619536
-0.48245466 -0.109044574 0.10385855 0.27356565 -0.010998924 -0.30939797 0.0022057646 -0.69964963
-0.3066114 0.03372897 0.2939034 -0.013594373 -0.103803374 -0.1054355 -0.16847746 -0.028587544
0.037189547 0.21306212 -0.039763518 -0.18192525 -0.07173109 -0.30019593 -0.13633557 0.043231025
-0.020815814 -0.08647041 -0.045520544 0.18565434 -0.008485359 0.11401364 -0.413579 0.31058654
0.3277341 0.051025532 -0.10890933 -0.19556187 -0.032522798 -0.2661294 0.042394415 -0.09741417
0.17248738 0.05629248 -0.12837087 0.11661096 0.16985637 -0.55013216 0.16720124 -0.08432788
-0.048522655 0.02741613 -0.09293197 -0.18592879 -0.18022172 -0.022404553 -0.085159115 0.1475933
0.11556776 -0.19277899 0.2861719 0.011596187 0.13233328 -0.022873744 -0.051846586 0.097907655
-0.01958726 -0.19672894 0.29774272 0.013417467 0.139945 -0.3651188 0.16515774 0.22374143
-0.1837917 0.14265831 0.00256625 0.12972075 0.07992286 0.05649338 -0.14659698 0.13570614

fc3.bias f4 [4]
00000000: 0b18 033d e3a0 9dbd 9792 813d 2f18 6fbc
0.03200535 -0.07696702 0.06326788 -0.014593168
